data/acasxu/nets/ACASXU_run2a_3_9_batch_2000.onnx (onnx, 53878 bytes, 14 tensors)

W0 f4 [50, 5]
000000 38 67 24 3e b5 fd f7 bf b6 db 0a 40 20 41 11 3e
       0.16055 -1.93743 2.16966 0.14185
000010 7e 74 ea 3e be da d1 3d 6f 2f bd 3f bf 60 e3 bf
       0.45792 0.102468 1.47801 -1.77639
000020 4e 63 0b 3e ba 10 27 bf 95 63 b2 3c e3 e3 4f 3f
       0.136121 -0.652599 0.021776 0.812071
000030 5c c9 ce 3d 17 f5 19 3f f1 84 26 bf a5 c6 1b bc
       0.10097 0.601396 -0.650466 -0.00950781
000040 45 d5 03 3f 18 cf d0 3f 1c 7e 17 be e2 59 42 3e
       0.514973 1.63132 -0.147942 0.189796
000050 7a 5d 14 3c d5 cf 7b bf c8 7b 8d 3f 5c 54 c0 bd
       0.00905549 -0.98364 1.10534 -0.0939109
000060 5e 65 3d 3e a6 f1 ab be 25 40 1d c0 02 0e 21 40
       0.184957 -0.335828 -2.45704 2.51648
000070 98 6a 66 bc d7 86 4a bf 59 c5 56 bd 76 a6 e0 3f
       -0.0140635 -0.79112 -0.0524343 1.75508
000080 c1 6e 08 c0 c3 71 8f bd c2 35 0f 3f 50 8b 21 3e
       -2.13176 -0.0700412 0.559414 0.157758
000090 41 0e ce bf 04 ff a7 3f eb 74 e0 3d fd 30 72 be
       -1.60981 1.31247 0.109598 -0.236515
0000a0 59 c3 22 3c 33 b1 2f bc 62 27 61 bc 24 fc 41 3c
       0.00993427 -0.0107234 -0.0137423 0.0118399
0000b0 ad b8 5d ba 12 ee 9d 3b 87 c1 bc 3c b4 63 7a bb
       -0.0008458 0.00481964 0.0230415 -0.00382064
0000c0 8a 07 ab 38 7c 88 1d 3c ac 87 74 bd 78 0c 7f 3e
       8.15532e-05 0.00961506 -0.0596997 0.249071
0000d0 ea 22 dd 3e bd 8c e2 be 31 be be bd 23 3a 3a 3d
       0.431907 -0.44248 -0.0931362 0.0454656
0000e0 81 b0 93 bd 03 96 5c 3e f0 80 a7 bd 8a ab ee bf
       -0.072114 0.215416 -0.0817889 -1.86461
0000f0 7d 25 3c 3f e1 f1 0a bc cf 7b 2d bc df 4e 12 3e
       0.734947 -0.00848052 -0.0105886 0.142879
000100 28 ae a4 3d f4 89 0e 40 e3 36 1a bd c9 a7 2c 3d
       0.0804103 2.22717 -0.03765 0.0421522
000110 fc c4 c1 3c 23 90 21 3d d8 ef c9 3c a8 8d 16 3f
       0.0236535 0.0394441 0.0246505 0.588099
000120 9c 6a 59 3f 57 26 dc 3e 19 bc 39 bd 17 28 4e bd
       0.849283 0.42998 -0.0453454 -0.0503312
000130 93 3a 95 3f 01 13 b4 bf e4 59 a8 bd 13 f3 84 3e
       1.16585 -1.40683 -0.0822027 0.259667
000140 fb 90 b7 bc 0b 24 98 be e0 66 71 bf 8a 60 a7 3d
       -0.022408 -0.29715 -0.942976 0.0817271
000150 70 57 94 3d 73 72 f5 bc 2b 6e cc 3e be 4e 8a be
       0.0724324 -0.0299618 0.399278 -0.270132
000160 5a 7b 84 bc f9 f7 8d bf c7 7c 23 3b 88 be 7b be
       -0.0161721 -1.10913 0.00249462 -0.245844
000170 a6 7e 86 3f 02 80 63 bd ee 05 2a bf a8 9b b8 3b
       1.05074 -0.055542 -0.664153 0.00563379
000180 b6 84 b8 bf e0 d6 f9 3f ed 82 31 be 4b 1d 24 3f
       -1.44155 1.95187 -0.173351 0.641072
000190 52 ae 7a bd 09 32 0e bf f8 19 ab bf 54 53 02 3f
       -0.0612014 -0.555451 -1.33673 0.509084
0001a0 45 0e a9 be 8e 62 14 3d 3b df b7 3f 55 f6 e5 bf
       -0.330187 0.0362268 1.4365 -1.79658
0001b0 8b a4 8d 3e 3f 56 1c bf 0e 4c 1e be 05 bf 4d 3f
       0.276646 -0.610691 -0.154587 0.803696
0001c0 86 e4 78 3f 92 5e 3c 3f 49 2b 4a bf b0 92 6f 3d
       0.972237 0.735818 -0.789723 0.0584895
0001d0 9e 79 99 be 06 b9 f3 3e 6d 90 89 3f db f9 8e bf
       -0.299756 0.476021 1.07472 -1.117
0001e0 73 b8 be 3e 55 c2 5f 3f 6e 34 74 bf a1 c8 09 3c
       0.372501 0.874059 -0.953925 0.00840965
0001f0 7a fc 2e 3e 52 7e 72 3d b1 36 fe 3e 74 61 24 bc
       0.170885 0.0592025 0.496511 -0.010033
000200 7a a8 3d 3e b0 70 c2 3e b0 cd 41 bd 1b 81 8c bf
       0.185213 0.379766 -0.0473153 -1.09769
000210 8d d5 de be cf a2 07 3f aa f3 68 be 9c b0 93 3d
       -0.435223 0.529828 -0.227492 0.0721142
000220 3f 35 02 40 8d 61 96 3e 96 e7 01 3e 49 f7 13 be
       2.0345 0.293713 0.12686 -0.144498
000230 f1 4b 9a 3b 1d 3d 9e bf 05 86 cc 3f 4d 87 0e be
       0.00470876 -1.23624 1.59784 -0.139188
000240 b6 be c8 3e 22 a6 e4 3d 90 11 e8 be 58 1c 92 3f
       0.39208 0.111645 -0.453259 1.14149
000250 34 9f eb 3e 6e df 07 bf d1 2d aa bd de 3c ed 3f
       0.460199 -0.530753 -0.0830952 1.85342
000260 2e b2 b8 bc dc c8 ab 3c 51 bb 2f bf 8e fc 8b bc
       -0.0225459 0.0209698 -0.686452 -0.0170882
000270 45 fe 91 3b e5 4b 03 bd 04 e5 a6 3e b5 80 ca 3d
       0.00445536 -0.0320548 0.325966 0.0988783
000280 19 3b 01 be bc 05 22 bf 69 12 86 bc 62 86 fe be
       -0.126202 -0.6329 -0.0163662 -0.497119
000290 13 f2 1d 3f 6f f6 c2 3d 1b 81 a0 bf a5 66 b7 bf
       0.616975 0.0951966 -1.25394 -1.43282
0002a0 37 8d 2d 3e 65 1b 90 3e b3 84 d0 bc bf d4 6b bf
       0.169484 0.281459 -0.0254539 -0.921215
0002b0 38 69 12 bf 00 57 ca 3e 67 2a 9c be ec d1 65 bd
       -0.571918 0.395195 -0.305011 -0.0561084
0002c0 bd 54 18 bf a2 0e 3b bf b4 c8 b6 be 30 c3 5a 3d
       -0.595043 -0.730692 -0.357 0.0534088
0002d0 82 a1 96 3b c5 57 4b 3f 09 a7 85 3e 73 49 f5 bd
       0.00459689 0.794308 0.26104 -0.119769
0002e0 a7 90 70 3d 91 42 39 3e 41 d3 52 be 9d b8 04 3f
       0.0587317 0.180918 -0.205884 0.518442
0002f0 62 69 24 bf 50 e4 39 3f e7 87 f6 bc 63 ef 29 bf
       -0.642233 0.72614 -0.0300941 -0.663809
000300 4d a1 f3 bd 4b e4 8a be 11 f0 5a 3c d2 63 a5 3c
       -0.11896 -0.271273 0.0133629 0.0201892
000310 99 64 10 bf 04 59 17 3f 2c 2b dd be 7c 0f ef 3e
       -0.564035 0.591202 -0.43197 0.466915
000320 d2 c6 8d bf db 6a d6 bd 49 75 80 bd 1a b6 77 3d
       -1.10763 -0.104696 -0.0627237 0.0604764
000330 ce 3c 34 bd df 1b 83 bd e6 da 26 bd 8e 76 7d 3b
       -0.0440033 -0.064018 -0.0407361 0.00386754
000340 23 4d 34 bf 9a 07 34 3f fb 3f 1f c0 ba da 5a be
       -0.704302 0.703241 -2.48828 -0.213725
000350 70 5f 17 3e 1f 35 81 3c 43 c0 86 bc 9d 50 a3 3c
       0.147825 0.0157724 -0.0164491 0.0199359
000360 27 27 62 3a 86 06 bd 3a c7 99 8b bc 4b 8c 48 3b
       0.000862705 0.00144215 -0.0170411 0.00306012
000370 d1 48 aa 3d 8d ee ac bf 58 f4 98 bd 5b 22 c7 3d
       0.0831467 -1.35103 -0.0746848 0.0972335
000380 6a c2 11 bd 5c 3c 34 bf 7b 4c 24 3e 22 1b 5c 3f
       -0.0355858 -0.704046 0.160448 0.859789
000390 74 09 87 3e 47 cc 1c 3e ea b4 2e be 13 0f 14 40
       0.263744 0.153123 -0.170612 2.31342
0003a0 2c 2b 37 c0 86 70 1c be b8 20 67 3f 9d 2f ba 38
       -2.86201 -0.152773 0.902843 8.87804e-05
0003b0 15 91 fd bf 34 4b 06 40 6f f5 78 3f 32 3a 5c bf
       -1.98099 2.09834 0.972495 -0.860263
0003c0 33 89 fa 3d f9 14 8c bf 69 97 a5 bc 54 ab 3b 3f
       0.122332 -1.09439 -0.0202138 0.733083
0003d0 19 55 5a bf 0c 3f 18 3e 34 d7 b9 bf c5 53 e7 3e
       -0.852861 0.148678 -1.45188 0.451811
0003e0 ec 32 a4 3e 53 25 e2 be
       0.320701 -0.441691

B0 f4 [50]
000000 e0 dc fa 3c fb 02 7a 3e 65 15 5b 3c e5 8b ec 3c
       0.0306229 0.244152 0.0133718 0.0288753
000010 a1 2f 09 bf ff 20 d2 bd 5b 09 25 bf 14 3f e6 be
       -0.535883 -0.102602 -0.644674 -0.4497
000020 ce e5 e1 bc 19 76 b3 bc 8a 9f 35 bc ad 15 41 bf
       -0.0275754 -0.0219069 -0.0110854 -0.754237
000030 f3 20 6d 3e 16 f8 26 3f 47 8b b7 ba 46 42 0b bf
       0.231571 0.652223 -0.00140033 -0.54398
000040 80 10 29 bd 8b 89 fd be 61 50 96 be 02 d6 06 bf
       -0.0412755 -0.49519 -0.293582 -0.526703
000050 9e ea b5 bc 35 63 c1 be a4 1e 7d 3d 05 35 6c 3e
       -0.0222066 -0.37771 0.0617968 0.230671
000060 60 ad ca be 1f b8 ef 3c 14 24 36 3e ce 94 cc bd
       -0.395854 0.0292626 0.177872 -0.0998932
000070 b6 be 18 bf 8e 58 6b 3e 5a 2d 50 be 77 66 e2 3d
       -0.59666 0.22983 -0.203298 0.110547
000080 25 e6 d9 3d 63 f1 1b be b2 6f dd bc 43 53 f6 3d
       0.106396 -0.152288 -0.0270308 0.120276
000090 31 bb 22 3d c2 a6 ce 3d a3 fd f4 3c 5c c8 03 3e
       0.0397293 0.100904 0.0299061 0.128694
0000a0 f1 73 bd bd 92 04 c0 3a 47 cc 10 bf 3d 65 d0 bc
       -0.0925063 0.00146498 -0.565617 -0.0254389
0000b0 e0 6b a3 bc 35 ef d8 bd 66 dd c7 be c7 d6 83 be
       -0.0199489 -0.105925 -0.390361 -0.257498
0000c0 65 fe 01 be 03 b4 6d be
       -0.126947 -0.232132

W1 f4 [50, 50]
000000 0f 45 81 bf f7 e5 78 bf de 93 b7 bd 34 85 b6 3f
       -1.00992 -0.972259 -0.0896375 1.42594
000010 5d e1 91 3f 3a 3d 7f bf 05 a6 07 bf 93 a9 04 40
       1.13969 -0.997028 -0.529877 2.07285
000020 a5 af 31 bd 6e ad 65 bc 89 7e 85 3e b4 c8 9a bf
       -0.0433804 -0.0140184 0.260731 -1.20925
000030 f2 e1 23 3c f2 78 1a 3f 6b 0e b8 3f 62 f8 d0 3e
       0.0100026 0.603408 1.43794 0.408145
000040 d1 23 5e 3f 32 e6 8a 3f 5d dd 59 3f 36 ce ee be
       0.867734 1.08515 0.851034 -0.466417
000050 fa 8c 95 bc 97 56 43 3c 55 05 d9 3c 0a 2d 4f bf
       -0.0182557 0.0119225 0.0264918 -0.809281
000060 bf 0e bc 3e ae 4a d2 be 5d 87 2a 3f 23 a3 fb 3e
       0.3673 -0.410726 0.666128 0.491479
000070 99 64 44 be e1 b6 66 be 52 9b d8 bd 75 ab 37 3f
       -0.19179 -0.225307 -0.105765 0.71746
000080 73 9c 9b 3e 0d 38 03 3f 5d fb 8a 3e dc 46 af 3f
       0.303928 0.512574 0.271449 1.36935
000090 db a7 47 3f a5 bb 9b 3e a2 9a 3e 3f ad 18 1e 3e
       0.779905 0.304166 0.744547 0.154391
0000a0 16 7b f9 bc 6b d8 37 3f bc 3f 02 40 2f e6 22 3d
       -0.0304542 0.718146 2.03514 0.0397703
0000b0 e3 c2 1f 40 c3 d5 41 3e 6f 12 8b bf 6a c2 b6 3d
       2.49627 0.189292 -1.0865 0.089238
0000c0 fd 6b 81 3e c6 6e 03 3f 59 7d bf 3c 86 45 fb 3c
       0.252777 0.513409 0.0233752 0.0306728
0000d0 88 af 61 3b 8b 79 cc bc bc b5 27 3d c0 81 e4 3c
       0.00344369 -0.0249603 0.0409448 0.0278939
0000e0 7b 5c 45 bd a4 00 b0 bb 12 31 25 bc 80 4d f1 3c
       -0.0481839 -0.00537117 -0.0100825 0.0294559
0000f0 c0 2b 9d bc b6 97 59 3b 16 65 1d 3c 5d e2 e3 bc
       -0.0191859 0.0033202 0.00960662 -0.0278179
000100 a7 69 a1 3c 57 72 5b 3b 06 49 29 b9 21 60 88 bc
       0.0197037 0.00334849 -0.000161443 -0.0166474
000110 dc b8 c5 bc 1a b6 f7 bc 77 22 52 39 23 ff 07 3d
       -0.024136 -0.0302382 0.0002004 0.0332023
000120 b0 7b 61 bd 29 a5 2c 3a af 9c 18 3d 35 81 7d 3c
       -0.0550496 0.000658589 0.0372588 0.0154727
000130 04 59 aa 3c c6 af 8e 3c 6b c0 1c bb 67 a3 89 bd
       0.0207944 0.0174178 -0.00239184 -0.0672062
000140 1b 27 0a bd e6 df 78 3c 2b 47 cc 3b 63 de 39 bd
       -0.0337287 0.0151901 0.00623407 -0.0453781
000150 ad f2 a9 bc 1e c3 a3 bc f0 29 8a bc 3c 0e 08 3d
       -0.0207456 -0.0199905 -0.0168657 0.0332167
000160 2c 5f 3c bc 0a 18 b8 bc b6 34 92 bc ad c7 98 bc
       -0.0114973 -0.0224724 -0.0178474 -0.0186499
000170 b8 fe 02 bd 7a 5d 75 3c 85 7d 96 3a 73 2e 85 bc
       -0.0319812 0.0149759 0.00114815 -0.0162575
000180 c5 0a 0d bd 18 9e 93 bb bb 47 16 bd 3a f7 68 3c
       -0.0344341 -0.00450493 -0.0366895 0.0142191
000190 70 e9 2c bf 16 c2 92 be a0 54 07 bf 35 7d 56 3e
       -0.675437 -0.286637 -0.528635 0.209462
0001a0 6e 6e 7c c0 49 d7 8c bf 69 02 ed 3e a8 18 bf bf
       -3.94424 -1.10032 0.462909 -1.49294
0001b0 df 63 fa bc b1 98 02 3d eb 56 a3 3f 44 8a 11 3f
       -0.0305652 0.0318839 1.27609 0.568516
0001c0 b7 5d a0 be 21 20 3f 3e e5 7e 9f 3f d1 cb 0a 40
       -0.313215 0.186646 1.24606 2.16869
0001d0 b3 41 ba 3f 99 f4 9f be 2d 35 0c bd 9d 2e 67 bf
       1.45513 -0.312413 -0.0342304 -0.903055
0001e0 22 71 cb 3f 36 b0 ad 3e a2 7f 22 3e b7 59 21 3d
       1.58939 0.339235 0.15869 0.0393922
0001f0 87 dc d8 3f 64 58 81 3f 75 b0 1a bf 64 af 3b 40
       1.69423 1.01051 -0.604255 2.93258
000200 4f 06 eb bf df fe fc bd c5 72 bb 3f 3d 29 73 3e
       -1.83613 -0.123533 1.46444 0.237462
000210 09 71 15 3e 1d af 08 3f e7 54 ea 3e 1a c0 af 3f
       0.145939 0.533922 0.457679 1.37305
000220 21 3c 16 40 62 4f 16 bd c9 91 9e 3e ba 0d 2c 3b
       2.34742 -0.0366968 0.309706 0.00262533
000230 43 04 80 bf bc 03 f4 3e 14 75 c6 3e 18 3e 27 3d
       -1.00013 0.476591 0.387612 0.0408307
000240 c2 69 01 bf ba ba bb be 3d 47 2c bf 79 1f af be
       -0.50552 -0.366659 -0.672962 -0.342037
000250 af 43 8d 3e 3a 3c f4 3e 26 f6 9a bd 5c 00 0a 3f
       0.275907 0.477022 -0.0756648 0.539068
000260 8f 19 a0 bf b2 4b 84 3f ae bb b5 bf 8c bc fc 3e
       -1.25078 1.03356 -1.41979 0.493626
000270 30 9b 24 3f 27 88 8e 3f 6c 44 cb 3c 6c b6 0d 3d
       0.642993 1.11353 0.0248129 0.0345978
000280 ac ac 05 3f e7 89 8f 3e 81 41 22 be c3 61 19 3e
       0.522166 0.280349 -0.158453 0.149787
000290 19 c7 18 bf e9 26 b9 3f b2 83 aa 3e 80 2b b1 bf
       -0.596788 1.4465 0.333036 -1.38414
0002a0 cf a0 a1 3f 99 9c ba 3e f6 61 dd bd 9d 85 9d bf
       1.26272 0.364476 -0.108097 -1.23064
0002b0 6b b8 78 3e 8a c8 b0 bf 1c 42 99 3f 2a 74 8a bf
       0.242891 -1.38112 1.19733 -1.08167
0002c0 42 b5 21 3e 01 13 7c 3f 46 40 41 bf 8e a0 a7 bd
       0.157918 0.984665 -0.754887 -0.0818492
0002d0 43 1d ee 3e f4 6a 80 be 52 60 21 3e e7 c9 90 bc
       0.465067 -0.250816 0.157594 -0.0176744
0002e0 3d d1 59 3f 49 2e 53 3f bf 67 5f 3d a4 df 6e 3e
       0.850849 0.824925 0.0545423 0.233275
0002f0 2d 09 a0 3f f9 87 ad bc b5 c2 8c be 63 29 42 3f
       1.25028 -0.021183 -0.274923 0.758444
000300 cd 1e 58 be 11 57 09 3d 42 21 9a 3f 07 7c 96 3e
       -0.211055 0.0335303 1.20414 0.293915
000310 17 7e 88 3e cf 49 27 bf 04 e4 3b bf f6 ee db 3f
       0.266587 -0.65347 -0.733948 1.71823
000320 b9 a5 d5 3c a4 34 dd bb db b3 1d bd 32 74 2c bd
       0.02608 -0.00675066 -0.0385016 -0.042103
000330 be 7d 82 bc 1d 98 37 bd bf f8 bb bb a7 59 00 3d
       -0.0159291 -0.0448228 -0.00573644 0.0313355
000340 f9 b8 f8 3b f9 3d 1b bd d0 71 7f 3c b6 1b 73 bd
       0.00759041 -0.0379009 0.0155911 -0.0593526
000350 e8 27 06 3d 0a 10 05 bd a9 84 e7 3c 78 4d 23 3b
       0.0327529 -0.032486 0.0282615 0.0024918
000360 c1 0e 2d bd de e0 d1 bb d6 4a 32 bd fa ff 04 bc
       -0.0422504 -0.00640498 -0.0435284 -0.00811767
000370 9a 95 ad 3c 6a 03 26 bd f0 96 15 bd 81 c4 e1 ba
       0.0211895 -0.0405306 -0.0365209 -0.00172247
000380 34 b6 1f 3c ff a6 41 3c 43 58 0b bc c1 97 b8 bc
       0.00974803 0.0118196 -0.00850493 -0.0225333
000390 c6 34 11 bc d8 55 d4 3a f1 aa bd 3c 1e 23 0f 3d
       -0.00886268 0.00161999 0.0231528 0.0349456
0003a0 27 7e f1 bc 7f 4b 45 bd c2 0f 73 bc d1 7f ea bc
       -0.0294791 -0.0481677 -0.0148353 -0.0286254
0003b0 89 2e 83 3c bb 89 4e ba de f7 39 bd 4a 92 eb 3b
       0.0160134 -0.00078788 -0.0454024 0.00718907
0003c0 e3 fb a2 bc 91 91 7d 3c 9a 37 18 3d 8f 58 46 bd
       -0.0198955 0.0154766 0.0371624 -0.0484243
0003d0 1d 14 3e bd 51 1d a1 bc ad 32 53 bc 72 96 c8 bc
       -0.0464059 -0.0196673 -0.0128905 -0.0244858
0003e0 a8 b7 f5 3c ce 77 26 3c d4 60 a6 3f f5 f5 54 3f
       0.0299948 0.0101604 1.29983 0.831878
0003f0 3b 01 8d bf 27 66 f1 bf 02 d9 80 40 28 46 72 3f
       -1.1016 -1.88593 4.02649 0.946383

B1 f4 [50]
000000 3e b3 90 3f 36 1d a6 bc 54 52 cb 3f f9 a0 f7 bf
       1.13047 -0.0202776 1.58845 -1.9346
000010 ec 57 b0 bc f9 66 83 bf ce 51 bf 3e 9f dd ab bc
       -0.0215263 -1.02658 0.373671 -0.0209797
000020 77 31 0d 3e fa 09 7b 3f 14 cb dd 3f 11 fa 3e bd
       0.137884 0.980621 1.73276 -0.0466252
000030 f3 ac 94 3e ea b4 ce be a2 7e 97 bc d1 f6 de bc
       0.290382 -0.403724 -0.018493 -0.0272173
000040 53 9b 13 bd 6f 0d ac bc f0 cd 05 bd 58 e4 97 bc
       -0.0360368 -0.0210025 -0.0326671 -0.0185415
000050 a0 6c a6 bf 56 2b 83 3f 02 30 f9 bc 06 4b 05 bf
       -1.30019 1.02476 -0.0304184 -0.520676
000060 ae 0d 9d 3e 0f 26 55 3e f1 e1 48 bc 5d 8c 5c bc
       0.306745 0.208153 -0.0122609 -0.0134612
000070 84 44 ff bc af d7 aa bc 68 26 b3 bc 6c eb 63 3f
       -0.0311606 -0.0208548 -0.0218689 0.890311
000080 15 67 56 bc 2f 51 3d bc c2 17 82 3f fd 88 97 be
       -0.0130861 -0.011555 1.01635 -0.295967
000090 02 9f bf 3f 6c 26 ef be 05 5b 9b bc f7 b3 33 bc
       1.49704 -0.46709 -0.0189643 -0.0109682
0000a0 af 95 60 be 7f bc c3 bf ea 03 49 bc a9 15 56 be
       -0.219321 -1.52919 -0.012269 -0.209067
0000b0 bd fd 3d 3f 74 fc 61 bc 21 80 8a bc e6 3e c1 be
       0.742153 -0.0137931 -0.0169068 -0.377433
0000c0 bc 03 3c bc 98 16 3d 3f
       -0.0114755 0.738626

W2 f4 [50, 50]
000000 77 d7 01 3f a0 e3 fe 3c 61 6c e9 bf ae 2e 7f 3f
       0.507194 0.0311144 -1.82362 0.996806
000010 84 02 00 3d 67 0a 9d bf c1 74 0e 3f 74 06 0b bd
       0.0312524 -1.22688 0.556469 -0.0339417
000020 80 64 a2 be e5 ec 15 bf dd ec 7f bf cc c9 95 3c
       -0.317173 -0.585646 -0.999708 0.0182847
000030 68 01 ff bc 9d bd 33 3d 49 25 04 3c 3c 36 3d 3d
       -0.0311286 0.043882 0.00806553 0.0461943
000040 b5 84 a1 3c b2 73 a4 bc 79 ea 0f 3c cc 28 92 bf
       0.0197166 -0.0200747 0.00878393 -1.14187
000050 cd 3d cc 3e 8b 37 be bf 48 c4 54 3d 9c fa 90 3e
       0.398909 -1.48607 0.051945 0.283162
000060 e0 81 c9 3e a3 5c 8a be 02 42 d0 3c 11 eb e4 3b
       0.393569 -0.270238 0.0254221 0.00698603
000070 b0 2c 27 bd 8c 12 74 bc 2e 20 2f bd fe 0e ca c0
       -0.0408141 -0.014897 -0.0427553 -6.31433
000080 29 93 74 3a ca 89 92 bf 77 4a cb bf 02 84 c7 3e
       0.000932979 -1.14483 -1.58821 0.389679
000090 a6 27 bb 40 b2 67 97 3e 07 a4 33 bc fa f7 4f 3d
       5.84859 0.295713 -0.0109644 0.0507736
0000a0 9a 44 a5 3e 83 02 45 bd e1 1a 09 bd e0 67 80 3f
       0.322789 -0.0480981 -0.0334729 1.00317
0000b0 0e 15 0f 3f 57 32 16 bd 4a 06 25 bc b0 c9 4e c0
       0.558915 -0.0366691 -0.0100723 -3.23106
0000c0 2d ac 23 bc 7c b8 4a c0 ad 34 65 3f d5 e0 05 bc
       -0.00998978 -3.16751 0.895335 -0.00817128
0000d0 76 fc af 3e 71 65 ba bd c5 07 8f 3b fe 65 96 c0
       0.343723 -0.0910138 0.00436494 -4.69995
0000e0 cf da 5d 3f e6 c5 8d bb 20 44 f2 3d 73 b9 61 bd
       0.86662 -0.00432657 0.118294 -0.0551085
0000f0 fd dc 18 3f b4 d3 45 3d 62 a2 49 bf 48 34 b9 be
       0.597122 0.0482976 -0.787634 -0.361727
000100 e4 5a 1e 3d ee 00 34 bd 17 00 99 bc 5c 1c 3a 3c
       0.0386609 -0.0439462 -0.0186768 0.0113593
000110 4c 4f 18 3c f8 c2 44 c0 66 d8 18 3e ae f3 df be
       0.00929625 -3.0744 0.149263 -0.437406
000120 f2 6c 20 3d ae 47 c5 bf 14 ed 6a bf a0 c6 5d 3e
       0.0391664 -1.54125 -0.91768 0.216578
000130 13 63 19 3d 82 66 df bb 48 11 be 3c a7 17 06 3d
       0.037448 -0.00681764 0.0232016 0.0327374
000140 a9 fb db 3c 90 c0 47 bf 71 aa 3a 3d 9d 0d 31 3f
       0.0268534 -0.780282 0.0455727 0.691614
000150 98 c7 75 bc c1 6f c3 3e 3b 19 40 c0 6a de 17 40
       -0.0150012 0.381712 -3.00154 2.37295
000160 ce aa 8f bc eb be ed bc 66 da 82 bf 37 55 17 3e
       -0.0175375 -0.0290217 -1.02229 0.147786
000170 c7 d0 16 3c 3b 8d 94 be f6 45 b2 bf 30 d9 b8 bc
       0.00920505 -0.29014 -1.39276 -0.0225645
000180 93 d5 3e 3b 1c 7c ad bf 96 51 b6 bc 40 13 59 c0
       0.0029119 -1.35535 -0.0222557 -3.3918
000190 2a e2 94 be ab 81 9c 3c fc a6 30 be e9 ba f0 bd
       -0.290788 0.0191048 -0.172512 -0.117544
0001a0 27 1e 65 3b 1e d9 c1 bd e5 aa 83 3d 35 a6 96 3c
       0.00349606 -0.0946524 0.0642908 0.0183898
0001b0 36 ab 9a 3f 36 ad 08 3f b4 73 f2 3e e5 da 2b 3c
       1.20835 0.533893 0.473539 0.0104892
0001c0 66 67 05 3f b7 43 bb be 95 93 f5 bc b5 e8 f8 3b
       0.521109 -0.365751 -0.0299776 0.0075961
0001d0 fb bb ad bc 0f 75 24 bd 7f 9b aa 3c d2 52 51 3f
       -0.0212078 -0.0401507 0.0208261 0.81767
0001e0 69 e3 b8 be 81 eb 02 bf ce 31 85 bc 52 d3 ee be
       -0.36111 -0.511406 -0.0162591 -0.466456
0001f0 61 8b 49 3f 2b 3c 8e bd d1 43 0a 3c 1f 44 17 3d
       0.787283 -0.0694507 0.00843902 0.0369302
000200 4b 3e b6 bc c9 37 00 3b c9 01 bb bc 4a 7b 1f bf
       -0.0222465 0.00195645 -0.022828 -0.622975
000210 4e de 16 bd d1 7a 14 3f 3b 78 20 3c a0 fa a7 be
       -0.0368331 0.579999 0.00979429 -0.328084
000220 e4 31 fb 3e 25 ad 58 be c8 e7 ba 3c 44 d5 34 bd
       0.490615 -0.211598 0.0228156 -0.0441487
000230 8b dd b6 3e 1c b6 6d c0 74 e9 c4 3c c7 68 c5 bf
       0.357159 -3.71424 0.0240371 -1.54226
000240 9a 06 bd 3e 18 87 09 3d ab 0f 7f 3c c6 6d 08 c0
       0.369191 0.0335761 0.0155677 -2.1317
000250 54 87 21 bd 63 98 d3 3c c6 50 16 c0 b6 20 a9 3b
       -0.0394357 0.0258295 -2.34868 0.00516137
000260 1b d6 78 3f 73 9d da 3f a7 88 3d 3d c6 62 05 3d
       0.972017 1.70793 0.0462729 0.0325649
000270 c1 ff 1a c0 07 68 15 39 45 bb 9e bf cd e4 7d c0
       -2.42186 0.000142485 -1.24009 -3.96709
000280 6e 87 12 3f e0 25 c2 3c c8 98 5b be f1 a0 59 be
       0.572379 0.0236997 -0.21445 -0.212528
000290 07 c9 a7 3c 23 86 dd 3c 24 0f 9f 3c 54 ea 0e bc
       0.0204816 0.0270415 0.0194164 -0.00872286
0002a0 4b e3 3c 3d e3 c7 90 bf ec 2f 13 c0 fa 9a 6d bf
       0.0461152 -1.1311 -2.2998 -0.928146
0002b0 3f 30 4c bd 99 81 12 3f 3f 53 5f bf 45 2b 57 be
       -0.0498507 0.57229 -0.872364 -0.210126
0002c0 31 0a 23 3c 3e dc 1f bd 34 d4 2d bd d4 d6 08 3d
       0.00995116 -0.0390284 -0.0424387 0.033408
0002d0 c7 df ac 3c 07 d3 a8 3e ca 24 39 bd bf 2b 92 3f
       0.0211028 0.329735 -0.0452011 1.14196
0002e0 a5 2e b9 3e 03 09 66 c0 65 a7 0f bf 75 1e 25 3f
       0.361684 -3.5943 -0.561148 0.644996
0002f0 0b 96 8f 3c b5 af 97 3c e0 84 86 3f ea ca af bf
       0.0175276 0.0185164 1.05093 -1.37338
000300 cd e3 35 bd ac e2 9d 3f 33 8a 88 c0 d4 92 1b 3a
       -0.0444067 1.23348 -4.26687 0.000593466
000310 9c 52 5e bc fe d4 4c c0 3c b7 b5 bc 34 2c e6 3e
       -0.0135695 -3.2005 -0.0221821 0.449556
000320 7a 89 89 3e 4e 64 21 bd 47 8e f4 bd 3b fc 2d 3f
       0.268627 -0.0394023 -0.119412 0.67963
000330 21 d9 d2 bc 75 22 c1 3e a8 35 6d 3e ae 15 06 3b
       -0.0257383 0.377216 0.23165 0.00204597
000340 0f ef 41 bf 62 6a 7b 3e d1 ae a6 bf 21 1b ed bb
       -0.757554 0.245523 -1.30221 -0.0072359
000350 c3 2e 9a 3e 15 95 09 bb b8 87 2e bd 52 9f bf bc
       0.301138 -0.00209934 -0.0426099 -0.0233914
000360 81 b7 db 3c e9 e6 2c bd bc d1 22 3c 96 eb 3d be
       0.0268209 -0.0422124 0.0099377 -0.185469
000370 c7 46 e0 be bb 0f 30 3f 06 66 a6 3b f2 24 85 bf
       -0.43804 0.68774 0.00507808 -1.04019
000380 05 a0 b6 bd 2a 1d 3c be ee 6b 0e bd d7 64 32 3c
       -0.0891724 -0.183705 -0.0347709 0.0108883
000390 aa 1f a5 bc 21 aa 95 bc 5e 72 d2 3c 01 db 01 3f
       -0.0201567 -0.0182696 0.0256893 0.507248
0003a0 7e ac 3b 3d c6 85 8b 3f 85 42 d9 c0 b3 0b e6 be
       0.0458188 1.09002 -6.78937 -0.449308
0003b0 05 50 dc be d3 9f 91 3f 0f cf 37 bc 29 a1 ea 3c
       -0.430298 1.13769 -0.0112188 0.0286413
0003c0 84 f3 d9 3e 88 54 67 bd e1 8b c4 3a 24 64 14 3f
       0.425686 -0.0564771 0.00149953 0.579653
0003d0 76 6f 55 be c0 91 05 3d 28 39 f1 3c 1a 17 fe 3f
       -0.208433 0.0326097 0.0294462 1.98508
0003e0 26 d8 29 bd 4b e5 41 3f 24 80 93 3e 61 3a 0a bc
       -0.0414659 0.757405 0.288087 -0.00843677
0003f0 be bd eb 3d 4a 0c 4e bf 7b 18 b5 3c 05 bf 2d 3d
       0.115108 -0.804875 0.0221064 0.0424185

B2 f4 [50]
000000 cd ad 70 bf 51 85 13 bf a5 4c 0a 3e db c0 75 bf
       -0.940152 -0.576253 0.135058 -0.959974
000010 41 b7 cf be 3a 91 90 3e dc f3 0c 3f ff db 9b bc
       -0.405695 0.282358 0.550596 -0.0190258
000020 e1 f5 b4 bc 4c de 70 bf 5b 89 0f 3d d4 f3 3e be
       -0.0220899 -0.940892 0.0350431 -0.186477
000030 d0 5f b8 be 76 6f 11 bf 66 a0 a6 3f 27 f6 34 bf
       -0.360106 -0.568107 1.30177 -0.706881
000040 89 d2 a6 3e bb 28 4e bf 53 92 d5 be fe 9b a7 be
       0.325825 -0.805309 -0.417132 -0.327362
000050 07 b6 b6 bf 77 45 55 3d 76 4f 9a bf df fd e9 3f
       -1.42743 0.0520682 -1.20555 1.82806
000060 49 b3 3e bd 96 10 22 bd 15 37 3a bf 41 9f 9c bf
       -0.0465577 -0.0395666 -0.727403 -1.22361
000070 ce c2 be bf 67 e4 bd 3d fe 65 07 3f d7 a5 72 bf
       -1.49032 0.0927208 0.5289 -0.947843
000080 84 f2 1e bf cb 13 2c 3f 9a d2 1a bf 88 63 8d bf
       -0.620888 0.672177 -0.604776 -1.1046
000090 18 b0 bc be d6 ff 5d bf a8 53 7e be dd a0 d1 bc
       -0.368531 -0.867185 -0.248366 -0.0255894
0000a0 e2 06 f8 3f 48 6d 7e 3f ac e5 ae be 9f e0 c5 bb
       1.93771 0.993855 -0.341596 -0.00603874
0000b0 e1 24 4d be a7 08 d0 3d 91 1a 24 bc fc fc 13 bf
       -0.200336 0.101579 -0.0100161 -0.578079
0000c0 85 5c 69 bf 80 9f 85 bf
       -0.911568 -1.04393

W3 f4 [50, 50]
000000 b5 54 82 bf de ab 92 3f 7a 1d 11 3f 05 ba ab bd
       -1.01821 1.14587 0.566856 -0.0838509
000010 bb 7c d3 be 05 fb 4b 3f a8 3a 84 3f a9 ef 42 3b
       -0.413061 0.796799 1.03304 0.00297449
000020 9e 33 58 3c 59 fa 02 c0 2c d4 06 40 95 f3 ad 3e
       0.0131959 -2.04653 2.1067 0.339749
000030 e8 f9 3b bf 65 c6 1b 3f 97 36 2c 3f f5 81 e4 3d
       -0.734282 0.608496 0.672708 0.111576
000040 23 c0 49 bd 52 27 c4 bf 3b c7 a8 be 10 af fb 3e
       -0.0492555 -1.53245 -0.329645 0.49157
000050 ae 47 cd 3f a5 a0 8f 3f d2 c5 26 3e fe 0e 89 bf
       1.60375 1.12209 0.162864 -1.07077
000060 38 8f dc 3b a3 d4 19 3d 20 2a 75 bf be 85 35 be
       0.00673094 0.0375563 -0.957674 -0.177268
000070 f0 26 29 3d 2e cb 77 be c1 ca 91 3f 70 25 2b c0
       0.0412969 -0.241986 1.139 -2.67416
000080 c3 9a 0e bf 87 33 83 3f a7 ae ec bf 58 e2 0d 40
       -0.557049 1.02501 -1.84908 2.21694
000090 63 b9 95 3f 19 e7 87 3e 5f 7d 7c be 4e 2f 4c bd
       1.16972 0.265435 -0.246572 -0.0498498
0000a0 ce 54 24 3f 10 74 24 3f bc ae 9b bf ec 6a f2 bc
       0.641919 0.642396 -1.21627 -0.029592
0000b0 57 78 05 40 10 77 61 3f ef ed 31 3d c6 85 17 3f
       2.08547 0.880723 0.0434398 0.591885
0000c0 24 5e 6a 3f f7 76 0f 3f dd 7b bc bf 78 9c c6 3f
       0.915499 0.560409 -1.47253 1.55165
0000d0 4c c3 30 be 98 32 70 bc f9 30 1b 3f a6 44 32 c0
       -0.17262 -0.0146605 0.606216 -2.78544
0000e0 e6 5c 44 40 a9 5f d4 3b 4f 8e 27 3d 8c 4a 0e 40
       3.06817 0.00648113 0.0409072 2.2233
0000f0 d6 a8 3f c0 1a 4d be be 39 9d 24 3e 8a 94 36 3f
       -2.99468 -0.371682 0.160756 0.713204
000100 b7 98 1b 3f d9 b1 fd bf 15 e3 84 3f 28 0a b8 bf
       0.607799 -1.98199 1.03818 -1.43781
000110 00 75 e3 3e 68 06 c1 bd 29 cb 9c bf f7 3b 06 40
       0.444252 -0.0942505 -1.22495 2.09741
000120 b9 70 88 3e 2f e1 a0 be 35 56 2c 3d e6 13 05 3c
       0.266485 -0.314218 0.0420744 0.00812242
000130 44 6e ea 3f 9f c8 41 c0 9c 8a 74 bf 6a c1 83 bf
       1.83149 -3.02787 -0.95524 -1.02934
000140 ca 1a f9 3f 8c f5 ed bd b7 b6 3c 3f 8a 91 85 3e
       1.94613 -0.116191 0.737163 0.260876
000150 95 a7 20 bc c3 47 34 40 58 39 96 c0 ba 49 bc 3e
       -0.00980558 2.81688 -4.6945 0.36775
000160 75 91 42 3c fe 4e ac ba 13 45 50 3f 93 39 ae be
       0.0118755 -0.00131461 0.813554 -0.340283
000170 51 bd 85 3f 3f 1d 2f 3d 0b 7d 4c 3f fd a0 62 bf
       1.04484 0.0427525 0.798783 -0.885269
000180 16 a8 20 3d 51 88 ac bf 28 19 0f bd 85 0b d1 3e
       0.0392228 -1.34791 -0.0349361 0.408291
000190 21 af 27 bf 6a 18 8a bf 37 e2 31 bf a9 f8 47 bf
       -0.655016 -1.07887 -0.694858 -0.781138
0001a0 48 51 3f 3f 62 bf 1f 3f b8 01 09 40 d5 42 29 bd
       0.747334 0.624014 2.14073 -0.0413235
0001b0 0e ea 0c 3d 55 4e db bd 6b 2b c2 3f f2 b0 08 bf
       0.0344029 -0.107083 1.51695 -0.53395
0001c0 db df 45 bf 02 b7 52 bf 2d 3e b5 3f e1 ef ff 3e
       -0.772947 -0.823105 1.41596 0.499877
0001d0 b7 d2 eb 3c e2 58 61 40 b2 2f 35 3f 84 64 85 3f
       0.028787 3.52105 0.707759 1.04213
0001e0 23 a1 d9 bf 75 c8 0f 40 59 52 6a 3f da 56 7b bf
       -1.70023 2.24661 0.915319 -0.981794
0001f0 6f 49 8e bb 33 29 4f 3c 99 f5 4c 40 25 92 bc 3f
       -0.00434225 0.0126441 3.20249 1.47321
000200 37 54 cc be c4 3b c5 bd eb 73 05 40 75 76 e6 3f
       -0.39908 -0.0963054 2.0852 1.80049
000210 b4 ab 12 40 aa 7c 3f 3e 94 4b 53 be 64 94 bf 3e
       2.29173 0.186999 -0.206343 0.374179
000220 76 52 2f bf 01 6a 42 3f 05 6e 13 40 55 34 b5 bb
       -0.684852 0.75943 2.30359 -0.00552992
000230 3c f9 04 3e 70 77 0e 40 4c 52 49 3e 78 69 bb 3b
       0.129857 2.22604 0.196603 0.00571936
000240 db f9 0a c0 39 9a 1b bf f8 a5 7e 3c 86 72 a2 3e
       -2.1715 -0.607822 0.0155425 0.31728
000250 a9 c1 94 3f 8c db 34 40 f0 bf 9d 3f c6 dc 39 bf
       1.16216 2.8259 1.23242 -0.726025
000260 e8 f6 76 bf 36 90 16 bf 57 cf 61 3f 30 35 ad bd
       -0.964705 -0.588138 0.88207 -0.0845741
000270 d1 e8 d6 3f c8 56 21 bd 01 fb a8 3c 65 8f 6c bf
       1.67898 -0.0393894 0.0206275 -0.924063
000280 e2 23 ce 3f 32 3b fb be dc 84 f3 be e8 c1 bd be
       1.61047 -0.490686 -0.475623 -0.37062
000290 ac ca 8e 3f 35 08 57 3f b7 46 44 be b1 a3 69 3f
       1.11556 0.839969 -0.191676 0.912654
0002a0 13 2d 79 bd b7 28 8b 3f 86 56 33 bf c8 42 2c 3f
       -0.060834 1.08718 -0.700539 0.672894
0002b0 8f c7 ac 3e da e1 ff 3f 44 19 85 3d e9 d6 67 3b
       0.33746 1.99908 0.0649896 0.00353759
0002c0 ed 4a 47 3f 19 71 51 3e 4f 90 f8 bd 2e 04 19 be
       0.778487 0.204533 -0.121369 -0.14943
0002d0 0c 76 8f 3f 98 04 3e bd c7 46 10 3e eb 35 3d 3e
       1.12079 -0.0463911 0.140895 0.184776
0002e0 e7 18 a0 3f 56 bc f5 3f 5d bf 85 3d 40 f0 1d bd
       1.25076 1.91981 0.0653064 -0.0385592
0002f0 a4 55 e5 3e 33 98 f5 3c 26 18 3e 3e fa 7e 2c 40
       0.447919 0.0299798 0.185639 2.69525
000300 3f 3a cd 3e cc 89 2c bc 49 d7 c4 bf 7e 6e 78 3e
       0.400835 -0.0105309 -1.53782 0.242609
000310 04 99 57 3b de c9 57 3e 7c 45 c7 3e 97 3c 42 3f
       0.00328976 0.210731 0.389202 0.758737
000320 d1 b2 72 bf ad 69 da bf 38 84 22 c0 42 09 e3 be
       -0.948041 -1.70635 -2.53932 -0.44343
000330 47 8f 2b 40 cc 40 81 bf d6 39 c2 bf 4e 50 f9 3c
       2.68062 -1.00979 -1.51739 0.0304338
000340 ed d2 06 bd 83 dc 41 3f d9 25 3a c0 d9 d0 4d be
       -0.032916 0.757271 -2.90856 -0.200992
000350 81 26 9a 3f 78 7e d9 be ea 5b 8a bf 59 86 20 bf
       1.2043 -0.424793 -1.08093 -0.62705
000360 0d e0 9d be bb 0a 33 c0 6f 65 15 bf ec c0 5d c0
       -0.30835 -2.79753 -0.583579 -3.4649
000370 cd 75 0e c0 cc d1 2f bf 16 35 10 c0 92 74 a5 3e
       -2.22594 -0.686795 -2.25324 0.323155
000380 0b 8b c0 3c a0 2a b2 3b 03 f4 31 3d a1 a1 bf 3f
       0.0235038 0.00543721 0.0434456 1.49712
000390 d4 9b 31 3e 08 9f f7 b8 06 d8 77 c0 31 7c f0 3f
       0.173446 -0.000118075 -3.87256 1.87879
0003a0 bf d4 8f 3f 91 e2 d2 bc 11 df 89 bf 50 34 6f be
       1.12368 -0.0257428 -1.07712 -0.233598
0003b0 19 38 a0 be 70 9a 3e be 77 db 81 bf a3 51 8b bc
       -0.312928 -0.186136 -1.01451 -0.0170067
0003c0 4d f7 36 bf 26 53 45 c0 df c3 81 3f d0 ae 0c bd
       -0.714711 -3.0832 1.01379 -0.0343464
0003d0 b7 45 91 bf 54 74 5c c0 5d 8c 81 bc cf 83 93 bf
       -1.13494 -3.4446 -0.015814 -1.15246
0003e0 91 12 96 3c ff 59 3f 3f 48 35 1c bf e6 52 86 3d
       0.0183194 0.747467 -0.610188 0.0655878
0003f0 74 23 94 3e 04 be 2c 3d 8d 44 a0 3e 2a e1 29 be
       0.289333 0.0421734 0.313023 -0.165898

B3 f4 [50]
000000 ff ec e3 bf e5 7e af bf 26 01 16 c0 9b 57 01 3f
       -1.78067 -1.37106 -2.34382 0.505243
000010 54 8c 7f c0 42 21 7c 40 b1 a2 d6 bf 2b dc b2 bc
       -3.99294 3.93953 -1.67684 -0.0218335
000020 0f b9 99 3f 8f c7 d4 3e 32 3d 6d 40 19 56 b9 bf
       1.20096 0.415585 3.70686 -1.44794
000030 3f e3 92 3f e7 6f ca bf 39 97 ae 3f 99 67 49 3f
       1.14756 -1.58154 1.36399 0.786737
000040 8a e5 52 c0 60 17 8f bc 28 9a 8f 3e fc 8c 27 c0
       -3.29526 -0.0174672 0.280473 -2.61798
000050 eb c7 de 3e 8c 12 6c 3f 54 74 a4 bf c4 25 c7 3f
       0.435119 0.922158 -1.2848 1.55584
000060 ba bd 52 40 b9 8e 1d bf 8a e5 8a 3f e8 82 6a be
       3.29283 -0.615459 1.08513 -0.229015
000070 3d 0f f2 bf 29 ed 45 bf 2f fb 79 bf fd 66 da 3e
       -1.89109 -0.77315 -0.976489 0.426567
000080 17 f1 17 c0 8b 37 fa bf 8a 76 cd 3f b7 97 88 40
       -2.37409 -1.95482 1.60518 4.26852
000090 87 e0 f0 3e 5d b0 9a bd 1f 84 14 3f 76 c3 e2 3f
       0.470463 -0.0755317 0.580141 1.77159
0000a0 77 15 00 c0 a6 11 cc bb 89 7b a4 bf 63 b4 ce 3f
       -2.00131 -0.00622769 -1.28502 1.61488
0000b0 a3 23 a5 bf 58 ae 37 3e ee b1 dc be 0e 3e 5e 3c
       -1.29015 0.179376 -0.431045 0.0135646
0000c0 66 f4 1f bf e6 62 c6 bb
       -0.624823 -0.00605427

W4 f4 [50, 50]
000000 bd fc ae bd 5e 85 83 c0 cd ad f0 3d 60 9b 43 bc
       -0.085443 -4.11003 0.117519 -0.0119389
000010 8b 53 05 3f 70 5e 7c be 00 e6 0a bf b5 6e 23 3d
       0.520806 -0.246454 -0.542572 0.0399005
000020 2f c0 d2 bf 06 91 b6 3d 04 e2 25 3f d6 6e cb bf
       -1.64649 0.0891438 0.64798 -1.58932
000030 7c 7f 07 bf 4b 3c d0 bf 6f d6 2c bf ae d5 6a bf
       -0.529289 -1.62684 -0.675147 -0.917323
000040 62 30 5f be a2 89 e6 bc b0 01 7d bf 1b a1 87 be
       -0.217958 -0.0281418 -0.988307 -0.264901
000050 23 5a 7c 3d b1 c4 8b 3f a4 e3 0a 3d 16 f7 43 3f
       0.0616094 1.09194 0.0339085 0.765489
000060 84 bb 4b bf 01 de 8a bf 0e 16 b9 bd a2 ee b7 3f
       -0.79583 -1.0849 -0.0903741 1.43697
000070 fd 68 34 3f fb 07 15 bf 30 4d ec 3c c6 a2 95 bf
       0.704727 -0.582153 0.0288454 -1.16903
000080 a3 cc b2 bf be 6b f8 3e 92 5c b6 3f 68 64 86 3c
       -1.39687 0.485197 1.4247 0.0164053
000090 c0 ea 18 3e 29 b0 a0 be ed 2b cf be 51 68 61 bf
       0.149333 -0.313844 -0.404632 -0.880498
0000a0 3d 47 64 3e c2 17 92 bf 89 95 d9 3e 23 c8 37 3d
       0.222928 -1.14135 0.424969 0.0448686
0000b0 bb d4 18 bf fb 3c 16 3e 04 35 c1 3d a5 f8 f0 be
       -0.596996 0.146717 0.0943394 -0.470647
0000c0 87 c5 14 3f 05 3c c4 3c 96 77 dd 3e 15 1c 06 3f
       0.581139 0.0239544 0.432553 0.523866
0000d0 c9 3a 0c be bc cf 01 3f 9e 5f 20 bf b3 d1 15 bf
       -0.136943 0.507076 -0.626459 -0.585231
0000e0 32 59 48 3f 97 d2 e9 bc 5b 7c aa be c2 c3 6f bd
       0.782611 -0.0285428 -0.33298 -0.0585363
0000f0 ed bb 04 c0 66 66 18 c0 de 75 36 3f 60 59 e1 bf
       -2.07397 -2.38125 0.712736 -1.76054
000100 5a b9 d7 bc 92 22 00 c0 b8 b0 a6 be 69 78 ce 3c
       -0.0263335 -2.00211 -0.325567 0.0252039
000110 70 09 60 bf cf 68 6b 3e 2e c9 c9 be 59 69 f6 bf
       -0.875144 0.229892 -0.394113 -1.92509
000120 65 36 84 3f 99 bb 86 bf 4d 67 e7 bf ba 4e 23 c0
       1.03291 -1.0526 -1.80784 -2.55168
000130 f2 b5 cb 3f 3a 6c ac 3d 66 4f 12 be bc 5c 94 3f
       1.59149 0.0841908 -0.142881 1.15908
000140 33 c2 db 3d e3 52 79 3f 2f c4 2a 3f a9 88 db be
       0.107304 0.973921 0.667056 -0.428777
000150 1b 4c 03 3e 5a cd 04 bc f7 01 58 3e 7a ab 7e 3f
       0.12822 -0.0081056 0.210945 0.994804
000160 26 25 b3 3d e6 40 c7 be e8 6c a1 be 03 ed 3e 3e
       0.0874732 -0.389167 -0.315284 0.186451
000170 3c ab fb 3c aa 0d 2a bf 1b 7f 46 bf 76 6c 1a c0
       0.0307213 -0.664271 -0.775377 -2.41287
000180 bf f2 50 3e ee 3d 80 bf 40 bd 09 3e 4b 2d 0a bd
       0.204051 -1.00189 0.134511 -0.0337346
000190 c3 bb a4 3e 7f e1 b0 3d c0 98 ca 3b 3c 4e a5 bf
       0.321745 0.0863676 0.00618276 -1.29145
0001a0 9c e0 37 3f 7b 9f 4a bf 75 3c aa 3f 12 3f b1 3b
       0.718271 -0.791496 1.32997 0.00540913
0001b0 6e c0 b7 3f 76 50 09 be db 32 e8 3e 50 51 39 3f
       1.43556 -0.134096 0.453513 0.723897
0001c0 98 a2 b4 3e a5 49 1f c0 8c 15 89 bf c3 b7 48 3f
       0.352803 -2.48887 -1.07097 0.784054
0001d0 c6 f7 39 3f 82 c1 1a 3d 06 0d 2f 40 f7 75 70 3e
       0.726437 0.0377822 2.73517 0.234825
0001e0 3b c2 89 3f 46 94 96 3f d8 80 90 be 66 da fe 3f
       1.07624 1.1764 -0.282233 1.99104
0001f0 aa b5 08 3f 2d 78 b1 bf ad 68 03 bf 3d 61 37 40
       0.534022 -1.38648 -0.513316 2.86531
000200 59 ce 94 3d 8f 18 dd 3e 13 2c 4e 3f 3b 3a 52 3f
       0.0726592 0.431828 0.80536 0.821201
000210 5f 0c 47 40 d7 51 fd 3f 0a dc b2 bf 41 7d 83 be
       3.11013 1.97906 -1.39734 -0.256815
000220 19 1c e5 3f 0c 1f 3f 40 bd 8f 93 3e da 38 02 be
       1.78992 2.98627 0.288206 -0.12717
000230 69 39 60 be 58 1c 8e bf 53 eb 1d 3d e0 65 0e 3f
       -0.218969 -1.11024 0.0385545 0.556242
000240 cd 31 aa 3c 0d fd 93 3f 9a 42 ef be c9 1f 98 3f
       0.0207757 1.15616 -0.467305 1.18847
000250 f7 c8 42 bf 2b e9 97 bc 67 2a 30 bf c3 b6 e4 c0
       -0.760879 -0.0185438 -0.688147 -7.14731
000260 de 54 c0 3f 94 33 f4 be 68 b3 82 3f 6b 60 0b 40
       1.50259 -0.476956 1.0211 2.17776
000270 ac ca 0a 40 a1 2f ff bb 57 04 ef bf bc e8 a7 3f
       2.16862 -0.00778766 -1.86732 1.31179
000280 f1 10 2a bf a4 aa 4d 40 20 41 e5 3f 3f 6f 0a be
       -0.664321 3.21354 1.79105 -0.13519
000290 1b 81 94 3f a6 d5 a0 3f bb 0e 1d bf f7 fa c1 bb
       1.16019 1.25652 -0.613506 -0.00591981
0002a0 52 9d 7a bf 25 58 10 3f b1 a2 10 40 c2 12 31 40
       -0.978963 0.563845 2.25993 2.76677
0002b0 e8 a4 67 bf 67 44 b9 be 03 5b d5 bf 3c 66 10 c0
       -0.90486 -0.36185 -1.66684 -2.25624
0002c0 40 fb c5 bf 4d 2d 7d 40 b7 7f e9 3f 56 61 f3 3e
       -1.54673 3.95589 1.82421 0.475352
0002d0 53 3f 2b 40 42 60 f5 bf f2 22 f3 be 27 14 8f 40
       2.67574 -1.917 -0.474876 4.47121
0002e0 b6 a1 a6 3f d9 cd bc be 11 e4 c8 3f 29 05 03 40
       1.30181 -0.368758 1.56946 2.04719
0002f0 ee 5f 9a c0 7e 57 08 40 28 44 08 40 71 38 a7 bf
       -4.82421 2.13034 2.12916 -1.30641
000300 99 11 46 3f f9 64 75 be 78 7f a4 3f f9 f7 25 40
       0.773706 -0.239643 1.28514 2.59326
000310 c8 97 d0 be 54 c9 18 3f 7d 09 a5 bd d7 a7 98 3a
       -0.407408 0.596822 -0.0805845 0.00116467
000320 68 09 b2 3e e0 48 28 bf ff 59 6b 3f 79 3f 1e 3e
       0.347728 -0.657362 0.919342 0.154539
000330 b9 00 a4 3d 1a a5 13 3f b7 eb bd 3e 45 6e 3c bc
       0.0800795 0.576738 0.370939 -0.0115009
000340 2a ca 69 3f f1 d7 84 bf f9 31 8a bf d1 3f 59 c0
       0.913241 -1.03784 -1.07965 -3.39452
000350 a5 3b 3e 3d 7d 5d 2a 3f a5 f9 13 bf 16 18 d6 3f
       0.0464436 0.665489 -0.578028 1.67261
000360 0b 98 b4 3f ff 3a 1c 3d 4c 8b 2e 3f ee 26 88 be
       1.41089 0.0381422 0.681813 -0.265922
000370 ff 09 6e 3e ac 3b be 3e ff ea 21 3f 9d 11 cd 3f
       0.23246 0.371549 0.632492 1.6021
000380 cb 2b 2b bf 17 62 65 3e a6 62 13 bf 73 82 76 3e
       -0.668637 0.224007 -0.575724 0.240732
000390 94 6b 6e 3f e9 d3 52 bf 78 7f 98 3f e4 f3 ba 3e
       0.931329 -0.823546 1.19139 0.365142
0003a0 77 2c a6 3e f6 62 b4 bf 92 b3 ec bf 2d 9c 9f bd
       0.324558 -1.40927 -1.84923 -0.0779346
0003b0 13 7d 36 3f 1c f0 39 bf a1 b9 16 3f 6a 31 08 3f
       0.712846 -0.72632 0.58877 0.532004
0003c0 37 fd 4d 3f 88 11 b2 3f 18 7d a9 bf f2 23 a6 3e
       0.804645 1.39116 -1.32413 0.324493
0003d0 84 9c 7b bf 60 00 21 3f cc 7f 90 bf 13 b8 b9 3f
       -0.982857 0.628912 -1.1289 1.45093
0003e0 b3 5f 57 3e 75 4c a7 3c f4 1a 67 c0 7c 0f a3 bf
       0.210326 0.0204222 -3.61102 -1.27391
0003f0 92 79 3c c0 19 56 3d c0 19 04 ca 3f dd b5 20 c1
       -2.94492 -2.95838 1.57825 -10.0444

B4 f4 [50]
000000 7c ed 61 bf 32 3d 85 bf 3f 58 a6 3e e1 45 d3 3f
       -0.88253 -1.04093 0.324892 1.65057
000010 89 41 a8 bf cb b9 82 c0 29 ae be bf 26 1e 0c 40
       -1.3145 -4.08518 -1.48969 2.18934
000020 60 93 59 c0 c2 c3 50 3f 24 62 ae bf 15 74 af bf
       -3.39962 0.815487 -1.36237 -1.37073
000030 8c da 7d bf 87 50 33 40 29 23 5e 3e a5 6b 41 bd
       -0.991616 2.80179 0.216931 -0.0472218
000040 6b 46 1a 3f a7 79 0f 3f 50 8d 27 3e ad a3 b2 3f
       0.602637 0.56045 0.163625 1.39562
000050 81 09 0c 40 19 e2 a0 bf f7 75 0e c0 12 bd b0 bf
       2.18808 -1.2569 -2.22595 -1.38077
000060 9b fd 03 bc c1 a8 08 c0 18 b2 8d 40 7d 79 85 bf
       -0.00805607 -2.1353 4.42799 -1.04277
000070 82 e7 d2 bf 3e 5a 40 bf f6 d3 e7 3e b4 c9 5d bf
       -1.64769 -0.751377 0.452789 -0.866359
000080 f9 a1 6e 3f bd 8c 26 40 9e f6 6a 3d 57 43 ba bf
       0.932159 2.60234 0.0573641 -1.45518
000090 87 9a f2 bc 69 35 88 3f 95 0b 25 3f 38 15 69 40
       -0.0296147 1.06413 0.644708 3.64192
0000a0 36 5b a9 3e db a4 3e bf cb 37 81 3d af 3e 0e 3e
       0.330774 -0.744703 0.0630947 0.138911
0000b0 24 b4 e5 bf 67 2a 04 bf 4b e5 8d 3f 16 6a 9d 3f
       -1.79456 -0.516272 1.10856 1.2298
0000c0 05 fa 98 bf a5 14 94 3e
       -1.19513 0.28922

W5 f4 [50, 50]
000000 44 86 9d bf bb 0f 88 3f 40 69 2c 3f 52 8f 08 c1
       -1.23066 1.06298 0.673481 -8.53499
000010 d4 60 82 3f bb 09 93 3d 5f 97 c9 3e f7 75 26 40
       1.01858 0.0717959 0.393733 2.60095
000020 66 a7 3a 3d 83 40 15 c1 3d f1 f4 3e 69 74 c3 bf
       0.0455698 -9.32825 0.478403 -1.52699
000030 7f be 71 bf 8c a1 32 c0 1e 33 18 40 91 68 9d bc
       -0.944313 -2.79111 2.37812 -0.0192149
000040 d7 86 6e bf 2e ca c0 3f 60 3c 9b 3f 38 82 94 be
       -0.931745 1.50617 1.21278 -0.290056
000050 99 9e 88 3f c2 69 2f c0 bd a9 d0 3e 3b 8d 2c 40
       1.06734 -2.74083 0.407545 2.69612
000060 4f 0a 8e bc 30 f5 0f 40 97 8d 86 3e e6 e8 17 c0
       -0.0173389 2.24934 0.262799 -2.37359
000070 35 45 04 bf ec 17 56 c0 a0 88 71 bf 48 1b 01 c0
       -0.516681 -3.34521 -0.943491 -2.01729
000080 d3 c1 12 40 30 0d 43 be 99 b7 ba be c7 fc 83 39
       2.29308 -0.19048 -0.364682 0.000251746
000090 fa da 8e 3c 76 1a 98 c0 4a 5e 71 c0 25 05 ae be
       0.0174384 -4.75323 -3.77138 -0.339883
0000a0 c0 ec d6 bf e4 65 15 bf 50 73 b2 be 42 cf 4c 40
       -1.6791 -0.583586 -0.348536 3.20015
0000b0 bc 79 06 c0 d6 e2 07 c0 7b 14 86 3f 5a 4a 36 bf
       -2.10118 -2.12322 1.0475 -0.712072
0000c0 d0 0a e4 c0 18 43 85 3f bc 91 01 c0 57 5b 79 c0
       -7.12632 1.04111 -2.02452 -3.8962
0000d0 13 61 9b 3f b8 e9 fb bf 19 1c 11 c0 ea cb 36 bf
       1.2139 -1.96807 -2.26734 -0.714049
0000e0 1a 6e 92 c0 18 26 27 c0 15 e6 19 3f 35 98 98 c0
       -4.57594 -2.6117 0.601167 -4.76858
0000f0 9d 4c 04 3f d7 a3 1a c0 46 ed 1a bf d5 e7 16 c0
       0.516794 -2.41625 -0.605183 -2.3579
000100 2f a8 8b 3f 85 08 02 c0 10 23 00 c0 9d 46 4e 3f
       1.09107 -2.03177 -2.00214 0.805765
000110 b9 19 ee bf 7f dc 16 bf 0a 2e 86 bf 22 54 fd bf
       -1.86016 -0.589302 -1.04828 -1.97913
000120 8b 1a 38 40 e4 a1 3f be 1d 13 53 bd fd d2 67 bd
       2.87662 -0.187141 -0.0515319 -0.0565977
000130 4e b5 06 3e 49 f2 a4 be c7 f0 5d bd 6c b2 d3 c0
       0.131551 -0.322161 -0.0541847 -6.61553
000140 a1 12 3b bf 98 4e 6b be 9e d2 e5 bf 41 7d d3 be
       -0.730753 -0.229792 -1.79549 -0.413065
000150 33 16 91 bf 99 33 36 3d 8a 44 37 3d 5f 46 09 c0
       -1.13349 0.0444828 0.0447431 -2.14492
000160 0a 4b 18 bf b6 9e 89 be cb 84 43 c0 5f 5e 90 3e
       -0.594895 -0.268789 -3.05498 0.28197
000170 fb 05 fb bf fb 5c c9 bf 21 b0 28 c0 e7 8c a8 bf
       -1.96112 -1.57315 -2.63575 -1.3168
000180 8a 76 9d bf 57 60 c8 bf f6 23 55 c0 fc e3 8e c0
       -1.23018 -1.56544 -3.33032 -4.46533
000190 04 cb d9 3e 2f a5 a6 be 92 e8 d5 bf 97 ff c8 3e
       0.425377 -0.325479 -1.67116 0.392575
0001a0 5b 7c 16 40 4d a0 2c bf 83 fa 6a bf 84 f0 80 be
       2.35134 -0.674321 -0.917885 -0.251835
0001b0 6b 0e 70 3d b7 ee 36 3f ae b9 7f bf cc d0 74 3f
       0.0586075 0.71458 -0.998927 0.956311
0001c0 d5 b0 2f be 5e d9 35 3f 4c 89 9c 3f 57 26 a0 bf
       -0.171573 0.710348 1.22294 -1.25117
0001d0 e4 14 d9 bf 90 bd 1a 3f 4f 74 4d 3e fa 0c 28 be
       -1.69595 0.604455 0.200639 -0.164112
0001e0 b3 d2 74 be 53 22 45 40 2e 56 f8 bf 28 7f 77 3f
       -0.239085 3.08022 -1.94013 0.966784
0001f0 7b 08 b6 bb b8 5c 39 3f da 03 f5 be 0d c1 61 3e
       -0.00555521 0.724071 -0.478545 0.220463
000200 fb 57 30 c0 fc 1b 00 bf f8 c5 49 3f 27 f7 bb bf
       -2.75537 -0.500427 0.788177 -1.46848
000210 d6 fc 74 3f a1 d7 37 bf b7 d4 91 3e 98 dd 23 be
       0.956983 -0.718134 0.284826 -0.160025
000220 51 55 d7 3c 58 a8 55 3f c4 ce cc 3f b5 c1 e9 bd
       0.0262858 0.8346 1.60006 -0.114139
000230 a9 69 4b 3f e8 a4 f7 bc 59 c1 47 3f 1c 08 0b 40
       0.794581 -0.03023 0.780294 2.17237
000240 a2 f0 05 bf 56 0d 26 3f 11 38 ea 3e fe 65 eb bf
       -0.523203 0.648641 0.457459 -1.83905
000250 1e 6d 9c 3f f2 cd 8e be f5 f4 f1 3d cf 48 89 bd
       1.22208 -0.278915 0.118143 -0.0670334
000260 48 c8 3b bd 81 22 56 bd 2c db a2 3d 26 e3 18 be
       -0.0458453 -0.052279 0.0795196 -0.149304
000270 93 00 dd bf dc 64 74 bd 96 c0 97 3d 6b 93 d4 3c
       -1.72658 -0.0596665 0.0740978 0.0259492
000280 47 3e a7 be 05 e1 ca 3e 56 b1 7d 3d bd 34 65 bd
       -0.326647 0.396248 0.0619367 -0.0559585
000290 35 0b 24 be 80 a7 8f bd bc 91 91 be d6 70 21 be
       -0.160199 -0.0701437 -0.284315 -0.157657
0002a0 75 f7 6a bd a5 05 9e 3c db fc a7 3e e4 ec 04 bb
       -0.0573649 0.0192898 0.328101 -0.00202828
0002b0 dc f2 41 3e fc c7 e2 3d 3e 75 2c bc 5f b4 47 bc
       0.189403 0.110733 -0.010526 -0.012189
0002c0 bf d7 eb bc 5b 5e 69 be 98 4b 8f 3c 1b d7 ff 3d
       -0.0287894 -0.227899 0.0174921 0.124922
0002d0 3e ae ed 3d 5e 82 f3 bd 65 3b ba bc 1a 51 9a bc
       0.116055 -0.118901 -0.0227334 -0.0188375
0002e0 55 00 b7 3d 77 4d c8 bc 9b 9b 25 bc 6c 1f 37 3d
       0.0893561 -0.024451 -0.0101079 0.0447077
0002f0 ec 8e 1e bc 36 6b 3a bc fc a8 66 3e ab 3f 92 3e
       -0.00967763 -0.0113781 0.225254 0.285642
000300 a6 49 24 3d 0d 08 21 bc 2d 43 3c bf 25 ae 2f bf
       0.0401093 -0.00982858 -0.7354 -0.686251
000310 af ff c2 bb 84 e6 84 3c 29 4d f9 3c 55 6b 23 bb
       -0.00595089 0.0162232 0.0304323 -0.00249358
000320 ed b6 51 40 7d 91 5a 40 51 f7 81 be 27 88 54 c0
       3.27679 3.41513 -0.25384 -3.32081
000330 f8 19 bf 3f d7 bf 43 bf 9d 68 09 c0 0a dc aa 3f
       1.49298 -0.764646 -2.14701 1.33484
000340 a6 81 4b 3f 2e ca bc be 4e 0d 9c be 9e ef ab 3f
       0.794947 -0.36873 -0.304789 1.34325
000350 6e 16 bf be a6 27 18 c0 10 cc 81 40 26 a1 59 3d
       -0.373218 -2.37742 4.05616 0.0531322
000360 7d 96 6b 3f f0 f9 0b 40 3b 19 cb c0 08 ac 44 c0
       0.920265 2.18713 -6.34683 -3.073
000370 e3 8d 80 bf d3 c1 2a c0 4f 75 dc 3f e4 4e 49 40
       -1.00433 -2.66808 1.72233 3.14544
000380 92 84 f3 bc 19 e2 5e c0 b2 ba 91 bf f7 58 4e 40
       -0.0297263 -3.48255 -1.13851 3.22418
000390 14 96 04 40 3f 52 b8 3f 20 99 12 3f d5 3e 95 3e
       2.07166 1.44001 0.572649 0.291495
0003a0 ed d3 bd 3f 14 5d 97 be eb 3b 17 bf 27 a0 91 bf
       1.48303 -0.295632 -0.590758 -1.1377
0003b0 f9 fe a1 3c 5d 8a cb 3f 26 72 5d bf 03 b3 c2 be
       0.0197749 1.59016 -0.865023 -0.380272
0003c0 8f 55 06 bf 06 f5 4b c0 bb d0 d3 c0 8f c2 1b 40
       -0.524743 -3.18683 -6.61923 2.43375
0003d0 e3 8d d0 bf e6 74 05 40 0f 28 ff 3f 18 05 e1 3e
       -1.62933 2.08526 1.99341 0.439492
0003e0 35 d0 00 3f 80 82 67 40 85 eb 01 c0 87 c4 65 c0
       0.503177 3.61734 -2.03 -3.59012
0003f0 56 10 03 3e 07 7a c8 3e 8e 01 c9 bf a9 d9 bb bf
       0.127992 0.391556 -1.57036 -1.46758

B5 f4 [50]
000000 b9 88 a6 c0 be 87 bb 3f 73 f4 32 40 c3 46 49 be
       -5.20419 1.46508 2.79617 -0.196559
000010 cc b4 af c0 ee 77 e4 3f 08 e9 45 3f 30 2f 38 c0
       -5.49082 1.78491 0.773087 -2.87788
000020 6c b0 c0 be bb 0f 8b c0 0f 22 fe bc e2 23 80 c0
       -0.376346 -4.34567 -0.0310221 -4.00438
000030 59 52 b6 3e f5 b8 ef 3e 09 c4 c4 c0 f4 32 b2 3f
       0.356097 0.468208 -6.14893 1.39218
000040 ca 15 c7 c0 cd 23 ef bf a8 a9 f5 3e 33 33 8f bf
       -6.22141 -1.86828 0.47981 -1.11875
000050 db 13 40 bf 3b df e7 bf 2e 9c da bc 1f 2e c6 c0
       -0.750303 -1.8115 -0.0266858 -6.19313
000060 03 f8 00 c1 f0 85 a8 c0 81 26 9a 3f 26 01 f2 40
       -8.06055 -5.26635 1.2043 7.56264
000070 23 13 30 3e 9c bf cc c0 0e 4b 4b bf 7d 5c c3 3f
       0.171948 -6.39839 -0.794114 1.52626
000080 31 99 84 c0 a0 e1 35 3f 44 17 c4 c0 52 b8 be c0
       -4.1437 0.710474 -6.12784 -5.96
000090 79 1e 88 c0 04 56 68 c0 b2 80 b5 c0 07 7d f9 be
       -4.25372 -3.63025 -5.67196 -0.487282
0000a0 e4 2c 74 c0 e5 0a 9d 40 57 5b af c0 45 0d 4a c0
       -3.81524 4.90758 -5.4799 -3.15706
0000b0 74 b5 9c c0 e5 7e b3 c0 e0 9e 8f 3e 60 ea 8b 3f
       -4.89715 -5.60924 0.280509 1.09309
0000c0 7b da e0 c0 7c 48 2c 3f
       -7.02667 0.672981
