data/acasxu/nets/ACASXU_run2a_3_2_batch_2000.onnx (onnx, 53878 bytes, 14 tensors)

W0 f4 [50, 5]
00000000: 67a0 0f3c 058a 48be d2a8 44bf e929 a2be
00000010: 0115 5e3e d59f f3bc 66bf 5e3f 84b8 72be
00000020: f99d cebe 7990 debe 7e16 b03c 63f0 a0bd
00000030: 91d6 f83d 581f 4b3f a114 6dbf d388 b4bc
00000040: 103f afbd 7784 d33d 156f 243f abea 25bf
00000050: 59d5 973d 4d4a bdbf d6c5 0dbe adda 9d3e
00000060: 9f77 0bbf e8aa b43d b801 9b3f 596e b1bf
00000070: 1362 8e3e 19ff bebe 1980 7cbc fc1a a93e
00000080: 7cd5 4abe 3cf7 a2bf 4d86 4bbf 6fd3 87bf
00000090: e20a c3bc 5c09 17bc feb5 94be cf84 053c
000000a0: 03e2 3fbc 55fb bcbe 49d7 703f a4f3 6b3d
000000b0: ff21 19bf 2861 d2bf 7ea1 6cbc 0a2a 8f3c
000000c0: d786 4abd 15df c53d b83e 0b3b b8fd b83a
000000d0: 1f97 f439 7e08 bf3b cc2c 1339 7844 05bd
000000e0: 31ce 933f 1190 6b3f d34f 303f 9fb0 00bf
000000f0: 8659 f0be fa62 afbd 66a3 333e d449 d6bd
00000100: 6955 6bbe be05 683d 029a 8c3f 30d8 8dbf
00000110: b79a f53c 2905 b5bf dd96 063c 8cb9 0bbe
00000120: 79e9 dabf 2e06 09bc 6c33 23bc d656 bcbf
00000130: f646 6d3d c85c aebd 2bd9 963c 5d2e e63b
00000140: 66a0 bebf 3e97 843d 695d 9ebd c3cc 283d
00000150: 7766 42be 789a 1cbf 7027 213e 7ea8 24bf
00000160: 84a0 e3be 2eab b03e a377 eabc 7a51 6fbf
00000170: 0074 8cbf 7099 2b3f e5d1 9dbe 1b67 e3be
00000180: 4581 a1bb 3237 84bc 3316 65bf 8884 efbe
00000190: fe81 52bf 6746 5f3e ab78 13be 17c2 c03d
000001a0: 2dd0 0fbc efcb 09be ca1b 50be cc7e b53e
000001b0: 0797 cebe c6a2 85bf 4aca c2bc 682d 5bbd
000001c0: 5c1b fabe b7d3 b63e cf87 5bbf 2d66 5a3d
000001d0: dd24 9abf d044 c03f c6e8 bfbd ba12 153f
000001e0: c6aa 7cbd 1b10 193f 3c14 21bf 1058 d9bd
000001f0: 020e bdbf f4a6 7abf b070 e23e 5561 7d3c
00000200: 4d48 6bbe e965 38bf 72f8 44bf 11c8 75be
00000210: 5c3a 163e fef5 e53c 3aa5 0d3d 0d8e d03b
00000220: c5e4 85be 4f79 643e b3d2 8cbf a75d 203f
00000230: d341 0bbc 7cb5 b33e bd70 bfbe 7b49 93bf
00000240: c58f 51bf a6ed 0fbe 8c4a f23f ce36 d3bf
00000250: 6b53 6b3d c68b a53e 3f03 65bd 81f0 7c3c
00000260: 5cad 573f 8ff1 12bd 6a3e 3d3d e50a c3bf
00000270: c00e a7bd 4265 a23d e424 bdbb 3034 91bb
00000280: 1100 fcbd bc5b 613f 2a52 85bf 57ec 0f3d
00000290: 36ca 1ebf a7ad 713d fc7d b5bc 145b 5d3f
000002a0: 3cc2 443d 70a0 c6bd 5070 99be 0519 69bf
000002b0: 0074 803f 3c74 70bd 5584 83be e2c8 3f3f
000002c0: 262a 65bc c0ab ca3c 6dc6 913e 5a81 1dbf
000002d0: d891 343c f3e5 a13f a5bd adbf ab9d bc3d
000002e0: 5cf0 c83d 9598 4cbd d7c0 be3f 9e07 3c3d
000002f0: cb48 6d3e ae32 cfbb fdc1 dcbf 60c3 c83d
00000300: 7e38 c8bc df87 e83c 8f3c 4bbd 5d6d 85bf
00000310: 971c 97be 0fba a43e ce8e f43d cd0e 27bc
00000320: 9752 7a3b 6f2d 573f 3a93 5ebf 3e83 cc3d
00000330: 720e 68bc d7e2 be3d d881 cb3f 9f5f 6fbc
00000340: d3a5 1f3e 66a4 7ebe a417 15be 5659 b5bd
00000350: f66e a2bd d0f0 423f ea3e 603e 64bb 0e3c
00000360: a62a 9d3e 5b4c a23d dba6 d8be 0fdc c73d
00000370: f313 1abc 91ef f2bd 6808 073e 1b2c 3cbf
00000380: 98c1 08be dee8 43bd e5b7 083d 3373 bb3a
00000390: 14ea 79be 6d73 efbf 8594 f3bf adf1 63bc
000003a0: 76e1 453b 382b c3bb 83f8 403c 9908 00bd
000003b0: ff96 d83e c781 d73d 0a80 bdbf 406a 433e
000003c0: 834d fd3d fa27 1cc0 62f8 683f 22a0 973d
000003d0: d2c4 a3be 8fc2 c53e ea22 853a 68d6 8c3b
000003e0: 0af2 53bf 77a1 95bf
0.00876627 -0.195839 -0.768201 -0.316726 0.216877 -0.0297393 0.870108 -0.237032
-0.403549 -0.434696 0.0214951 -0.0785835 0.121503 0.793447 -0.926096 -0.0220379
-0.0855695 0.10328 0.64232 -0.648112 0.0741374 -1.47883 -0.13845 0.308309
-0.544794 0.0882166 1.21099 -1.38618 0.278092 -0.37304 -0.0154114 0.330284
-0.19808 -1.27317 -0.795018 -1.06114 -0.0238089 -0.00921854 -0.290451 0.00814934
-0.0117116 -0.369105 0.940785 0.0576054 -0.598175 -1.64359 -0.0144428 0.0174761
-0.049445 0.0966169 0.00212471 0.00141137 0.000466519 0.00582987 0.000140357 -0.032536
1.15473 0.920167 0.688718 -0.502695 -0.469433 -0.085638 0.175428 -0.104633
-0.229818 0.0566461 1.09845 -1.10816 0.029981 -1.41422 0.00821468 -0.13645
-1.71025 -0.00836329 -0.00996099 -1.4714 0.057929 -0.0851379 0.0184141 0.00702457
-1.48927 0.0647416 -0.0773266 0.0412109 -0.189844 -0.611732 0.157377 -0.643196
-0.444584 0.345056 -0.0286215 -0.934837 -1.09729 0.67031 -0.308242 -0.444146
-0.00492874 -0.0161396 -0.89487 -0.467808 -0.822296 0.218042 -0.144015 0.0941202
-0.00877766 -0.134567 -0.203231 0.354483 -0.403496 -1.04403 -0.0237781 -0.0535101
-0.48849 0.357084 -0.857541 0.0533201 -1.20425 1.5021 -0.0937057 0.582317
-0.0616863 0.597902 -0.629215 -0.106125 -1.47699 -0.97911 0.442266 0.0154651
-0.229768 -0.720305 -0.769416 -0.240021 0.146707 0.0280714 0.0345814 0.00636459
-0.261511 0.223119 -1.10018 0.626429 -0.00849958 0.350994 -0.373907 -1.15068
-0.8186 -0.140555 1.8929 -1.65011 0.0574526 0.323332 -0.0559113 0.0154382
0.842489 -0.0358749 0.0462021 -1.52377 -0.0815711 0.0792947 -0.00577222 -0.00443127
-0.123047 0.880306 -1.04157 0.0351375 -0.620273 0.0590035 -0.0221548 0.864671
0.0480368 -0.0969857 -0.299685 -0.910538 1.00354 -0.0587046 -0.256869 0.749159
-0.0139871 0.0247401 0.284717 -0.615255 0.0110211 1.26483 -1.35735 0.0920976
0.0981147 -0.0499502 1.49026 0.0459057 0.231723 -0.00632318 -1.72467 0.0980289
-0.024441 0.0283851 -0.0496183 -1.0424 -0.29514 0.321732 0.119413 -0.0101964
0.00381962 0.840537 -0.869434 0.0998597 -0.0141636 0.0932061 1.5899 -0.0146102
0.155906 -0.248674 -0.145598 -0.0885493 -0.0793132 0.761487 0.21899 0.00871167
0.306966 0.0792472 -0.423148 0.0975877 -0.00940417 -0.118621 0.131868 -0.735048
-0.133551 -0.0478295 0.0333785 0.00143013 -0.244057 -1.87071 -1.90297 -0.0139126
0.00301942 -0.00595608 0.011778 -0.0312582 0.423027 0.105228 -1.48047 0.190835
0.123683 -2.43994 0.91004 0.0740359 -0.319861 0.38625 0.00101575 0.00429802
-0.827912 -1.16899

B0 f4 [50]
00000000: 3ada e73c 3f1e 9abe 0ea2 f53d 8d28 6d3e
00000010: 88f2 e5bd 6ced d5be a704 28bf 7906 4dbe
00000020: d5eb c6be 923e f5be 1ed7 abbc 5efb 1fbc
00000030: 4e30 92bc 3bc5 1abe bc57 cd3d 4d0f 92be
00000040: 1c7a 9bbe effe 48be a870 e4bd 23d8 30bf
00000050: e7a3 b1bc 1af8 09bf c4ec 753e aa49 f0be
00000060: 4d12 e3be 9549 29bf 1c1b 4bbc fc00 24be
00000070: dfa5 84be b733 023d 4e3e e23a d254 97be
00000080: 3be0 1a3e 1fdb 923d dfb8 563c a1a1 ff3d
00000090: cf2c f9be 5af1 0d3e 92ce f8be c45b 37be
000000a0: ca32 ec3e 36d2 2dbc e8bd e93e 586a c73d
000000b0: 4d4c 373e 8f39 5bbf cefc 06bf 041d 31bf
000000c0: cc97 47be 8a73 24bf
0.0283023 -0.301012 0.119938 0.2316 -0.112279 -0.417827 -0.656321 -0.20022
-0.388518 -0.478993 -0.0209766 -0.00976452 -0.0178453 -0.151143 0.100265 -0.285273
-0.303666 -0.196285 -0.111543 -0.690798 -0.0216846 -0.538942 0.240161 -0.469312
-0.443499 -0.661279 -0.0123966 -0.16016 -0.259078 0.0317876 0.0017261 -0.295569
0.151246 0.071707 0.0131056 0.12482 -0.48667 0.138616 -0.485951 -0.179061
0.461325 -0.0106092 0.456527 0.0973708 0.179002 -0.856347 -0.527295 -0.691849
-0.194915 -0.642388

W1 f4 [50, 50]
00000000: 6406 8e3f 809f e13e 965a e73e 683f a2bf
00000010: de74 e33e 1c34 aabc 6ea6 e23e 4c6f 0f3f
00000020: 8f39 a7be a705 af3f 2d4b 2a3d 4c70 4abe
00000030: 9f6c 943d 1cc2 b2bd 1059 243e c9e5 223a
00000040: 780c 2fbe d1e9 0d3f 2bc3 733d a52c afbf
00000050: 6171 f8bd ac1a ec3e 209c 7fbe 45bd 7cbf
00000060: 6a33 02bf 3d61 f93f 6006 47bf e1ee 8c3e
00000070: 0f2a 51be ddeb 583f 253f e2bd 3a96 e73e
00000080: 2316 21bf af40 243e 2b18 bd3f 36e4 ff3d
00000090: 6af6 fcbf 61a6 ad3e 32ac 723e dd06 2dbf
000000a0: 20ae a13d f06c 3f3e 1345 60bf f910 203f
000000b0: c7c0 c5bd aad4 bcbf 9ab1 d4bf c51b adbf
000000c0: faef 01bf af42 4a3e 5e0e 5bbf e2e4 823f
000000d0: 618e 8e3f 9bc6 0a3f d9af 5b3e 130d 7e3f
000000e0: 0d38 1bbe 2a25 ca3d 4f02 4bbf 4a7a d0be
000000f0: e257 0b3c 088f 5ebf 5e14 4d3e b823 1240
00000100: 637a cabf 0d1a e2be 6078 8d3e 1f66 4f3e
00000110: c3a5 59bd 72e1 88bf 14ec dfbe 6248 063f
00000120: 1970 c6bd d480 613e ff5a 563f c51c 5cbf
00000130: b0ae cabd f8aa 25bf d7be 80be f4fb 5ebe
00000140: 9cdd 3a3e 2a56 cd3e 0b45 3e3f 1d22 7e3e
00000150: 8c68 fb3d 4ef2 33be a436 bd3f 0551 a7bf
00000160: 9d68 dfbe 2924 49be 1366 58c0 d639 dabf
00000170: 868e b53e e945 4d3e b8af 27bf 9274 cdbd
00000180: 1c78 dd3e 8bdf 9cbe 4831 4c3f de90 be3e
00000190: 7f4b 2c3f 8d08 66be 297a 44bf 8e93 3ebf
000001a0: 7381 173f 9548 fabf af97 fe3e 4913 9fbe
000001b0: 289e 4bbf d941 453f 442e ddbc 3f8b 513f
000001c0: cf83 bb3e e71b d13d 3220 b7bf 76c5 443f
000001d0: 1dfd b43d 2789 c03c 8bfd 4740 24b5 3c3f
000001e0: 9d6a a8bd a8e3 bdbf 772b 17bf 043c 153f
000001f0: a586 063e ab7b dcbe 9be3 3cbe 5bb6 313c
00000200: aeb7 6ebb aa43 863f 2daf fc3e 95f8 57bd
00000210: 9a23 2bbd a5bb 80bd 59dc 033f 26d5 a8bd
00000220: 5a64 0dc0 5beb 9b3f 0d1a 7a3e a25f 0bbe
00000230: 60cd 013e 7557 023f 0118 abbf 5b61 d23e
00000240: 1757 b6bd 459e 9cbe a0fd 443f b152 31be
00000250: f19e 2f3f f242 2abe d829 46bf be15 5dbf
00000260: 1328 2e3f 8b4b 9a3d f8fc 90be fc8f 44bf
00000270: 92d9 2cbb 2f36 f5be e1b4 2040 6783 673d
00000280: 68b0 e9bc dc4a 57bf b3d3 1bbf c9aa 183f
00000290: c650 5e3e 80ba 0d3f 5a81 213e 8f19 48be
000002a0: 973b 4bbf 10cc 693f d157 903e 9279 f03f
000002b0: 6d90 85bf 4694 1a3f e292 9b3f 9a24 eebe
000002c0: 0876 ac3e 7f13 20c0 78fa b7bc a930 f63d
000002d0: 23dd 473f c7f5 6fbd 6ccf b43f 29a3 abbd
000002e0: c844 163f 2d43 4c3e 91ac cbba 49e1 d5bc
000002f0: 952d 16bf 04e4 23bf 9079 bebd 2513 41bd
00000300: 3b34 7c3e f510 adbf 6633 1bbf 9695 0c40
00000310: d95f c63f 05c2 7abf d157 04bf 07b2 9e3e
00000320: 5f2b bc3c aae2 1cbd bbf2 34bc f473 1ebd
00000330: 5f6e e6bc 5d51 0a3d ad5f fabc 1126 9c3b
00000340: da14 d93c c961 26bd c51c 84bc da40 55bd
00000350: 4f6f 0bbd 6109 5abd 9f12 a13c bebd 6b3c
00000360: e98b 9c37 b49d c6ba 2cd4 5cbb 54dd 27bb
00000370: 0a11 13bc 91aa 17bd 00a5 46bd 1821 013d
00000380: cd67 2f3c 929c a73c 8e4b 093c 14aa 40bd
00000390: 6dfd 74bc b16e fa3b 4b6d 8ebc 67be 3ebd
000003a0: 6809 b23c 1897 2a3c 8cc8 06bd 13ce d3bc
000003b0: 1ba9 adbc 71aa b5bc 15eb 2f3c da83 1abd
000003c0: 7084 1c3c d5e9 40bc 0711 44bd b70d 63bd
000003d0: de8a a9bc 9ea6 00bd 5b86 aebc c54b 213d
000003e0: 8256 60bd a83b aabc bd1d bd3f 38a0 793f
000003f0: 86ab 73bf 91d0 8ebf 0dde 673e 289b 2ebf
1.10957 0.44067 0.451863 -1.26756 0.444251 -0.0207768 0.442676 0.560292
-0.326611 1.36736 0.0415756 -0.197694 0.0724728 -0.0872843 0.160496 0.000621405
-0.170946 0.554349 0.0595123 -1.36855 -0.12131 0.461141 -0.249619 -0.987263
-0.508597 1.94828 -0.777441 0.27526 -0.204262 0.847349 -0.110472 0.452318
-0.629244 0.160403 1.4773 0.124947 -1.97627 0.33916 0.236985 -0.675886
0.0789454 0.186939 -0.876054 0.625259 -0.0965591 -1.47524 -1.66167 -1.35241
-0.507568 0.19752 -0.855688 1.02261 1.11372 0.542093 0.214538 0.992387
-0.151581 0.0987037 -0.793004 -0.407183 0.00850484 -0.86937 0.200273 2.28343
-1.58186 -0.441605 0.276309 0.202538 -0.0531366 -1.06938 -0.437348 0.524542
-0.0968935 0.220218 0.837326 -0.859814 -0.098966 -0.64714 -0.251456 -0.217758
0.182486 0.401048 0.743241 0.248177 0.122758 -0.175729 1.47823 -1.30716
-0.436345 -0.196427 -3.38123 -1.70489 0.354603 0.200462 -0.655025 -0.10032
0.432557 -0.306393 0.797627 0.372199 0.673027 -0.224642 -0.767489 -0.744439
0.591819 -1.95534 0.497251 -0.310694 -0.795382 0.770536 -0.0269996 0.818531
0.36624 0.102104 -1.43067 0.768638 0.0883734 0.0235029 3.12485 0.737139
-0.0822346 -1.48351 -0.590507 0.582947 0.131373 -0.430631 -0.184462 0.0108467
-0.00364254 1.04894 0.493524 -0.0527273 -0.041782 -0.0628579 0.515081 -0.0824378
-2.20925 1.21812 0.24424 -0.136107 0.12676 0.509147 -1.33667 0.410899
-0.0890333 -0.305895 0.769495 -0.173167 0.686019 -0.166271 -0.774076 -0.863613
0.680299 0.0753394 -0.28318 -0.767822 -0.00263748 -0.478929 2.51104 0.0565218
-0.0285265 -0.840986 -0.608699 0.596356 0.217105 0.553627 0.15772 -0.19541
-0.793878 0.91327 0.28192 1.87871 -1.04347 0.603825 1.21542 -0.465123
0.336838 -2.50119 -0.0224583 0.12021 0.780718 -0.058584 1.41258 -0.0838073
0.586987 0.199475 -0.00155391 -0.0261084 -0.586633 -0.640198 -0.0930053 -0.0471374
0.246293 -1.35208 -0.606253 2.19663 1.5498 -0.979523 -0.516965 0.309952
0.0229699 -0.0383021 -0.0110442 -0.0386848 -0.0281288 0.033769 -0.0305632 0.00476528
0.0264992 -0.0406206 -0.016127 -0.0520638 -0.0340417 -0.0532316 0.0196622 0.0143885
1.86618e-05 -0.00151532 -0.00336958 -0.00256141 -0.00897623 -0.0370279 -0.0484972 0.0315257
0.0107059 0.0204604 0.00837983 -0.0470372 -0.014953 0.00764259 -0.0173861 -0.0465683
0.021733 0.010412 -0.0329061 -0.0258551 -0.0211988 -0.022176 0.0107372 -0.0377234
0.00955306 -0.0117745 -0.0478678 -0.055433 -0.0206961 -0.0314089 -0.0213043 0.0393789
-0.05477 -0.0207804 1.47747 0.975101 -0.951836 -1.11574 0.226433 -0.682055

B1 f4 [50]
00000000: 61fd 13bf d057 ca3d 4b90 05bf b56c 2dbf
00000010: ca51 80bc 5d50 8f3f 7cf0 a23e 2bfc 053f
00000020: 3cbc af3e 2506 b93f 6d2e c83c 66bb 56bf
00000030: 4f2a b3bb cd57 593e e46a 08bf feee 8dbd
00000040: 15e3 8cbf 44c0 81bf 1d56 48be 47e9 a23d
00000050: 821e 2a3f 36e4 afbe 95f1 6fbc 3b8e 1f3f
00000060: 9a08 2f3f 2753 a0bc 4c03 cabd f355 e23e
00000070: 57ea 81be 5f7f e23e 3ab1 e7bd cea5 04bf
00000080: f934 c2bc cbb9 543e 4fe7 32bf d768 f93d
00000090: 5e4d 7abf 0135 81bf 4a28 31bf b476 773f
000000a0: 986a 72bf 9949 543e 41ef cdbd 1d3c 8bbe
000000b0: 8620 133f 309d f6be 5eca 2f3d 34be f73e
000000c0: 7551 d9bc 541c 97be
-0.578085 0.0988003 -0.521733 -0.67744 -0.015664 1.11964 0.318241 0.523379
0.343233 1.4455 0.0244362 -0.838797 -0.00546769 0.212249 -0.532881 -0.0693035
-1.10068 -1.01368 -0.195641 0.0795465 0.664528 -0.343538 -0.014645 0.623264
0.683725 -0.0195709 -0.0986391 0.442062 -0.253741 0.442378 -0.113131 -0.518155
-0.0237069 0.20774 -0.698842 0.121782 -0.977743 -1.00943 -0.692021 0.966655
-0.946939 0.207312 -0.100554 -0.271943 0.574715 -0.481668 0.0429176 0.483873
-0.0265281 -0.295138

W2 f4 [50, 50]
00000000: 0439 98bd 6a13 273e 4b5c a73e 1cb7 733d
00000010: fa06 4bbc f12d 4c3e 8d24 59bf 8446 88be
00000020: d445 6a3e 427a 08bc 20b8 92be a71f 04be
00000030: a681 afbd 93ac 8ebd 2330 663e 771b ca3d
00000040: f4ae 80bd 7e24 dfbb 0ce6 cfbd 766b b93e
00000050: d7fb a83d b500 28bd 84fb 37bd aeb7 9dbe
00000060: 1ff2 963e ccf5 11bd 84bc 4ebe dbdf f93d
00000070: 65e3 813e fb58 f13e 64b0 ba3e a437 6c3e
00000080: 6bee 0d3d 1f0e 523e a511 23be 5ecf c1bd
00000090: 0297 bc3d 2f14 14bf a168 ee3e 6397 883f
000000a0: e583 b9bd 1a88 41bf 24dc 3f3c f182 983e
000000b0: 3c87 d23e 9353 1bbe 86e4 94be c6be 14be
000000c0: 7be0 febc e0bd 0bbf 793c 113f 2f6a 13bf
000000d0: 15bc a2bd e3dd e13e 5428 21bd c763 cebe
000000e0: 1ccf af3e 1adf 0fbf c784 003f 06d7 5cbe
000000f0: 8c97 c8bd 68b2 6fbe fe44 25be 5c72 b4be
00000100: 0cac 733e 044e c8b9 b41c c0be f2d6 743d
00000110: 349f 073f dd24 e63e cc96 6cbe 240c 773f
00000120: 2250 813a d68e aabe 09e1 4d3f 1e6a 203d
00000130: 0473 acbe f0db d83e e15d 8ebf 65e1 933e
00000140: d5ca f43e 7827 1fbe 666c 23bd 8c49 3f3e
00000150: 34f9 c13d e9d6 eb3e 3cf7 a63e 9baf 063f
00000160: 3ad2 74bc ce37 aabe 7385 ffbe 6b2a 1bbe
00000170: 3f9e 67bd 363f c63e f9a3 183e 7e18 e1bd
00000180: 22fb e0bd d807 8ebd 31cb c3bc 0f45 01be
00000190: 63c4 8f3c 07b7 d03c 5ad5 a2bd f0f7 b03c
000001a0: dae2 3abd 4b60 8ebc 99bc 81bc bba7 b938
000001b0: bd73 283c 1f9a 3b3b ae12 28bb 12d5 c03c
000001c0: 642c 89bb f631 55bd e134 f13b fd32 b5bb
000001d0: 91bb 43bd 1bbb c4bc 0332 68bb d8de 5d3c
000001e0: 3da5 b9bc 7c1f d83b ba2e 1cbd 0c7f 3cbd
000001f0: 4897 6dbd 89b6 23bd 2a41 15bd 9518 3a3c
00000200: 0aa7 dc3b 848f 82bd 5e41 3fbc 3029 4cba
00000210: c408 61bd 52be 5aba e2e6 d43c 270c 103c
00000220: fafc 86bd 18d1 36bd 7f2b 3ebd 94bf bb3c
00000230: 4b98 24bd 48ca f1bc 2997 063d 69bc 3e3c
00000240: 3125 753b 4085 63bd 0470 333c a0ba 1ebd
00000250: 527e 32bd 3f52 84bd aa65 8f3f 45f3 18bf
00000260: 8c84 d6bd dee3 783f a9a8 95bc 9318 24bf
00000270: d73d a83d 2f6d d8be fb57 96bd ac76 b8bd
00000280: b9fa 99be 56b7 a6bf c7d8 69be f415 b83f
00000290: 5796 783e e8f8 e83d d042 42be 83a5 0e3f
000002a0: 7028 db3b 73bb 373e 554c e53d 89af 3b3d
000002b0: 5397 0c3d ec67 79bf 90be f13e 1e83 fabc
000002c0: 42c9 aa3b 0e87 393f fd4d 483e 00ff 2c3f
000002d0: 48a4 d5be 79ce 72bf 48cf c2ba 26a9 743f
000002e0: c70f 293f de9f dc3c 7be5 703d f2d2 ed3d
000002f0: 4129 0e3f a4c2 98be 718e 3abf d1cf 543f
00000300: 1745 0fbe de57 053e d480 893e fe80 e73d
00000310: 8df0 f6be e2e6 243e dfbb b23c 22e2 9e3e
00000320: efac 25c0 34bf 5abe 041b 873e b797 34be
00000330: 1f1f a33c 3084 943e 3ca2 9abe c939 813d
00000340: 5c57 7c3e 79ca 1a3e c026 1bbe ce1a 08bf
00000350: dfdc 3f3e 008b 8c3e 575a 323f a2ed d83d
00000360: ae9b 123e 77db 25be ce51 073e 3788 8ebe
00000370: 14bf 33bd 323c 3e3f c2c0 f33c 0b22 373d
00000380: 3999 a83e 5eb2 3b3d 28b8 a43f bc81 883d
00000390: 247f 9c3f e5b4 6bbf 38a4 21be 1269 3bbe
000003a0: 3a60 283a 698c a2bf 56e7 623d f08f 92bd
000003b0: d994 0bbe 0d71 083f 13f1 c63d 32e9 6fbf
000003c0: f38f ee3e 32cc 59be 0a68 fabe 9c86 003f
000003d0: d828 2bbe d89e 55c0 7c0b 7b3e 22fe 21be
000003e0: 250d ea3b fdbe 7f3e f168 57bf 4b92 373f
000003f0: cb2d 85bf d218 ad3e c48c 3abd f354 dfbf
-0.0743275 0.16316 0.326876 0.0595008 -0.0123918 0.199394 -0.848214 -0.266163
0.228782 -0.00832993 -0.286561 -0.129027 -0.0856965 -0.0696651 0.224793 0.0986852
-0.0628337 -0.00680977 -0.101513 0.362148 0.0825116 -0.0410163 -0.0449176 -0.308042
0.294816 -0.0356348 -0.201891 0.122009 0.253688 0.471382 0.364627 0.230681
0.0346512 0.205132 -0.159247 -0.0946338 0.0920849 -0.578433 0.465642 1.06712
-0.0905836 -0.755983 0.0117102 0.297874 0.411188 -0.151686 -0.290806 -0.145259
-0.0311129 -0.545866 0.567329 -0.575839 -0.0794603 0.441146 -0.0393451 -0.403105
0.343377 -0.561998 0.502026 -0.215664 -0.0979453 -0.234079 -0.161396 -0.352435
0.237961 -0.000382051 -0.375219 0.0597753 0.529773 0.4495 -0.231044 0.965029
0.00098658 -0.333121 0.804215 0.0391637 -0.336815 0.423553 -1.11224 0.288829
0.47811 -0.155424 -0.0398983 0.186804 0.0947136 0.460624 0.326105 0.526117
-0.0149427 -0.332457 -0.499065 -0.151529 -0.0565474 0.387201 0.149063 -0.10991
-0.109854 -0.0693509 -0.0239006 -0.12624 0.0175497 0.0254779 -0.0795085 0.0216026
-0.0456265 -0.0173799 -0.015837 8.85273e-05 0.0102815 0.00286258 -0.00256459 0.0235391
-0.0041862 -0.0520496 0.00736104 -0.00552976 -0.0477863 -0.024015 -0.00354302 0.0135419
-0.0226618 0.00659555 -0.0381305 -0.0460196 -0.0580056 -0.039969 -0.0364391 0.0113584
0.00673378 -0.0637503 -0.0116733 -0.000778812 -0.05494 -0.00083444 0.025989 0.00879196
-0.0659122 -0.044633 -0.0464282 0.0229185 -0.0401843 -0.0295154 0.032859 0.0116416
0.00374062 -0.055547 0.010952 -0.0387522 -0.0435775 -0.06461 1.12029 -0.597462
-0.104745 0.972227 -0.0182689 -0.641 0.0821492 -0.422708 -0.07341 -0.0900701
-0.300741 -1.30247 -0.228366 1.43817 0.242761 0.113756 -0.189708 0.557213
0.00668817 0.179426 0.111962 0.0458217 0.034324 -0.974242 0.472157 -0.0305801
0.00521198 0.724717 0.19561 0.675766 -0.417269 -0.948463 -0.00148628 0.955706
0.660397 0.0269317 0.0588126 0.116125 0.555317 -0.29836 -0.728736 0.831296
-0.139912 0.130218 0.268561 0.113039 -0.482304 0.161037 0.0218181 0.310319
-2.58868 -0.21362 0.263878 -0.17636 0.0199123 0.290071 -0.302019 0.0630985
0.246427 0.151163 -0.151515 -0.531659 0.187366 0.274498 0.696691 0.105922
0.143172 -0.16197 0.132148 -0.278383 -0.0438834 0.743106 0.029755 0.0447102
0.329294 0.0458244 1.28687 0.0666537 1.22263 -0.920729 -0.157853 -0.183018
0.000642303 -1.26991 0.0553964 -0.0715636 -0.13631 0.532975 0.0971395 -0.937152
0.465942 -0.212693 -0.489075 0.502054 -0.167148 -3.33782 0.245161 -0.158196
0.00714268 0.249752 -0.841445 0.717076 -1.04046 0.33808 -0.0455444 -1.74478

B2 f4 [50]
00000000: 73d8 6d3e 5bcf 083f 0d54 06bd 8bfa 64be
00000010: f8fc 84bf cff9 31bf aa27 633e 711e 1ebe
00000020: 31cf dabe 298e a83b b4e4 653f a358 a6be
00000030: 38a4 11be 5fb5 9e3f ab21 81bd cf1e 9ebd
00000040: fdc1 b83f 3a06 f0bf cb9c 5e3e 4e9c dc3d
00000050: b343 bc3e f384 6fbc 5ce6 58bf 3597 47bf
00000060: e10a b8be f2d2 753f aec6 08bd efe2 8d3e
00000070: e57b 2ebf c3f1 1cbe b667 0440 e6ae 0d40
00000080: 9850 6dbf 6b62 21be 61c4 963e 363c c1bf
00000090: 1d5b 7fbf 384a a6bf 4df6 4f3d 112f 743c
000000a0: c7d6 333e 425b b6be f209 99be 9d2c 653e
000000b0: 3106 723f d7c2 183f 42d2 873e 702e 743d
000000c0: c7b8 fa3e 740c 18bf
0.232271 0.534414 -0.032795 -0.223612 -1.03897 -0.695218 0.221831 -0.154413
-0.427362 0.0051439 0.898021 -0.324895 -0.142228 1.23991 -0.0630525 -0.0772072
1.44342 -1.87519 0.217395 0.10772 0.367704 -0.0146191 -0.847265 -0.779651
-0.359458 0.96025 -0.0333926 0.277122 -0.681578 -0.153266 2.06883 2.2138
-0.927011 -0.157602 0.294467 -1.50965 -0.997484 -1.29914 0.050772 0.0149038
0.175624 -0.356165 -0.298904 0.223803 0.945407 0.596723 0.265276 0.0596146
0.489691 -0.59394

W3 f4 [50, 50]
00000000: df89 81be b43e e5be 7644 0f3d d2aa e63e
00000010: 19cb a4be b472 9f3e 5bd2 79bf 8038 993c
00000020: b6f7 653f c1e3 0bbe 986c e43e bb7e a13f
00000030: cfd7 bcbe 7bc0 dcbd 7f32 36be 92cb 03bf
00000040: db4e dbbd 56c3 a4bd 8657 eabe 807d b4be
00000050: 3d0a c7be 815f 43bd 3e5a 10bf 04ae 8b3e
00000060: 4547 023e 93e5 5cbf 33fb e4be 07b6 023f
00000070: 42b2 d4bf 9668 7f3c 7006 dfbd d448 eb3e
00000080: 2027 7c3f f46d 053f 0a86 bb3e 72dc 29c0
00000090: b5c1 25bf eb1b 683e 7651 443f 5fd2 b03f
000000a0: 86c7 0ebf f5b9 9ebf c5e7 4ebe c9c7 1ebe
000000b0: b4ab 54bf 3b1d 903e 4163 023f 5f07 96bf
000000c0: 060f cb3e 66f8 3fbf 2420 9b3d 7c9d f43d
000000d0: a8e4 fb3b 9370 f9be deab 8ebe 2872 d2bc
000000e0: 8c81 253f dc55 37ba 5434 7bbc 740c 783e
000000f0: f776 3bbe 9241 06bf 9292 96be d28a b73e
00000100: f7ac 3bbe dbe7 673d 1647 9a3d 6457 7abe
00000110: 253e 373f 7e71 e9bd 4834 e13e c146 083d
00000120: 61a6 4d3e a9c1 f8bf 5917 9fbe 2d52 82bd
00000130: b9fb 0c3e 5289 c1bd 12f1 e839 fe36 ba3c
00000140: da29 9c3d e200 2abe 1bd4 c03b 62db 92bf
00000150: 9fca b9be abf9 3b3c 27bd cf3d be69 cabe
00000160: f7cd 21bf 93e0 0d3e 0e9f a4be ef9d 87bd
00000170: 4ca4 f4bd d014 353d 4e0a 333e f03c 27bc
00000180: 1c7b 56bd 8759 a33d 793e 53be 45a1 253e
00000190: 3fa8 0bbf 69e5 0abf 482a 1dbd e57e 47bd
000001a0: 6469 02c1 aa9d d93e c93e b0be d7ac 49bd
000001b0: 4433 ef3e 118c 33be 2b18 253f edb7 2abf
000001c0: e8d9 cc3e a43b c33d 1af9 94be e6cf 17be
000001d0: 984c d53e 1ff3 c13c 548e 393e 1635 78be
000001e0: 7cf1 01bf 0828 433c 3333 f33d 05dd 3a3f
000001f0: f0ab 8d3d 417f b13e ec37 4ebd f704 e9be
00000200: fbba 023d a0ec 9cbc da8f 54be c4fd a1bd
00000210: 7f6c babe 7767 69bf 7878 54bd c69e 823d
00000220: 6adc 6b3e bc74 833f f568 6abe 28b2 1ebc
00000230: 187c babe e8f6 f2bd b396 c23e 8d45 c3be
00000240: d8d6 333f 8f3f 9c3d 1240 da3b cfba a6be
00000250: 0151 50be e4f3 16bf 5873 303e e36b 0f3f
00000260: fe54 263d f984 683f 08cb 64bf 8849 64bf
00000270: 15e5 d2be 0db0 aabc 5b25 18be d465 ccbc
00000280: 5245 893e 4183 0d3c ebe4 e4be d7bc 2f3d
00000290: 0c16 b83d 7f13 8a3f c3d4 1a3f e62a 513d
000002a0: 28b6 e2bd bb7c fbbe 9414 c0be 8219 b83c
000002b0: 016a d2bf 1b48 8f3e 4223 90be 34d5 53be
000002c0: 4757 49bf 7ec6 ad3f 54ac 823e c03e 1d3c
000002d0: c364 463f 06f3 373e bda9 a43f 8fb6 603c
000002e0: ca54 ddbf 35ee d53e 29ea 6cbe 868c cbbb
000002f0: a702 56bf 4383 9ebc 01c1 4c3e c8ce 13bf
00000300: 97e2 b2bf 946a 8fbf ddec ff3e 6858 b43e
00000310: 7276 04bc b2d7 973f 2b85 1cbf 2653 79bf
00000320: 3598 86bf 9f22 17be fc7a 14bd a9f6 59be
00000330: be13 a73f 1153 12c0 3659 cbbf d218 2dbc
00000340: b934 de3d 8cbc 1cbe ace0 f73d 9b00 e3bd
00000350: cf12 143e e336 923f 76c6 37be 236b 7d3f
00000360: 19a9 ccbd 6efc 6dbf 0245 503f c0ec 9a3f
00000370: 921f 113e 8389 ff3c d658 b23d 4018 88bf
00000380: 40f5 c43d 4ee3 983d 4645 fcbe 3081 9fbf
00000390: 1b12 ef3f 1db0 c63c 0fb4 96bf 33c4 813f
000003a0: 761a 92c0 a568 39bf 558a 9dbe e196 94bd
000003b0: 9e5e 27c0 e38c 213d c58e eebe 44a5 513f
000003c0: eb8b 00bf d57b c2be 6952 a63f 1841 a5ba
000003d0: b30a 6bbe b493 3dbf 6ec3 503f 9c59 91bd
000003e0: 3c30 3c3f f393 a6bf a3ce 0cbe 376e 813e
000003f0: 106f a7bc 0f62 9f3e c0cd 4a3f 0eda 57bf
-0.253005 -0.447744 0.0349774 0.450522 -0.321862 0.311422 -0.975866 0.0187037
0.898311 -0.136611 0.446141 1.26168 -0.368834 -0.107789 -0.177927 -0.514825
-0.107084 -0.0804507 -0.457699 -0.35252 -0.38875 -0.0476985 -0.563877 0.272812
0.127225 -0.862878 -0.447229 0.51059 -1.66169 0.0155889 -0.108899 0.45954
0.984972 0.521209 0.366257 -2.65408 -0.647487 0.226669 0.766868 1.38142
-0.557732 -1.24005 -0.202056 -0.155059 -0.830745 0.281473 0.509327 -1.1721
0.396599 -0.749884 0.0757449 0.119441 0.00768717 -0.487187 -0.278655 -0.0256892
0.646508 -0.000699369 -0.0153323 0.242235 -0.183071 -0.524438 -0.294087 0.358481
-0.183277 0.0566176 0.0753309 -0.244474 0.715792 -0.113986 0.439852 0.0332706
0.20083 -1.94341 -0.310725 -0.0636333 0.137679 -0.0945002 0.000444301 0.0227313
0.0762517 -0.166019 0.00588466 -1.14732 -0.362874 0.0114731 0.101435 -0.395338
-0.632049 0.138552 -0.321526 -0.0662192 -0.119454 0.0442093 0.174844 -0.0102074
-0.0523635 0.0797606 -0.206293 0.161748 -0.545536 -0.542563 -0.0383704 -0.048705
-8.15073 0.425031 -0.344229 -0.0492371 0.467188 -0.175339 0.6449 -0.666869
0.4001 0.0953286 -0.290963 -0.148254 0.4166 0.0236755 0.181207 -0.24239
-0.507591 0.0119114 0.11875 0.729935 0.0691756 0.346674 -0.0503463 -0.455116
0.0319166 -0.0191558 -0.20758 -0.0790973 -0.364109 -0.911735 -0.0518727 0.0637794
0.230333 1.027 -0.228916 -0.00968603 -0.364228 -0.118635 0.380056 -0.38139
0.702497 0.0762931 0.00666047 -0.325644 -0.203434 -0.589659 0.172315 0.56024
0.0406084 0.908279 -0.893723 -0.891747 -0.411904 -0.0208359 -0.14858 -0.0249509
0.268107 0.00863725 -0.447059 0.0429047 0.0898858 1.07872 0.604809 0.0510663
-0.110699 -0.491186 -0.375157 0.0224731 -1.64386 0.279847 -0.281519 -0.206868
-0.786488 1.35762 0.255221 0.00959748 0.774975 0.179638 1.28643 0.0137154
-1.72915 0.417833 -0.231362 -0.00621182 -0.835978 -0.0193497 0.199955 -0.577374
-1.39754 -1.12044 0.499854 0.352237 -0.00808488 1.18627 -0.611407 -0.973925
-1.05152 -0.147593 -0.0362501 -0.212855 1.30529 -2.28632 -1.58866 -0.010565
0.108499 -0.153063 0.121034 -0.110841 0.144603 1.1423 -0.179468 0.989916
-0.0999319 -0.929633 0.813553 1.21035 0.141722 0.0311935 0.0870835 -1.06324
0.0961709 0.0746523 -0.492716 -1.24613 1.86774 0.0242539 -1.17737 1.0138
-4.56573 -0.724253 -0.307696 -0.0725534 -2.61515 0.039441 -0.465933 0.818928
-0.502135 -0.379851 1.29939 -0.00126079 -0.229533 -0.740535 0.815482 -0.0709717
0.735111 -1.30139 -0.137507 0.252794 -0.0204387 0.311295 0.792202 -0.843171

B3 f4 [50]
00000000: 7008 1dbf b96d 4fbe 6af6 503e 9f21 e43e
00000010: bf10 fabe b58b 093f 249c 82bf 1e6c 213e
00000020: eace 23bf f0a4 393f c6dd 50be f81b 4dbe
00000030: f8aa d5be 9c86 783f b0c8 6fbd 5d36 923e
00000040: b972 eebe 0bd2 3c3e a94c d1bd 36af 5a3f
00000050: df8b 4fbe 7689 c2bf 5ef4 adbf b37c 1dbf
00000060: b5a6 c5bf 5c3d 033f 7e35 37be 438d 723e
00000070: deb0 e5bf 0dfd b3bf 3690 aebe af3c adbc
00000080: f9d7 1abf e38a eb3d 2b13 a6bf 7cb7 e13e
00000090: ed28 b3bc ea5b b63f aeb9 433e d25f 3ebd
000000a0: 0664 5f3e ba39 bbbd 16d1 a0bd 924e aebc
000000b0: d99c 5ebc 4059 473d c4eb fabf 245e 863e
000000c0: baf4 033f ff09 44c0
-0.61341 -0.202567 0.204065 0.445569 -0.488409 0.537288 -1.02039 0.157639
-0.639876 0.725173 -0.203971 -0.200302 -0.41732 0.970804 -0.058541 0.285571
-0.465719 0.184395 -0.102197 0.854236 -0.202682 -1.51982 -1.35902 -0.615184
-1.54415 0.512655 -0.178915 0.236867 -1.79446 -1.40616 -0.340944 -0.0211471
-0.604858 0.115011 -1.29746 0.440853 -0.0218701 1.42468 0.191138 -0.0464781
0.218155 -0.0914187 -0.0785238 -0.0212777 -0.0135872 0.0486691 -1.96032 0.262437
0.515453 -3.06311

W4 f4 [50, 50]
00000000: 425f 3e3f d39f cdbf b515 11c0 3df2 5dc0
00000010: 50df 30c0 85e9 8b3e 008c efbf 6ce8 3ebf
00000020: e23e 3abf 26ab 72be 8b4f b1bf 6f51 213d
00000030: 7ae4 cfbf 8505 87bd 98a2 4c3e 5114 98bf
00000040: 52b8 eebf 33e1 cf3e 5d8c f13e 9d46 babf
00000050: fd30 36bf fdf6 a93f 9b20 c9c0 3c11 243f
00000060: e336 8ebf 9f3e 92be 4209 873f aed3 6cbf
00000070: 226c bcbf da38 48c0 91b8 efbf b602 f9bb
00000080: ccd3 d93e 6d3c f83d cec2 0240 166c 13bf
00000090: ef60 3c3b a01b 3abd 7539 ad3e b091 543e
000000a0: da58 0d3f e223 2cc0 35b4 3dbf bcdd 8c3d
000000b0: c380 6dbf 72e1 80bc 3272 9a3f d4d3 ef3e
000000c0: 99f3 543f 5ba9 b1bd 616e 473f 22c3 0ac0
000000d0: a4c1 cd3e 37fc eebd b691 913d c7d9 a4be
000000e0: ea5e e7bd 3ba6 9ebd 0150 c5be 9eeb 1bbe
000000f0: 48df 54be 8d7e f43d e080 66be fc18 67bf
00000100: 2f49 2abd 2e04 c1bf 6fbc b73b a8df 753e
00000110: 1990 ddbd ba67 6dbe 86a0 c43d 13b8 2bc0
00000120: 3ca0 d4bf 7a37 563e cd5c 70bf 9ab6 af3e
00000130: 70e4 cbbd 8638 9fc0 c1a8 ac3e e999 febe
00000140: 66bc 2d3f a16d 90bb 4ce0 363e aa0d 4e3f
00000150: 3ae9 3fc0 191d 80be 629f 5fbb 6078 1dbf
00000160: 55a5 cd3d 6bd8 df3e e0d6 213f 91ae 93bd
00000170: 10c9 d03d cf26 513d d810 3cbe 2576 0d3e
00000180: c424 403f 174a 46bd ddeb 14be 7b33 7a3e
00000190: 28a9 c2bc 308a f9bc 59f3 29bb 86a7 99ba
000001a0: 5469 15bd aa17 323c 26b6 10bc 09dd 253c
000001b0: a221 88bc 1dfc ccba 911e 10bd 9636 e63c
000001c0: 3400 4abd 8e62 6fbd 1637 c93c 4f95 4e3b
000001d0: 6c7f c2bc d2c8 42bd 62ea 18bd 852b 3bbd
000001e0: 475a eabc 75cd ff3c 5e7b 0bbd 9fb3 00bd
000001f0: ad9f 233d 637f 15bc 9811 223c f62f 043d
00000200: f9cb 1dbd a328 ebbc 7f57 1dbc 310c 18bd
00000210: 1e75 8f3c c3fb e43b ad63 c1bc 36a0 34bd
00000220: cfba 2bbd c5e5 183d 22ef 66bd ec22 1bbd
00000230: 192f 27bd 9906 0bbc 6471 e43c 8723 5d3b
00000240: 417c c33b c28d 0fbd ceef 4a3d 591a 533c
00000250: f4d7 d0bb be57 03bd 7db2 c23e 3620 0abf
00000260: 84d4 3d3e 7b4f 053e 1ff3 893e 834d 3dbe
00000270: 28ac 9ebd 9965 7fbe 8e3f a93e 4c1c 993e
00000280: 9049 9e3e b917 483e 132d 39be 2558 6c3e
00000290: 4d9f fd3d 2445 54be d13d 6b3e 572f 353d
000002a0: e2c5 27bd a562 a8bd 83c0 a2be a794 97be
000002b0: 2a42 803d e833 40be de3a a7be 9336 f5bd
000002c0: 0934 183e 6990 523e 158b 87be 2368 2cbe
000002d0: 221c 83bd f498 123d 05ee ca3d e2ab 423d
000002e0: 884c 913e 91b9 ca3e 0bde 46bc 904a d1bd
000002f0: f92f f0bd b180 333d 4695 01be 9411 8fbe
00000300: e8a0 933e 40ce 85bc 2653 85be de9a ca3d
00000310: 513f 99bd 6a4d 533e 3788 5b3d a969 37be
00000320: dba2 2c3d 3393 e2bb 0c97 b0bc 8271 30bd
00000330: 7055 e33c 0a5a f1bb 1a41 993c 8a3c 093d
00000340: 3464 bcbc f2d9 70bc e81e 9db9 93c5 1c3c
00000350: 95d1 ad3c 7e83 40bd fb31 b73c e510 4c3c
00000360: bca1 3abc 76b0 f6ba 03af 1bbd 9aee 35bd
00000370: 9679 ebbc 0b28 d4bc bc44 50bd 65c9 37bd
00000380: a002 1bbd 2dd8 5cbd 50a9 d2bc f9b5 1abd
00000390: 33c7 8dbc 0965 2bbc 30e4 87bc 44ae 6d3b
000003a0: a34b 493c c13b 79bd d2c1 1f3d 35b3 36bd
000003b0: 00a0 d4bc cf8f 153d 3fc3 40bc 1875 d23c
000003c0: 32eb 833a bd5d 253d 8095 683c d530 323d
000003d0: 2d0c cb3a 479f 85bc a6c5 0d3b a9f6 09bd
000003e0: 0514 2a3d 2c28 b13b 6440 563f 1821 80bf
000003f0: 9f8e 47c0 e99b 143f 1821 90bf b1a8 7c3f
0.743641 -1.60644 -2.26695 -3.46791 -2.76363 0.273266 -1.87146 -0.745734
-0.727522 -0.236981 -1.38524 0.0393843 -1.62416 -0.0659285 0.199839 -1.18812
-1.865 0.406015 0.471774 -1.45528 -0.711685 1.32785 -6.28523 0.640888
-1.11105 -0.285634 1.05497 -0.925105 -1.47205 -3.12847 -1.87282 -0.0075992
0.425444 0.121209 2.04314 -0.575868 0.00287443 -0.0454365 0.338329 0.207587
0.552137 -2.68969 -0.741031 0.0687823 -0.927746 -0.0157325 1.20661 0.468413
0.831842 -0.0867488 0.779028 -2.16816 0.401868 -0.116692 0.0710787 -0.321974
-0.112974 -0.0774655 -0.385376 -0.152266 -0.207883 0.119382 -0.225101 -0.902725
-0.0415737 -1.50794 0.00560718 0.240111 -0.108185 -0.231841 0.0960093 -2.68311
-1.66114 0.209196 -0.938916 0.34319 -0.0995568 -4.97565 0.337225 -0.497268
0.678656 -0.0044076 0.17859 0.804896 -2.99861 -0.250222 -0.00341221 -0.615118
0.100413 0.437198 0.632185 -0.0721103 0.101946 0.0510624 -0.183658 0.138146
0.750561 -0.0484105 -0.145431 0.244337 -0.0237623 -0.0304614 -0.00259324 -0.00117229
-0.0364774 0.0108699 -0.00883249 0.0101235 -0.0166176 -0.00156391 -0.0351854 0.0281022
-0.0493166 -0.0584436 0.0245624 0.00315221 -0.0237424 -0.0475548 -0.0373329 -0.0456958
-0.0286075 0.0312259 -0.0340532 -0.0314213 0.0399472 -0.00912461 0.00989189 0.0322723
-0.0385246 -0.0287059 -0.00960338 -0.037121 0.0175119 0.00698802 -0.0236071 -0.0440981
-0.0419262 0.0373285 -0.0563804 -0.0378751 -0.0408164 -0.00848546 0.0278861 0.00337431
0.00596574 -0.0350473 0.0495451 0.0128847 -0.0063734 -0.0320661 0.380268 -0.539554
0.185381 0.130186 0.269433 -0.184866 -0.0774768 -0.249411 0.330563 0.299044
0.309155 0.195403 -0.180836 0.230805 0.123839 -0.207295 0.229728 0.0442346
-0.0409602 -0.0822194 -0.317875 -0.296056 0.0626262 -0.187698 -0.326621 -0.119733
0.148636 0.205629 -0.264733 -0.168366 -0.0640185 0.0357904 0.0990868 0.0475272
0.283787 0.395947 -0.0121379 -0.102193 -0.117279 0.0438239 -0.126546 -0.279431
0.288337 -0.0163337 -0.2604 0.0989282 -0.0748278 0.20635 0.0535967 -0.179114
0.0421475 -0.00691452 -0.0215564 -0.043077 0.0277507 -0.00736547 0.0187078 0.033505
-0.022997 -0.0147004 -0.000299684 0.00956859 0.0212181 -0.0470004 0.0223627 0.0124552
-0.0113911 -0.00188209 -0.0380087 -0.044417 -0.0287445 -0.025898 -0.0508468 -0.0448698
-0.0378443 -0.0539171 -0.0257155 -0.0377712 -0.0173069 -0.0104611 -0.0165883 0.00362672
0.0122861 -0.060848 0.0390032 -0.0446045 -0.0259552 0.0365141 -0.0117653 0.0256906
0.00100646 0.0403726 0.0141958 0.0435036 0.00154913 -0.0163113 0.00216327 -0.0336825
0.041523 0.0054064 0.83692 -1.00101 -3.11808 0.580504 -1.12601 0.986949

B4 f4 [50]
00000000: b6a1 82be 802b 91bf ea99 f9bc 64d5 b63d
00000010: b9a7 ebbc ada3 a2bf 317b f13e c4b0 ebbe
00000020: ea57 9fbc 069e 3bbf f436 2ebf d6a7 28bf
00000030: f086 54be cfa0 21c0 a628 07be 679b 0b3e
00000040: a226 223f c87a eabd 077e d43e 749a 3d3f
00000050: fe2a 30be 8e05 65bf 3c86 b7be cfa1 34bf
00000060: 365a b6be 19c5 eabf 8a1c 32be 7176 c33e
00000070: 6e51 82bf 2bc2 ed3d 147b 1c3f baf8 733f
00000080: bfba 2a3e 1101 cb3f 637a d2bf 12a0 1cc0
00000090: efc6 4ebf d2a9 b3be e241 8ebc 629f 003e
000000a0: 08cb 38bf 09e2 3cbf 4815 193f 139d 313f
000000b0: d6c7 db3e a8e2 febe c5e5 e03e d6c4 6ebf
000000c0: 7112 74bd 82ff 39bf
-0.25514 -1.13414 -0.0304689 0.0892742 -0.0287665 -1.27062 0.471643 -0.460333
-0.0194511 -0.73288 -0.680526 -0.658811 -0.207546 -2.52544 -0.131991 0.136335
0.633402 -0.114492 0.415024 0.740638 -0.172039 -0.894616 -0.358446 -0.705594
-0.356157 -1.83414 -0.173937 0.381763 -1.01811 0.116093 0.611253 0.953014
0.166728 1.58597 -1.64436 -2.44727 -0.807723 -0.350905 -0.0173654 0.125608
-0.721848 -0.737824 0.597981 0.693803 0.429259 -0.497823 0.439253 -0.932691
-0.0595879 -0.726555

W5 f4 [50, 50]
00000000: 006a 93bb 56b8 35be 0959 713c a9d7 72bd
00000010: 74e2 dd3b 60e1 0bbc 91d1 c1bd a8a1 723d
00000020: 76fe adbc 349e 903e 6158 193d f7e3 9bbc
00000030: 96a5 67bc 4dbe b83b 0891 8cbc 232b e4bc
00000040: ef57 813c 4416 39be 4418 3f3e 1503 54be
00000050: 8cd3 b53c 921f 713c 4694 c63d 16b2 293d
00000060: d2e5 4d3d 3bdd dcba 70ef 4abe fb90 173e
00000070: 40a6 50bd 1107 1f3d be7f 383d 4c36 1c3c
00000080: 8a89 973c a62b 583d 1f6f 28bc 27da b83a
00000090: f8e8 e83c 9868 d0bc 0fa3 fbbc e8b5 93bd
000000a0: cdea f8bc 2b0c db3c 6dde 9dbc 37dd c2be
000000b0: c01a 51bd 8489 b5bc 2c43 c13c 1f52 873d
000000c0: ea23 a0bd fe46 fbbc 13b6 ff3d 70b1 063f
000000d0: 8253 043d 12b4 93bd ea4c d0bc b20e 09bb
000000e0: e7c3 f33d 8410 c0be 33b1 af3c cde7 dc3d
000000f0: d170 4f3d 485e 8c3c 527e 32be 61cc 8c3c
00000100: 4382 733d 2ea6 803b 75cb 1e3e 4e45 7a3e
00000110: 49e2 8b3d 8dd5 06be f79d 323b 52ac c3bb
00000120: 156b 3dbd 2bc3 08be d0d6 01bd 6d8f 9ebc
00000130: ff9b f2bc 1868 bd3d 713c e7be a549 59be
00000140: db16 35be c5c6 943e a99c 9bbd e598 0c3d
00000150: 9f22 223d 9e15 c9bb 8a79 b13c 2a74 5ebf
00000160: c38e 903c 467a 21bf 3997 973d 53ec 68be
00000170: a8ff 6cbe 038a a23c e223 02be 13c6 033c
00000180: f67a 37be b398 5cbf c82f 92bd 5408 1a3d
00000190: d1e6 983e 6a48 813d e1de eb3b 89ef 64be
000001a0: 3f0c c2bb f6a0 1bbd bc63 67bd 46b5 5c3f
000001b0: 7b4e 7abc f8f9 cfbe 76c1 703f c72c fbbe
000001c0: a10f 0abf d458 8c3c a54e e0bd 9c31 ec3d
000001d0: bf0d d13d a01a 8f3f 1d21 5fbf d461 c53e
000001e0: e947 eb3e 0ef8 f4be da0b ab3d 38a4 91be
000001f0: e65f 66bd 1f0e 023e 5ddd 213e 3d82 a3be
00000200: c520 ccbf 1153 a23e 276a 15bf 11fe 053f
00000210: 74b5 ad3e 249b 0b3e ee40 2d3e d252 d13e
00000220: 3693 e3bf 4853 fdbd f563 533d 0187 84bf
00000230: 47ad 34bf 0e67 8e3e 8330 373f fe9a 1c3e
00000240: f2ec 423e 5794 723e 6154 c2be e71d 4dc0
00000250: 3335 b13e 7651 60bf 0e0a 543d 49bd 57be
00000260: 4557 33bc 3545 30be a53f 05bd 2def 05bd
00000270: 1833 733d 8db9 c63c 3766 7e3c a181 583e
00000280: d7bf 033f e303 363d f0d7 c9bd dbe7 073d
00000290: af17 543c bca5 663c d3c0 bf3d 4be5 b0c0
000002a0: 0abd ddba 2ee4 a9be 1db0 46bd 3280 863d
000002b0: 660c 983c bc08 133e 00ab 9bbe ff4e b4bd
000002c0: b150 1bbe 752a 6fbd ecf5 93bb 073f a93e
000002d0: f8fb bd3e 6cdd fc3c 6014 4ebc f6d0 0ebe
000002e0: d3f8 853d 7f6d d8bc 6824 32be 8a59 ef3d
000002f0: 833d 1cbd da73 893e c213 8abe d388 f93d
00000300: bdaa d33d af78 2a3e d15d f23d f08b 7bbe
00000310: dd45 6cbf c879 ff3d 4aed 35be b132 8abe
00000320: 6171 c83e c137 adbe 84e2 7dbc 59de 25be
00000330: 77db 453d c3ef 9e3e 8ba5 58be 6f12 43bd
00000340: 429a ccbc 03e9 9a3e 96e7 33c0 4d69 9d3e
00000350: 39f2 20be e6e5 f03d d7dd b0bf 1dd2 233d
00000360: 1701 dfbc 3a76 b0bd 4a08 963d 1686 803e
00000370: d8b7 d33d bc91 39bd 95ee 42bf 1503 94be
00000380: f792 96bd ab20 163e 5c37 aabd 8d25 7cbe
00000390: c97c 7bbd 0223 99bd 2899 3cbd 8b55 ae3d
000003a0: 9438 86bd 2aab 093e 214f 9cbc b9ea 10bd
000003b0: 9561 2c3e dc9f ebbd a884 ccbc 2057 343c
000003c0: 740b 15bf 5c39 bbbe c66f 85bd ca5f 6b3c
000003d0: 0e12 223e fe43 8abe 8b64 193d 9318 e43e
000003e0: eb90 fbbd 6073 96be 7ae1 8ebe 0a2d 83be
000003f0: f8a9 eabc 24d4 6cbe 2b4c 5a3a 055a c0bd
-0.00449872 -0.177461 0.0147307 -0.0592877 0.00677138 -0.00853762 -0.094638 0.0592362
-0.0212395 0.282457 0.0374378 -0.0190296 -0.0141386 0.00563792 -0.017159 -0.0278526
0.015789 -0.180749 0.186616 -0.207043 0.0221956 0.014717 0.0969625 0.0414296
0.050268 -0.00168506 -0.198179 0.148014 -0.0509398 0.0388251 0.0450437 0.00953443
0.0184982 0.052776 -0.0102804 0.00141031 0.0284314 -0.0254405 -0.0307174 -0.0721243
-0.0303854 0.0267392 -0.0192711 -0.380594 -0.0510509 -0.0221603 0.0235916 0.0660746
-0.0781935 -0.0306735 0.124859 0.526145 0.0323062 -0.0721208 -0.0254273 -0.00209133
0.119026 -0.375126 0.0214468 0.107864 0.0506447 0.0171348 -0.17431 0.0171873
0.0594504 0.00392606 0.155073 0.244405 0.0683027 -0.131674 0.00272548 -0.00597147
-0.0462447 -0.133557 -0.031699 -0.0193555 -0.0296154 0.0924837 -0.451633 -0.212195
-0.176845 0.290579 -0.0759824 0.0343255 0.0395838 -0.00613661 0.0216644 -0.86896
0.0176462 -0.630772 0.0740189 -0.227464 -0.231444 0.0198412 -0.12709 0.00804283
-0.17918 -0.861705 -0.0713802 0.0376056 0.298636 0.0631264 0.0071982 -0.22357
-0.00592187 -0.0379953 -0.0564916 0.862141 -0.0152775 -0.406204 0.940452 -0.490576
-0.539301 0.0171322 -0.109525 0.115329 0.102077 1.118 -0.871599 0.385512
0.459533 -0.478455 0.0835187 -0.284456 -0.0562438 0.127007 0.158071 -0.319353
-1.59475 0.31704 -0.583651 0.523408 0.339275 0.136334 0.169193 0.408835
-1.77793 -0.123694 0.051609 -1.03537 -0.705769 0.27813 0.715584 0.152935
0.190357 0.236894 -0.37955 -3.20495 0.346109 -0.876243 0.0517674 -0.210683
-0.0109461 -0.172139 -0.0325314 -0.0326988 0.0593749 0.0242584 0.0155273 0.211432
0.514646 0.0444373 -0.0985564 0.0331801 0.0129451 0.0140776 0.0936295 -5.52799
-0.00169173 -0.331819 -0.0485078 0.0656742 0.0185606 0.143588 -0.304039 -0.0880413
-0.151675 -0.0583901 -0.0045154 0.330559 0.371063 0.0308673 -0.0125781 -0.139469
0.065416 -0.0264194 -0.173967 0.11687 -0.0381446 0.268462 -0.269682 0.121843
0.103353 0.166476 0.118343 -0.245651 -0.922941 0.124744 -0.177663 -0.269918
0.39149 -0.338316 -0.0154959 -0.161981 0.048305 0.310423 -0.211569 -0.047625
-0.0249759 0.302559 -2.81101 0.307444 -0.157174 0.117626 -1.38177 0.0399953
-0.0272222 -0.086163 0.073258 0.251023 0.103378 -0.045305 -0.761453 -0.289086
-0.0735225 0.146609 -0.0831134 -0.246237 -0.0613983 -0.0747738 -0.0460445 0.0851241
-0.0655376 0.134442 -0.0190807 -0.0353801 0.168341 -0.115051 -0.0249656 0.0110071
-0.582206 -0.365672 -0.0651546 0.0143661 0.158272 -0.27005 0.0374494 0.4455
-0.122835 -0.293849 -0.279064 -0.256203 -0.0286455 -0.231278 0.000832739 -0.0939217

B5 f4 [50]
00000000: 9fb0 ec3e d5ce 803e c364 96bf 7c7f 433e
00000010: 10e8 7c3e 16fb f33e dd27 b73e 40fc 3c3f
00000020: d97c 843e 1328 523e 15ab 023f 4144 4a3e
00000030: c477 863f bb63 a93e 342b 6b3e 0c94 303f
00000040: c11f fe3e d751 25be 806c 28bd 999d 75bf
00000050: e833 c03e 5cfb a73d 4a61 36bf a374 813e
00000060: 1074 083f 8a1f c7bf 60c9 1d3f cb10 cfbf
00000070: 9fcc 8f3e cce0 3d3b 0909 243b 2d0b 5ebf
00000080: 6cfb b83d 5a64 8b3e 0d36 453e 82e3 523e
00000090: 4757 913e 1a6e 90bf 5fb2 69bf 6a88 a23e
000000a0: e8c0 92be ddea e13e bf44 5d3b 77a3 cf3d
000000b0: d3a4 d0bf 52b9 b9be 7990 de3d 04e5 86be
000000c0: 70d2 443e 38bc 503e
0.462285 0.251578 -1.17495 0.190916 0.246979 0.476525 0.357726 0.738224
0.258765 0.205231 0.510423 0.197526 1.05053 0.330839 0.229657 0.689759
0.496336 -0.161445 -0.0411191 -0.959436 0.375396 0.0820224 -0.712422 0.252843
0.533021 -1.55565 0.616354 -1.6177 0.280858 0.00289731 0.00250298 -0.867358
0.0903233 0.27225 0.192589 0.205946 0.283869 -1.12836 -0.912878 0.317447
-0.286628 0.441245 0.00337629 0.101386 -1.63003 -0.362742 0.108674 -0.263466
0.192209 0.203843

W6 f4 [5, 50]
00000000: 313f b73c a98a 243d 50ea 963d 041c e3bb
00000010: f779 e73c 9120 e43b 6638 d43c 5d93 87bb
00000020: 8a9b 093d 0a9f 2dbc c310 f93d 7cef ef3c
00000030: dcf0 3bbc f21c 1b3d 4c77 b2bc cce6 753b
00000040: 1014 ae3c 853b bcbc 0381 093d 3b6c c73d
00000050: e5e8 d6bc 0a0c be3c 9fc2 363d 2cca 363c
00000060: 31ef 71bc ab09 9e3b c5f0 c73c 65e2 863d
00000070: 7a36 6dbb ccba 9cbb 2bd1 e13b c078 043c
00000080: 4111 c63d e52a 863d be74 2cbb 1ea5 f2bd
00000090: d496 9fbc 0c74 6d3c 40c8 cdbc 5264 ad3b
000000a0: 6e65 aebc 3c48 943d 8d12 cf3c fe6a c43d
000000b0: 4b18 f2bc 44be cbbc 4d2a ffbc 603d 0e3d
000000c0: 49c6 403d 7e0b e1bc 83b2 ba3c 1e6d 8c3d
000000d0: 6320 743c 169a f53c 3137 293c 3b91 3bbc
000000e0: ec33 63bb ecf7 44bc 73b1 533d b815 6b3b
000000f0: 7990 94b9 6a0f 003d 141c 83bc d2c6 713d
00000100: 5045 dcbb 6150 263b 646b c73c 4f0d 0abd
00000110: d033 ec3c 5262 d73d 268e bcbc 92ec 913c
00000120: 5f96 563d 5b2a 4a3c 70d4 a5bc 786a 643c
00000130: a1cd 3b3d 91b6 813d b87e 103d 9f38 213c
00000140: b673 503c de9e 563c 59be ee3d cc8a 823d
00000150: eef0 11bc f5a1 093c 7ea4 2dbc bfca ab3c
00000160: 7d5e f1bc 591d 14bb 1fe9 9dbc 0466 9f3d
00000170: b4a8 b43c 6fdf b93d c0fd a93a d629 c1ba
00000180: 178a eabc 2a02 9c3c 8d2d 1f3d baba 03bd
00000190: 8fa6 d93b 45c3 d83c e6fd 243d 924c 1d3d
000001a0: be2d 1d3d 0769 7c3c ed39 9f3c b279 663c
000001b0: b81e 053d b70a e23c ea4e 03bc c6e8 af3c
000001c0: ffc2 bcbc 16f6 343c bbf6 e0bc 68a0 053b
000001d0: 9d50 033d b076 f3bb bdc1 fc3c f98b 743d
000001e0: 5f26 e9bb 1feb 133d c0a8 293d 4eed 8c3c
000001f0: 11f8 68bc c540 f23c 47d4 7a3c eb11 943d
00000200: 554c 25bc a81b 45bb 3d7a a83c 3869 073a
00000210: b664 d53d 9dd4 8c3d e892 203d b26e d73c
00000220: cf2f 4a3c d685 443c aa0a f2bc 9419 cabc
00000230: 05f0 e0bc c44b 963d bc00 003d 4687 b63d
00000240: e604 afba 80af 32bd d514 12bd 7cf6 fe39
00000250: 3d60 833d f044 dabc a3c8 bf3c 54f7 bd3d
00000260: ae5b 49bd c9b8 d83c 751c 64bc 7d4c 1abd
00000270: 7011 2ebd 209e 20bd 0aeb 803d 083e c43b
00000280: 8fe0 883a b250 063d d7c2 acbc 9f3e 823d
00000290: 2546 89bb 4738 b13a 7533 cc3a 9731 2abd
000002a0: 6fab cf3c f475 8f3d 0413 c9bc ae72 323c
000002b0: 9c47 6f3d 724b 8ebb e1ac 12bd 5ac2 313b
000002c0: 92d2 473d 0ed0 873d 461a 263d 32bb f83c
000002d0: 01ca 193c 47b2 e23c 2f89 f33d 7604 6b3d
000002e0: a87d 693d 092b be3b 4a3d f0bc bdb1 7b3c
000002f0: c698 05bd de7e 2fbb ec04 49bb aed7 943d
00000300: b550 b23c 0e6e b63d 5ba8 4fba cc60 8c3c
00000310: 763c 41bc fc6f a53c c1d4 253d 88c9 e5bc
00000320: 40cf b03c 8228 cebc d39a cb3d 1ba0 343d
00000330: a2a7 173d 4677 35bc 4796 473d ca23 0e3d
00000340: 51dc f1bc 0335 463c efce b5bb cfe7 d23c
00000350: 3e5d 9dbc bac6 be3b 98e7 773c ac58 fcbc
00000360: 31d4 bcba ead8 56bb 21c7 fb3c 6093 753d
00000370: ab71 babb de95 38bc 35bf 303d f115 583d
00000380: f8a1 183c d504 113d 6858 b1bc 0e34 7a3d
00000390: 9ee1 973b cd82 3fbd 2e0d 723d bc63 8cbc
000003a0: 7266 903d 0b03 7b3d 08a7 ea3c dcd8 09ba
000003b0: 0a94 1e3d 5c10 9b3c 5dd7 54bc b410 d33c
000003c0: e8bd 313c c12a 2d3d e0d3 813c fa80 e03d
000003d0: 59e3 26bb 094c 8cbd 9bb6 15bd b6d8 8e3b
000003e0: 387d 623d c2c8 a6bc
0.022369 0.0401713 0.0736891 -0.00693083 0.0282564 0.00696189 0.0259058 -0.00413744
0.0335956 -0.010597 0.121614 0.029289 -0.011471 0.0378694 -0.0217854 0.00375216
0.0212498 -0.0229776 0.0335703 0.0973744 -0.0262341 0.0231991 0.0446192 0.0111566
-0.0147665 0.00482293 0.0244068 0.0658615 -0.00361958 -0.00478301 0.00689139 0.00808543
0.0967126 0.0655115 -0.00263147 -0.118479 -0.0194811 0.014493 -0.0251199 0.0052915
-0.0212886 0.0724034 0.0252774 0.0959072 -0.0295526 -0.024871 -0.0311481 0.0347265
0.0470641 -0.0274713 0.0227902 0.0685675 0.0149003 0.0299807 0.0103281 -0.0114482
-0.00346684 -0.012022 0.0516829 0.00358711 -0.000283364 0.0312647 -0.0160046 0.0590275
-0.00672213 0.00253775 0.0243432 -0.0337041 0.0288333 0.105168 -0.023017 0.017813
0.0523895 0.0123392 -0.0202429 0.0139414 0.0458504 0.0633365 0.0352771 0.00984016
0.0127229 0.0130994 0.116574 0.0637413 -0.00890754 0.00840043 -0.0105983 0.0209707
-0.029464 -0.00226005 -0.0192762 0.0778313 0.0220531 0.0907582 0.00129693 -0.00147372
-0.0286303 0.019044 0.0388618 -0.0321605 0.00664217 0.0264603 0.0402812 0.0384031
0.0383737 0.0154059 0.0194368 0.0140671 0.0325 0.027593 -0.00801442 0.0214733
-0.0230422 0.011045 -0.0274614 0.00203898 0.0320593 -0.00742992 0.0308541 0.0597038
-0.00711517 0.0361129 0.0414207 0.017203 -0.0142193 0.0295719 0.0153094 0.0722998
-0.010089 -0.00300763 0.0205661 0.000516552 0.104196 0.0687649 0.0392026 0.0262979
0.0123405 0.0119948 -0.0295461 -0.0246704 -0.0274582 0.0733867 0.0312507 0.0891252
-0.00133529 -0.0436244 -0.0356644 0.000486303 0.0641484 -0.0266442 0.0234111 0.0927569
-0.0491597 0.0264553 -0.0139228 -0.0376706 -0.0424971 -0.0392133 0.0629483 0.00598884
0.00104429 0.0327918 -0.021089 0.063596 -0.00418927 0.00135208 0.00155793 -0.0415512
0.0253503 0.0700492 -0.0245452 0.0108916 0.0584179 -0.00434249 -0.0358094 0.00271239
0.0487848 0.0663148 0.0405524 0.0303627 0.00938654 0.0276729 0.118914 0.0573773
0.0570046 0.00580347 -0.0293261 0.0153622 -0.0326164 -0.00267785 -0.00306731 0.072677
0.021767 0.0890771 -0.000792151 0.017136 -0.0117942 0.020195 0.0404861 -0.0280502
0.0215832 -0.0251658 0.0994164 0.044098 0.0370251 -0.0110758 0.0487273 0.0347021
-0.029524 0.0120976 -0.00554835 0.0257453 -0.0192095 0.00582203 0.0151309 -0.030804
-0.00144065 -0.00327831 0.0307346 0.059955 -0.00568982 -0.0112662 0.0431511 0.0527553
0.00931596 0.035405 -0.0216486 0.0610848 0.00463505 -0.0467556 0.0590946 -0.0171374
0.0705079 0.0612822 0.0286441 -0.000525845 0.0387154 0.0189287 -0.0129908 0.0257648
0.0108485 0.0422771 0.0158481 0.109621 -0.00254651 -0.0685044 -0.0365511 0.00435933
0.0552952 -0.0203594

B6 f4 [5]
00000000: 0917 b2bc ad32 933c 7574 9cbc d674 983c
00000010: 1c32 94bc
-0.0217395 0.0179685 -0.0190985 0.0186104 -0.0180903
