data/acasxu/nets/ACASXU_run2a_3_6_batch_2000.onnx (onnx, 53878 bytes, 14 tensors)

W0 f4 [50, 5]
0.140207 -0.385229 -0.316845 0.169229 0.0745343 -0.037912 -0.749023 -0.470807
0.285368 -0.106546 0.00435244 -0.453834 -0.11046 -0.318205 0.190098 -0.0204062
1.435 -1.53779 0.0913725 -0.278532 -0.0218966 0.738137 0.127915 0.808877
-0.700648 -0.0093352 -0.473797 0.361188 0.266707 -0.549589 0.0045278 -1.39097
1.37838 0.0141745 0.257625 2.5524 0.0277086 -0.000263894 -0.0254454 0.00891507
0.22654 -0.495589 0.55638 -0.103275 -0.0503934 0.0373206 -1.08217 -0.274423
1.15488 -1.43009 -0.0168022 0.000654163 0.904823 0.0765373 -0.0292264 -0.0415141
-0.0772365 0.0513954 -0.677107 -0.921774 -0.0298151 -0.2906 0.113042 -0.644719
0.536459 -0.469387 0.366295 0.109853 0.307608 0.0552237 0.0721234 -0.482816
-0.0455717 0.045253 0.150744 0.0462181 -0.738632 -0.133451 0.29679 -0.5381
0.0761431 -0.821547 1.45986 0.197464 -0.283503 -0.0397871 -0.33897 -0.436032
0.299139 -0.123732 0.0326499 0.856401 -1.03778 0.174008 -0.354346 -0.0166679
0.00319843 0.00692898 -0.0207083 -0.000533006 0.0503386 -1.67646 1.59931 0.126881
0.178284 0.0127267 0.517218 0.160853 -0.746348 0.0959449 -0.210444 -0.0241386
-0.00742766 -0.148013 0.0314403 0.0224775 -0.462377 0.453982 0.917097 -1.54627
-0.765935 0.0522579 -0.684923 0.0543382 0.110509 0.0264965 0.392522 0.542433
0.0387044 -0.0461155 0.384177 -0.0255294 -0.02546 0.506913 -0.583891 -0.062559
1.45293 0.146283 1.17536 -1.66742 0.748386 -0.00760808 -0.0242939 -0.0274818
0.0282502 -0.108128 0.0147783 0.0106323 -0.0420884 -1.77081 0.00678782 0.00414215
-0.0287392 0.00694334 -0.000636107 -0.00532232 0.23355 -0.27664 -0.175135 -0.471746
-0.0193616 1.01709 -1.24733 -0.0472067 0.383709 -0.0190472 -0.231412 -0.682291
0.190444 -0.178618 0.267719 0.0662094 -0.0395269 0.156779 0.0138538 -1.3792
0.161755 -0.122909 0.00676816 -0.0964034 0.0440855 -0.694901 -0.634338 -0.223792
0.124004 0.0326579 0.989463 0.834163 0.565665 -0.367782 -0.0638879 1.24162
0.0292144 -0.277796 0.579851 -0.00579483 0.000844604 -0.000917693 0.0206467 0.000116682
-0.0208318 0.0656352 -0.00862192 -0.528943 -1.26223 -0.00843177 0.0334001 -0.045986
-0.393704 -0.509118 0.00579119 0.0609709 0.00403692 -0.11539 0.240058 0.209797
0.364639 -0.0456864 -0.247823 -1.20288 -0.0142371 -1.53979 1.10422 -0.00134073
-0.56396 -0.0138316 0.914442 -0.971446 -0.0101723 0.151881 0.10148 0.934323
0.32265 0.171922 -0.0692922 0.0376227 0.912279 -0.852762 0.416147 -0.820371
0.0783986 1.43183 -1.4054 0.385647 -0.299436 -0.0385435 0.14888 -0.102264
-0.175573 0.215404
00000000: 6c92 0f3e bc3c c5be 8239 a2be 5e4a 2d3e
00000010: 70a5 983d 9d49 1bbd f9bf 3fbf 9d0d f1be
00000020: c11b 923e ca34 dabd ea9e 8e3b ee5c e8be
00000030: da38 e2bd c4eb a2be 0da9 423e e72a a7bc
00000040: 14ae b73f 4dd6 c4bf 8121 bb3d bf9b 8ebe
00000050: 8060 b3bc 8cf6 3c3f 26fc 023e 9012 4f3f
00000060: ab5d 33bf abf2 18bc 8595 f2be a2ed b83e
00000070: d28d 883e ddb1 0cbf f05d 943b 4e0b b2bf
00000080: c16e b03f 293c 683c 6de7 833e 865a 2340
00000090: 25fd e23c 415b 8ab9 df72 d0bc 8410 123c
000000a0: 1afa 673e d7bd fdbe eb6e 0e3f d881 d3bd
000000b0: 4f69 4ebd 7cdd 183d 8c84 8abf 2c81 8cbe
000000c0: 1cd3 933f 300d b7bf c4a4 89bc 237c 2b3a
000000d0: 7ba2 673f 97bf 9c3d 346c efbc b00a 2abd
000000e0: 2c2e 9ebd fc83 523d e256 2dbf 62f9 6bbf
000000f0: cc3e f4bc 86c9 94be 9082 e73d 4e0c 25bf
00000100: 6155 093f 7e53 f0be 058b bb3e 9cfa e03d
00000110: cc7e 9d3e 3f32 623d 6fb5 933d a933 f7be
00000120: 64a9 3abd 365b 393d a35c 1a3e 314f 3d3d
00000130: fd16 3dbf 61a7 08be dcf4 973e ecc0 09bf
00000140: eaf0 9b3d e750 52bf b1dc ba3f 0134 4a3e
00000150: 4e27 91be ccf7 22bd 7a8d adbe 963f dfbe
00000160: bf28 993e 3467 fdbd e7bb 053d 193d 5b3f
00000170: fad5 84bf 272f 323e d76c b5be 1f8b 88bc
00000180: c09c 513b 7f0c e33b 74a4 a9bc 6db9 0bba
00000190: d92f 4e3d 3e96 d6bf 31b6 cc3f 18ed 013e
000001a0: 1590 363e a683 503c 6668 043f a6b6 243e
000001b0: aa10 3fbf c27e c43d a27e 57be 50be c5bc
000001c0: ba63 f3bb b890 17be 8bc7 003d bc22 b83c
000001d0: aebc ecbe 5470 e83e dec6 6a3f 2dec c5bf
000001e0: 5114 44bf 610c 563d 1d57 2fbf bb91 5e3d
000001f0: 8b52 e23d 300f d93c a5f8 c83e e4dc 0a3f
00000200: 8188 1e3d 9be3 3cbd d9b2 c43e 0823 d1bc
00000210: 7d91 d0bc 0dc5 013f e179 15bf ef1e 80bd
00000220: 9cf9 b93f 36cb 153e 3272 963f 056e d5bf
00000230: 3a96 3f3f 334d f9bb 0004 c7bc 8321 e1bc
00000240: f76c e73c 3672 ddbd af20 723c 1933 2e3c
00000250: e364 2cbd e7a9 e2bf 5c6c de3b dfba 873b
00000260: 796e ebbc f584 e33b 6bc0 26ba db66 aebb
00000270: bb27 6f3e c2a3 8dbe 9756 33be b188 f1be
00000280: 389c 9ebc 0130 823f 82a8 9fbf d05b 41bd
00000290: 8275 c43e e008 9cbc 44f7 6cbe 9faa 2ebf
000002a0: c003 433e a3e7 36be 7712 893e cb98 873d
000002b0: f5e6 21bd ad8a 203e 0cfb 623c a089 b0bf
000002c0: 1aa3 253e b7b7 fbbd 71c7 dd3b 256f c5bd
000002d0: ff92 343d 08e5 31bf fa63 22bf bb29 65be
000002e0: cff5 fd3d 4ac4 053d 724d 7d3f b58b 553f
000002f0: 6ccf 103f ec4d bcbe a9d7 82bd 67ed 9e3f
00000300: 0a53 ef3c 473b 8ebe 1d71 143f 8fe2 bdbb
00000310: 6a68 5d3a 5691 70ba 4523 a93c 2cb3 f438
00000320: 73a7 aabc bf6b 863d f442 0dbc cf68 07bf
00000330: c190 a1bf 6825 0abc 8bce 083d d15b 3cbd
00000340: 9293 c9be 8f55 02bf 06c4 bd3b 9fbc 793d
00000350: 2448 843b 9851 ecbd c4d1 753e 06d5 563e
00000360: f7b1 ba3e aa21 3bbd 50c5 7dbe f9f7 99bf
00000370: ba42 69bc d717 c5bf 1557 8d3f 6fbb afba
00000380: af5f 10bf ef9d 62bc df18 6a3f afb0 78bf
00000390: b8a9 26bc b186 1b3e bfd4 cf3d cb2f 6f3f
000003a0: 6132 a53e 520c 303e 12e9 8dbd 431a 1a3d
000003b0: 1e8b 693f 9c4e 5abf 3811 d53e d503 52bf
000003c0: 728f a03d 3546 b73f 26e4 b3bf 8673 c53e
000003d0: ad4f 99be cadf 1dbd 0074 183e ca6f d1bd
000003e0: 69c9 33be de92 5c3e

B0 f4 [50]
-0.0447828 -0.100665 -0.166229 -0.114006 0.210415 -0.181885 -0.502651 0.702183
-0.270769 -0.0943819 0.06036 -0.302562 -0.0503696 0.0106708 0.108355 0.0376072
0.191656 -0.021497 0.0884792 -0.0217168 -0.421667 -0.300678 -0.0286992 0.216254
-0.215151 0.0309653 0.115013 -0.209135 0.00963673 -0.672377 -0.0248869 0.135928
-0.38001 -0.0255957 0.00773791 -0.265739 0.117899 -0.222183 0.13613 -0.0134143
-0.172525 0.0511158 -0.0088401 -0.569296 -0.227852 -0.407178 0.107573 -0.282991
-0.368997 0.0385472
00000000: 2b6e 37bd 7429 cebd ef37 2abe fa7b e9bd
00000010: 0877 573e 1040 3abe bcad 00bf 44c2 333f
00000020: 3ca2 8abe 4c4b c1bd 0c3c 773d 68e9 9abe
00000030: 5b50 4ebd 94d4 2e3c 3ae9 dd3d 020a 1a3d
00000040: 7841 443e 7a1a b0bc 9534 b53d 6ee7 b1bc
00000050: bde4 d7be 78f2 99be 961a ebbc b071 5d3e
00000060: 8b50 5cbe f1aa fd3c f08b eb3d 7c27 56be
00000070: 60e3 1d3c e620 2cbf 9ddf cbbc b630 0b3e
00000080: ac90 c2be 13ae d1bc 4b8e fd3b f10e 88be
00000090: 0875 f13d f183 63be aa65 0b3e a7c7 5bbc
000000a0: 65aa 30be cd5e 513d 11d6 10bc 62bd 11bf
000000b0: 0952 69be a379 d0be 3c4f dc3d 32e4 90be
000000c0: 2ded bcbe abe3 1d3d

W1 f4 [50, 50]
-2.39528 0.293956 0.0619025 -0.106357 0.363723 1.38196 -0.438323 0.348173
0.036361 -0.350549 -0.691871 0.53093 0.328049 0.688566 -0.858151 0.657069
-0.0352528 0.144936 -0.0818826 -0.0272374 0.618325 0.463924 1.72567 -0.73376
0.313911 -0.240066 -1.25747 0.165188 -0.641725 0.336835 -0.134979 -0.0641518
0.0360078 0.455766 -0.0925955 0.868902 0.193114 -0.661422 0.20421 -0.0460653
0.24337 -0.0620018 0.95039 0.511507 0.216734 -0.0708785 -0.363058 0.552677
-0.259355 0.426578 0.089442 -0.998823 -0.797326 -0.53906 -0.812414 1.56656
0.564436 0.0168276 -0.333931 0.404921 1.40997 -0.193473 -0.241238 0.0272487
0.0411229 0.479981 -0.54323 -0.565854 -0.775106 0.0395785 -0.567888 0.346081
0.357159 -0.317893 -0.904497 0.573021 0.334856 -0.496148 -0.295695 -0.997333
0.0058928 0.22917 -0.899507 -0.337416 -0.0883809 -0.338307 0.452139 0.168785
0.750528 -0.00161556 0.54712 -0.124263 -0.289012 0.370645 -0.303512 -3.44891
0.410077 -0.605339 -0.73146 -0.0894983 -0.158322 0.342874 2.04131 -0.168152
0.285692 -1.67517 -3.44227 0.17735 -0.534061 -0.882988 0.905125 -0.13812
1.80045 0.190506 -0.197168 -0.421998 -0.368426 -0.874641 -1.43602 -0.00830609
-2.14215 -0.239627 0.626933 -1.02417 0.497184 2.25234 -0.403417 1.0984
-0.380026 -1.77998 0.00430701 -0.0214942 0.129643 0.378881 0.205181 0.569013
1.05146 1.74247 -0.199633 -0.0527722 0.608691 0.387142 0.0260669 -0.461357
-1.46792 0.51464 1.55569 1.7587 -0.0322605 -0.467183 -0.0020447 -0.00274954
0.034512 0.0135046 0.0106712 -0.0308821 -0.050134 0.00389227 0.0131522 -0.03333
-0.000495644 0.0278711 -0.0253707 0.0022874 -0.026683 -0.00245019 0.00663456 -0.0317235
-0.0593867 0.0272619 -0.0390449 -0.0248309 0.029188 0.00284746 0.0358877 -0.0483045
0.0208014 -0.0576627 0.0242052 0.0199409 0.00975355 -0.0107093 -0.0490335 0.00963029
-0.031109 -0.0441229 -0.00372475 -0.0472838 -0.0353642 0.013335 -0.00981858 -0.0454787
-0.0495552 -0.0152391 0.00365592 -0.00836527 0.0122211 0.0027217 0.00104744 -0.0289748
0.879005 0.455168 1.09196 0.0831917 -2.51549 -1.5635 0.461897 -0.098441
1.42054 -0.129611 0.32833 0.0430559 0.638114 -1.28013 0.821917 -0.326698
-0.0941303 0.339071 0.494766 0.0412294 0.544636 0.828299 0.00982216 0.185514
-0.0489646 0.178175 -0.830903 -0.0483274 0.205856 -0.139326 -0.0770778 0.523758
0.226422 1.84132 -0.297827 0.432937 -0.412116 -2.47409 0.336515 0.00814962
-0.306744 0.322422 -0.959074 -3.10348 0.744107 -0.549351 0.534967 -1.02328
-0.351021 0.165693 -1.20728 -1.308 -0.683638 1.49326 1.11346 0.55262
00000000: 444c 19c0 6781 963e 7a8d 7d3d b3d1 d9bd
00000010: e739 ba3e 11e4 b03f df6b e0be bb43 b23e
00000020: 46ef 143d 297b b3be 751e 31bf 07eb 073f
00000030: 0af6 a73e dd45 303f c9af 5bbf ad35 283f
00000040: 3d65 10bd 1a6a 143e 11b2 a7bd f820 dfbc
00000050: 8c4a 1e3f 7287 ed3e c1e2 dc3f b2d7 3bbf
00000060: f1b8 a03e ddd3 75be c7f4 a0bf 0b27 293e
00000070: 1748 24bf a375 ac3e ef37 0abe 0562 83bd
00000080: ea7c 133d 295a e93e b6a2 bdbd 5d70 5e3f
00000090: adbf 453e f452 29bf 6d1c 513e f8ae 3cbd
000000a0: fc35 793e 99f5 7dbd c24c 733f 1ff2 023f
000000b0: 85ef 5d3e bf28 91bd bde2 b9be 3d7c 0d3f
000000c0: 2eca 84be 6e68 da3e 5e2d b73d ddb2 7fbf
000000d0: 8f1d 4cbf d6ff 09bf 5dfa 4fbf 0a85 c83f
000000e0: e17e 103f 09da 893c 01f9 aabe ce51 cf3e
000000f0: e679 b43f c91d 46be 1807 77be aa38 df3c
00000100: 7c70 283d 12c0 f53e 1f11 0bbf cfdb 10bf
00000110: 596d 46bf 111d 223d 1c61 11bf 8731 b13e
00000120: 8bdd b63e dfc2 a2be 1e8d 67bf 81b1 123f
00000130: 3f72 ab3e 1c07 febe 5665 97be 3751 7fbf
00000140: 6418 c13b 8aab 6a3e 1746 66bf cac1 acbe
00000150: 0c01 b5bd 9336 adbe c37e e73e fad5 2c3e
00000160: 9a22 403f 33c1 d3ba 0e10 0c3f 9a7d febd
00000170: 62f9 93be 2ec5 bd3e ed65 9bbe f1ba 5cc0
00000180: 9df5 d13e 7ff7 1abf f640 3bbf e24a b7bd
00000190: 2a1f 22be 2e8d af3e d3a4 0240 0a30 2cbe
000001a0: 3946 923e f86b d6bf 274e 5cc0 3d9b 353e
000001b0: 39b8 08bf 800b 62bf 46b6 673f 546f 0dbe
000001c0: 2575 e63f 0114 433e 68e6 49be 1f10 d8be
000001d0: 55a2 bcbe 79e8 5fbf 81cf b7bf 4416 08bc
000001e0: fc18 09c0 c860 75be ae7e 203f 0118 83bf
000001f0: e78e fe3e 5726 1040 ac8c cebe 5f98 8c3f
00000200: c592 c2be 62d6 e3bf d221 8d3b 9b14 b0bc
00000210: 22c1 043e b1fc c13e f81a 523e d6aa 113f
00000220: 3e96 863f 4209 df3f 986c 4cbe aa27 58bd
00000230: 2cd3 1b3f 7a37 c63e 408a d53c fc36 ecbe
00000240: cde4 bbbf 72bf 033f da20 c73f 151d e13f
00000250: 9623 04bd 9c32 efbe 6000 06bb a031 34bb
00000260: 745c 0d3d 6642 5d3c 42d6 2e3c 75fc fcbc
00000270: 4f59 4dbd 7415 7f3b 537c 573c 0a85 08bd
00000280: 1bee 01ba ef51 e43c 37d6 cfbc 34e8 153b
00000290: 4f96 dabc 5e93 20bb b966 d93b 80f0 01bd
000002a0: 783f 73bd 5954 df3c 8ced 1fbd 2c6a cbbc
000002b0: ac1b ef3c 749c 3a3b fbfe 123d f0da 45bd
000002c0: b367 aa3c b92f 6cbd fc49 c63c 195b a33c
000002d0: 5bcd 1f3c 0f76 2fbc 5ad7 48bd 5dc8 1d3c
000002e0: 4dd8 febc 37ba 34bd ef1a 74bb a8ac 41bd
000002f0: 0dda 10bd 0b7b 5a3c 1cde 20bc e047 3abd
00000300: 65fa 4abd 6bad 79bc 2998 6f3b 7c0e 09bc
00000310: 023b 483c 8c5e 323b 414a 893a 8f5c edbc
00000320: 7906 613f c80b e93e 58c5 8b3f 6960 aa3d
00000330: cafd 20c0 c520 c8bf c37d ec3e 6f9b c9bd
00000340: 41d4 b53f bfb8 04be df1a a83e 625b 303d
00000350: 705b 233f 4ddb a3bf 2769 523f f644 a7be
00000360: 63c7 c0bd b79a ad3e f851 fd3e 29e0 283d
00000370: 446d 0b3f 670b 543f 20ed 203c 62f7 3d3e
00000380: 1b8f 48bd 8273 363e 0fb6 54bf f4f2 45bd
00000390: eacb 523e 7aab 0ebe f7da 9dbd 0115 063f
000003a0: 2bdb 673e 60b0 eb3f c87c 98be eba9 dd3e
000003b0: de00 d3be 7e57 1ec0 b24b ac3e fc85 053c
000003c0: 8d0d 9dbe 7f14 a53e e085 75bf 6b9f 46c0
000003d0: cc7d 3e3f 44a2 0cbf 99f3 083f d7fa 82bf
000003e0: 06b9 b3be 6dab 293e 2788 9abf 8b6c a7bf
000003f0: e602 2fbf 2523 bf3f db85 8e3f 8178 0d3f

B1 f4 [50]
-0.715595 0.226433 0.467734 -0.0230731 -0.995858 -0.532162 0.697824 0.315493
-0.0302211 -0.0299516 -0.313104 -0.881033 -0.187649 -2.01017 -0.0203855 -0.260167
0.302376 -0.00878497 -0.0117192 1.30382 -0.100437 -0.486457 0.245822 -0.248282
1.10846 -0.116883 -0.12694 -0.0395637 0.310024 -0.000807629 0.623122 0.0463892
0.212052 -0.0149936 -0.0992224 0.0916485 0.373079 -0.0385546 0.161921 -0.0123291
-0.0598496 -0.296687 -1.0887 -0.0885509 0.36397 0.235757 -0.0212448 1.63113
-0.164618 0.0197746
00000000: 3c31 37bf 0dde 673e d57a ef3e cc03 bdbc
00000010: 8df0 7ebf c53b 08bf 98a4 323f 4c88 a13e
00000020: 3e92 f7bc 0f5d f5bc 2b4f a0be 618b 61bf
00000030: 0f27 40be a0a6 00c0 7eff a6bc 9c34 85be
00000040: 07d1 9a3e d6ee 0fbc e301 40bc 93e3 a63f
00000050: eab1 cdbd e410 f9be c3b8 7b3e a33d 7ebe
00000060: 04e2 8d3f 5b60 efbd 8ffc 01be 8c0d 22bd
00000070: 77bb 9e3e 11b7 53ba ec84 1f3f 9a02 3e3d
00000080: 2924 593e b7a7 75bc 1d35 cbbd 35b2 bb3d
00000090: 3604 bf3e 6eeb 1dbd 9ece 253e feff 49bc
000000a0: db24 75bd 5ce7 97be 865a 8bbf 2d5a b5bd
000000b0: 475a ba3e 486a 713e 9309 aebc dec8 d03f
000000c0: 9f91 28be 58fe a13c

W2 f4 [50, 50]
-0.45466 1.40479 0.644908 -0.017077 -2.67027 -0.788643 1.29955 -0.327453
-0.0274893 -0.0594493 1.72871 -3.464 -2.06025 -1.55888 0.0200933 -2.67142
-0.1939 -0.0251027 0.0256559 -1.92606 -0.772802 0.296323 -0.174902 -2.99711
3.36616 0.0891682 0.517473 -2.13159 0.444084 -0.114561 0.365805 -2.32134
0.854509 0.035708 0.289662 0.45556 0.287825 -2.25632 -1.02162 -0.0163022
-1.3961 -0.963851 0.768136 -1.70478 0.760369 0.738648 -0.510167 -0.502028
0.625326 -0.750996 1.09402 0.788462 -1.0323 0.0224848 1.2116 -0.0151045
0.176742 0.458038 -0.0147578 0.0440171 -0.467275 2.52723 1.66718 -0.0534584
0.0302735 0.43875 0.478376 -0.0381626 0.0102422 -0.688607 -0.120952 1.34389
0.354639 0.41092 0.555756 0.280256 0.0860098 0.590797 0.831531 -0.807522
0.245761 2.13987 -0.114212 -0.0463806 0.644769 0.871488 2.31005 1.3267
-1.02483 0.00255367 0.106069 -0.346271 -0.246859 0.542833 -1.81693 -0.0240284
-0.202876 -0.249249 -0.117565 1.37012 1.06812 0.567592 -0.427476 0.0185365
0.59365 0.174527 -0.949062 0.490207 -0.0260247 0.00661345 2.15362 0.886846
-1.4457 0.0868129 0.0202125 -0.106286 0.275044 -0.005442 -0.0287587 0.381765
0.845698 0.561587 0.0542684 -0.457632 -0.160728 0.738449 1.02282 -3.22103
-2.19941 0.347098 -0.285813 -3.0045 -0.0217799 -0.00561529 0.381613 0.239281
0.533037 0.311815 -0.407758 -0.0062241 -0.354617 0.0482056 -0.478745 0.13621
-0.563706 0.190693 -0.858405 -0.114753 0.774424 -4.3227 -0.00670458 -0.255499
-0.318168 -0.0452725 -0.0134059 -0.295924 0.448246 0.492201 -0.0201982 -0.0245963
-0.604832 -0.961606 0.0798176 -0.367478 0.0569598 0.875115 -0.102829 0.0169111
0.0132213 0.444016 0.0223804 0.797525 0.370886 0.412519 0.893482 0.477992
0.645595 0.79301 0.353674 0.215007 -0.191216 1.13515 3.93184 -0.0513075
-0.0602066 -0.643137 -2.31558 0.539648 0.0878056 0.0233905 -0.292015 -1.91774
0.0850893 -0.163176 0.536222 -0.21867 -0.529888 -0.305111 0.646441 -2.12504
0.412459 -0.759884 0.368889 -0.0181378 0.0952169 -0.913375 0.666974 -0.670551
-0.0454729 0.0208179 1.81526 -0.293545 0.0978247 0.26467 -0.0284972 0.789789
-0.330943 0.0291019 0.0050419 -0.491436 -2.03977 -0.342756 -0.506921 0.177711
0.495599 0.596191 0.141033 -2.66996 -3.11488 0.6943 0.399957 -0.254048
0.133194 0.0257484 -1.97264 0.639355 -0.550428 -0.7702 -0.123688 -0.0214649
1.01546 2.022 0.555624 0.372417 -0.872202 0.165489 -1.8611 0.660766
-0.0887727 0.147287 3.61865 0.353894 2.2132 0.0194365 1.92899 0.0874968
00000000: 32c9 e8be 29d0 b33f b118 253f 11e5 8bbc
00000010: b4e5 2ac0 82e4 49bf a857 a63f eba7 a7be
00000020: 3e31 e1bc 1c81 73bd 5f46 dd3f 2db2 5dc0
00000030: 23db 03c0 6189 c7bf b49a a43c 8cf8 2ac0
00000040: b98d 46be 2da4 cdbc 522c d23c 2289 f6bf
00000050: 5ad6 45bf a6b7 973e 8319 33be a6d0 3fc0
00000060: 2a6f 5740 d19d b63d 1c79 043f f86b 08c0
00000070: fa5e e33e f59e eabd cb4a bb3e d690 14c0
00000080: 1ac1 5a3f 8d42 123d 944e 943e 293f e93e
00000090: cc5d 933e 8c67 10c0 72c4 82bf 318c 85bc
000000a0: 68b3 b2bf f0be 76bf 90a4 443f 3b36 dabf
000000b0: 8ba7 423f 0918 3d3f 4e9a 02bf e884 00bf
000000c0: 5d15 203f 4641 40bf d908 8c3f a5d8 493f
000000d0: 6822 84bf 0b32 b83c b515 9b3f dd78 77bc
000000e0: dbfb 343e f583 ea3e b3ca 71bc 464b 343d
000000f0: ab3e efbe 23be 2140 2766 d53f 32f7 5abd
00000100: 2200 f83c d7a3 e03e b3ed f43e 6350 1cbd
00000110: e7ce 273c 8c48 30bf afb5 f7bd 9604 ac3f
00000120: 3e93 b53e 1b64 d23e 0646 0e3f b77d 8f3e
00000130: e825 b03d 793e 173f 37df 543f c3b9 4ebf
00000140: c6a8 7b3e a1f3 0840 fbe7 e9bd 96f9 3dbd
00000150: 950f 253f d619 5f3f dcd7 1340 4ed1 a93f
00000160: a12d 83bf 795b 273b b43a d93d 6f4a b1be
00000170: 9bc8 7cbe 1af7 0a3f 2a91 e8bf 35d7 c4bc
00000180: babe 4fbe 213b 7fbe ebc5 f0bd 1860 af3f
00000190: 28b8 883f b64d 113f 22de dabe dcd9 973c
000001a0: 72f9 173f 35b7 323e baf5 72bf 69fc fa3e
000001b0: c031 d5bc a4b5 d83b e9d4 0940 5708 633f
000001c0: b30c b9bf f6ca b13d af94 a53c 79ac d9bd
000001d0: 91d2 8c3e ce52 b2bb 5d97 ebbc b476 c33e
000001e0: aa7f 583f 2ac4 0f3f 8b48 5e3d be4e eabe
000001f0: e195 24be fe0a 3d3f c4eb 823f 5b25 4ec0
00000200: 22c3 0cc0 d4b6 b13e 1556 92be ba49 40c0
00000210: c36b b2bc 7700 b8bb c762 c33e 1406 753e
00000220: 1d75 083f 37a6 9f3e a8c5 d0be 89f3 cbbb
00000230: 5c90 b5be 3c73 453d 111e f5be a27a 0b3e
00000240: 094f 10bf 0745 433e 6ec0 5bbf 9f03 ebbd
00000250: a740 463f 8f53 8ac0 18b2 dbbb c4d0 82be
00000260: ebe6 a2be a86f 39bd 6ca4 5bbc 5a83 97be
00000270: 8080 e53e c501 fc3e b276 a5bc 2e7e c9bc
00000280: 45d6 1abf d02b 76bf 6977 a33d 1426 bcbe
00000290: ae4e 693d 8907 603f 0398 d2bd 2689 8a3c
000002a0: 279e 583c 1156 e33e 1a57 b73c 992a 4c3f
000002b0: c5e4 bd3e b135 d33e 3dbb 643f 5ebb f43e
000002c0: b745 253f b402 4b3f c214 b53e cc2a 5c3e
000002d0: 21ce 43be 984c 913f 44a3 7b40 d027 52bd
000002e0: 329b 76bd a0a4 24bf 7632 14c0 5f26 0a3f
000002f0: 6cd3 b33d 6f9d bf3c fd82 95be 8178 f5bf
00000300: 4d43 ae3d 9c17 27be d845 093f 07eb 5fbe
00000310: bda6 07bf 8237 9cbe 287d 253f a800 08c0
00000320: d32d d33e c287 42bf 05df bc3e b995 94bc
00000330: 1401 c33d f2d2 69bf cfbe 2a3f 3ba9 2bbf
00000340: cb41 3abd 4d8a aa3c 715a e83f 884b 96be
00000350: 5158 c83d d482 873e f672 e9bc 9d2f 4a3f
00000360: 5c71 a9be 1c67 ee3c 8636 a53b 809d fbbe
00000370: 978b 02c0 b77d afbe 93c5 01bf dff9 353e
00000380: 27bf fd3e f99f 183f f46a 103e a0e0 2ac0
00000390: 325a 47c0 a5bd 313f 2ac7 cc3e 9412 82be
000003a0: 0264 083e 4fee d23c 787f fcbf c5ac 233f
000003b0: d9e8 0cbf d42b 45bf 2250 fdbd 28d7 afbc
000003c0: 98fa 813f 7368 0140 603d 0e3f 71ad be3e
000003d0: a148 5fbf f375 293e 8638 eebf f627 293f
000003e0: 76ce b5bd 67d2 163e f697 6740 9831 b53e
000003f0: 12a5 0d40 4b39 9f3c 25e9 f63f 8631 b33d

B2 f4 [50]
0.68642 -1.25436 0.897708 0.027084 -0.595917 0.883909 -0.721045 -0.528086
-0.652063 -2.50092 -0.969229 0.213511 -0.0353389 1.50128 -1.44563 -0.772409
1.20725 -1.03866 1.27718 -1.58734 -0.621609 -0.589377 -0.167498 0.119582
-0.0120475 -1.04309 0.342284 -0.191598 -1.8246 0.512985 -0.496135 -1.40752
0.101884 0.850675 0.434133 -0.121264 -0.508577 0.0125409 0.196443 -0.205151
-0.0589998 -2.22147 -0.536544 -0.605963 -1.09747 -0.849638 -0.158649 -0.248356
-0.0877636 0.260829
00000000: 39b9 2f3f de8e a0bf 31d0 653f 44df dd3c
00000010: 048e 18bf dc47 623f 6896 38bf a530 07bf
00000020: 9aed 26bf 130f 20c0 641f 78bf a1a2 5a3e
00000030: 86bf 10bd f129 c03f 670a b9bf 99bc 45bf
00000040: 2b87 9a3f d0f2 84bf a27a a33f f52d cbbf
00000050: c421 1fbf 69e1 16bf 9984 2bbe 68e7 f43d
00000060: e162 45bc f983 85bf d93f af3e 4432 44be
00000070: 7e8c e9bf fc52 033f 6805 febe 9e29 b4bf
00000080: 8fa8 d03d d6c5 593f ae46 de3e 4359 f8bd
00000090: 1a32 02bf 5978 4d3c 5b28 493e 1b13 52be
000000a0: c6a9 71bd 912c 0ec0 f35a 09bf 6420 1bbf
000000b0: e679 8cbf e081 59bf e274 22be 0951 7ebe
000000c0: 67bd b3bd 618b 853e

W3 f4 [50, 50]
0.279662 0.558039 0.338403 -0.657227 0.875367 -0.320588 0.757402 -0.255338
0.487487 0.0609514 1.77811 2.07045 0.476772 -0.273045 2.62251 -2.31553
-0.698261 -2.4793 0.858013 -0.161671 3.03177 0.355238 2.77588 -0.0450316
-0.0443976 0.398253 1.56516 0.0952732 1.52354 0.0201281 0.775203 1.28659
0.980118 -0.863643 0.727887 2.45906 0.399588 -0.644037 -0.432465 0.0778093
-0.221848 0.12602 -0.937951 -1.04561 -0.559832 0.201487 0.735997 -0.063247
1.11518 2.46482 -0.296757 1.10083 -0.666608 0.986851 2.02127 0.0603083
0.999114 -0.606908 -1.67568 0.934698 -2.09993 0.393033 -0.987033 0.168393
-0.816881 -0.567385 -0.530317 -0.20775 -1.79359 -2.6695 -0.526487 1.01515
-0.927428 -0.264413 0.0288076 1.09974 -0.129292 1.25837 0.721096 -0.608558
0.754232 -2.39412 3.15899 -0.28403 -0.676714 -1.07942 0.121117 0.42943
0.0421128 1.34296 -0.205419 -0.0745915 -0.502885 -0.801123 0.820419 -0.308981
-0.890924 0.797091 -1.96237 -0.121793 0.80779 2.41751 1.25091 2.43419
0.576515 -1.00352 0.382442 -1.72337 3.74674 -1.99416 -0.173719 -0.919904
2.05676 0.539631 2.8135 1.92595 0.268206 2.04093 2.97427 -1.00746
1.22508 1.01604 1.1855 0.10227 0.00138234 0.0953337 1.82407 -0.24386
0.236498 1.42891 -0.183952 2.16728 1.59418 1.75705 0.557046 -1.65601
0.0724912 1.64266 2.0771 1.96372 -0.264211 -0.192838 -0.546179 0.177854
-0.971834 0.363615 2.7064 1.07608 -4.02949 2.6627 0.0351422 -0.52791
1.63717 0.691914 0.653849 1.09794 -0.101012 -0.117962 -1.75761 -2.01443
-0.835212 -0.902063 -0.715043 -0.133368 0.0226049 2.45288 -1.02335 -0.978643
-1.41843 -1.57522 -1.59038 -0.161675 -0.287657 0.387484 0.0333928 -0.309235
-0.699677 -0.92746 -1.67687 2.1083 0.0178881 1.43937 -1.18347 1.30295
1.51107 -0.0499977 0.023943 -0.774256 0.424997 -0.127485 0.0483623 0.73914
-0.151613 -0.43895 0.327249 1.01155 -1.4781 0.0587683 -0.19057 -0.444368
0.988991 1.38903 1.26099 1.11371 1.5381 -0.602707 0.421908 -0.949298
-0.0955056 2.27564 0.560149 0.204134 0.165322 0.576567 0.900904 1.92649
-0.059923 0.662242 2.58461 -0.0373307 3.77547 0.539505 2.06042 0.219222
0.0271855 1.21661 -1.39077 -0.0357585 -0.00979834 0.984031 0.240715 -0.500195
1.00394 -2.71455 1.08915 1.58142 0.491552 0.687043 -0.41864 0.72704
-0.234998 0.229613 0.582861 -0.133693 -1.05223 1.04837 0.201919 -1.10992
0.928704 1.14302 1.28383 1.90907 -0.612112 0.769654 -0.385019 -0.337342
00000000: dc2f 8f3e a5db 0e3f 2843 ad3e 0740 28bf
00000010: 0d18 603f 1c24 a4be 19e5 413f aabb 82be
00000020: e597 f93e 2da8 793d 1c99 e33f 4182 0440
00000030: 761b f43e 8ecc 8bbe 34d7 2740 a531 14c0
00000040: 3cc1 32bf daac 1ec0 bda6 5b3f 158d 25be
00000050: 8508 4240 c1e1 b53e 05a8 3140 0e73 38bd
00000060: 42da 35bd d1e7 cb3e 2a57 c83f 981e c33d
00000070: 5c03 c33f afe3 a43c b473 463f fbae a43f
00000080: 03e9 7a3f b517 5dbf cd56 3a3f 3d61 1d40
00000090: cc96 cc3e 9cdf 24bf 0d6c ddbe 7b5a 9f3d
000000a0: 1f2c 63be 630b 013e 8f1d 70bf 8cd6 85bf
000000b0: 2651 0fbf 9c52 4e3e 4d6a 3c3f a587 81bd
000000c0: 38be 8e3f 9cbf 1d40 89f0 97be ffe7 8c3f
000000d0: d2a6 2abf 44a2 7c3f 7d5c 0140 d605 773d
000000e0: efc5 7f3f 535e 1bbf af7c d6bf 5e48 6f3f
000000f0: 4165 06c0 9f3b c93e 32ae 7cbf 376f 2c3e
00000100: 1d1f 51bf 2540 11bf dbc2 07bf 6abc 54be
00000110: 5b94 e5bf 17d9 2ac0 dac7 06bf 6ff0 813f
00000120: ec6b 6dbf 2461 87be eafd eb3c 48c4 8c3f
00000130: 1f65 04be 4512 a13f bf99 383f 75ca 1bbf
00000140: 5915 413f 4339 19c0 e42c 4a40 616c 91be
00000150: 213d 2dbf 6f2a 8abf 310c f83d 40de db3e
00000160: 797e 2c3d 1de6 ab3f 5c59 52be 6ec3 98bd
00000170: 12bd 00bf 6616 4dbf fb06 523f c232 9ebe
00000180: 9813 64bf 280e 4c3f f12e fbbf 9c6e f9bd
00000190: 53cb 4e3f 7cb8 1a40 d21d a03f c5c9 1b40
000001a0: 7d96 133f 5873 80bf 70cf c33e 6397 dcbf
000001b0: 97ca 6f40 a340 ffbf 65e3 31be d47e 6bbf
000001c0: f5a1 0340 4225 0a3f 6210 3440 8885 f63f
000001d0: 4c52 893e 999e 0240 715a 3e40 73f4 80bf
000001e0: 6ccf 9c3f 990d 823f 77be 973f ef72 d13d
000001f0: a22f b53a 513e c33d 207b e93f 70b6 79be
00000200: 882c 723e 86e6 b63f ea5d 3cbe b7b4 0a40
00000210: 170e cc3f 04e7 e03f 919a 0e3f 23f8 d3bf
00000220: 4476 943d af42 d23f 35ef 0440 2d5b fb3f
00000230: aa46 87be 5377 45be 63d2 0bbf 5c1f 363e
00000240: 1dca 78bf bf2b ba3e a835 2d40 fdbc 893f
00000250: 95f1 80c0 ad69 2a40 44f1 0f3d 1c25 07bf
00000260: c98e d13f 4721 313f a662 273f 4c89 8c3f
00000270: 61df cebd 1096 f1bd 5df9 e0bf 6cec 00c0
00000280: 74d0 55bf 9aed 66bf 0f0d 37bf 9f91 08be
00000290: e92d b93c fcfb 1c40 22fd 82bf 5988 7abf
000002a0: 1d8f b5bf cfa0 c9bf 9291 cbbf 228e 25be
000002b0: c747 93be 4e64 c63e e3c6 083d 0d54 9ebe
000002c0: 081e 33bf 056e 6dbf ada3 d6bf 63ee 0640
000002d0: 118a 923c 473d b83f f27b 97bf 11c7 a63f
000002e0: be6a c13f 63ca 4cbd 1c24 c43c a435 46bf
000002f0: 3599 d93e 6e8b 02be 8c17 463d 4738 3d3f
00000300: 7040 1bbe 0ebe e0be 2e8d a73e 787a 813f
00000310: 6132 bdbf 07b7 703d c824 43be 3484 e3be
00000320: 842e 7d3f bccb b13f 1f68 a13f 0d8e 8e3f
00000330: 76e0 c43f 024b 1abf 5304 d83e 3205 73bf
00000340: 7198 c3bd 16a4 1140 ed65 0f3f 8108 513e
00000350: 2c4a 293e e599 133f a5a1 663f 3997 f63f
00000360: d271 75bd b188 293f 406a 2540 13e8 18bd
00000370: 4da1 7140 001d 0a3f ecdd 0340 bb7b 603e
00000380: 20b4 de3c e0b9 9b3f c004 b2bf 8177 12bd
00000390: 3789 20bc 75e9 7b3f fe7d 763e c80c 00bf
000003a0: 1b81 803f 30bb 2dc0 4469 8b3f f86b ca3f
000003b0: b4ac fb3e 0de2 2f3f fb57 d6be 4b1f 3a3f
000003c0: 51a3 70be ac1f 6b3e 6136 153f d1e6 08be
000003d0: 79af 86bf fd30 863f dbc3 4e3e dc11 8ebf
000003e0: 8cbf 6d3f 7b4e 923f 8b54 a43f 685c f43f
000003f0: 5fb3 1cbf 0b08 453f 3621 c5be 17b8 acbe

B3 f4 [50]
1.55203 -0.709602 2.93577 -3.54572 0.211342 1.09395 -0.0838793 3.48038
0.726881 0.979451 -1.19351 0.87589 -2.68915 1.21245 -1.98268 2.15728
-0.671174 0.368535 2.66919 -0.22017 -4.82789 1.25118 0.406003 -1.48742
-0.0244275 3.12757 -1.27172 0.584025 4.71076 1.58302 -0.787437 -0.0159808
2.29061 -0.885269 -0.640315 0.362294 0.232203 -3.77565 -0.771177 -1.8668
0.482496 -0.97539 0.827352 -1.59311 -0.0834759 -0.183725 0.665595 1.42743
2.28728 -1.37327
00000000: eba8 c63f 7aa8 35bf a8e3 3b40 14ed 62c0
00000010: 0a6a 583e 8e06 8c3f e9c8 abbd 8cbe 5e40
00000020: e014 3a3f 4dbd 7a3f f0c4 98bf 543a 603f
00000030: 091b 2cc0 9031 9b3f 75c8 fdbf e010 0a40
00000040: 0fd2 2bbf 9fb0 bc3e 02d4 2a40 3f74 61be
00000050: 137e 9ac0 ab26 a03f a0df cf3e c763 bebf
00000060: 2e1c c8bc 1b2a 4840 b9c7 a2bf aa82 153f
00000070: 8cbe 9640 66a0 ca3f 7995 49bf 2bea 82bc
00000080: 5b99 1240 fda0 62bf afeb 23bf 997e b93e
00000090: a0c6 6d3e 40a4 71c0 db6b 45bf 4df3 eebf
000000a0: b709 f73e 29b3 79bf 57cd 533f 07eb cbbf
000000b0: 6af5 aabd 6822 3cbe 6f64 2a3f 07b6 b63f
000000c0: cc62 1240 50c7 afbf

W4 f4 [50, 50]
0.352511 -0.692742 0.0905969 0.00267473 -0.0625318 -0.278895 0.47356 -0.701678
0.545373 1.09701 -0.0723359 0.308423 -0.0919188 0.375014 -0.263011 -0.445379
0.582751 -0.918191 -0.0261254 0.529215 -0.11398 -0.312906 -0.782912 -0.148893
-0.00220583 0.161534 0.751834 0.311234 0.0120264 0.317852 -0.0960379 -0.00322877
0.322662 -0.231826 -0.146628 0.274922 -0.233195 0.376102 0.435688 -0.310022
0.0949111 -0.972798 -0.219093 0.413959 0.355116 0.133827 -1.46737 0.299975
-0.391275 0.037804 -1.16888 2.34565 0.238577 0.112414 2.21871 0.847507
0.789259 -4.23601 -1.45164 -1.05558 -3.11725 1.47977 -0.101165 1.15448
0.5462 -0.356052 -0.150021 0.545642 1.50867 -1.57986 -0.0447538 -0.0614801
-0.0105755 -0.613152 0.0087889 -0.0577562 2.7898 2.78781 -0.871714 1.7556
1.58316 -0.0374025 -0.817691 1.72566 0.68224 0.0207498 1.59768 0.645151
3.61008 -0.977939 -1.4356 1.84555 0.051358 1.98361 -1.24382 -0.284323
1.0718 -0.161239 -0.716177 0.531044 0.0121051 -1.41758 0.433499 0.0393857
-0.72932 -0.694291 -4.7981 -0.838278 0.0737764 0.499205 -0.533612 0.268274
-1.02228 0.110301 0.117651 -0.268784 -1.32569 -0.0417803 0.405634 0.0158873
-0.146518 0.135411 -1.40079 -2.58495 -0.0377461 0.264541 -0.832798 -0.293406
0.292749 1.22629 0.361283 -0.0310496 0.15297 -0.396284 0.313067 -3.76206
1.00302 0.68801 -1.67064 -4.45615 -0.164734 0.170089 -0.116538 -0.710944
0.644982 -0.0367016 -0.69944 0.620608 0.236929 -1.33692 0.325314 0.894273
-1.2082 0.180646 -2.12099 -1.43211 0.330064 1.14256 -0.873215 0.754627
-0.751202 0.0622829 -1.32962 0.941181 -0.142904 0.0180381 -0.850752 0.127694
-1.92909 0.133678 0.0926928 0.425147 -0.102726 -1.90643 -0.00759065 -0.416378
-0.16448 -0.756496 -0.686662 -4.19111 -0.387359 0.0458267 -1.11507 -0.128064
0.29073 0.71872 1.37582 0.498043 -2.59881 -0.159141 -0.170945 -0.700138
0.167983 0.126727 0.0209668 -0.170031 0.798534 0.205521 0.83089 -1.69214
-0.175346 -2.03389 0.576398 0.507477 -0.181203 0.123177 -1.59043 -1.9731
1.35309 -0.505059 -0.445715 1.08656 -1.91815 0.295793 0.0263524 0.321022
1.6713 -1.03109 -0.62041 1.1767 -0.348019 -0.604499 -1.42562 0.0920965
0.00291906 -0.458738 -1.39902 0.208873 0.424182 -0.697448 0.710579 0.0433136
2.15534 -0.812932 0.475934 0.475969 -1.57436 -1.4437 1.19726 -2.49956
0.442659 -1.53574 0.573156 1.81977 -0.968795 -0.0175136 -0.640171 -0.211279
0.605995 -0.9343 1.1164 -6.82666 -5.75805 0.329744 -6.95024 -0.433076
00000000: 527c b43e 8a57 31bf de8a b93d 864a 2f3b
00000010: ac10 80bd 53cb 8ebe 7576 f23e 2ba1 33bf
00000020: 919d 0b3f d36a 8c3f d824 94bd 9fe9 9d3e
00000030: ec3f bcbd d601 c03e 61a9 86be b708 e4be
00000040: 2b2f 153f 910e 6bbf ef04 d6bc a27a 073f
00000050: 596e e9bd 3735 a0be ec6c 48bf 6877 18be
00000060: b08f 10bb 2b69 253e 3178 403f 105a 9f3e
00000070: 610a 453c 7fbd a23e 85af c4bd c699 53bb
00000080: f433 a53e cc63 6dbe a725 16be 94c2 8c3e
00000090: acca 6ebe 7190 c03e 7f12 df3e 34bb 9ebe
000000a0: c060 c23d 4a09 79bf ea59 60be 6ff2 d33e
000000b0: c4d1 b53e f209 093e c8d2 bbbf 5396 993e
000000c0: 3255 c8be 5ed8 1a3d dc9d 95bf 211f 1640
000000d0: 874d 743e 5039 e63d 58ff 0d40 38f6 583f
000000e0: e10c 4a3f 658d 87c0 57cf b9bf 3f1d 87bf
000000f0: 0681 47c0 1a69 bd3f 982f cfbd 00c6 933f
00000100: c3d3 0b3f 734c b6be 1b9f 19be 32af 0b3f
00000110: 191c c13f da38 cabf c34f 37bd 8fd2 7bbd
00000120: dd44 2dbc 88f7 1cbf 52ff 0f3c c491 6cbd
00000130: 158c 3240 7b6b 3240 a628 5fbf 80b7 e03f
00000140: fda4 ca3f 5d33 19bd 3354 51bf 6de2 dc3f
00000150: 48a7 2e3f 7cfb a93c c780 cc3f 9e28 253f
00000160: 8d0b 6740 365a 7abf bec1 b7bf fb3a ec3f
00000170: c45c 523d efe6 fd3f 7e35 9fbf c992 91be
00000180: be30 893f d61b 25be 6057 37bf 80f2 073f
00000190: 7854 463c 4373 b5bf 95f3 dd3e e652 213d
000001a0: b7b4 3abf 0ebd 31bf 098a 99c0 6399 56bf
000001b0: 1518 973d cc97 ff3e cc9a 08bf 365b 893e
000001c0: 12da 82bf 7ee5 e13d 02f3 f03d 0e9e 89be
000001d0: 36b0 a9bf d221 2bbd 42af cf3e 1526 823c
000001e0: d108 16be 2ea9 0a3e 164d b3bf d26f 25c0
000001f0: a89b 1abd eb71 873e 4032 55bf 5039 96be
00000200: 32e3 953e 12f7 9c3f 16fa b83e bb5b febc
00000210: 2ba4 1c3e bde5 cabe 514a a03e 97c5 70c0
00000220: f662 803f 6c21 303f 88d7 d5bf c898 8ec0
00000230: 08b0 28be d02b 2e3e 7aab eebd 6d00 36bf
00000240: 8a1d 253f 6b54 16bd 800e 33bf 2ae0 1e3f
00000250: 849d 723e 3220 abbf 8e8f a63e 13ef 643f
00000260: 4ca6 9abf 44fb 383e 4dbe 07c0 614f b7bf
00000270: 26fe a83e 683f 923f 058b 5fbf 3c2f 413f
00000280: c64e 40bf 5b1c 7f3d fd30 aabf 3df1 703f
00000290: 6d55 12be a3c4 933c e2ca 59bf 37c2 023e
000002a0: 6cec f6bf e3e2 083e b9d5 bd3d deac d93e
000002b0: 0262 d2bd e605 f4bf fdba f8bb 7f2f d5be
000002c0: 726d 28be b9a9 41bf 15c9 2fbf 931d 86c0
000002d0: eb53 c6be c7b4 3b3d 9dba 8ebf 3623 03be
000002e0: 90da 943e 09fe 373f df1a b03f 7eff fe3e
000002f0: e752 26c0 dcf5 22be 350c 2fbe 3e3c 33bf
00000300: bc03 2c3e b9c4 013e 91c2 ab3c 9b1c 2ebe
00000310: b96c 4c3f 1974 523e 35b5 543f 0b98 d8bf
00000320: e78d 33be 412b 02c0 d28e 133f 03ea 013f
00000330: 478d 39be 3944 fc3d 3693 cbbf 8a8e fcbf
00000340: 0e32 ad3f 8c4b 01bf c234 e4be 6614 8b3f
00000350: f085 f5bf 2e72 973e fde0 d73c ff5c a43e
00000360: 29ed d53f c2fa 83bf 31d3 1ebf 1b9e 963f
00000370: 8c2f b2be 72c0 1abf b77a b6bf 179d bc3d
00000380: b34d 3f3b b5df eabe 1613 b3bf cee2 553e
00000390: 622e d93e f48b 32bf 81e8 353f 9a69 313d
000003a0: 17f1 0940 501c 50bf 9fad f33e 35b2 f33e
000003b0: a184 c9bf 29cb b8bf d13f 993f cbf8 1fc0
000003c0: 33a4 e23e 2193 c4bf 5aba 123f 39ee e83f
000003d0: f302 78bf ae78 8fbc 3fe2 23bf 8659 58be
000003e0: 7d22 1b3f 492e 6fbf 32e6 8e3f 0074 dac0
000003f0: f241 b8c0 35d4 a83e 5e68 dec0 23bc ddbe

B4 f4 [50]
1.56286 0.453656 -1.8719 -0.653236 2.4536 -1.11464 1.89553 -0.366652
-0.0771248 1.63704 -2.17891 0.326001 0.632754 0.237528 3.05794 3.81093
-0.223132 -0.453899 0.735275 4.12156 0.878412 -0.274475 3.16481 -1.42294
0.278301 0.115524 1.46452 0.248533 2.81845 -0.0235788 -0.945319 -0.881345
3.18538 1.60383 -0.0496437 1.32756 0.736424 0.194456 -2.62945 -2.53943
1.39613 0.067194 -0.0466822 6.34015 1.75339 0.670112 3.29307 -0.530576
-0.394107 0.0525053
00000000: cc0b c83f 9945 e83e 6b9a efbf 793a 27bf
00000010: c807 1d40 86ac 8ebf baa0 f23f d0b9 bbbe
00000020: 9bf3 9dbd 878a d13f 4373 0bc0 9ae9 a63e
00000030: 2bfc 213f 8a3a 733e 4ab5 4340 47e6 7340
00000040: b77c 64be 7365 e8be fb3a 3c3f d2e3 8340
00000050: 9cdf 603f fd87 8cbe 3f8c 4a40 e622 b6bf
00000060: 787d 8e3e d997 ec3d 6475 bb3f 6f7f 7e3e
00000070: 7c61 3440 5428 c1bc 6d00 72bf d39f 61bf
00000080: 44dd 4b40 4d4a cd3f 3157 4bbd 7ced a93f
00000090: 4986 3c3f 791f 473e e948 28c0 0586 22c0
000000a0: 63b4 b23f 029d 893d d635 3fbd 82e2 ca40
000000b0: 156f e03f 768c 2b3f a9c1 5240 d4d3 07bf
000000c0: 65c8 c9be cc0f 573d

W5 f4 [50, 50]
0.164601 0.0471483 -0.0396794 -0.170876 0.00539959 0.0164269 -0.0785648 -0.0586394
0.0896649 -0.0140407 0.0276549 -0.0525102 -0.0450957 -0.00785636 -0.0146786 -0.0175248
0.0523102 0.00421966 0.0524769 -0.0758554 0.00535716 0.0174001 -0.110439 0.0016707
-0.100488 -0.236836 -0.982802 0.0619518 0.159425 0.0184684 0.030256 0.0335688
0.0363162 -0.054322 -0.015603 -0.689999 0.0250027 0.0369209 -0.0844365 0.0332644
-0.0107162 -0.0782045 0.029065 -0.0996466 -0.0731404 0.0203649 -0.0866343 -0.0667991
-0.0661525 -0.0143776 -0.144424 0.00926271 0.0749902 -0.0242392 0.0052664 -0.00550328
-0.0474639 0.0150293 0.00650393 -0.0112564 -0.0740546 -0.127712 0.0235222 0.00382982
0.00496781 0.0105591 -0.00403526 0.0543518 -0.00241404 0.00919775 0.0035433 -0.00967721
-0.0171829 0.00251773 -0.0203809 -0.0276693 -0.232821 -0.00671105 0.00652329 -0.0319526
-0.01797 -0.00388562 -0.0296986 0.0259014 -0.00444589 -0.0341316 -0.02227 -0.0932641
-0.0324133 0.0343274 -0.00426551 -0.0046341 -0.00999258 -0.0247557 -0.0879228 0.0389238
0.0601149 -0.01272 0.0115755 -0.0113711 -2.76265 -3.35125 1.81952 -0.376002
-0.629292 -0.906359 0.370359 0.351609 -3.11664 -0.514438 -0.995807 0.387653
-3.33663 -0.315026 -0.193352 -3.59198 -2.12749 -0.355469 -0.1134 -0.120889
-1.70991 -3.60045 0.360567 -1.43709 -3.70287 -0.516412 -3.6398 0.725383
0.189317 -1.19481 0.355599 1.68037 0.241892 -2.74803 -1.95083 -0.573749
0.0318652 0.35589 -2.31802 -0.604379 0.00623166 -0.135681 0.0248927 -1.88967
-0.38221 -1.60364 -0.778913 -0.385162 -0.655084 0.384823 2.03183 1.35148
-0.60292 -1.26594 -0.944311 0.507628 3.16533 -0.788732 3.66061 -1.51364
-0.864311 3.69488 2.23776 -4.91189 -2.17418 -0.615176 1.05694 1.57818
4.37936 -14.3022 2.16517 -1.03086 -29.4251 1.66661 3.78864 -2.28824
1.05813 3.51647 1.39301 2.5808 -4.63113 2.94274 -3.29873 -0.626507
1.79874 0.349553 -0.56588 3.14584 -2.59514 1.30134 -0.320859 -2.15467
0.0215163 1.65184 -1.69424 2.90481 -4.037 0.219829 -2.38317 0.862509
-5.33181 -2.63732 0.281218 2.12882 -3.5696 0.371029 0.444036 3.21673
-2.11834 -1.35894 -1.14795 3.05082 -1.14323 0.0648785 -2.19021 0.764162
-2.17629 0.365736 2.1109 -1.09522 -0.187523 1.66054 -1.21906 0.614022
-3.71837 2.0473 -0.142544 -2.841 -7.04394 -3.54183 2.3625 -0.97477
-1.90849 -2.96628 1.15648 -1.45445 -2.94343 3.38288 0.444818 -5.31552
-0.332168 -3.56736 0.0108468 -0.460638 -0.113968 2.8609 1.0548 0.439491
1.19143 1.80469 0.0815624 0.0044669 0.24758 -0.377014 0.029371 0.0295421
00000000: 2a8d 283e 931e 413d de86 22bd 1efa 2ebe
00000010: 0bef b03b b591 863c 95e6 a0bd de2f 70bd
00000020: 3ba2 b73d f70a 66bc 878c e23c ef14 57bd
00000030: 45b6 38bd f6b7 00bc 837e 70bc 2b90 8fbc
00000040: 3843 563d 1345 8a3b 05f2 563d 135a 9bbd
00000050: 1d8b af3b a88a 8e3c d82d e2bd 64fb da3a
00000060: a7cc cdbd 2385 72be e998 7bbf 2cc1 7d3d
00000070: 4f40 233e 0b4b 973c 6edb f73c 707f 093d
00000080: 4cc0 143d bf80 5ebd baa3 7fbc c6a3 30bf
00000090: 76d2 cc3c 5f3a 173d 0bed acbd 4040 083d
000000a0: 0093 2fbc ae29 a0bd b919 ee3c 8413 ccbd
000000b0: a2ca 95bd 4ad4 a63c 536d b1bd f7cd 88bd
000000c0: f67a 87bd 0690 6bbc e3e3 13be 9fc2 173c
000000d0: 7694 993d 4991 c6bc c491 ac3b dc54 b4bb
000000e0: 8269 42bd 743d 763c eb1e d53b c36c 38bc
000000f0: f0a9 97bd efc6 02be a1b1 c03c b8fd 7a3b
00000100: 03c9 a23b 1300 2d3c 373a 84bb fe9f 5e3d
00000110: df34 1ebb 29b2 163c b636 683b 298d 1ebc
00000120: 27c3 8cbc 8000 253b d8f5 a6bc baaa e2bc
00000130: a168 6ebe 5ee8 dbbb 53c1 d53b bbe0 02bd
00000140: d235 93bc e3a5 7ebb 7a4a f3bc 2c2f d43c
00000150: d4ae 91bb 94cd 0bbd 936f b6bc 4001 bfbd
00000160: cfc3 04bd e39a 0c3d b1c5 8bbb a6d9 97bb
00000170: ebb7 23bc 77cc cabc de10 b4bd 906e 1f3d
00000180: 0b3b 763d 8c67 50bc 2aa7 3d3c da4d 3abc
00000190: 42cf 30c0 e17a 56c0 08e6 e83f 5683 c0be
000001a0: 4819 21bf 2507 68bf b29f bd3e 1806 b43e
000001b0: 0877 47c0 35b2 03bf 35ed 7ebf 747a c63e
000001c0: 598b 55c0 164b a1be 11fe 45be 00e3 65c0
000001d0: cc28 08c0 0800 b6be 423e e8bd a794 f7bd
000001e0: 55de dabf c66d 66c0 3d9c b83e 91f2 b7bf
000001f0: d2fb 6cc0 9433 04bf 7cf2 68c0 b3b2 393f
00000200: 51dc 413e 89ef 98bf 1211 b63e 5d16 d73f
00000210: 89b2 773e b9df 2fc0 ccb4 f9bf 37e1 12bf
00000220: 1585 023d 3737 b63e 715a 14c0 95b8 1abf
00000230: f432 cc3b f6ef 0abe c7eb cb3c b5e0 f1bf
00000240: 07b1 c3be 1344 cdbf d866 47bf f433 c5be
00000250: 96b3 27bf 8507 c53e 8109 0240 4cfd ac3f
00000260: f758 1abf 520a a2bf 5ebe 71bf e9f3 013f
00000270: c494 4a40 57ea 49bf 6f47 6a40 f5be c1bf
00000280: 7c43 5dbf ea78 6c40 7637 0f40 342e 9dc0
00000290: c425 0bc0 2d7c 1dbf cf49 873f cd01 ca3f
000002a0: b823 8c40 d0d5 64c1 2592 0a40 38f3 83bf
000002b0: 9b66 ebc1 7a53 d53f 1479 7240 8672 12c0
000002c0: ce70 873f d80d 6140 274e b23f d42b 2540
000002d0: 3832 94c0 da55 3c40 641e 53c0 c362 20bf
000002e0: 1d3d e63f 9cf8 b23e 83dd 10bf 7155 4940
000002f0: c616 26c0 4f92 a63f a147 a4be 1de6 09c0
00000300: f442 b03c 7e6f d33f dbdc d8bf 68e8 3940
00000310: 1b2f 81c0 da1a 613e db85 18c0 64cd 5c3f
00000320: 309e aac0 dac9 28c0 cefb 8f3e 963e 0840
00000330: 5474 64c0 83f7 bd3e b058 e33e e8de 4d40
00000340: e292 07c0 bff1 adbf 07f0 92bf a340 4340
00000350: 5c55 92bf 05df 843d 672c 0cc0 1fa0 433f
00000360: 5648 0bc0 c041 bb3e fc18 0740 2b30 8cbf
00000370: 0806 40be 938c d43f 280a 9cbf 8c30 1d3f
00000380: c6f9 6dc0 f706 0340 0ef7 11be f2d2 35c0
00000390: f567 e1c0 58ad 62c0 3333 1740 878a 79bf
000003a0: 6649 f4bf 88d7 3dc0 8907 943f 6b2b babf
000003b0: 2861 3cc0 1b81 5840 2fbf e33e bd18 aac0
000003c0: ed11 aabe a04f 64c0 c7b6 313c bed8 ebbe
000003d0: 0e68 e9bd fc18 3740 b003 873f f704 e13e
000003e0: c780 983f 1500 e73f 300a a73d 135f 923b
000003f0: 9d85 7d3e fb07 c1be 749b f03c 4602 f23c

B5 f4 [50]
0.39295 0.997738 0.756394 0.256375 -1.30637 -0.538754 1.38399 1.44316
-2.61516 0.659353 0.501276 3.20963 -3.07077 -0.112738 -0.71589 -2.71677
1.94251 -1.08052 -1.48388 0.450103 1.52378 1.76112 3.96625 0.505118
1.78699 -4.1065 2.33801 0.928816 1.31198 0.637049 -0.129157 1.22952
0.0353268 1.06002 0.306898 2.60403 1.09507 0.348924 0.65814 1.79741
1.29256 -0.906714 -0.479971 2.79724 -0.643215 0.296624 1.09116 -2.92566
-0.943549 0.0506574
00000000: be30 c93e c26b 7f3f 0aa3 413f 9643 833e
00000010: 2237 a7bf c8eb 09bf 9626 b13f 78b9 b83f
00000020: c85e 27c0 5ccb 283f a053 003f 946a 4d40
00000030: 7f87 44c0 2ee3 e6bd 9144 37bf 8fdf 2dc0
00000040: 2ba4 f83f 7b4e 8abf c8ef bdbf e773 e63e
00000050: 390b c33f 616c e13f 0ad7 7d40 6a4f 013f
00000060: 17bc e43f 7368 83c0 f5a1 1540 e3c6 6d3f
00000070: f6ee a73f a515 233f bc41 04be e960 9d3f
00000080: d6b2 103d bcae 873f bc21 9d3e 6da8 2640
00000090: 412b 8c3f 2ba6 b23e dd7b 283f 8811 e63f
000000a0: 9b72 a53f 691e 68bf c2be f5be fb05 3340
000000b0: bda9 24bf 1adf 973e 22ab 8b3f 033e 3bc0
000000c0: 6d8c 71bf 227e 4f3d

W6 f4 [5, 50]
-0.00155985 0.00128131 -0.00769201 0.00451885 0.00595751 0.00277981 -0.0267094 -0.0102375
0.00418965 0.00245056 -0.00424739 -0.00542148 0.00358403 -0.00595095 0.00344086 0.00530907
-0.0301346 0.00676648 0.00427268 0.00746904 0.00341472 0.00715299 0.0149037 0.00560669
-0.00977693 0.0021625 0.00863977 -0.0116407 0.000927126 -0.000651562 0.000291936 0.00283613
-0.00717102 -0.00189348 -0.00232205 0.0130589 -0.00108153 -0.00294337 -0.0145215 0.00246308
-0.0859876 -0.00642287 0.00236564 0.0185526 0.00475507 0.0168826 -0.00704391 0.00304498
-0.003237 -0.00164481 -0.00472962 0.0130764 0.000385725 -9.76579e-05 0.000348741 0.000298611
8.6113e-05 0.000309384 0.00081905 -0.00594446 0.000922396 0.00164132 -1.51506e-05 -0.000538399
-8.09337e-05 0.00104843 0.000326256 -6.32534e-05 0.000328201 0.00551099 0.00377765 0.00775338
0.000496795 -0.000200413 0.000423559 -6.97769e-06 0.00558596 0.000146429 0.00141166 0.0156264
-0.000466925 0.00697811 -0.0115806 0.00683788 -0.000853254 -0.000259047 -0.00332087 -0.0041863
0.000919542 0.00416124 -0.0177645 0.00518867 0.000683 0.000797528 0.000483301 0.014602
0.000367253 3.35491e-05 -0.000478478 -0.0022988 0.00938346 -0.000448526 0.000479636 0.000128095
-0.000250958 0.0146898 -5.90929e-05 0.00148195 -0.00117431 0.0130619 0.000241145 0.00478612
-0.000708758 -0.000331655 -0.000291108 0.000713889 0.00111405 -0.000277316 -0.000206248 0.00205985
0.000284139 0.00920675 -0.00144232 -0.00107623 9.37641e-05 -0.000174898 0.00149245 0.000324019
0.000492915 -0.0003603 0.00345686 0.00735419 -0.000876897 0.00883444 0.000694406 -0.000130638
0.0109197 -7.32652e-05 -0.00290589 -0.00188332 0.0349108 -0.00104251 -0.000743149 -0.000417363
-0.00108572 0.0128879 -7.81387e-05 -0.000905251 0.00017762 0.0011043 -0.00114564 0.0129408
-5.27731e-05 2.11665e-05 7.21309e-05 -0.00248519 0.00014919 0.000468927 0.000369674 -0.00776651
0.00128702 0.00223123 -0.000159824 -0.000493929 -0.000293499 0.00251592 -0.000539151 -3.05033e-05
0.00143068 0.00887454 0.00745036 0.00837764 0.00123957 0.000143732 0.000920793 -0.000302962
0.00527426 0.000385745 0.000832626 0.0163979 -0.00651481 0.00520888 -0.013733 0.00887872
-0.00197643 0.000225694 -0.00228913 -0.00385856 0.000523892 0.00334055 -0.0181401 0.00165452
0.000588709 0.00123491 0.00084172 0.00968923 -0.000242375 0.000335452 0.000379803 -0.00186115
0.011747 0.00105425 -0.00077582 -0.000199884 -6.60312e-05 -0.00511343 -0.00112731 0.00025654
0.000383669 0.0137945 0.00115088 0.00142459 -3.80058e-06 0.000392277 0.000198395 0.000767721
-0.00174117 0.000228906 0.000156255 0.00118347 0.00532779 0.00606406 0.00143667 -2.25062e-06
0.000577626 -5.89258e-05 0.00253088 -0.00130827 0.00153724 -0.00232212 0.0151652 0.0132102
-0.000689773 0.00551526 -0.00215743 0.000140307 0.0123565 -0.00182586 0.00117617 0.00365097
-0.0200274 -0.00237904 0.000392339 0.00128922 -6.63669e-05 0.00816028 -0.000279414 0.00109692
-0.000681497 0.0123331
00000000: e173 ccba a1f1 a73a 420d fcbb dc12 943b
00000010: 3737 c33b 792d 363b accd dabc 30bb 27bc
00000020: 5549 893b 9399 203b b12d 8bbb aca6 b1bb
00000030: 0ce2 6a3b 3000 c3bb 0d80 613b b5f7 ad3b
00000040: d6dc f6bc 59b9 dd3b d601 8c3b d9be f43b
00000050: 7fc9 5f3b a163 ea3b a62e 743c 53b8 b73b
00000060: 6b2f 20bc bbb8 0d3b d28d 0d3c a2b8 3ebc
00000070: 5f0a 733a 96cd 2aba fd0e 9939 5ede 393b
00000080: e0fa eabb a52e f8ba 892d 18bb fff4 553c
00000090: 20c2 8dba 8ee5 40bb 96eb 6dbc a06b 213b
000000a0: 441a b0bd f076 d2bb da08 1b3b 9ffb 973c
000000b0: 6bd0 9b3b 614d 8a3c 9ad0 e6bb 4a8e 473b
000000c0: d923 54bb aa96 d7ba eefa 9abb 663e 563c
000000d0: 223b ca39 b0cd ccb8 3ad7 b639 e48e 9c39
000000e0: 9197 b438 d134 a239 84b5 563a bfc9 c2bb
000000f0: f3cc 713a 8f21 d73a 552f 7eb7 5823 0dba
00000100: f3ba a9b8 796b 893a 570d ab39 e9a6 84b8
00000110: 6412 ac39 8995 b43b 7392 773b 1110 fe3b
00000120: 593b 023a f425 52b9 2011 de39 e721 eab6
00000130: 6e0a b73b bc8a 1939 7307 b93a f002 803c
00000140: 9dcd f4b9 a1a8 e43b 8fbc 3dbc 4b10 e03b
00000150: e8ac 5fba b3d0 87b9 f4a2 59bb 3b2d 89bb
00000160: 6b0d 713a 035b 883b db86 91bc b805 aa3b
00000170: 5b0b 333a 3311 513a 9063 fd39 3a3d 6f3c
00000180: dd8b c039 12b7 0c38 3bdc fab9 77a7 16bb
00000190: 15bd 193c 2428 ebb9 a777 fb39 3d51 0639
000001a0: 0393 83b9 7dad 703c 85da 77b8 fe3d c23a
000001b0: 4eeb 99ba 9401 563c dedb 7c39 e2d4 9c3b
000001c0: f2cb 39ba fbe1 adb9 db9f 98b9 4824 3b3a
000001d0: 5105 923a b964 91b9 4744 58b9 8cfe 063b
000001e0: 7ef8 9439 e9d7 163c 3a0c bdba 4910 8dba
000001f0: 38a3 c438 d364 37b9 509e c33a 18e1 a939
00000200: f736 013a a6e6 bcb9 7d8c 623b 6bfb f03b
00000210: 90df 65ba 54be 103c cc08 363a dffb 08b9
00000220: 8be8 323c f4a5 99b8 bf70 3ebb bcd9 f6ba
00000230: a1fe 0e3d d5a4 88ba e3cf 42ba 83d1 dab9
00000240: b84e 8eba c527 533c 65de a3b8 5e4e 6dba
00000250: 813f 3a39 29be 903a 4d29 96ba a605 543c
00000260: af58 5db8 b68e b137 fb44 9738 92de 22bb
00000270: e36f 1c39 51da f539 ced0 c139 357e febb
00000280: 3ab1 a83a d439 123b 6e96 27b9 047b 01ba
00000290: c5e0 99b9 22e2 243b d055 0dba 57e1 ffb7
000002a0: a885 bb3a 8566 113c 2622 f43b 5e42 093c
000002b0: 1179 a23a c4b6 1639 5f61 713a dfd6 9eb9
000002c0: b3d3 ac3b d13d ca39 9644 5a3a e454 863c
000002d0: 307a d5bb 41af aa3b 6000 61bc 0d78 113c
000002e0: fe86 01bb 46a8 6c39 3a05 16bb e5df 7cbb
000002f0: cc55 093a 21ed 5a3b 8c9a 94bc 7bdc d83a
00000300: 9853 1a3a b4dc a13a dfa6 5c3a 93bf 1e3c
00000310: 0b26 7eb9 9bdf af39 4c20 c739 d5f1 f3ba
00000320: 7d76 403c c32e 8a3a 6660 4bba f497 51b9
00000330: 3b7a 8ab8 8f8e a7bb 3fc2 93ba 3780 8639
00000340: 2e27 c939 5402 623c 20d9 963a 4fb9 ba3a
00000350: 780d 7fb6 87aa cd39 4108 5039 e240 493a
00000360: f837 e4ba 7d06 7039 62d8 2339 aa1e 9b3a
00000370: be94 ae3b 06b5 c63b a54e bc3a 5b09 17b6
00000380: d36b 173a 1927 77b8 1fdd 253b 427a abba
00000390: 377d c93a b52e 18bb 7677 783c 986f 583c
000003a0: e2d1 34ba 5bb9 b43b ab63 0dbb 601f 1339
000003b0: eb72 4a3c b251 efba b729 9a3a 1d45 6f3b
000003c0: 8110 a4bc abe9 1bbb d9b2 cd39 0bfb a83a
000003d0: 752e 8bb8 b2b2 053c 507e 92b9 87c6 8f3a
000003e0: 7da6 32ba c510 4a3c

B6 f4 [5]
-0.0195876 0.0187768 -0.0201717 0.0195976 -0.0178242
00000000: 2d76 a0bc ced1 993c 1f3f a5bc 258b a03c
00000010: 0f04 92bc
