data/acasxu/nets/ACASXU_run2a_5_5_batch_2000.onnx (onnx, 53878 bytes, 14 tensors)

W0 f4 [50, 5]
-0.14955 -0.0248534 -0.00112066 -0.0175932 -0.0108465 0.00770676 1.14962 -1.17167
0.246475 -0.799437 -0.00945665 -0.668543 -0.528016 -0.385838 0.0407823 0.0460149
1.40257 0.551879 0.897442 -0.872173 0.0153226 -0.136905 1.35126 0.204432
-0.19352 -0.0111053 -0.145931 -0.0421182 0.238108 -1.25966 -0.0356913 1.59333
0.121379 0.814434 -0.697038 -0.00165935 -0.093996 0.117309 0.621593 -0.675604
0.120317 1.24382 -1.3459 0.287117 -0.167557 -0.127555 2.45324 -2.4295
-0.0650554 0.0231439 0.0418091 -1.38662 1.376 0.240205 -0.0841922 -2.13205
0.0889024 -0.0470261 0.0112124 -0.040965 -1.13498 0.000809587 0.0210726 -0.058804
-0.147206 -0.282727 1.07985 -0.347618 -0.0130376 -0.0467178 0.0274914 -0.350939
0.489574 0.259903 0.203746 -0.0250154 -0.19551 -0.932552 0.388905 -0.333211
-0.435592 0.403903 -0.248878 -0.379965 -0.372462 -0.431819 -0.078891 0.0548413
-0.744704 -0.63447 0.00614346 0.177371 -0.0798306 -1.06594 -0.978543 -0.030606
0.22273 -0.252943 -1.5177 -0.540351 -0.030269 0.0541524 -0.0949142 0.0738144
-2.06735 0.229141 1.79554 0.112886 -0.200184 0.25164 -0.529858 0.146087
-0.0971317 -0.662076 -0.11131 -0.662872 -0.0826644 0.615194 -0.0274017 0.0878854
1.29809 -0.0157499 -0.00684838 0.0598853 -0.0432511 -0.0134532 -2.35386 0.630804
1.3496 -1.5554 0.0111824 0.156826 -0.139204 -0.965107 -0.214665 -0.100189
1.09388 0.130541 0.358712 -0.224002 -0.0113067 -0.0390645 0.00474826 -0.259714
-0.931656 0.340268 -0.416207 -0.854247 0.434097 -0.20806 0.47014 -0.573446
0.142059 -0.0873617 -0.159139 0.0702583 0.103902 -0.015312 0.479904 0.320086
0.272065 -1.03824 -0.167485 -0.178961 0.0282229 0.0176244 -0.00093243 -0.00419169
-0.000678341 -0.00062666 -0.113825 1.98622 -0.0209648 0.311592 -0.898068 0.00258539
1.08951 -0.509554 0.060444 -1.28123 -0.0760345 0.490987 -1.60625 -0.0693802
0.355477 -0.104066 -0.40932 -0.753166 0.267406 -0.3864 -1.00372 -1.48018
-0.0867013 0.478425 -0.192674 0.00589161 0.0395618 -0.0378628 -0.174884 -0.460321
-0.943674 0.0979188 -0.0885823 -0.01148 -0.00411316 0.0070376 0.0497811 -0.177067
0.758863 -0.895013 0.00699035 -0.0917721 0.0703534 -1.60742 -0.241413 0.0209362
1.56619 -1.51048 0.000655853 0.166144 -0.0968113 -1.40505 0.17249 -0.188016
0.129577 -0.123617 -2.34508 2.49199 -0.104426 0.0512528 -0.0111881 0.00131228
0.00676004 0.0122457 0.0020732 -0.1187 -0.473716 0.219964 0.127731 -0.80214
-0.0286642 0.0683602 0.411847 -0.382981 0.384206 0.07838 0.848445 -0.990468
0.123818 -0.00302643
00000000: a323 19be 5c99 cbbc 1ce3 92ba 9d1f 90bc
00000010: 85b5 31bc fd88 fc3b c026 933f 48f9 95bf
00000020: f163 7c3e e7a7 4cbf 11f0 1abc a225 2bbf
00000030: 0e2c 07bf 8f8c c5be 570b 273d 1f7a 3c3d
00000040: 6a87 b33f f147 0d3f c2be 653f bb46 5fbf
00000050: a40b 7b3c d330 0cbe 16f6 ac3f 9f56 513e
00000060: 1b2a 46be 01f3 35bc f06e 15be 2284 2cbd
00000070: 95d2 733e 8a3c a1bf 0a31 12bd 3df2 cb3f
00000080: 8e95 f83d bf7e 503f 1571 32bf 8c7e d9ba
00000090: fa80 c0bd b33f f03d b820 1f3f 62f4 2cbf
000000a0: c268 f63d 7e35 9f3f 7446 acbf 0001 933e
000000b0: 1094 2bbe c79d 02be e201 1d40 ee7c 1bc0
000000c0: c43b 85bd 4798 bd3c 0540 2b3d c47c b1bf
000000d0: c520 b03f 4df8 753e f66c acbd 8273 08c0
000000e0: 7612 b63d 719e 40bd 37b4 373c eaca 27bd
000000f0: 0647 91bf 773a 543a 72a0 ac3c 77dc 70bd
00000100: 2bbd 16be 98c1 90be 8638 8a3f fdfa b1be
00000110: a89b 55bc 2a5b 3fbd a535 e13c 47ae b3be
00000120: 71a9 fa3e 0212 853e cba2 503e 19ed ccbc
00000130: c633 48be babb 6ebf 8e1e c73e a29a aabe
00000140: ea05 dfbe 60cc ce3e e0d9 7ebe c68a c2be
00000150: 57b3 bebe 6117 ddbe 9b91 a1bd 45a1 603d
00000160: eca4 3ebf a06c 22bf 144f c93b bea0 353e
00000170: 3a7e a3bd b970 88bf cb81 7abf 6fb9 fabc
00000180: 5513 643e bf81 81be fe43 c2bf 7154 0abf
00000190: b2f6 f7bc e8ce 5d3d 6062 c2bd 012c 973d
000001a0: 764f 04c0 f0a3 6a3e 41d4 e53f c630 e73d
000001b0: 09fd 4cbe f5d6 803e c6a4 07bf d597 153e
000001c0: fcec c6bd d07d 29bf 7ff6 e3bd fbb1 29bf
000001d0: f44b a9bd 5b7d 1d3f 8879 e0bc 43fd b33d
000001e0: d027 a63f ef05 81bc 6068 e0bb 4a4a 753d
000001f0: 1128 31bd d06a 5cbc a4a5 16c0 5f7c 213f
00000200: b1bf ac3f 5917 c7bf 6336 373c ff96 203e
00000210: 7e8b 0ebe 4111 77bf 24d1 5bbe e42f cdbd
00000220: 4304 8c3f 8aac 053e 19a9 b73e c860 65be
00000230: bd3f 39bc 1902 20bd 4b97 9b3b 3cf9 84be
00000240: 0281 6ebf 9b37 ae3e 1519 d5be eeaf 5abf
00000250: f641 de3e ae0d 55be 31b6 f03e 5bcd 12bf
00000260: ea77 113e b1ea b2bd 56f5 22be 95e3 8f3d
00000270: 92ca d43d 2fdf 7abc fab5 f53e 50e2 a33e
00000280: 1b4c 8b3e 0ce5 84bf 3081 2bbe 8d41 37be
00000290: b633 e73c 0c61 903c 516e 74ba 725a 89bb
000002a0: b2d2 31ba 7146 24ba 151d e9bd 753c fe3f
000002b0: 5fbe abbc fd88 9f3e c9e7 65bf a56f 293b
000002c0: 1075 8b3f 2272 02bf 2194 773d 58ff a3bf
000002d0: fab7 9bbd a662 fb3e 9a99 cdbf 3517 8ebd
000002e0: 1501 b63e 8e20 d5bd 6492 d1be 7dcf 40bf
000002f0: 70e9 883e 39d6 c5be e679 80bf 8a76 bdbf
00000300: 7490 b1bd 1ff4 f43e 554c 45be 680e c13b
00000310: 8e0b 223d 0616 1bbd cb14 33be 32af ebbe
00000320: 9f94 71bf a789 c83d a36a b5bd 9c16 3cbc
00000330: b0c7 86bb ab9b e63b 44e7 4b3d 0d51 35be
00000340: d844 423f 921f 65bf 4e0f e53b 03f3 bbbd
00000350: 7215 903d f0bf cdbf f834 77be 6582 ab3c
00000360: ea78 c83f 6957 c1bf 8ded 2b3a a721 2a3e
00000370: 0145 c6bd aed8 b3bf 38a1 303e 4487 40be
00000380: d5af 043e e92a fdbd ca15 16c0 c47c 1f40
00000390: 4cdd d5bd 75ee 513d 4b4e 37bc cf00 ac3a
000003a0: 5383 dd3b 30a2 483c 86de 073b fc18 f3bd
000003b0: e78a f2be 3e3e 613e eacb 023e 0c59 4dbf
000003c0: 2fd1 eabc 6f00 8c3d 9cdd d23e 1616 c4be
000003d0: a6b6 c43e b285 a03d b133 593f 508f 7dbf
000003e0: 4b94 fd3d 1257 46bb

B0 f4 [50]
-0.0753751 -0.258496 0.045071 -0.160831 0.132523 -0.214198 0.259345 0.246685
-0.3484 -0.104702 -0.441989 -0.382651 -0.308285 -0.348182 0.0362687 0.0201533
-0.552988 -0.670382 -0.634271 -0.302954 -0.726877 0.240187 -0.202719 -0.205304
0.42742 -0.333015 0.0418983 0.288659 0.0383495 0.293401 -0.0885048 0.22463
-0.41701 -0.0162272 -0.110313 -0.527083 0.0633256 0.204818 -0.484298 0.199009
-0.0790425 0.11608 -0.528082 -0.565451 -0.153907 -0.326314 -0.0184588 -0.182558
-0.00810593 -0.322662
00000000: 435e 9abd 9659 84be 5e9c 383d e2b0 24be
00000010: 1cb4 073e b856 5bbe dec8 843e fe9a 7c3e
00000020: 7c61 b2be 016e d6bd 624c e2be d5ea c3be
00000030: 88d7 9dbe e944 b2be 7d8e 143d 8918 a53c
00000040: 9f90 0dbf 289e 2bbf 965f 22bf c91c 9bbe
00000050: 9c14 3abf 95f3 753e 9295 4fbe 363b 52be
00000060: cbd6 da3e f180 aabe 8d9d 2b3d 1dcb 933e
00000070: 5e14 1d3d a838 963e 0142 b5bd 6805 663e
00000080: 5682 d5be e8ee 84bc c8eb e1bd e9ee 06bf
00000090: dab0 813d cfbb 513e e8f5 f7be 04c9 4b3e
000000a0: 09e1 a1bd 5abb ed3d 6230 07bf 66c1 10bf
000000b0: cc99 1dbe a112 a7be e936 97bc 7cf0 3abe
000000c0: bcce 04bc f433 a5be

W1 f4 [50, 50]
-0.123362 -0.686011 0.358653 0.259285 0.484333 0.354636 0.0408403 -0.594644
-0.750201 -0.345049 0.13195 -0.208411 -0.199062 0.69766 -0.554953 0.118086
-0.548404 0.433061 0.0117488 0.209494 -3.73091 0.120807 0.260061 0.685509
0.107644 0.0426159 -0.378529 0.0551213 0.214035 -0.356561 -1.0688 -0.179185
-0.193306 -0.0157214 0.242572 0.436702 -0.459111 0.00416227 0.235495 -0.115719
-0.163228 -1.56422 -0.107444 0.151541 0.624685 -0.626158 0.0014685 -0.61371
0.149819 0.143142 0.122767 0.2404 0.0919641 -0.0830147 0.461954 0.81884
0.174523 0.73975 0.335783 0.234662 -0.192787 0.598887 -1.59288 0.508895
-0.363384 0.251595 0.626165 0.668855 -0.0596334 0.00698154 0.0468977 -1.20931
-0.344114 0.556746 0.175805 -0.284576 -0.0602415 -0.0355098 -0.0198745 0.0704861
-0.254402 -0.309361 -0.133593 0.0233619 -0.228325 -0.0203186 0.0375153 -0.390706
-0.197015 -0.873507 0.598442 0.190309 -0.125704 0.150489 -0.807569 0.249253
-0.051469 0.78333 0.501887 0.0799605 -0.156226 -0.256335 0.0298746 0.76109
0.133332 0.537129 -0.0758321 -0.494265 0.835078 -0.100399 0.143657 -0.566202
-0.101899 -0.139723 -0.15885 0.718891 0.493257 0.9269 0.196579 0.230028
0.300123 -0.0706354 -1.07836 -0.972503 0.265644 0.0424444 -0.02292 0.387136
1.25812 0.0603835 0.374443 -0.0910426 -0.0561634 0.00280698 -0.445926 -0.00813321
-0.577378 0.0610728 -0.505227 0.118502 -0.753337 -0.167682 -0.780647 -0.896711
-0.0950486 -0.319742 -0.033099 -0.258455 0.191168 0.222501 -0.117082 0.234616
-0.108583 -0.342797 0.307272 -1.07595 0.199635 0.55983 0.0766664 -0.236506
-0.686224 -0.276472 -0.954006 -0.384122 -0.511974 0.191025 1.86349 0.177966
-1.42902 0.263338 0.00204999 -0.00149709 -0.302056 0.27345 -0.125297 0.3115
1.17859 0.0109138 2.43736 0.0824185 -0.78354 1.56009 0.678157 0.0123135
0.0348172 -0.25538 -0.0473173 0.207345 -0.450383 -0.193533 0.357756 -1.03043
0.111319 -0.25909 0.905902 0.171731 -0.0467495 0.0154096 -0.0392186 0.779428
0.0451585 0.0789246 -0.627969 0.0186287 0.268158 -0.568152 -0.0330986 -0.215733
-0.267732 -0.312665 0.333384 -0.00497332 -0.172324 0.0228815 0.118413 0.0372395
-1.60877 0.0989452 -0.74094 0.360471 0.576983 -0.0219016 0.623171 -0.0680261
-0.75195 0.115451 -1.49875 0.435594 0.831252 0.258342 -1.78484 0.0889731
0.151776 -0.0200523 -0.170849 0.50109 0.421296 0.109544 -0.251309 0.985493
-0.243665 0.161701 -0.582092 -0.42285 0.87995 -0.194643 0.00769084 0.483532
0.331593 0.0217826 0.0393841 -0.0123794 -0.0200922 -0.0390144 0.0342361 -0.0301602
00000000: 37a5 fcbd 6b9e 2fbf 5ea1 b73e 01c1 843e
00000010: 7ffa f73e da92 b53e 2948 273d 973a 18bf
00000020: 2c0d 40bf 43aa b0be e71d 073e b169 55be
00000030: e9d6 4bbe d999 323f 6611 0ebf 13d7 f13d
00000040: 3464 0cbf 2cba dd3e 0a7e 403c 9885 563e
00000050: 3bc7 6ec0 a969 f73d b726 853e 857d 2f3f
00000060: 7574 dc3d 038e 2e3d 8ece c1be dfc6 613d
00000070: fe2b 5b3e 2a8f b6be 70ce 88bf 467c 37be
00000080: 02f2 45be 2aca 80bc cb64 783e 6897 df3e
00000090: 9910 ebbe a763 883b 9a25 713e 15fe ecbd
000000a0: 3e25 27be 5c38 c8bf 9a0b dcbd 902d 1b3e
000000b0: 5beb 1f3f e44b 20bf af7a c03a 191c 1dbf
000000c0: 276a 193e d193 123e 446d fb3d 6b2b 763e
000000d0: ad57 bc3d 9c03 aabd 3c85 ec3e 809f 513f
000000e0: 28b6 323e 4260 3d3f c0eb ab3e 3c4b 703e
000000f0: f569 45be a950 193f 7ee3 cbbf f146 023f
00000100: 780d babe 0fd1 803e 594c 203f 153a 2b3f
00000110: 2742 74bd 67c5 e43b cd17 403d acca 9abf
00000120: b62f b0be e886 0e3f 3a06 343e f2b3 91be
00000130: cbbf 76bd b972 11bd d9cf a2bc 045b 903d
00000140: fb40 82be 9164 9ebe 9acc 08be 7561 bf3c
00000150: 07ce 69be 3173 a6bc a5a9 193d 9e0a c8be
00000160: 4dbe 49be 289e 5fbf 7f33 193f 5de0 423e
00000170: 8db8 00be ca19 1a3e d8bc 4ebf 2e3c 7f3e
00000180: 28d1 52bd 5188 483f ab7b 003f 55c2 a33d
00000190: b5f9 1fbe 573e 83be 94bb f43c cbd6 423f
000001a0: 2f88 083e 4981 093f dc4d 9bbd 4d10 fdbe
000001b0: acc7 553f fe9d cdbd d21a 133e 9df2 10bf
000001c0: 6cb0 d0bd 8c13 0fbe 93a9 22be 3e09 383f
000001d0: 2e8c fc3e 5249 6d3f 014c 493e 768c 6b3e
000001e0: b9a9 993e 4ba9 90bd b307 8abf f5f5 78bf
000001f0: 7e02 883e 2eda 2d3d b9c2 bbbc b136 c63e
00000200: 130a a13f b054 773d feb6 bf3e 8b74 babd
00000210: 980b 66bd 4ff5 373b 6a50 e4be 2841 05bc
00000220: 0bcf 13bf 7927 7a3d 8f56 01bf 2db1 f23d
00000230: b2da 40bf d5b4 2bbe 7bd8 47bf da8e 65bf
00000240: d7a8 c2bd 39b5 a3be d192 07bd 3754 84be
00000250: 8bc1 433e 4dd7 633e b0c8 efbd 2d3f 703e
00000260: c460 debd 1783 afbe c152 9d3e bbb8 89bf
00000270: 1e6d 4c3e 0551 0f3f 4603 9d3d a12e 72be
00000280: 60ac 2fbf bd8d 8dbe bd39 74bf a4ab c4be
00000290: ba10 03bf 0f9c 433e d786 ee3f b83c 363e
000002a0: 21ea b6bf 3dd4 863e 2059 063b 013a c4ba
000002b0: 16a7 9abe a301 8c3e db4d 00be ee7c 9f3e
000002c0: 0adc 963f cccf 323c b5fd 1b40 08cb a83d
000002d0: 1496 48bf 07b1 c73f b29b 2d3f 90be 493c
000002e0: 7b9c 0e3d 2bc1 82be c9cf 41bd 3f52 543e
000002f0: 9a98 e6be 842d 46be cb2b b73e 21e5 83bf
00000300: 37fb e33d 72a7 84be 32e9 673f 40da 2f3e
00000310: 677c 3fbd 8c78 7c3c afa3 20bd 9888 473f
00000320: 1ff8 383d 38a3 a13d 94c2 20bf 379b 983c
00000330: 014c 893e 6972 11bf 6692 07bd 1de9 5cbe
00000340: 2b14 89be a015 a0be 4fb1 aa3e 3bf7 a2bb
00000350: b475 30be fc71 bb3c 8482 f23d 7288 183d
00000360: 2dec cdbf c8a3 ca3d 3eae 3dbf a88f b83e
00000370: 28b5 133f fc6a b3bc 2288 1f3f 4551 8bbd
00000380: cc7f 40bf 9371 ec3d 0ad7 bfbf 2d06 df3e
00000390: eecc 543f 6745 843e a375 e4bf 8737 b63d
000003a0: 2b6b 1b3e b944 a4bc 0af3 2ebe 6f47 003f
000003b0: 1cb4 d73e 9b58 e03d 93ab 80be 4549 7c3f
000003c0: 5183 79be f294 253e fb03 15bf cc7f d8be
000003d0: 6744 613f 7f50 47be 7103 fc3b 8291 f73e
000003e0: 8fc6 a93e 6c71 b23c 3951 213d f8d2 4abc
000003f0: 6698 a4bc 90cd 1fbd 273b 0c3d 8612 f7bc

B1 f4 [50]
0.43113 0.0494361 0.216196 -0.752979 -0.288227 -0.00961693 -0.135112 -0.113576
-0.00810956 0.116875 0.335077 1.24601 -0.0369608 -0.00818923 1.1084 0.210677
-0.280135 -0.00891872 -0.028557 -0.287809 -0.0329448 -0.857141 0.143118 0.626803
-0.446976 -0.00187361 0.562052 -0.0153222 0.646849 0.0328084 1.50792 -0.451986
-0.330092 -1.08952 0.158319 0.472348 0.715765 -0.626985 0.138699 -0.792596
-0.793816 -0.203139 0.813736 0.158822 -0.00255485 0.941936 -0.25297 -0.67199
-0.0283433 -0.747896
00000000: 12bd dc3e 827d 4a3d 7c62 5d3e 3bc3 40bf
00000010: 7d92 93be 5490 1dbc cd5a 0abe 899a e8bd
00000020: f6dd 04bc 295c ef3d 368f ab3e 417d 9f3f
00000030: 3564 17bd 1f2c 06bc 0de0 8d3f b6bb 573e
00000040: db6d 8fbe d31f 12bc 5ff0 e9bc b45b 93be
00000050: 20f1 06bd 986d 5bbf 868d 123e 2976 203f
00000060: 0ada e4be eb93 f5ba a4e2 0f3f f709 7bbc
00000070: e597 253f 1a62 063d 8603 c13f b66a e7be
00000080: d201 a9be 6475 8bbf 601e 223e 99d7 f13e
00000090: 603c 373f 1782 20bf 1c07 0e3e 92e7 4abf
000000a0: 8637 4bbf ac03 50be 0151 503f 3ca2 223e
000000b0: 456f 27bb b822 713f 4985 81be 8907 2cbf
000000c0: 3530 e8bc 1d76 3fbf

W2 f4 [50, 50]
-2.84943 -1.99369 -0.0508023 0.864314 -0.436127 0.0455631 2.22305 0.877948
-0.0326926 0.38999 0.252631 0.0125106 -0.113643 -0.0133935 -0.782708 -0.402909
-2.03361 -0.0252879 0.0196121 1.33733 -0.974964 1.34909 0.628817 -0.247844
0.652437 -0.0233565 -1.12394 -0.0107307 -0.73791 -1.05721 -2.71841 0.584444
-0.411436 1.45119 -0.647692 -1.17172 -1.15367 -1.70655 0.206004 0.445599
-1.07209 0.585732 -0.177461 -0.385234 0.0323223 -0.210756 0.307182 -1.44015
-0.0166005 -2.35243 -9.13678 0.625727 -0.990584 -2.57859 -1.87674 0.0281463
-2.37563 -0.162296 -0.0091276 -1.59867 -1.28447 0.508151 -1.10071 -0.0408466
0.474095 -1.56352 -5.33461 0.0215057 -0.0226158 -1.5093 -1.07903 -2.02866
-0.362153 -0.734581 -1.00771 0.00563528 -1.13975 -0.0175421 2.53868 -0.450267
-1.34537 0.112381 0.329179 -1.9203 1.20964 -0.211753 2.63704 0.347437
0.707787 -2.21653 -1.89163 -3.71773 0.900502 -1.9984 -0.0168117 0.249261
-3.5413 -0.0604666 -0.0286919 -0.269871 -1.28386 -1.33414 0.129685 0.365106
-1.16054 -0.031476 0.503086 0.17804 -0.0197119 -0.365809 0.813379 0.240866
-0.285661 -0.00962635 0.383115 0.866511 -0.854649 -0.016966 0.00702125 0.651828
-0.361028 0.739676 0.495005 0.131349 0.4176 -0.0222482 -0.253185 0.00351865
-1.99912 -0.785198 -1.23364 -0.0238392 -0.231899 0.35135 -0.224637 -1.02812
-0.210738 -1.23528 -1.27046 -3.74068 -0.860263 -2.03278 -0.249321 0.254662
0.0133428 -0.54752 -0.851899 -1.5513 -0.0275329 1.24541 0.506107 0.382295
0.0200608 -0.0675458 0.327543 -0.0414835 -0.272654 -0.164864 0.00563442 0.326429
-0.0587747 -0.309581 0.519837 -0.0127226 -0.0382333 -0.644411 0.384054 -0.0120455
-0.0450556 0.272315 0.222983 0.322149 -0.658177 0.219566 0.202923 -0.00881952
0.0547543 -0.0493523 0.810305 0.0164427 -0.511047 -0.239294 -0.428982 -0.733556
0.0718562 0.497197 -0.304359 0.811078 0.566391 -0.636015 -0.0280781 1.21985
0.526255 -0.59252 -0.0472903 0.0895173 0.0793316 0.734371 -0.0108818 -0.813634
-1.31749 -1.39505 -0.172944 1.09056 -0.418837 0.0459314 3.61362 0.0653233
-0.0323817 0.385098 0.782165 0.0461001 1.09522 0.0370032 -0.393611 0.892693
-0.875795 -0.0140744 -0.0231387 0.661736 -0.412581 1.16046 -0.168675 -0.113746
0.16346 -0.0446541 0.388253 0.023605 -0.329799 -0.802438 -0.371661 0.178471
0.147149 -0.0838379 -0.0845091 -0.524909 -0.801595 -0.41077 -0.431482 0.7679
0.1895 -2.21719 -0.198553 0.257948 0.079887 0.661479 -0.26139 0.368542
0.023727 1.72099 -0.0479435 0.00917738 -0.0183419 -0.0449527 -0.0329777 -0.00789447
00000000: 105d 36c0 3c31 ffbf 1316 50bd af43 5d3f
00000010: 0a4c dfbe 60a0 3a3d 7446 0e40 33c1 603f
00000020: ade8 05bd c5ac c73e da58 813e 42f9 4c3c
00000030: a9bd e8bd 6970 5bbc 8d5f 48bf 174a cebe
00000040: ab26 02c0 9228 cfbc 8ea9 a03c a12d ab3f
00000050: 3e97 79bf fbae ac3f 27fa 203f d1ca 7dbe
00000060: 1c06 273f 2156 bfbc 44dd 8fbf d1cf 2fbc
00000070: abe7 3cbf a852 87bf 6efa 2dc0 1f9e 153f
00000080: bda7 d2be 98c0 b93f 25cf 25bf ecfa 95bf
00000090: 75ab 93bf 3b70 dabf b6f2 523e 8d25 e43e
000000a0: 3f3a 89bf 88f2 153f 56b8 35be 643d c5be
000000b0: 6364 043d 6cd0 57be f646 9d3e d656 b8bf
000000c0: c6fd 87bc 378e 16c0 4030 12c1 a52f 203f
000000d0: ea96 7dbf 9e07 25c0 0439 f0bf 1293 e63c
000000e0: 520a 18c0 ec30 26be ee8b 15bc 38a1 ccbf
000000f0: 8369 a4bf 2f16 023f 11e4 8cbf c44e 27bd
00000100: 94bc f23e 6c21 c8bf 20b5 aac0 b92c b03c
00000110: c544 b9bc be30 c1bf a81d 8abf 91d5 01c0
00000120: 1e6c b9be 800d 3cbf a4fc 80bf 28a8 b83b
00000130: 54e3 91bf 73b4 8fbc bc79 2240 6589 e6be
00000140: 1635 acbf 0228 e63d 268a a83e 64cc f5bf
00000150: 7cd5 9a3f c7d5 58be 43c5 2840 43e3 b13e
00000160: 8731 353f a1db 0dc0 ef20 f2bf 4aef 6dc0
00000170: 4d87 663f 92cb ffbf b1b8 89bc 473e 7f3e
00000180: a9a4 62c0 d3ab 77bd 470b ebbc 882c 8abe
00000190: 8655 a4bf 19c5 aabf 25cc 043e 2cef ba3e
000001a0: 938c 94bf faec 00bd 3eca 003f 1e50 363e
000001b0: da7a a1bc 514b bbbe 9b39 503f 94a5 763e
000001c0: 2942 92be d7b7 1dbc a627 c43e aad3 5d3f
000001d0: 47ca 5abf 48fc 8abc 8412 e63b 33de 263f
000001e0: a9d8 b8be 685b 3d3f 4c71 fd3e 5a80 063e
000001f0: abcf d53e db41 b6bc 77a1 81be 2799 663b
00000200: 2ae3 ffbf bc02 49bf eae7 9dbf 6d4a c3bc
00000210: ee76 6dbe 26e4 b33e 3e07 66be 7099 83bf
00000220: b4cb 57be a81d 9ebf 6f9e a2bf 4d67 6fc0
00000230: 323a 5cbf 1119 02c0 014e 7fbe 0f63 823e
00000240: c29b 5a3c 452a 0cbf 0e16 5abf 0091 c6bf
00000250: ad8c e1bc 9869 9f3f 3a90 013f 2cbc c33e
00000260: 8c56 a43c 7455 8abd b7b3 a73e 9aea 29bd
00000270: 4e99 8bbe 1cd2 28be f1a0 b83b b421 a73e
00000280: bdbd 70bd 6781 9ebe 0a14 053f 7472 50bc
00000290: 859a 1cbd 1ff8 24bf baa2 c43e 7d5a 45bc
000002a0: 398c 38bd df6c 8b3e a855 643e b7f0 a43e
000002b0: 4a7e 28bf e9d5 603e 0ccb 4f3e bf7f 10bc
000002c0: 0b46 603d a325 4abd 2670 4f3f d7b2 863c
000002d0: fad3 02bf 7d09 75be 87a3 dbbe 53ca 3bbf
000002e0: 5829 933d 9b90 fe3e f1d4 9bbe cfa2 4f3f
000002f0: 00ff 103f e1d1 22bf 0b04 e6bc 0b24 9c3f
00000300: a6b8 063f 64af 17bf 79b3 41bd d954 b73d
00000310: 9b78 a23d bdff 3b3f 9449 32bc 514a 50bf
00000320: 83a3 a8bf 0091 b2bf 3b18 31be 7897 8b3f
00000330: ce71 d6be 9022 3c3d 8d45 6740 39c8 853d
00000340: aca2 04bd 912b c53e f73b 483f 75d3 3c3d
00000350: 2b30 8c3f ab90 173d 6287 c9be 8787 643f
00000360: 1a34 60bf 5098 66bc 5f8d bdbc 8867 293f
00000370: d13d d3be f489 943f 24b9 2cbe aaf3 e8bd
00000380: 0f62 273e 38e7 36bd 19c9 c63e 465f c13c
00000390: 6adb a8be 946c 4dbf 5a4a bebe 1ac1 363e
000003a0: 3aae 163e 34b3 abbd 1b13 adbd 7060 06bf
000003b0: 5435 4dbf 7250 d2be 35eb dcbe 1895 443f
000003c0: 4a0c 423e 71e6 0dc0 7a51 4bbe c311 843e
000003d0: cc9b a33d b056 293f e9d4 85be 89b1 bc3e
000003e0: 205f c23c 6649 dc3f 6760 44bd b95c 163c
000003f0: c141 96bc 5320 38bd a013 07bd cf57 01bc

B2 f4 [50]
0.717957 0.739985 0.450613 -0.284894 -0.637983 -0.0190352 -0.730526 -0.134921
-1.04068 -0.497484 -1.86717 -0.431711 -1.24905 -0.521257 -0.388815 -0.230169
0.288629 1.15802 0.626214 -0.435368 -0.0971531 -1.73344 -0.0324237 0.611283
0.0296526 0.806359 0.891868 -0.352733 0.771935 0.0667747 -0.0810379 -0.397011
-0.55752 -0.00284885 0.165976 -0.289583 -0.346408 -0.174549 -0.7719 0.352278
-0.704189 -0.737221 -0.0371926 0.902943 -0.257043 1.34628 -0.0755822 -0.0427092
-1.51347 0.58542
00000000: 08cc 373f a86f 3d3f bfb6 e63e a0dd 91be
00000010: db52 23bf b5ef 9bbc c003 3bbf bb28 0abe
00000020: 0135 85bf 39b6 febe 6dff eebf 3909 ddbe
00000030: dfe0 9fbf 1971 05bf c212 c7be 6cb1 6bbe
00000040: 2ec7 933e 003a 943f 904f 203f 8ee8 debe
00000050: 34f8 c6bd 5de1 ddbf b7ce 04bd 0b7d 1c3f
00000060: 02ea f23c 8b6d 4e3f 7651 643f 6b99 b4be
00000070: 889d 453f 2dc1 883d 33f7 a5bd 0745 cbbe
00000080: a1b9 0ebf c6b3 3abb 9df5 293e 3944 94be
00000090: 645c b1be f9bc 32be 3d9b 45bf c85d b43e
000000a0: bb45 34bf 84ba 3cbf 4557 18bd 4627 673f
000000b0: 249b 83be e752 ac3f d7ca 9abd d8ef 2ebd
000000c0: 63b9 c1bf 16de 153f

W3 f4 [50, 50]
-1.11208 0.349899 0.0401668 -1.58276 -1.48892 -0.0100484 -1.19613 -1.91163
0.431756 -0.261505 -2.00953 0.488996 0.635631 -0.690813 0.267658 0.763707
0.599437 0.840827 -1.75212 -4.48692 -0.0842321 -1.71992 -1.37098 -0.69984
-0.776325 0.231574 1.20119 1.73817 0.887322 -0.185874 0.593328 0.905099
-0.473338 -0.355875 -1.03901 0.0155338 -0.264267 0.767125 -2.95593 1.07393
-0.255019 -0.74321 -2.10383 -1.40465 -0.609433 -1.62197 5.00504 -0.743596
1.41072 0.100705 0.27105 0.229166 0.128311 -0.110203 0.154341 -0.00485946
-0.249127 0.408457 -0.112281 -0.256117 -0.702347 0.215864 -0.188334 0.470324
-0.136389 -0.0547312 -0.0397136 -0.0970255 0.290816 -1.07151 -0.474316 -0.300663
-0.0254512 -0.0405581 -0.106434 -0.157793 0.527719 -0.121256 0.0872847 0.0507728
0.0659632 -0.153191 0.248216 -0.104128 0.706088 -0.330309 -0.341038 -0.479457
0.78622 0.0470811 -0.197247 -1.09592 0.724353 0.539565 0.610444 0.932181
0.35803 -0.430701 0.273215 0.226832 -0.244786 -0.0820625 0.178622 0.020105
-0.147379 0.00819963 0.0221235 -0.421475 -0.0945064 0.129672 -0.112966 0.0684668
0.190654 0.528601 0.34252 -0.286479 0.071251 -0.199632 -0.0624427 0.324798
-0.723622 -0.206982 -0.480936 0.109585 -0.282432 0.20616 0.522861 -0.96584
0.531818 0.102089 -0.18607 0.141392 -0.0750291 -0.506864 0.111459 -0.228389
-0.0156008 0.0755683 0.437529 -0.493938 0.0650572 -0.203346 0.170129 -0.287056
-0.0261863 1.44529 0.723532 -0.412854 -0.571464 0.16017 -0.101965 -0.394429
0.292864 -0.272543 -0.355084 0.0397865 -0.526483 -0.0270433 0.168967 1.43276
0.659179 1.55795 0.620278 0.827665 0.912433 -0.290498 -0.0334199 0.405168
-0.416044 -0.0704312 0.19322 -0.495017 -0.552933 0.730283 -0.380794 0.534757
0.593448 -0.0528673 -0.608553 -0.226185 -0.325558 0.0911894 -0.224008 -0.351336
0.0473627 1.33366 -0.0611173 0.536591 0.159415 -0.355634 0.53886 1.5227
-0.185227 0.582306 -0.765091 0.434151 -2.25466 0.532219 -0.765818 0.189576
-0.229795 0.211915 0.446673 -4.36036 0.401899 0.0142883 -0.582174 -0.127345
0.565337 0.835861 -1.62794 -2.06971 0.886496 -0.49801 0.0926939 -0.159575
-0.780322 -1.85949 1.46237 1.90444 1.88565 -2.27025 -0.0650747 0.712191
0.814094 -1.67179 1.78905 1.5441 -0.330932 0.79452 0.00499656 -0.598601
0.24356 0.446809 0.569644 -1.8002 0.548749 0.222554 0.686361 -0.0390747
1.16678 0.748066 -0.827157 -1.10735 0.999972 -0.178208 2.87713 -1.08721
2.51029 -0.113043 -0.0342272 0.202337 0.179605 -0.291316 -0.229045 -0.000148112
00000000: a358 8ebf f625 b33e f185 243d e197 cabf
00000010: ee94 bebf 0ba2 24bc ca1a 99bf 4bb0 f4bf
00000020: 1f0f dd3e fce3 85be 249c 00c0 af5d fa3e
00000030: b7b8 223f 1fd9 30bf 780a 893e 4d82 433f
00000040: b474 193f 7040 573f 7845 e0bf d994 8fc0
00000050: e181 acbd 5726 dcbf 467c afbf b728 33bf
00000060: 3cbd 46bf bc21 6d3e 98c0 993f 5b7c de3f
00000070: 8927 633f c155 3ebe 58e4 173f 91b4 673f
00000080: 5c59 f2be 3f35 b6be 48fe 84bf 7b81 7e3c
00000090: 014e 87be 4e62 443f f52d 3dc0 8a76 893f
000000a0: da91 82be 0343 3ebf 27a5 06c0 92cb b3bf
000000b0: cd03 1cbf b79c cfbf 4a29 a040 4f5c 3ebf
000000c0: 7992 b43f 6c3e ce3d 11c7 8a3e 7eaa 6a3e
000000d0: f563 033e 1cb2 e1bd 910b 1e3e 1b3c 9fbb
000000e0: 261b 7fbe 4721 d13e 95f3 e5bd c421 83be
000000f0: 03cd 33bf 740b 5d3e a1da 40be 4fce f03e
00000100: 8fa9 0bbe d32d 60bd baaa 22bd 4eb5 c6bd
00000110: d6e5 943e 3d27 89bf 8cd9 f2be 80f0 99be
00000120: 097f d0bc 4020 26bd 12fa d9bd 7d94 21be
00000130: 9818 073f 1155 f8bd 52c2 b23d 24f7 4f3d
00000140: b717 873d 1ade 1cbe 562c 7e3e 1041 d5bd
00000150: 2fc2 343f 431e a9be 889c aebe 637b f5be
00000160: b745 493f 1dd8 403d 1efb 49be 1b47 8cbf
00000170: 336f 393f ef20 0a3f 0f46 1c3f 6aa3 6e3f
00000180: b54f b73e d784 dcbe d6e2 8b3e a646 683e
00000190: 2ea9 7abe 6210 a8bd b0e8 363e 3eb3 a43c
000001a0: 85ea 16be be57 063c 583c b53c 92cb d7be
000001b0: 928c c1bd bdc8 043e b85a e7bd 5238 8c3d
000001c0: cd3a 433e 6552 073f c85e af3e 60ad 92be
000001d0: 0bec 913d 556c 4cbe ebc3 7fbd ec4b a63e
000001e0: 4b3f 39bf 17f3 53be 3e3d f6be 1a6e e03d
000001f0: ed9a 90be 9b1b 533e 38da 053f 4a41 77bf
00000200: 3925 083f 0a14 d13d 2289 3ebe 10c9 103e
00000210: dba8 99bd d7c1 01bf 9e44 e43d cede 69be
00000220: 7f9a 7fbc 8ec3 9a3d cd03 e03e 71e5 fcbe
00000230: b63c 853d ef39 50be 4c36 2e3e 01f9 92be
00000240: a784 d6bc 43ff b83f 6539 393f 9961 d3be
00000250: 774b 12bf 9b03 243e 07d3 d0bd 99f2 c9be
00000260: 45f2 953e c28a 8bbe 92cd b5be 2bf7 223d
00000270: 97c7 06bf e989 ddbc af05 2d3e ae64 b73f
00000280: f4bf 283f e86a c73f 8aca 1e3f dae1 533f
00000290: 3695 693f 27bc 94be 4ee3 08bd 2e72 cf3e
000002a0: b803 d5be 3c3e 90bd 77db 453e de72 fdbe
000002b0: 048d 0dbf d4f3 3a3f 6ef7 c2be d6e5 083f
000002c0: 35ec 173f 628b 58bd 21ca 1bbf 0a9d 67be
000002d0: 8aaf a6be 82c1 ba3d 5a62 65be 50e2 b3be
000002e0: 64ff 413d 5fb5 aa3f 2256 7abd 075e 093f
000002f0: b03d 233e a915 b6be bbf2 093f d5e7 c23f
00000300: 26ac 3dbe 0212 153f 01dd 43bf 0a49 de3e
00000310: 594c 10c0 813f 083f a60c 44bf 3620 423e
00000320: 614f 6bbe 3f00 593e 53b2 e43e 1288 8bc0
00000330: b5c5 cd3e 7919 6a3c 5b09 15bf ba66 02be
00000340: edb9 103f fdfa 553f 5760 d0bf 2176 04c0
00000350: 67f1 623f 2bfb febe 4dd6 bd3d a167 23be
00000360: 2fc3 47bf c503 eebf f12e bb3f b1c4 f33f
00000370: fb5c f13f c74b 11c0 e245 85bd 2652 363f
00000380: 7768 503f 37fd d5bf 97ff e43f 12a5 c53f
00000390: eb6f a9be aa65 4b3f 2fba a33b ea3d 19bf
000003a0: cb67 793e 26c4 e43e 30d4 113f f46c e6bf
000003b0: d17a 0c3f 32e5 633e 5bb5 2f3f cb0c 20bd
000003c0: 0c59 953f 4181 3f3f 90c0 53bf a5bd 8dbf
000003d0: 2afe 7f3f 287c 36be e622 3840 b329 8bbf
000003e0: 97a8 2040 1783 e7bd d231 0cbd 6e31 4f3e
000003f0: 60ea 373e 5f27 95be c68a 6abe 834e 1bb9

B3 f4 [50]
0.865614 -0.846669 0.0750065 0.283155 -4.12461 0.0822387 -0.969454 0.687109
0.515031 -1.03045 -0.0382587 -1.06577 -2.81363 -1.89241 -0.715268 1.71158
-0.61938 -0.512208 -0.0881904 -0.92889 -0.0158455 0.504461 -0.0429491 0.0500729
-0.753513 0.620202 0.68655 2.18804 0.320101 -2.12656 -2.23366 -0.484528
0.63961 1.96088 2.08605 -2.43033 -1.09093 -2.55634 -0.17858 -0.576706
4.52655 -1.17133 0.133824 0.18772 -0.21066 2.04531 -0.723683 -2.3464
0.553836 -4.13256
00000000: e198 5d3f 4dbf 58bf 029d 993d b1f9 903e
00000010: cefc 83c0 c36c a83d 232e 78bf 60e6 2f3f
00000020: 12d9 033f c9e5 83bf 28b5 1cbd 276b 88bf
00000030: 8412 34c0 7e3a f2bf ce1b 37bf 0e15 db3f
00000040: b08f 1ebf 1020 03bf 2b9d b4bd bccb 6dbf
00000050: 6cce 81bc 5b24 013f 65eb 2fbd 3e19 4d3d
00000060: 3ae6 40bf 8fc5 1e3f bec1 2f3f d908 0c40
00000070: 47e4 a33e 8f19 08c0 49f4 0ec0 0e14 f8be
00000080: 7bbd 233f 1efe fa3f d881 0540 878a 1bc0
00000090: 98a3 8bbf 139b 23c0 addd 36be 01a3 13bf
000000a0: 7fd9 9040 24ee 95bf 2909 093e ac39 403e
000000b0: 41b7 57be 5ce6 0240 4a43 39bf 6b2b 16c0
000000c0: 32c8 0d3f ee3d 84c0

W4 f4 [50, 50]
-0.128897 -1.13335 -0.639202 0.574245 0.808437 0.0601497 0.910545 -0.366233
0.164298 -0.218616 0.0428715 0.647434 -0.861663 -0.172063 1.43308 1.22691
-0.166701 -0.853014 0.664368 -0.804828 0.0344832 -0.37794 -0.593374 -2.06219
-3.17276 -0.26065 -1.25658 -0.185742 -0.32473 0.0327804 -0.291509 -0.214028
-0.453852 0.345631 0.490069 0.992634 -0.290901 0.881307 0.152157 0.566678
0.756204 0.97866 -0.290745 -1.9312 0.742418 -0.200968 -1.34256 -0.382207
2.16684 0.0385804 1.75994 -2.44777 -1.14083 -0.0625406 -3.00557 -3.21474
-1.34491 -0.958263 -0.153613 0.0663836 -0.0918396 -2.21096 -2.13042 -0.255096
-1.44965 -5.34625 -0.131139 0.876002 1.32936 0.702926 -0.00504409 0.935698
-0.642122 1.50585 -0.375167 -0.666157 -1.09372 0.0676376 -0.0247521 -1.84442
-0.0863465 -1.20153 -0.171759 0.340589 0.202931 0.125178 -1.19242 0.000245503
0.469163 -1.33823 0.979045 -1.79326 0.370402 -4.61203 -1.14588 0.254931
-0.728003 2.54998 -2.66397 0.759068 0.00487694 0.288849 0.0594089 -1.35417
1.37825 -0.171798 -1.62184 -0.0421701 -1.18109 -0.71898 -0.686394 2.74844
0.669086 -0.650932 0.134129 0.235572 -0.191892 0.29346 0.959563 0.422722
-0.0325608 0.99101 -0.878529 1.3748 0.931074 1.14058 -0.196411 -0.305408
0.17452 -0.966596 -1.12792 0.348731 1.13704 0.66372 0.754489 1.08658
-0.032632 2.23808 1.12721 1.19624 0.224393 1.21528 -0.331362 0.0424237
-0.662618 -0.0837541 1.03437 -0.112261 -3.21118 -0.535489 -0.341011 1.91041
0.441008 -0.120771 1.42624 3.25176 3.05675 0.0971515 0.702341 -2.12935
1.51588 0.445823 0.565342 -0.293893 0.979113 3.04648 -0.348798 -1.63673
3.07223 2.3666 -0.0257183 -1.66956 0.790885 0.310135 3.32378 1.46197
2.3119 0.00126412 1.58682 2.58584 -0.28042 0.669767 -0.492085 -0.78102
0.190802 1.22573 2.10976 2.62773 2.20119 -0.856267 0.274643 -0.438404
2.17344 -1.15704 -3.28584 -0.373756 -0.285512 -5.63343 3.002 -0.825393
0.0482672 0.237446 -0.388545 -0.156861 -0.147542 0.146285 -0.114106 0.151668
-0.0298715 0.000415978 0.0214787 -0.020445 -0.00858693 0.210652 0.0526398 0.0107498
-0.141704 -0.0790026 -0.276331 -0.421367 0.0027533 -0.470065 -0.16135 0.139248
0.0415294 -0.251702 0.102478 0.204998 -0.245559 -0.41256 0.180692 0.185066
0.350049 -0.130495 -0.419714 0.0830151 -0.103318 0.583997 0.436256 -0.322786
-0.266631 0.291345 -0.427933 -0.16368 -0.700991 0.0604688 -0.210475 -0.0580654
-0.129113 0.14015 0.499509 -0.211958 0.407746 -0.291046 0.0954465 -1.34354
00000000: 93fd 03be 9d11 91bf bea2 23bf b801 133f
00000010: baf5 4e3f 885f 763d 7a19 693f e482 bbbe
00000020: bc3d 283e dfdc 5fbe 079a 2f3d 3cbe 253f
00000030: f295 5cbf 4831 30be 2a6f b73f 630b 9d3f
00000040: abb3 2abe 205f 5abf 0514 2a3f 3509 4ebf
00000050: 423e 0d3d 5a81 c1be 5ce7 17bf ecfa 03c0
00000060: 800e 4bc0 eb73 85be 9dd7 a0bf 2733 3ebe
00000070: 0343 a6be be44 063d ab40 95be 282a 5bbe
00000080: 4a5f e8be 8cf6 b03e 53ea fa3e 431d 7e3f
00000090: faf0 94be 569d 613f 0bcf 1b3e cf11 113f
000000a0: 9696 413f 7689 7a3f 87dc 94be 9031 f7bf
000000b0: 1b0f 3e3f 8eca 4dbe 02d9 abbf a3b0 c3be
000000c0: 82ad 0a40 7b06 1e3d b745 e13f 44a8 1cc0
000000d0: b806 92bf 4915 80bd 425b 40c0 4dbe 4dc0
000000e0: 0326 acbf b950 75bf ba4c 1dbe 20f4 873d
000000f0: 6616 bcbd 5e80 0dc0 cd58 08c0 f19b 82be
00000100: 228e b9bf 7b14 abc0 4d49 06be ab41 603f
00000110: 7828 aa3f f5f2 333f e548 a5bb e789 6f3f
00000120: 1b62 24bf b1bf c03f e415 c0be 4489 2abf
00000130: 04ff 8bbf 9585 8a3d ebc4 cabc f415 ecbf
00000140: 6fd6 b0bd bccb 99bf 97e1 2fbe ae61 ae3e
00000150: 25cd 4f3e a92e 003e 38a1 98bf dbb6 8039
00000160: 2236 f03e 1f4b abbf b1a2 7a3f 8b89 e5bf
00000170: 55a5 bd3e c095 93c0 32ac 92bf 5186 823e
00000180: 685e 3abf df32 2340 7c7e 2ac0 4852 423f
00000190: bdce 9f3b 04e4 933e bf56 733d 7155 adbf
000001a0: 7f6a b03f d1eb 2fbe 7498 cfbf 8eba 2cbd
000001b0: f52d 97bf 130f 38bf 84b7 2fbf 71e6 2f40
000001c0: 3849 2b3f 7ba3 26bf 1d59 093e c939 713e
000001d0: 567f 44be 6440 963e eca5 753f 056f d83e
000001e0: 795e 05bd d5b2 7d3f 47e7 60bf 72f9 af3f
000001f0: de5a 6e3f 87fe 913f f71f 49be 705e 9cbe
00000200: 5fb5 323e d672 77bf af5f 90bf df8c b23e
00000210: 878a 913f 8ee9 293f 3126 413f 0e15 8b3f
00000220: 22a9 05bd b43c 0f40 6b48 903f 641e 993f
00000230: 47c7 653e 4c8e 9b3f 48a8 a9be 79c4 2d3d
00000240: 55a1 29bf 4587 abbd 3c66 843f 18e9 e5bd
00000250: f983 4dc0 cf15 09bf fe98 aebe 5188 f43f
00000260: cdcb e13e c956 f7bd 088f b63f d61c 5040
00000270: cba1 4340 5ef7 c63d 9fcc 333f 4547 08c0
00000280: 5b08 c23f ea42 e43e 41ba 103f 2579 96be
00000290: 26a7 7a3f 87f9 4240 a795 b2be 5e80 d1bf
000002a0: 6b9f 4440 6076 1740 2faf d2bc 24b4 d5bf
000002b0: 7077 4a3f 04ca 9e3e d0b8 5440 d521 bb3f
000002c0: 2bf6 1340 d4b0 a53a eb1c cb3f 677e 2540
000002d0: 3693 8fbe da75 2b3f 91f2 fbbe edf0 47bf
000002e0: 9961 433e b8e4 9c3f 4f06 0740 ba2c 2840
000002f0: 4ce0 0c40 5034 5bbf 029e 8c3e 7d76 e0be
00000300: a419 0b40 e319 94bf 344b 52c0 f25c bfbe
00000310: a12e 92be 0f45 b4c0 c520 4040 f54c 53bf
00000320: d4b3 453d 0b25 733e 5fef c6be 2ca0 20be
00000330: 4015 17be bccb 153e 68b0 e9bd db4e 1b3e
00000340: 13b5 f4bc 9f17 da39 19f4 af3c 467c a7bc
00000350: 32b0 0cbc 28b5 573e d59c 573d ee1f 303c
00000360: da1a 11be 1dcc a1bd 427b 8dbe 6abd d7be
00000370: b570 343b 5cac f0be ef38 25be 0797 0e3e
00000380: bb1a 2a3d 16df 80be fcdf d13d ffea 513e
00000390: d273 7bbe 103b d3be 5307 393e f181 3d3e
000003a0: 9f39 b33e 7ba0 05be c1e4 d6be d203 aa3d
000003b0: 6398 d3bd d480 153f f25c df3e 3544 a5be
000003c0: dc83 88be 2c2b 953e 091a dbbe bb9b 27be
000003d0: 2574 33bf 22ae 773d c286 57be fcd5 6dbd
000003e0: 3336 04be 7b83 0f3e a5bf ff3e 850b 59be
000003f0: 15c4 d03e fb03 95be 7479 c33d 1ef9 abbf

B4 f4 [50]
-0.0669316 1.0653 0.589344 -1.11767 1.28888 -0.0610675 2.96068 -1.6771
0.0221778 3.13361 1.8826 0.415635 0.379069 5.43222 -2.27919 1.6016
1.57141 1.94086 -1.30056 0.0553899 -0.422887 -4.18258 -1.26461 -0.419763
2.37666 -0.165416 0.969814 1.61416 -1.00708 -0.333879 -4.59892 -2.11838
0.16115 -0.024338 0.303306 -0.376115 2.1257 1.31564 1.03554 -0.427047
0.298074 2.23517 0.892896 0.568455 3.46098 -2.86537 -1.1227 -4.03671
-1.35889 1.32723
00000000: 6f13 89bd c05b 883f 40df 163f d00f 8fbf
00000010: 05fa a43f ea21 7abd c87b 3d40 36ab d6bf
00000020: 38ae b53c 118d 4840 09f9 f03f 1cce d43e
00000030: 5515 c23e bfd4 ad40 40de 11c0 3b01 cd3f
00000040: f623 c93f 1a6e f83f c078 a6bf 85e0 623d
00000050: a584 d8be b2d7 85c0 bede a1bf 2deb d6be
00000060: 331b 1840 d062 29be bb45 783f cb9c ce3f
00000070: ffe7 80bf 30f2 aabe 5a2a 93c0 8a93 07c0
00000080: 8104 253e 7c60 c7bc ed4a 9b3e 2592 c0be
00000090: 780b 0840 e466 a83f 938c 843f e8a5 dabe
000000a0: 289d 983e 060d 0f40 d594 643f 4486 113f
000000b0: b280 5d40 3962 37c0 a2b4 8fbf ba2c 81c0
000000c0: 1cf0 adbf ace2 a93f

W5 f4 [50, 50]
0.00616641 -0.000261059 0.0595112 0.0360934 0.00438819 -0.0371726 0.0385084 -0.00082683
0.000291185 0.28022 0.0131453 -0.0356634 -0.0529611 -0.0248435 -0.00318596 0.00863417
-0.0722133 -0.0887746 -1.72426 -0.0303725 0.0222119 0.00909783 -0.0268117 -0.0398764
-0.0151079 -0.281668 -0.151564 -0.80693 -0.0257702 -0.089596 0.0204888 0.0152751
-0.158718 -0.0373078 -0.0590642 -0.218092 0.00559748 0.0153676 0.0428285 -0.0409467
-0.0257494 -0.0270399 -0.0772243 0.0242399 0.0106061 0.0632304 -0.0174543 0.0306004
-0.022461 -0.0383168 0.859644 0.188984 1.10578 0.248482 1.12939 0.141869
0.0133975 0.361972 0.570741 2.98777 -0.76075 -0.337318 -1.28807 -0.83415
-0.037385 0.261182 -0.383483 0.114506 -0.886287 -0.94768 -2.73384 -0.107087
0.368074 1.2936 -3.59745 -0.30168 -1.3547 -0.455996 0.896721 -0.114643
-0.048003 -0.222558 0.701874 0.00546747 2.10757 -0.974888 -0.875821 0.947597
0.616307 -2.70744 -0.506208 0.931276 0.161965 -0.382801 -0.434003 -0.0463808
0.114663 0.269366 -0.648348 0.43968 -0.584256 -0.20267 -0.0381153 0.116403
-0.132306 -0.0749422 0.0107374 0.0315814 -0.0944714 0.21695 -0.0303722 -0.0458117
-0.137424 -0.0397236 -0.0111585 -0.0158517 0.530909 0.125572 -0.134323 -0.114682
0.103311 -0.00726252 0.140424 -0.037195 -0.106176 0.435164 0.0791154 -0.108932
0.0240682 0.00043096 0.0713609 -0.00340311 -0.245022 -0.0241367 0.0750456 3.35909e-05
-0.000437462 -0.00624197 0.00108505 -0.0433506 0.041478 0.0133454 -0.122005 0.0282591
0.0264705 0.0682472 0.141291 -0.00472736 0.0112586 -0.226303 -0.128625 -0.0628671
0.0433051 -0.202387 0.0162686 -0.0900474 0.0244793 0.0292393 -0.00647646 0.128862
-0.0712069 0.0435429 -0.0781499 -0.0929242 -0.00911395 0.0197286 -0.0478395 -0.0705164
-3.42929 -0.0830595 -0.445824 0.0221782 -0.000487696 -0.0558474 -0.0338916 -4.69957
-0.147892 -1.40451 -0.0394549 0.0411683 0.0436409 0.0490732 -0.0461376 0.0173282
-0.185299 0.014578 0.0196218 -0.128834 -0.479344 -0.0517014 0.0332758 0.142522
0.0329179 -0.119437 0.0318183 -0.0854157 -0.0809974 0.0354882 0.00838467 -0.18893
-0.826634 -0.430071 0.698547 0.654029 -1.51987 -0.490129 -0.0929554 0.512797
-0.184867 0.689811 -0.110372 0.567043 -0.23726 0.407863 0.261801 0.190678
1.51312 0.426282 -0.0467852 -1.52213 -0.296589 0.320986 0.531404 1.41749
-0.853348 2.24959 0.25056 0.214405 1.1173 0.494013 0.745328 0.186942
-0.933378 0.0436423 -0.0608451 -0.063134 0.972563 0.26024 1.04189 -0.0195532
-0.0446769 0.625391 -0.960787 -0.0850245 -0.202808 0.536775 -0.818931 0.291652
0.0315907 -0.087257 -0.628995 -1.07956 -0.129719 -0.577508 0.107558 -1.17095
00000000: 990f ca3b bfde 88b9 04c2 733d acd6 133d
00000010: ceca 8f3b 4c42 18bd fcba 1d3d 9fbf 58ba
00000020: 30aa 9839 ff78 8f3e 625f 573c c913 12bd
00000030: bded 58bd 9984 cbbc 8acb 50bb 5576 0d3c
00000040: 91e4 93bd 75cf b5bd 8db4 dcbf c0cf f8bc
00000050: bbf5 b53c 110f 153c 36a4 dbbc 7055 23bd
00000060: 2087 77bc ca36 90be 9833 1bbe f792 4ebf
00000070: 071c d3bc 1c7e b7bd 21d8 a73c 6a44 7a3c
00000080: f986 22be 10d0 18bd 4ded 71bd 8253 5fbe
00000090: 116b b73b 63c8 7b3c f06c 2f3d bab7 27bd
000000a0: 68f0 d2bc c882 ddbc c627 9ebd c192 c63c
000000b0: 35c5 2d3c f17e 813d 52fc 8ebc b1ad fa3c
000000c0: 2200 b8bc 14f2 1cbd a111 5c3f 0685 413e
000000d0: 338a 8d3f 1172 7e3e da8f 903f 1b46 113e
000000e0: 3081 5b3c 6554 b93e 151c 123f a037 3f40
000000f0: 83c0 42bf f2b4 acbe 7adf a4bf db8a 55bf
00000100: 0421 19bd a6b9 853e e257 c4be 1f82 ea3d
00000110: b4e3 62bf 289b 72bf 3cf7 2ec0 6e50 dbbd
00000120: 3274 bc3e af94 a53f 9f3c 66c0 cd75 9abe
00000130: cf66 adbf 4f78 e9be 828f 653f f3c9 eabd
00000140: cb9e 44bd 3fe6 63be 04ae 333f 7628 b33b
00000150: 6de2 0640 4392 79bf ce35 60bf b895 723f
00000160: 4cc6 1d3f b246 2dc0 d996 01bf 1b68 6e3f
00000170: 27da 253e 7efe c3be a435 debe cbf9 3dbd
00000180: 6fd4 ea3d 57ea 893e 22fa 25bf bd1d e13e
00000190: cd91 15bf b988 4fbe ca1e 1cbd b264 ee3d
000001a0: 397b 07be 4c7b 99bd ebeb 2f3c 805b 013d
000001b0: 397a c1bd 2428 5e3e 1fcf f8bc 0da5 3bbd
000001c0: e1b8 0cbe 37b5 22bd 24d2 36bc 6ddb 81bc
000001d0: a7e9 073f f295 003e f88b 09be 65de eabd
000001e0: b894 d33d 6ffa edbb 4fcb 0f3e c959 18bd
000001f0: cd72 d9bd d1cd de3e 4107 a23d be17 dfbd
00000200: ac2a c53c 79f2 e139 aa25 923d b606 5fbb
00000210: 0ce7 7abe 54ba c5bc 82b1 993d f4e3 0c38
00000220: 285b e5b9 7189 ccbb 3d38 8e3a 6690 31bd
00000230: d6e4 293d aaa6 5a3c c2dd f9bd a17f e73c
00000240: a9d8 d83c 30c5 8b3d 97ae 103e f8e7 9abb
00000250: fe75 383c f9bb 67be 46b6 03be 77c0 80bd
00000260: b060 313d 8a3e 4fbe ba45 853c c56a b8bd
00000270: d088 c83c 4287 ef3c 7c38 d4bb 66f4 033e
00000280: ecd4 91bd 0a5a 323d 0e0d a0bd 0b4f bebd
00000290: ad52 15bc df9d a13c 5af3 43bd e76a 90bd
000002a0: 7d79 5bc0 191b aabd 0b43 e4be 0eaf b53c
000002b0: 73b1 ffb9 3ec0 64bd ebd1 0abd e162 96c0
000002c0: 0071 17be fcc6 b3bf 769b 21bd 17a0 283d
000002d0: cdc0 323d fb00 493d c8fa 3cbd dff3 8d3c
000002e0: 05bf 3dbe 90d8 6e3c e6bd a03c 0fed 03be
000002f0: 946c f5be d9c4 53bd 354c 083d 4af1 113e
00000300: ebd4 063d 639b f4bd e853 023d 6dee aebd
00000310: f7e1 a5bd 135c 113d db5f 093c de76 41be
00000320: 499e 53bf 4432 dcbe fad3 323f 726e 273f
00000330: 1a8b c2bf 30f2 fabe 675f bebd aa46 033f
00000340: c64d 3dbe 7497 303f b70a e2bd bb29 113f
00000350: 49f4 72be 6bd3 d03e c80a 863e 1841 433e
00000360: ebad c13f a241 da3e d6a1 3fbd 28d5 c2bf
00000370: 83da 97be 4758 a43e 180a 083f 5070 b53f
00000380: 0475 5abf 48f9 0f40 6649 803e fc8c 5b3e
00000390: b003 8f3f 46ef fc3e d1cd 3e3f b96d 3f3e
000003a0: dcf1 6ebf 45c2 323d b638 79bd 664c 81bd
000003b0: e4f9 783f 2d3e 853e a75c 853f 082e a0bc
000003c0: 20ff 36bd a019 203f 23f6 75bf 5321 aebd
000003d0: e6ac 4fbe 166a 093f 76a5 51bf 6953 953e
000003e0: 4065 013d ccb3 b2bd d105 21bf 062f 8abf
000003f0: 0fd5 04be 90d7 13bf 5e47 dc3d b1e1 95bf

B5 f4 [50]
0.336352 -0.496523 0.164662 0.783659 -2.68461 1.61478 -2.9943 -1.87972
0.212694 0.0512511 0.221476 0.887181 0.589632 0.3156 -1.3822 -0.558802
0.815176 0.182743 1.07033 0.765069 0.320756 0.912625 -1.62133 -3.34873
0.0512106 1.52046 0.697526 -2.27393 -1.12542 -0.475472 2.78112 1.01387
-1.51167 -2.94513 -2.17117 0.549443 1.15776 0.955093 0.971897 0.415206
1.38374 0.371655 0.462237 3.47466 3.06899 -0.871264 -1.21392 -0.944668
1.24057 -0.73369
00000000: 5436 ac3e 4338 febe 289d 283e e09d 483f
00000010: a6d0 2bc0 1cb1 ce3f 9ca2 3fc0 aa9a f0bf
00000020: 75cc 593e acec 513d 9bca 623e 4b1e 633f
00000030: 1ff2 163f 5396 a13e eeeb b0bf a60d 0fbf
00000040: 60af 503f fb20 3b3e 9300 893f 90db 433f
00000050: 213a a43e cba1 693f be87 cfbf 9851 56c0
00000060: 35c2 513d 6f9e c23f 1091 323f 1288 11c0
00000070: c30d 90bf 1171 f3be dffd 3140 7ec6 813f
00000080: 677e c1bf 037d 3cc0 73f4 0ac0 4ca8 0c3f
00000090: 7b31 943f fa80 743f 3ece 783f e195 d43e
000000a0: 641e b13f 9049 be3e 54aa ec3e d460 5e40
000000b0: 556a 4440 280b 5fbf bb61 9bbf c3d5 71bf
000000c0: ffca 9e3f 1cd3 3bbf

W6 f4 [5, 50]
-0.00244402 0.014214 -0.00498372 0.00757831 -0.00620537 -0.00426796 0.0113306 -0.00115429
0.0266857 -0.0176572 -0.00160135 0.00730627 -0.0013176 0.0151068 0.014076 -0.00933718
0.0174017 -0.0109507 -0.00843773 -0.0137065 0.00098779 0.000356813 0.0248561 0.00290504
0.0141448 -0.110209 0.00397443 0.00709027 0.0100222 0.0304381 0.0304026 0.00634723
0.00838809 0.0126496 0.0112639 0.0019082 -0.0152438 0.00191532 0.00399428 0.00167089
0.0146426 0.00327244 -0.00153778 0.0578865 -0.0312457 0.0262577 0.000319714 0.00964358
-0.00134362 0.0124339 -0.000591123 0.0024977 -0.0205901 -0.00125783 -0.00912397 -0.0013169
0.000155103 0.0014312 0.0236624 -0.00774687 0.0235925 0.00559554 -0.00931556 0.00843109
0.0173583 -0.0105403 0.0181846 -0.00876245 -0.00410828 -0.00180623 0.00297287 -0.000940693
0.0214893 8.98382e-05 0.0126333 -0.000784675 0.00338046 0.000138154 0.0136071 0.0278882
-0.000248807 -0.00561093 0.000809119 0.0029842 0.00090702 0.0173105 -0.00527241 -0.00693102
0.0396383 0.0228923 0.00327011 0.000961497 0.00774362 0.00127089 -0.000655753 0.0146972
0.00844029 0.0120811 0.00562917 0.00157931 0.0175349 0.000362338 0.000594684 0.00352651
-0.00718094 -0.00149839 -0.0012911 0.0162459 0.0189716 -0.00947016 0.0021849 0.0162528
0.00829744 -0.000507903 0.0117374 -0.0148974 0.0176502 -0.00957618 -0.0108381 -0.00361549
-0.0120267 0.0101078 0.0238352 0.000348828 0.0138399 0.00571805 0.0297364 0.000239902
0.00924471 0.0305136 0.00171365 -0.010513 0.000201188 -2.59592e-05 0.000415543 0.0142089
-0.00309863 0.018458 -0.000428611 -0.0100832 -0.0049681 -0.00616051 -0.000338933 -0.00094268
-0.00468785 0.0130162 0.0124731 0.0118333 0.012984 -0.000118509 -0.0029068 0.00195347
-0.0258625 -0.00575345 -0.00988925 -0.00050208 0.00109905 -0.00431214 0.0250443 0.00114827
0.0292727 -0.000557347 -0.00781173 0.00948759 0.016139 -0.0037055 0.0180441 -0.00612289
-0.00514105 -0.00191161 0.0124343 -0.00445344 0.0227848 -0.000102675 0.00493848 -5.95408e-05
5.10128e-05 0.000776063 0.0204441 0.0327628 0.00134266 -0.000497003 -0.00216684 0.00442401
0.000735433 0.0176731 -0.00487804 0.00141175 0.0435893 0.0264135 0.00284581 0.00281763
-0.0181975 -0.000134731 -0.000705832 0.021302 0.00786275 0.0113133 0.00421361 0.000999201
0.000391234 0.00110351 -0.000842537 -0.00593127 0.00121411 -0.000702848 0.00028617 0.0151524
0.0155334 0.00112492 -0.00353938 -0.00360186 0.0239214 -0.00310978 0.00209588 0.00296359
0.0126169 -0.00215327 -0.00086394 -0.0118372 -0.0221809 0.0291602 0.020022 0.000664754
-0.00147496 0.00175758 0.00176897 -0.00109893 -0.00582399 0.018293 0.000247954 0.0149108
0.00630088 0.00078107 -0.00029718 0.0169098 -0.00201914 -0.0152235 -0.00186694 -0.00932377
0.00233959 0.0105463 0.0219949 -0.000930273 0.00388153 0.0288327 0.0120248 0.00945728
0.0143745 0.000523318
00000000: da2b 20bb d6e1 683c 794e a3bb 7953 f83b
00000010: 6b56 cbbb 3eda 8bbb fba3 393c 8c4b 97ba
00000020: f89b da3c d5a5 90bc 64e4 d1ba 6f69 ef3b
00000030: 52b3 acba 8382 773c 069f 663c f9fa 18bc
00000040: 038e 8e3c 916a 33bc 683e 0abc 3a91 60bc
00000050: bb78 813a a112 bb39 059f cb3c 7c62 3e3b
00000060: 97bf 673c 42b5 e1bd ef3b 823b 7f55 e83b
00000070: 2734 243c 5359 f93c e00e f93c 6dfc cf3b
00000080: 336e 093c 4540 4f3c 398c 383c 911c fa3a
00000090: 22c1 79bc 7a0b fb3a 73e2 823b c401 db3a
000000a0: 84e7 6f3c 6f76 563b 568f c9ba 651a 6d3d
000000b0: fbf6 ffbc 631a d73c 499f a739 1b00 1e3c
000000c0: 681c b0ba 8eb7 4b3c 98f5 1aba 74b0 233b
000000d0: 92ac a8bc c5dd a4ba b47c 15bc d59b acba
000000e0: 25a3 2239 1a97 bb3a a6d7 c13c 75d9 fdbb
000000f0: 0f45 c13c cb5a b73b 4aa0 18bc 8e22 0a3c
00000100: fe32 8e3c 39b1 2cbc dff7 943c 6190 0fbc
00000110: c09e 86bb 06bf ecba 7bd4 423b d798 76ba
00000120: 540a b03c 8467 bc38 e7fb 4e3c a6b2 4dba
00000130: b58a 5d3b 6fdd 1039 50f0 5e3c cb75 e43c
00000140: 4f72 82b9 e4db b7bb 0f1b 543a 9192 433b
00000150: 15c5 6d3a c0ce 8d3c 2ec4 acbb 9c1d e3bb
00000160: c55b 223d a288 bb3c 584f 563b f90c 7c3a
00000170: 31be fd3b fe93 a63a d7e6 2bba 86cc 703c
00000180: 2449 0a3c ceef 453c e774 b83b da00 cf3a
00000190: 5aa5 8f3c 2ff8 bd39 91e4 1b3a 051d 673b
000001a0: 174e ebbb a065 c4ba 213a a9ba 1f16 853c
000001b0: 546a 9b3c bb28 1bbc 8a30 0f3b 9824 853c
000001c0: fcf1 073c cb24 05ba 394e 403c 3914 74bc
000001d0: 2797 903c 69e5 1cbc 4992 31bc dbf1 6cbb
000001e0: a30b 45bc 309b 253c 0a42 c33c e7e2 b639
000001f0: bfc0 623c 7b5e bb3b c099 f33c 348e 7b39
00000200: 2077 173c a8f7 f93c 8d9c e03a b83e 2cbc
00000210: fef5 5239 f5c2 d9b7 3ddd d939 72cc 683c
00000220: 6312 4bbb 3b35 973c 32b7 e0b9 0234 25bc
00000230: 72cb a2bb 1ade c9bb d1b2 b1b9 2f1e 77ba
00000240: 899c 99bb e641 553c f95b 4c3c 75e0 413c
00000250: d8ba 543c 0988 f8b8 0380 3ebb ca05 003b
00000260: 98dd d3bc 7087 bcbb 8506 22bc 059e 03ba
00000270: 000e 903a da4c 8dbb b429 cd3c 8c81 963a
00000280: 4dcd ef3c ed1a 12ba 8af9 ffbb d671 1b3c
00000290: f035 843c f9d7 72bb 38d1 933c 86a2 c8bb
000002a0: 4176 a8bb fd8e faba 3cb9 4b3c 2aee 91bb
000002b0: 30a7 ba3c 3953 d7b8 f9d2 a13b 72bb 79b8
000002c0: 94f6 5538 b570 4b3a 637a a73c 4932 063d
000002d0: 32fc af3a 4f49 02ba 8b01 0ebb 49f7 903b
000002e0: 13ca 403a 2dc7 903c f7d7 9fbb 780a b93a
000002f0: b28a 323d 2061 d83c c580 3a3b fda7 383b
00000300: ec12 95bc 9446 0db9 9507 39ba 8881 ae3c
00000310: c4d2 003c 6b5b 393c 5312 8a3b 9ff7 823a
00000320: 8a1e cd39 a7a3 903a b3dd 5cba 195b c2bb
00000330: c522 9f3a 553f 38ba 1609 9639 c641 783c
00000340: cd7f 7e3c 0d72 933a f1f4 67bb 2f0d 6cbb
00000350: d0f6 c33c 73cd 4bbb 085b 093b ca38 423b
00000360: 1db7 4e3c e01d 0dbb 087a 62ba d1f0 41bc
00000370: b8b4 b5bc 5fe1 ee3c 2d05 a43c e342 2e3a
00000380: 7253 c1ba 995e e63a c9dc e73a f909 90ba
00000390: 2bd7 bebb 34db 953c d3ff 8139 6e4c 743c
000003a0: 9d77 ce3b b8c0 4c3a d3ce 9bb9 6c86 8a3c
000003b0: 8c53 04bb fd6b 79bc 1cb4 f4ba bac2 18bc
000003c0: cf53 193b 63ca 2c3c a62e b43c 90dd 73ba
000003d0: 4461 7e3b 8e32 ec3c ab03 453c b5f2 1a3c
000003e0: 0683 6b3c 472f 093a

B6 f4 [5]
-0.0215604 0.0182964 -0.0184361 0.0185538 -0.0175339
00000000: 709f b0bc 55e2 953c 4e07 97bc 24fe 973c
00000010: 41a3 8fbc
