data/acasxu/nets/ACASXU_run2a_4_7_batch_2000.onnx (onnx, 53878 bytes, 14 tensors)

W0 f4 [50, 5]
0	0xbeda2be0	-0.426116
1	0xbfaef3f5	-1.36682
2	0x3fe9a5b9	1.82537
3	0xbeb84407	-0.359894
4	0x3f4822ee	0.781783
5	0x3c687c56	0.0141898
6	0xbfdf9336	-1.74668
7	0x4006732e	2.10078
8	0x3e4c65c7	0.199607
9	0xbf204135	-0.625995
10	0x3e729c78	0.236925
11	0xbec68662	-0.387744
12	0x3eaba451	0.335238
13	0xbd9110c9	-0.0708328
14	0xbf5f4b30	-0.872241
15	0x3e42645e	0.189836
16	0x3fe739c1	1.80645
17	0x3e69fc2b	0.228501
18	0x3fb2d091	1.39699
19	0xbfda0957	-1.70341
20	0x4057505d	3.36428
21	0xbc1d3f00	-0.00959754
22	0xbce7c06e	-0.02829
23	0xbaef0a8f	-0.00182374
24	0xbb52d275	-0.00321689
25	0xba98e3e7	-0.00116646
26	0xbfa7035c	-1.30479
27	0xbf2574c5	-0.646313
28	0x3ec51b71	0.384975
29	0xbe3051ca	-0.172187
30	0x3d73ba77	0.059504
31	0xbf85b08a	-1.04445
32	0x3f938ab1	1.15267
33	0xbd494508	-0.0491381
34	0x3e8c52a4	0.274068
35	0xbdb54d11	-0.0885259
36	0xbf19b845	-0.600468
37	0xbe2cdc01	-0.168808
38	0x3ea456d6	0.320975
39	0xbe4ca57a	-0.19985
40	0xbeb8a5f0	-0.360641
41	0x3f392978	0.723289
42	0xbfa35159	-1.27592
43	0x3d159792	0.0365215
44	0xbc161617	-0.00916054
45	0x3c8ed444	0.0174352
46	0xbec177ea	-0.377868
47	0xbdebf099	-0.115205
48	0x3ecba57f	0.397747
49	0xbeea2fad	-0.457395
50	0x3df47e07	0.119381
51	0xbfb3b44e	-1.40394
52	0x3fddb036	1.73194
53	0x3e5c011d	0.214848
54	0xbf07e282	-0.5308
55	0x3f02cb96	0.510919
56	0xbc6ec61c	-0.0145736
57	0x3d94ee47	0.0727201
58	0xbe8bc105	-0.272957
59	0xbf154b49	-0.58318
60	0x3db6badd	0.0892236
61	0xbdbadd59	-0.0912425
62	0xbf0970d6	-0.536878
63	0xbe45b899	-0.193087
64	0x3e84bc49	0.259249
65	0xbddb1077	-0.106965
66	0x3e95840a	0.292023
67	0xbe90348f	-0.281651
68	0xbec287c2	-0.379942
69	0x3eb43266	0.351947
70	0x3ea0b1bc	0.313856
71	0xbf575e85	-0.841286
72	0xbe70f55e	-0.235311
73	0x3c571a99	0.0131289
74	0x3dc4d1c1	0.0961032
75	0xbc045f4b	-0.00807936
76	0xba13c9e6	-0.000563769
77	0xbbe970b2	-0.00712403
78	0x3af29432	0.00185073
79	0x3bc9b17a	0.00615519
80	0x3e11effa	0.142517
81	0x3dcc579f	0.0997765
82	0xbe702689	-0.234522
83	0x3d834f76	0.0641164
84	0x3c8e4dd6	0.0173711
85	0x3df754b0	0.120767
86	0xbf1f0596	-0.621179
87	0x3f572420	0.840395
88	0xbdc5fe2c	-0.0966762
89	0x3f3d1ce3	0.738722
90	0xbdf5e84f	-0.120072
91	0xbe80999e	-0.251172
92	0x40273190	2.6124
93	0x3e1e3c97	0.154528
94	0x3ec1a501	0.378212
95	0x3e2fcc18	0.171677
96	0x400aec6c	2.17068
97	0xbf731833	-0.949588
98	0x3e95d7aa	0.292661
99	0x3e059360	0.130445
100	0xbdf2135e	-0.118201
101	0x3f67ea2d	0.905917
102	0x3d7b2bf0	0.0613212
103	0xbf021683	-0.508156
104	0x3f24218e	0.641137
105	0x3e4b54e3	0.198566
106	0xbfd8801f	-1.69141
107	0x3f22b053	0.635503
108	0x3ee375ea	0.444259
109	0xbf244fa0	-0.64184
110	0xbdab291c	-0.0835745
111	0x3ca55631	0.0201827
112	0x3e067514	0.131306
113	0xbeee1e71	-0.465076
114	0xbdbeca68	-0.0931595
115	0xbc11bf90	-0.00889577
116	0x3fbd2f6f	1.47801
117	0xbfe15b57	-1.7606
118	0xbe8bf445	-0.273348
119	0x3f2f6ba0	0.685236
120	0xbf7e9985	-0.99453
121	0x3e649a56	0.223245
122	0x3d9fdb0a	0.0780545
123	0xbc184135	-0.00929289
124	0xbe83400c	-0.256348
125	0x3bd14314	0.00638617
126	0xbe441a26	-0.191506
127	0x3f03c7e7	0.514769
128	0xbf5a4a5a	-0.852697
129	0x3f591e11	0.848115
130	0xbe986f8b	-0.297726
131	0xbe78c198	-0.242926
132	0x3e8c83a9	0.274442
133	0x3f7ffde7	0.999968
134	0xbf979db2	-1.1845
135	0xbd46a5a1	-0.0484978
136	0x3f65feeb	0.898421
137	0x3f72908a	0.947518
138	0x3e8f7d74	0.280254
139	0xbdb10640	-0.0864377
140	0xbc923b36	-0.0178505
141	0xbe3c84f9	-0.184101
142	0xbe6426fe	-0.222805
143	0x3df1971c	0.117964
144	0x3e1e7d13	0.154774
145	0x3d087de8	0.0333232
146	0x3faf53f8	1.36975
147	0xbfce24dd	-1.6105
148	0xbddc7e6b	-0.107663
149	0x3efdd1e5	0.495742
150	0x3f7d16db	0.98863
151	0x3ed55348	0.416651
152	0x3bde97bb	0.00679299
153	0x3e89654d	0.268351
154	0x3e397354	0.181104
155	0x3a02c2c6	0.000498813
156	0x3eb6f5ed	0.357345
157	0x3f9098b3	1.12966
158	0xbe65796c	-0.224096
159	0x3e4f3882	0.202364
160	0x3d66beb1	0.0563342
161	0x3ebb3df3	0.365707
162	0x3ef4acf3	0.477882
163	0xbebf607c	-0.373783
164	0x3e14d1a6	0.145331
165	0x3dae90ca	0.0852371
166	0xbf8eed14	-1.11661
167	0xbe97bb95	-0.296353
168	0x3ec53954	0.385203
169	0xbe305e5f	-0.172235
170	0x3a8528f4	0.00101593
171	0x3f78ad58	0.971395
172	0x3f4afc05	0.792908
173	0x3eb25fe9	0.348388
174	0xbe575686	-0.210291
175	0x3b24494b	0.00250681
176	0x3f9ebe38	1.24018
177	0xbf8bc750	-1.09202
178	0xbe8bda30	-0.273149
179	0x3e261fe2	0.162231
180	0xbe0b0143	-0.135747
181	0xbf66d107	-0.901627
182	0xbf14d10f	-0.581315
183	0xbe8eae19	-0.278672
184	0x3e64a948	0.223302
185	0xbc74f64c	-0.0149513
186	0x3c872d1b	0.016501
187	0x3a652476	0.000874109
188	0x3c07fa8b	0.00829948
189	0x3c315a15	0.0108247
190	0x3e04388f	0.129122
191	0xbfc3ebaf	-1.53063
192	0x3fc03afb	1.5018
193	0x3de5b963	0.11217
194	0x3e794185	0.243414
195	0x3dd3b3a7	0.10337
196	0x3d6e7401	0.0582161
197	0xbd9206f1	-0.0713023
198	0xbe236651	-0.15957
199	0xc00b18a8	-2.17338
200	0xbc328b02	-0.0108974
201	0x3c603e2e	0.0136867
202	0x3b030f3f	0.00199981
203	0xbafc3672	-0.00192423
204	0xbada5348	-0.00166569
205	0x3e99c582	0.300335
206	0x3fb41e26	1.40717
207	0xbf5b52a8	-0.85673
208	0x3e68af81	0.227232
209	0xbe26bc1f	-0.162827
210	0x3ca38c62	0.0199644
211	0xc02c8c3f	-2.69606
212	0x3f7bb667	0.983252
213	0x3f041861	0.515997
214	0xbf431ee2	-0.76219
215	0x3ca959cb	0.0206727
216	0xbef3d556	-0.476237
217	0xbdfbc558	-0.122935
218	0xbe2acc0c	-0.166794
219	0xbcd18d26	-0.02558
220	0xbd18811b	-0.0372325
221	0xbfd7dc9c	-1.68642
222	0xbd0c496a	-0.0342497
223	0x3d3d4109	0.0462046
224	0xbf34280b	-0.703736
225	0x3dbc460f	0.0919305
226	0x3f872a06	1.05597
227	0xbf892e73	-1.07173
228	0xbeaf0ef5	-0.341911
229	0x3ed28523	0.411172
230	0x3eb5de59	0.355212
231	0x3f9cd6f5	1.22531
232	0x3ee0754f	0.438395
233	0x3f43f9d7	0.765531
234	0xbec14574	-0.377483
235	0xc005a82f	-2.08839
236	0xbd0ab20b	-0.0338612
237	0x3b2d00aa	0.00263981
238	0x3ea750c2	0.326788
239	0x3e435159	0.19074
240	0x3c7049aa	0.014666
241	0x3f1361cc	0.575711
242	0xbf401893	-0.750375
243	0x3fa57247	1.29255
244	0xbfc59168	-1.5435
245	0xbe4a7fc3	-0.197753
246	0x40092c7c	2.14334
247	0xc0003f68	-2.00387
248	0x3d9eb03f	0.0774846
249	0xbf1cad15	-0.612016

B0 f4 [50]
0	0xbebfbedb	-0.374503
1	0xbec10ba6	-0.377042
2	0xbeb628cc	-0.35578
3	0xbe2b1b37	-0.167096
4	0x3f6a849d	0.916086
5	0xbe54bf0a	-0.20776
6	0xbf01700d	-0.505616
7	0x3e03358f	0.128134
8	0xbdcfd007	-0.101471
9	0xbd6d0e8c	-0.0578752
10	0x3e0dcf89	0.138487
11	0x3d9273fe	0.0715103
12	0x3cebab4a	0.0287682
13	0xbbf76b87	-0.00755066
14	0x3e1b317f	0.151556
15	0xbc64f766	-0.013975
16	0xbcaac38e	-0.0208452
17	0x3e27bd49	0.163808
18	0x3e9001f7	0.281265
19	0x3e5f80dc	0.218265
20	0x3e310279	0.172861
21	0xbea73626	-0.326585
22	0xbc94cc76	-0.0181639
23	0xbeb3b6cc	-0.351004
24	0xbd719173	-0.0589766
25	0x3dc6357c	0.0967817
26	0xbcd6fa18	-0.0262423
27	0x3ddd4068	0.108033
28	0x3d926a73	0.0714921
29	0xbf0fc265	-0.56156
30	0x3edca6ca	0.43096
31	0x3c6a68bf	0.0143072
32	0xbd8223ef	-0.0635451
33	0x3d8592da	0.0652215
34	0xbe343201	-0.175972
35	0x3eb7a4a5	0.358678
36	0x3e69cb25	0.228314
37	0xbce1d0d5	-0.0275654
38	0xbefd6e48	-0.494982
39	0xbf59e050	-0.851079
40	0xbc5fbc94	-0.0136558
41	0xbea377c0	-0.319273
42	0xbe1a682b	-0.150788
43	0x3d3fc207	0.0468159
44	0xbe8cfe58	-0.275378
45	0xbf150204	-0.582062
46	0x3dfe18f0	0.124071
47	0xbea0ec53	-0.314303
48	0x3eec4285	0.461445
49	0xbdf27568	-0.118388

W1 f4 [50, 50]
0	0xbcd2c45e	-0.0257284
1	0xbcc1c242	-0.0236522
2	0x3baeba3d	0.00533226
3	0xbb9d28b0	-0.00479611
4	0xbd326974	-0.0435576
5	0xbccc8bca	-0.024969
6	0xbc72a8ff	-0.0148108
7	0x39af1ff1	0.000334024
8	0xbd61a56c	-0.0550894
9	0x3d1226a9	0.0356814
10	0xbc85d639	-0.0163375
11	0x3cf6d8da	0.0301327
12	0xbcd1a650	-0.025592
13	0xb937680c	-0.00017491
14	0x3d3587a1	0.0443188
15	0xbcb3a43d	-0.0219289
16	0xbc74ec3b	-0.0149489
17	0x3c91ee09	0.0178137
18	0x3bfcfcc0	0.00772056
19	0xbcdd4d18	-0.0270143
20	0xbd3d1bb5	-0.046169
21	0x3ccde77f	0.0251348
22	0xbd14405f	-0.0361942
23	0xbd662365	-0.0561861
24	0xbc929a36	-0.0178958
25	0xbd69854f	-0.0570119
26	0xbd6b36e5	-0.0574254
27	0xbd4d07d6	-0.0500563
28	0xbcd2754e	-0.0256907
29	0x3cddce7d	0.027076
30	0xbc7c23d2	-0.0153894
31	0xbc1b97cc	-0.00949664
32	0xbd23f2d4	-0.0400265
33	0xbd510a2e	-0.0510351
34	0xbc83e2e4	-0.0160994
35	0x3af67466	0.0018803
36	0xbd454061	-0.0481571
37	0x3bf0679c	0.00733657
38	0xbc576908	-0.0131476
39	0xbd4ad9fe	-0.0495243
40	0x3c8ace5a	0.0169441
41	0xbc91db5f	-0.0178048
42	0x3d15bfbb	0.0365598
43	0x3b37754d	0.00279935
44	0x3d14a6ec	0.036292
45	0xbc814cd1	-0.0157837
46	0xbbe7f8b8	-0.00707921
47	0xbc45a73f	-0.0120638
48	0x3d0197cb	0.0316389
49	0x3cc237b3	0.0237082
50	0xbe5fdc59	-0.218614
51	0x3f697311	0.911912
52	0xbf5734d7	-0.84065
53	0xbe43ffef	-0.191406
54	0xbce167c4	-0.0275153
55	0xbf37c201	-0.717804
56	0x400ea5ce	2.22887
57	0x3d5f1986	0.0544677
58	0xbe0b66f9	-0.136135
59	0x3f9d1149	1.22709
60	0x3f8f822c	1.12116
61	0xbecc3266	-0.398822
62	0xc08a641b	-4.32472
63	0x3fa886ad	1.31661
64	0xbe7fbb51	-0.249738
65	0x3d08920a	0.0333424
66	0xc02c8b44	-2.696
67	0x3f04880e	0.517701
68	0x3e91bb28	0.284631
69	0xc01f628d	-2.49039
70	0xbfbe4ecf	-1.48678
71	0x3fa7212d	1.3057
72	0xbf81f7f9	-1.01538
73	0xbde83a11	-0.113392
74	0xbf5c420f	-0.860383
75	0x3e282129	0.164189
76	0xc01cd0bb	-2.45024
77	0xbf199243	-0.599888
78	0xbf27cc08	-0.655457
79	0xbd823bf2	-0.0635909
80	0xbd78d3d7	-0.0607489
81	0xc01a45cc	-2.41051
82	0xbf9833c6	-1.18908
83	0x3eb43cc0	0.352026
84	0xbea5234f	-0.322535
85	0xc118564d	-9.52107
86	0xbfbd5087	-1.47902
87	0xbd323b6c	-0.0435137
88	0x3f821d54	1.01652
89	0x3ec7d60f	0.390305
90	0x3cfd6fcd	0.0309371
91	0xbce3ce06	-0.0278082
92	0x3f0ad0c4	0.542248
93	0xbfc90529	-1.57047
94	0xbf102667	-0.563086
95	0xbcf69015	-0.030098
96	0xbf45e093	-0.772958
97	0xbe8f3b00	-0.279747
98	0x3ed399f6	0.413284
99	0xbd4801a7	-0.0488297
100	0xbf9fb1af	-1.24761
101	0xc070f616	-3.76502
102	0x3e6986fd	0.228054
103	0x3ef84f6e	0.484981
104	0xbdc27a49	-0.0949598
105	0xbe5c0b13	-0.214886
106	0xbb9e0e5e	-0.00482349
107	0xbfb61523	-1.42252
108	0xbe75c63b	-0.240014
109	0xbf13b8b2	-0.577037
110	0xbec63971	-0.387157
111	0x3f66b50b	0.9012
112	0xbd5df4a8	-0.0541884
113	0x3e01a60d	0.12661
114	0xbc731d2e	-0.0148385
115	0x3d000193	0.0312515
116	0xbbebcc57	-0.00719599
117	0xbf8267b6	-1.01879
118	0xbe928f19	-0.286248
119	0xbe4af859	-0.198213
120	0xbf877803	-1.05835
121	0x3d4f2f98	0.0505825
122	0x3f00e161	0.503439
123	0xbda60ea2	-0.0810826
124	0xbe3aae6d	-0.182306
125	0x3fda2585	1.70427
126	0x3e8d8905	0.276436
127	0xbf41524c	-0.755162
128	0xbe521427	-0.205155
129	0x3cb95a95	0.0226262
130	0xbf1acb32	-0.604663
131	0xbed45d42	-0.414774
132	0x3fc25de1	1.51849
133	0xbec11e00	-0.377182
134	0xbf77d513	-0.968095
135	0x3ebeda88	0.372761
136	0x3cba732e	0.02276
137	0xbc090166	-0.00836215
138	0x3d04aa54	0.032389
139	0x3db00e86	0.0859652
140	0x3cbe3bdb	0.0232219
141	0x3e977a92	0.295857
142	0xc0dbfbd2	-6.87449
143	0x3eb9c609	0.362839
144	0xc0c49542	-6.14322
145	0x3e388fc9	0.180236
146	0x3ddbf163	0.107394
147	0xbeb5ea89	-0.355305
148	0x3dae9c6e	0.0852593
149	0x3ed50353	0.416041
150	0x3e3a5050	0.181947
151	0x3c5b66c4	0.0133912
152	0x3dd3f530	0.103495
153	0xbdc51b35	-0.0962433
154	0x3c0e79c0	0.00869602
155	0x3f709f73	0.939933
156	0xbf223897	-0.633676
157	0xbe38661b	-0.180077
158	0xbf96fc7a	-1.17958
159	0xbfd75936	-1.68241
160	0xbdb6ef8e	-0.0893241
161	0xbe254ac3	-0.161418
162	0x3f04d09a	0.518808
163	0x3f273a36	0.653232
164	0xbd6a8cec	-0.0572633
165	0x3cedd0f4	0.0290303
166	0x3e14e011	0.145386
167	0xbe090bc8	-0.133834
168	0xbe0d67ba	-0.138091
169	0xbef73b43	-0.482874
170	0x3d961771	0.0732869
171	0x3e1d972d	0.153897
172	0x3ab3ead4	0.00137266
173	0xbfcd1538	-1.60221
174	0x3def91a3	0.116977
175	0x3e68661b	0.226952
176	0xbf97becb	-1.18551
177	0xbd48c4b0	-0.0490157
178	0x3f343915	0.703996
179	0xbfa5b3d0	-1.29455
180	0x3e6feb4a	0.234296
181	0x3e9756a8	0.295583
182	0x3f037597	0.513513
183	0xbd1ccc6f	-0.0382809
184	0x3f9cafa3	1.22411
185	0xbfa4d4aa	-1.28774
186	0x3f40df8b	0.753411
187	0x3d04abb1	0.0323903
188	0xbef81f10	-0.484612
189	0xbebc57e2	-0.367858
190	0xbd39702e	-0.045273
191	0xbe09ecf6	-0.134693
192	0x3e8f8e5c	0.280383
193	0x3e95c055	0.292483
194	0x3ec4738a	0.383694
195	0xbdc5e793	-0.0966331
196	0xbddb0b39	-0.106955
197	0xbe2cf6be	-0.16891
198	0xbdc7d277	-0.0975694
199	0x3f200d6f	0.625205
200	0x3cea172b	0.0285755
201	0x3ca6bd6f	0.020354
202	0x3d1f703d	0.0389254
203	0xbcc1c59d	-0.0236538
204	0xbbd0a2c5	-0.00636706
205	0xbc7d3332	-0.0154541
206	0x3d17ab68	0.0370287
207	0xbcda3e70	-0.0266411
208	0x3ca51563	0.0201518
209	0x3d2e8e1d	0.042616
210	0xbd459c21	-0.0482446
211	0x3cc04494	0.0234702
212	0xbb45ab70	-0.0030162
213	0xbcd1a90a	-0.0255933
214	0x3a839d03	0.00100413
215	0xbd2162f1	-0.039401
216	0xbd36fb75	-0.0446734
217	0xbd2d6d8c	-0.0423408
218	0xbcd783aa	-0.0263079
219	0xba9703bd	-0.00115215
220	0xbd375099	-0.0447546
221	0xbd2139f2	-0.0393619
222	0x3af2ceea	0.00185248
223	0xbc718d76	-0.0147432
224	0xbd100a39	-0.035166
225	0xbcb8b9bb	-0.0225495
226	0xbcbe72cd	-0.0232481
227	0xbcada5c0	-0.0211972
228	0xbbcee454	-0.00631384
229	0x3d0523c1	0.0325048
230	0xbd149584	-0.0362754
231	0xbcbb81ec	-0.0228891
232	0xbc8395ec	-0.0160627
233	0xbd403976	-0.0469298
234	0xbc82d8f8	-0.0159726
235	0x3cb3d733	0.0219532
236	0x3bc775a0	0.00608702
237	0x3cc47652	0.0239822
238	0xbcdfc639	-0.0273162
239	0xbca8cd13	-0.0206056
240	0xbd4a3777	-0.0493693
241	0x3c3f39d2	0.0116715
242	0xbc40f66a	-0.0117775
243	0xbcebb3e3	-0.0287723
244	0xbd3eb7e7	-0.0465621
245	0xbcf84810	-0.0303078
246	0xbd207c77	-0.0391812
247	0x3cbba0f6	0.0229039
248	0xbce7bc07	-0.0282879
249	0x3c65e38a	0.0140313
250	0x3efc6cb9	0.493017
251	0x3c6addc4	0.0143351
252	0x3e7b0857	0.245149
253	0xbddcf13d	-0.107882
254	0xbff9b574	-1.95085
255	0x3e2c14c6	0.168048

B1 f4 [50]
0	0xbc71404a	-0.0147248
1	0xbdd70a3d	-0.105
2	0xbe9dd15f	-0.308238
3	0xbeba8694	-0.364308
4	0xbc6725a9	-0.0141081
5	0x3f09600f	0.536622
6	0xbc3f0cf1	-0.0116608
7	0xbd0536d6	-0.032523
8	0x3f10d7cf	0.565793
9	0xbc92e119	-0.0179296
10	0x3e5c2e77	0.215021
11	0xbf3b0fae	-0.730708
12	0xbec7c2ca	-0.390158
13	0xbcd6224c	-0.0261394
14	0x3e3f3344	0.186719
15	0xbdac5d64	-0.0841625
16	0x3f978423	1.18372
17	0xbd058ab9	-0.032603
18	0x3ec14728	0.377496
19	0x3f97837b	1.1837
20	0xbe6865d8	-0.226951
21	0xbcab48b9	-0.0209087
22	0xbe425786	-0.189787
23	0xbf8b74bc	-1.0895
24	0xbf29abd2	-0.662778
25	0xbf8939eb	-1.07208
26	0x3f5d9d77	0.865684
27	0xbc300079	-0.0107423
28	0x3cb48f89	0.0220411
29	0x3da0d5db	0.0785329
30	0x3b4c7e9e	0.00312034
31	0xbc2e289d	-0.0106298
32	0xbcb2565f	-0.0217697
33	0xbe2b9991	-0.167578
34	0xbc72f33d	-0.0148285
35	0xbc736ac6	-0.014857
36	0xbcb95810	-0.022625
37	0xbc3ab141	-0.0113948
38	0x3e4a8d22	0.197804
39	0xbc1a8f63	-0.0094336
40	0x3fb32420	1.39954
41	0x3f10ba41	0.565342
42	0xbdad0f62	-0.084502
43	0xbfd5729b	-1.66756
44	0x3f4500b4	0.769542
45	0xbcaf7bef	-0.0214214
46	0xbeceb52d	-0.403726
47	0xbf8e08af	-1.10964
48	0x3f99945b	1.19984
49	0xbfcfc30d	-1.62314

W2 f4 [50, 50]
0	0xbd135943	-0.0359738
1	0xbff33040	-1.89991
2	0xbfae61d0	-1.36236
3	0xbec1a240	-0.378191
4	0x3d327096	0.0435644
5	0xbfb62ac3	-1.42318
6	0xba3029a0	-0.000672007
7	0xbd301d34	-0.0429966
8	0xbf5973b8	-0.849422
9	0xbc0698cb	-0.00821514
10	0xc088d399	-4.27583
11	0xbfd5c8c9	-1.67019
12	0x3fa74784	1.30687
13	0x3b33ba2c	0.00274242
14	0xbf44ee8d	-0.769265
15	0xbfa68683	-1.30098
16	0xbe998e97	-0.299916
17	0x3af2891f	0.0018504
18	0xc018b368	-2.38595
19	0xbf85f1bf	-1.04644
20	0xc050771d	-3.25727
21	0xbd404a8e	-0.0469461
22	0x3e244ed7	0.160457
23	0xc0671759	-3.6108
24	0xbfe9bc56	-1.82606
25	0xbf91ab4b	-1.13804
26	0xc00a13d3	-2.15746
27	0x3b9c6526	0.0047728
28	0xbd01441d	-0.0315591
29	0x400939eb	2.14416
30	0xc0434d16	-3.05158
31	0x3d1d4c77	0.038403
32	0x3ad58b8d	0.00162922
33	0xbd03f5c3	-0.0322168
34	0x3c4abb7b	0.0123738
35	0x3afd7aeb	0.0019339
36	0x3ce9b358	0.0285279
37	0xbc57d391	-0.013173
38	0xbf7bf5e8	-0.984221
39	0x401c65bf	2.44371
40	0xc0067968	-2.10116
41	0xc023f972	-2.5621
42	0xc054c155	-3.3243
43	0xc0bf32f4	-5.97497
44	0x3f69da38	0.913486
45	0xba21608d	-0.000615605
46	0x402671de	2.6007
47	0x3eaa4b34	0.332605
48	0x3f5e208a	0.867684
49	0xbf2f5200	-0.684845
50	0xbb63b69e	-0.00347463
51	0xbddbba56	-0.107289
52	0x3fd72e9d	1.68111
53	0x3f185037	0.594974
54	0x3c1dfdd7	0.00964304
55	0x3e9c1722	0.304864
56	0x3b443148	0.00299366
57	0xbd3387b7	-0.0438306
58	0x3f1cbd66	0.612265
59	0xbccf4b62	-0.0253045
60	0xbdf8cc14	-0.121483
61	0xbf3da101	-0.740738
62	0x3eb045bb	0.344282
63	0xbc4b182c	-0.0123959
64	0x3e94efed	0.290893
65	0x3f2cfa9c	0.675699
66	0x3dcb8222	0.0993693
67	0xbd111516	-0.0354205
68	0xbf03c88e	-0.514779
69	0x3ef98223	0.487321
70	0xbddcbbc3	-0.10778
71	0xbc65e09a	-0.0140306
72	0x3e79e40d	0.244034
73	0xbe4bd7b2	-0.199065
74	0xbec6f523	-0.388589
75	0x3f2b6cf0	0.669631
76	0xbe1caea7	-0.15301
77	0x3bc8b34d	0.00612489
78	0x3ef6559f	0.481122
79	0x3f2b326a	0.668738
80	0x3e9be814	0.304505
81	0xbcbd99bf	-0.0231446
82	0xbc2c3de1	-0.0105128
83	0xbf03c7a4	-0.514765
84	0x3c718e4d	0.0147434
85	0xbd52e5ec	-0.0514888
86	0x3a999c74	0.00117196
87	0x3d30b285	0.043139
88	0xbe9724d9	-0.295203
89	0x3f17f5d8	0.593595
90	0xbc93e4ef	-0.0180535
91	0x3f11a134	0.568866
92	0xbfc897b7	-1.56713
93	0x3ef8cb4b	0.485926
94	0x3f091948	0.535542
95	0xbccda85f	-0.0251047
96	0xbeb6b639	-0.356859
97	0xbc83c628	-0.0160857
98	0x3cec4d30	0.0288454
99	0x3e40dbf0	0.188339
100	0xbbd8e9a6	-0.00661965
101	0x3fd6cfea	1.67822
102	0x3ec19bd4	0.378142
103	0x4038b368	2.88595
104	0x3cf8f118	0.0303884
105	0x3dbbff70	0.0917958
106	0xbcdae8ba	-0.0267223
107	0x3d37a065	0.0448307
108	0xbf965f85	-1.17479
109	0xbd13c7ae	-0.0360791
110	0xbf0db728	-0.553576
111	0x3ef76556	0.483195
112	0x400f72ef	2.24139
113	0x3d31e71e	0.0434333
114	0x3f2798d9	0.654676
115	0x3e89218a	0.267834
116	0xbf3cfa9c	-0.738199
117	0x3ce390c9	0.027779
118	0xbe8f70bd	-0.280157
119	0x3fa9a565	1.32536
120	0x3e6c332f	0.230664
121	0x3cc309d5	0.0238084
122	0x3e7772d6	0.241649
123	0xbdb1c369	-0.0867985
124	0x3f2ba1a1	0.670435
125	0xbef1a77e	-0.471981
126	0xbf4c054f	-0.796956
127	0xbd102b91	-0.0351978
128	0xbe3bbd38	-0.183339
129	0x3f7d19f0	0.988677
130	0xbd34ee54	-0.0441726
131	0xbb087de8	-0.0020827
132	0x3d063b9e	0.0327717
133	0xbdf66517	-0.12031
134	0xbcd35f23	-0.0258022
135	0xbcf0417c	-0.0293281
136	0x3ca80f13	0.020515
137	0xbcefa8d0	-0.0292553
138	0xbfd07e28	-1.62885
139	0xc02d652c	-2.7093
140	0x3e5364bf	0.206439
141	0x3e8427e9	0.258117
142	0xbffe2c67	-1.98573
143	0x3e840a28	0.25789
144	0x40166080	2.34964
145	0x3ce37f61	0.0277707
146	0x3f4b736d	0.79473
147	0x3efa5ce6	0.48899
148	0xbeae7f91	-0.340817
149	0xbfcff141	-1.62455
150	0x3d0709fa	0.0329685
151	0xbf11a598	-0.568933
152	0xbdc9638c	-0.0983344
153	0x3fecb2ea	1.84921
154	0xbc67da04	-0.0141511
155	0x3f055d81	0.520958
156	0x3cb44f28	0.0220104
157	0xbd24afc8	-0.0402067
158	0x3f10692f	0.564105
159	0xbb9a8049	-0.004715
160	0xbf8a57a8	-1.0808
161	0xbd539390	-0.0516544
162	0xbed58fb4	-0.417112
163	0xbd40af1d	-0.047042
164	0xbe54506a	-0.207338
165	0x3e94b9aa	0.290479
166	0x3e66ef3d	0.225522
167	0x3cf177a7	0.029476
168	0xbea03687	-0.312916
169	0xbf28edc4	-0.659878
170	0xbed53954	-0.416453
171	0x3c2a3dc1	0.0103907
172	0x3e5ec4e7	0.217548
173	0x3d900e43	0.0703397
174	0xbe0494d5	-0.129474
175	0x3f8b17ad	1.08666
176	0xbde53d21	-0.111933
177	0xbc6952aa	-0.0142409
178	0x400f1b1e	2.23603
179	0xbde26784	-0.110549
180	0x3eee1199	0.464978
181	0x3d81d989	0.0634032
182	0xbcaf8df8	-0.02143
183	0x3e0cdf26	0.13757
184	0xbca045f1	-0.0195646
185	0x3d1dbfea	0.0385131
186	0xbceb0242	-0.0286876
187	0xbd31395e	-0.0432676
188	0xbe5616b5	-0.209071
189	0x3f7563ed	0.958556
190	0xbe92e5bd	-0.286909
191	0x3f3c3f3e	0.73534
192	0x3f256f44	0.646229
193	0x3f32938e	0.697564
194	0xc04079bc	-3.00743
195	0x3d4a65cf	0.0494135
196	0xbeecfca4	-0.462865
197	0xbd6bb1af	-0.0575425
198	0x3e993f29	0.29931
199	0x3f6dc8c9	0.928845
200	0xbccfb86f	-0.0253565
201	0xbefda46a	-0.495395
202	0x3de74081	0.112916
203	0x3f0651d2	0.524686
204	0xbd41d416	-0.0473214
205	0x3e80c4bd	0.251501
206	0x3c9de772	0.0192754
207	0xbd31ce5f	-0.0434097
208	0x3eab2d2c	0.334329
209	0xbcdf2f3b	-0.0272442
210	0xbe61c79b	-0.220488
211	0x3ef22ee4	0.473014
212	0x3fb8408e	1.43947
213	0x3bc3962d	0.00596883
214	0xbf18f734	-0.597522
215	0x3e5285a9	0.205588
216	0x3de60e52	0.112332
217	0xbc5d6b81	-0.0135144
218	0x3ee66794	0.450009
219	0xbf931d93	-1.14934
220	0x3e21cd1c	0.158009
221	0x3c2ab6f8	0.0104196
222	0x3ed7bd8c	0.421368
223	0xbeb44e0e	-0.352158
224	0x3d73da73	0.0595345
225	0xbe3e4f76	-0.18585
226	0xbf14489d	-0.579233
227	0xbd162d33	-0.0366642
228	0x3f27ba99	0.655191
229	0x3e77f9d7	0.242164
230	0xbedad645	-0.427416
231	0xbce26d12	-0.0276399
232	0x3cb26f89	0.0217817
233	0xbdba82a5	-0.0910695
234	0x3d1685b3	0.0367486
235	0x3d3a4a2e	0.0454809
236	0x3c1e5596	0.00966396
237	0x3d1c829d	0.0382105
238	0xbe5f58c1	-0.218112
239	0xbf82b9a1	-1.02129
240	0x3e49f278	0.197214
241	0x3eb9a9da	0.362624
242	0x3d91c250	0.0711714
243	0x3edc00b9	0.429693
244	0xbf2f586d	-0.684943
245	0xbd2ff287	-0.0429559
246	0xbec2cdc0	-0.380476
247	0x3ddc8a7a	0.107686
248	0x3e518ce3	0.204639
249	0xbdad0587	-0.0844832
250	0xbce0c5de	-0.0274381
251	0x3f69d734	0.91344
252	0xbf6be847	-0.921513
253	0x40095254	2.14565
254	0xbd22cd70	-0.0397467
255	0xbed1ac79	-0.409519

B2 f4 [50]
0	0x3fbcf616	1.47626
1	0x3f19da6a	0.600989
2	0xbe18198f	-0.148535
3	0x3e1b517a	0.151678
4	0xbef878d9	-0.485297
5	0xc01efba9	-2.48411
6	0xbfa74396	-1.30675
7	0xbf90b146	-1.13041
8	0xbebd696e	-0.369945
9	0x3f0fe1da	0.56204
10	0xbf05ad86	-0.522179
11	0x3f103b1d	0.563402
12	0xbcac0f88	-0.0210035
13	0x3eaf459e	0.342328
14	0xbf6498a2	-0.892954
15	0xbda7d2c8	-0.081945
16	0xbf2e989a	-0.682016
17	0xbe448d7e	-0.191946
18	0xbf3fb1af	-0.748805
19	0xc0008b6e	-2.00851
20	0x3edfebaf	0.437345
21	0xbe83b29a	-0.257222
22	0x3f42923e	0.760044
23	0x3ec2ac54	0.380221
24	0x3db9fff1	0.0908202
25	0x3f20e0a8	0.628428
26	0xbff5cb14	-1.92026
27	0xbf295981	-0.661522
28	0xc0203958	-2.5035
29	0xbf7fd71b	-0.999376
30	0x3c81277d	0.0157659
31	0x3eeca31e	0.462182
32	0xbf2d094a	-0.675923
33	0x3f0bc298	0.545938
34	0xbf71c359	-0.944387
35	0xbf300d4e	-0.687703
36	0xbf1b890d	-0.60756
37	0xbe815f24	-0.252679
38	0xbeef1cb9	-0.467016
39	0xbf12ae5c	-0.572973
40	0x3f4ce91d	0.800432
41	0xbf874b1f	-1.05698
42	0xbf8109c0	-1.00811
43	0xc000c27a	-2.01187
44	0x3d85043e	0.0649495
45	0x3f91aee6	1.13815
46	0x3f5bb4c4	0.858227
47	0x3f83074a	1.02366
48	0xbebd2ded	-0.369491
49	0xbe4b5aa7	-0.198588

W3 f4 [50, 50]
0	0xbfa1e1b1	-1.2647
1	0xbee7fac2	-0.453085
2	0x3e778fef	0.24176
3	0xbe87d652	-0.265307
4	0x3f7c0ebf	0.9846
5	0x3fc077ee	1.50366
6	0x3fe3ffac	1.78124
7	0xbfab06a3	-1.33614
8	0x3fc7e37e	1.56163
9	0x3fd90679	1.69551
10	0xbfa9bc56	-1.32606
11	0x3eaa137f	0.33218
12	0x3fadfe33	1.35932
13	0x3fa894c4	1.31704
14	0x3fe5e4a4	1.79604
15	0x3f16d99d	0.589258
16	0xbf69f1f1	-0.913848
17	0xbf2effe3	-0.683592
18	0xbfcafb2b	-1.58579
19	0xbf4376f7	-0.763534
20	0xbe2a6d6a	-0.166433
21	0xbf45362f	-0.770358
22	0x3bf24ae1	0.00739418
23	0x3fca3a7e	1.57991
24	0x3f967d03	1.17569
25	0xbfee5311	-1.86191
26	0x3f263822	0.649294
27	0xc02ee979	-2.733
28	0xbfe310cb	-1.77395
29	0x3e5f6380	0.218153
30	0x3ee0e7ff	0.43927
31	0x3f834e66	1.02583
32	0x3ed40a28	0.41414
33	0x3f4998d0	0.787488
34	0x3ed509e1	0.416091
35	0x3ff0fba9	1.88268
36	0x3f8748d4	1.05691
37	0x402e764b	2.72597
38	0x402c8588	2.69565
39	0x3f6efe50	0.933568
40	0x3db2c12b	0.0872825
41	0x3fe959b4	1.82305
42	0xbfe27e52	-1.76948
43	0x3fca6320	1.58115
44	0x403e61a6	2.97471
45	0xc001b2d5	-2.02654
46	0x3dcbcebb	0.0995154
47	0xbf4d41c8	-0.801785
48	0xbed25eff	-0.410881
49	0xbe860ed8	-0.261832
50	0xbdddcdf7	-0.108303
51	0x3e012275	0.126108
52	0xbe8664b2	-0.262487
53	0x3ea13db8	0.314924
54	0x3e720254	0.236337
55	0xbfb43a00	-1.40802
56	0x3fa33fa7	1.27538
57	0x3e03d295	0.128733
58	0xbd8d581a	-0.0690157
59	0x3e768e3f	0.240777
60	0xbf527d67	-0.822226
61	0xbb4d5990	-0.00313339
62	0xbf38193b	-0.719135
63	0x3d3a9252	0.0455497
64	0xbe970521	-0.294961
65	0x3efd5454	0.494784
66	0x3ef1e18f	0.472424
67	0x3fdab50b	1.70865
68	0x3fa2a897	1.27077
69	0x3ecb9820	0.397645
70	0x3d1a2510	0.037633
71	0x3c7d834e	0.0154732
72	0x3eb52221	0.353776
73	0x3dd48e47	0.103787
74	0xbf15b707	-0.584824
75	0x3f4555e7	0.770842
76	0x3d899609	0.0671807
77	0x3fc3a494	1.52846
78	0xbfcdf45e	-1.60902
79	0x3ef1db01	0.472374
80	0xbf19cdd5	-0.600797
81	0x3ec0a676	0.37627
82	0x3c4dd64d	0.0125633
83	0xbed1d239	-0.409807
84	0xbe1c10d8	-0.152408
85	0x3eed2eb6	0.463247
86	0x3f953c8a	1.16591
87	0x3f950dae	1.16448
88	0x3f7ef8df	0.995985
89	0x3f76c493	0.963937
90	0xbdc215ef	-0.0947684
91	0xc00508ee	-2.07867
92	0x3ff3429a	1.90047
93	0x3ee4069e	0.445363
94	0x3f65796c	0.896384
95	0x3e88ad8a	0.266949
96	0xbef1bbf1	-0.472137
97	0xbe23d534	-0.159993
98	0xbfd72b56	-1.68101
99	0x3ec0def4	0.376701
100	0x3e9dab5c	0.307948
101	0xbefaaf9b	-0.489621
102	0xbe5df091	-0.216738
103	0xbebb8cb9	-0.366308
104	0xc01ee72e	-2.48286
105	0xbe4dd484	-0.201006
106	0xbecb0d30	-0.396585
107	0xc015e3a8	-2.34202
108	0xbece759b	-0.403241
109	0xbff7404f	-1.93165
110	0xbf75d7ba	-0.960323
111	0xbef3a42f	-0.475862
112	0xbfb9bc56	-1.45106
113	0x3e1b649d	0.151751
114	0x3f1f82b2	0.623088
115	0x4011913f	2.27449
116	0xbe819b6f	-0.253139
117	0xbf87df8f	-1.06151
118	0xbfb5613d	-1.41703
119	0x3f8acaac	1.08431
120	0x3e13a10a	0.144169
121	0x3ebd3869	0.369571
122	0x3f333d5c	0.700155
123	0xbfb17343	-1.38633
124	0x3f09b60b	0.537934
125	0xbf1e8e50	-0.619359
126	0x3f96b3bc	1.17736
127	0xbe43e9ea	-0.191322
128	0xbfddd053	-1.73292
129	0x3eb59b80	0.354702
130	0x3ef34ce4	0.475196
131	0x3e3dc3bd	0.185317
132	0x3f3172de	0.693159
133	0xbf3233ce	-0.696103
134	0x3f7033b5	0.938289
135	0xbf0e0264	-0.554724
136	0x3fcb736d	1.58946
137	0xbfdd8c2a	-1.73084
138	0x3fe45b6c	1.78404
139	0x3f6a2a3d	0.914707
140	0xbd90846f	-0.0705651
141	0xc01e91d1	-2.47765
142	0xbe8fe1fc	-0.281021
143	0xbe0ef77f	-0.139616
144	0xbf21a33c	-0.631397
145	0x3ead5433	0.338533
146	0x3fa6b021	1.30225
147	0xbee19fc3	-0.440672
148	0x3bc263a8	0.00593229
149	0xbf86085b	-1.04713
150	0x3cbc3937	0.0229765
151	0x3eae238e	0.340115
152	0xbe8db164	-0.276744
153	0xbca28672	-0.0198395
154	0x4035057d	2.82846
155	0x3f454328	0.770556
156	0xbe93c48f	-0.288609
157	0xbf47a509	-0.779862
158	0xbed8d435	-0.423494
159	0xbf31f81a	-0.695192
160	0x3eda4074	0.426273
161	0xbd89c32d	-0.0672668
162	0xbf4795d5	-0.77963
163	0x3e2169c2	0.15763
164	0x3ecb6dec	0.397323
165	0xbeedf783	-0.464779
166	0x3d4607b7	0.0483472
167	0xbee93f07	-0.455559
168	0x3e35ccc9	0.177539
169	0x3f9855da	1.19012
170	0xbd64cdaa	-0.0558602
171	0xbeb3e39f	-0.351346
172	0xbe219c9d	-0.157824
173	0x3de9dbec	0.114189
174	0x3e6a719b	0.228949
175	0x3ee00f99	0.437619
176	0xbf0f327b	-0.559364
177	0xbfc21d54	-1.51652
178	0x3fd1f3b6	1.64025
179	0xbe9e61d0	-0.30934
180	0xbf562e7f	-0.836647
181	0x3f4901c1	0.785183
182	0x3efbdd98	0.491925
183	0x3f86fa83	1.05452
184	0x3dc3ac5d	0.0955436
185	0xbf57865d	-0.841894
186	0xbe945da7	-0.289777
187	0x4020b4e1	2.51104
188	0x3eb9919b	0.362439
189	0x3d0c2176	0.0342116
190	0xbdefc936	-0.117083
191	0x3eca7d67	0.395488
192	0xbf01b8cc	-0.506726
193	0x3f613f29	0.87987
194	0x3fb70d84	1.4301
195	0x3dbc804e	0.0920416
196	0x3e9c6a5d	0.305499
197	0x3fbaf1aa	1.4605
198	0x3c351aff	0.0110538
199	0xbde72b02	-0.112875
200	0xbec60d45	-0.38682
201	0xbda4edce	-0.0805317
202	0x3da0cfd4	0.0785214
203	0xbe969bbf	-0.294157
204	0xbd01025e	-0.0314964
205	0xbe068fd2	-0.131408
206	0xbe2ea63b	-0.170556
207	0xbff1bf48	-1.88865
208	0x3d93ab28	0.0721038
209	0xbdacb103	-0.084322
210	0xbf9b28b7	-1.21218
211	0x3e0cea6c	0.137613
212	0xbffb33db	-1.96252
213	0x401e2214	2.47083
214	0xc04be300	-3.18573
215	0x3fc9cdb3	1.57659
216	0x3f427621	0.759615
217	0xbf49d8b6	-0.788463
218	0x3fe37c9a	1.77724
219	0xc00f2642	-2.23671
220	0x3ef4cdb8	0.478132
221	0x3ba5c7fb	0.00505924
222	0x3e213f8e	0.157469
223	0xbd936403	-0.0719681
224	0x3f5c3dcd	0.860318
225	0xbc50b814	-0.0127392
226	0x3f258afc	0.646652
227	0xbfdf31e4	-1.74371
228	0xc02a7e28	-2.66395
229	0x3e8dd11c	0.276986
230	0xbec23359	-0.379298
231	0x3e7ee0b1	0.248904
232	0xbea118c2	-0.314642
233	0x400ede55	2.23232
234	0x3d07eb87	0.0331836
235	0x40185072	2.37991
236	0xbf233605	-0.637543
237	0x3f195348	0.598927
238	0x3fcb3483	1.58754
239	0xbf0d758e	-0.552575
240	0x3de21b7e	0.110404
241	0x405195ab	3.27476
242	0xbf33609e	-0.700693
243	0xbfcbc2b9	-1.59188
244	0x3f239171	0.638938
245	0xbf67a01f	-0.904787
246	0x3f4e175d	0.805044
247	0xbfdb2df5	-1.71234
248	0x3f5da976	0.865867
249	0x3ed8815e	0.422862
250	0xbc7a9e97	-0.0152966
251	0xbd352cb8	-0.0442321
252	0xbd39f15e	-0.0453962
253	0x3b4680ad	0.00302891
254	0x3caf569a	0.0214036
255	0xba5bc0e4	-0.000838293

B3 f4 [50]
0	0xc00a0807	-2.15674
1	0xc04e6595	-3.22495
2	0xbf829a2c	-1.02033
3	0x3f733d4b	0.950154
4	0x3dac22b9	0.0840506
5	0xbc98d0b1	-0.0186542
6	0x3e962b8c	0.293301
7	0xbf801798	-1.00072
8	0x3fe5b08a	1.79445
9	0xbf98201d	-1.18848
10	0xbcd66cbe	-0.0261749
11	0x3eed017e	0.462902
12	0x3da941d6	0.0826451
13	0xbeeeca68	-0.466388
14	0xc0129ca2	-2.29081
15	0x3e1e3b47	0.154523
16	0x3f890fa6	1.07079
17	0x3dbfde22	0.0936854
18	0xc0030d30	-2.04768
19	0x3f9a7818	1.20679
20	0xbc9b1e34	-0.0189353
21	0xbf1504c5	-0.582104
22	0xbf4e707e	-0.806404
23	0xc01aded3	-2.41985
24	0xc0918e75	-4.54864
25	0xbf8e1e4f	-1.1103
26	0xbf2c064b	-0.671971
27	0x3f640c31	0.890811
28	0xbf854cec	-1.04141
29	0x40052baa	2.08079
30	0x3f4d5cc8	0.802197
31	0x3e92e276	0.286884
32	0xc00d5ca7	-2.20878
33	0xbf14d2a2	-0.581339
34	0xbf0e4042	-0.555668
35	0x3e587379	0.211378
36	0x3e394749	0.180936
37	0x3f586717	0.845323
38	0xc00997cc	-2.14989
39	0xbdb3646e	-0.0875939
40	0xc04250f0	-3.03619
41	0xc052f862	-3.29641
42	0x3f69de37	0.913547
43	0xbfe55864	-1.79176
44	0xbf78ed81	-0.972374
45	0x3f80447c	1.00209
46	0xbbc72a61	-0.00607805
47	0x40159f56	2.33785
48	0xc023b574	-2.55795
49	0x3eb0ac3b	0.345064

W4 f4 [50, 50]
0	0x3fb72ef1	1.43112
1	0x408a042e	4.31301
2	0xbe9a220c	-0.301041
3	0xbf1af1ed	-0.605254
4	0x3ea3e35c	0.320094
5	0xbd01ee67	-0.0317215
6	0x3fafd6b6	1.37374
7	0xc09b862f	-4.86013
8	0xbf6b8fcd	-0.920163
9	0xbfd2b65b	-1.64619
10	0x3d17de43	0.0370772
11	0x3fa7cce2	1.31094
12	0x40107b35	2.25752
13	0x3e9bad9f	0.304059
14	0x3f617e35	0.880832
15	0x4019ca97	2.40299
16	0x3ca15047	0.0196916
17	0xbf2df6ec	-0.679549
18	0xbf969004	-1.17627
19	0xbfc56b12	-1.54233
20	0x3bf44e86	0.00745565
21	0x40169ec3	2.35344
22	0x3ffa4207	1.95514
23	0xbe8315b5	-0.256025
24	0x3fd00a7c	1.62532
25	0xbf184428	-0.59479
26	0x4040adac	3.0106
27	0x3fd34635	1.65058
28	0x400b8a5d	2.18032
29	0xbf927ab7	-1.14437
30	0xbf0adddf	-0.542448
31	0xbd688708	-0.0567694
32	0xbe7b5569	-0.245443
33	0x406c8de3	3.69616
34	0xbf310796	-0.691522
35	0x3fad8a87	1.35579
36	0x3f82b170	1.02104
37	0x3fdfbbd8	1.74792
38	0x40208145	2.50789
39	0xbf132852	-0.574834
40	0xc0430dae	-3.04771
41	0x3d8abf77	0.067748
42	0xbee6d938	-0.450876
43	0x40a1ceee	5.05651
44	0x3f97abc9	1.18493
45	0x40230a3d	2.5475
46	0x3d189c94	0.0372587
47	0x3cce5746	0.0251881
48	0x401cff43	2.45308
49	0x3ec7ba88	0.390095
50	0x3ec046e9	0.375541
51	0xbf802be9	-1.00134
52	0xbefc8084	-0.493168
53	0xbf08ff86	-0.535149
54	0xbda7d242	-0.081944
55	0xbcc699e3	-0.0242433
56	0xbe30fadf	-0.172832
57	0xc0012989	-2.01816
58	0x3f0600f3	0.523452
59	0xc01d0dae	-2.45396
60	0x3c815fb1	0.0157927
61	0x3eed434a	0.463404
62	0xbfb64e27	-1.42426
63	0xc0c47a3a	-6.13992
64	0xc089176e	-4.28411
65	0x3fc8c49c	1.5685
66	0xbf90a527	-1.13004
67	0xc0783a00	-3.87854
68	0xbfddb329	-1.73203
69	0xbfcb7fe1	-1.58984
70	0xbc9f7ddf	-0.0194692
71	0xbf55efa6	-0.835688
72	0x3f6ff402	0.937317
73	0xbf92f1fe	-1.14801
74	0xc0372e49	-2.8622
75	0xc025cb92	-2.59055
76	0xbfa98549	-1.32438
77	0x3ff1cac1	1.889
78	0xbf0d9fd3	-0.55322
79	0x3ef69f6b	0.481685
80	0x3fb860fe	1.44046
81	0xbdafdbfb	-0.0858688
82	0xbf4ec53b	-0.807697
83	0xc02fb83d	-2.74562
84	0x3f81b3d0	1.0133
85	0xbf9d56c1	-1.22921
86	0xbf92540d	-1.14319
87	0xbfc42310	-1.53232
88	0x3fc9205c	1.5713
89	0xbf3f19d6	-0.746488
90	0xc0a238da	-5.06944
91	0x3e30a56a	0.172506
92	0xbf403f3e	-0.750965
93	0xbeb71f58	-0.357661
94	0xc027d0fa	-2.62213
95	0x3e5b024f	0.213876
96	0x3d2ecdc3	0.0426767
97	0xbdb90fd1	-0.0903622
98	0x3fd76be3	1.68298
99	0xbeee9058	-0.465945
100	0xbf86f449	-1.05433
101	0xbfba1c58	-1.45399
102	0xbe7e1f7d	-0.248167
103	0xbe8da4cf	-0.276648
104	0xbe16494d	-0.146764
105	0x3d0a18bd	0.033715
106	0x3f97fa6e	1.18733
107	0xbed0192a	-0.406442
108	0xbe8bb279	-0.272846
109	0xbecdee9a	-0.402211
110	0xbd341256	-0.0439628
111	0x3ecc66b2	0.399221
112	0x3fa8d1b7	1.3189
113	0x3e5a99fa	0.213478
114	0xbf646727	-0.892199
115	0x3e22d880	0.159029
116	0x3d45d43a	0.0482981
117	0xbf527914	-0.82216
118	0x3f97dd98	1.18645
119	0x3de4f7ec	0.111801
120	0xbca4f517	-0.0201364
121	0x3ff4df26	1.91306
122	0x4004dc5d	2.07595
123	0x3f088f32	0.533435
124	0x3e0aaa3b	0.135415
125	0x3fa0ea9e	1.25716
126	0xbf0db5c8	-0.553555
127	0xbec94f6a	-0.393184
128	0xbfc51cc1	-1.53994
129	0x3f790b85	0.972832
130	0x3e91389b	0.283635
131	0xbe304b7f	-0.172163
132	0x3e4095af	0.188071
133	0x403d205c	2.9551
134	0xbf084ec6	-0.532452
135	0x3db8c95a	0.0902278
136	0x3ee80000	0.453125
137	0x3e8467be	0.258604
138	0xbeba072d	-0.363336
139	0xbee96fca	-0.455931
140	0x3d92744f	0.0715109
141	0x3e860675	0.261768
142	0x3f0d3522	0.551592
143	0x3fe512ec	1.78964
144	0x3e24fc61	0.161119
145	0x3f9ba344	1.21592
146	0xbd2e4898	-0.0425497
147	0xbe464d3c	-0.193654
148	0xbeb749f1	-0.357986
149	0x3e478fac	0.194884
150	0x3d163d8f	0.0366798
151	0xbcec6625	-0.0288573
152	0x3bc4fc49	0.00601152
153	0xbce1d430	-0.027567
154	0xbcbd3eba	-0.0231012
155	0x3ce7f32e	0.0283142
156	0x3c7e32a0	0.015515
157	0xbbd26553	-0.00642077
158	0xbbd3b676	-0.00646096
159	0xbd14f5c6	-0.0363672
160	0xbc7e0696	-0.0155045
161	0xbd05f110	-0.0327006
162	0xbd6ebc76	-0.0582852
163	0xbd326ccf	-0.0435608
164	0xbcf8b264	-0.0303585
165	0xbcc22f85	-0.0237043
166	0xbc1c9c0d	-0.00955869
167	0xbce3f06a	-0.0278246
168	0xbd11494e	-0.0354703
169	0xbc49136f	-0.0122727
170	0x3c30b24f	0.0107847
171	0x3baacb30	0.00521221
172	0x3d2a31cd	0.0415514
173	0x3cb1ee90	0.0217202
174	0x3c99ca41	0.0187732
175	0xbc54c18e	-0.0129856
176	0xbd3ccf5e	-0.0460962
177	0x3ce0b40a	0.0274296
178	0xbd2a85cb	-0.0416315
179	0xbd509e2d	-0.0509321
180	0x3cdb287a	0.0267527
181	0x3ca57280	0.0201962
182	0x3c6dd709	0.0145166
183	0x3d24449e	0.0401045
184	0x3ce5f6d5	0.0280718
185	0xbceff957	-0.0292937
186	0xbd45634c	-0.0481904
187	0x3cdb6f27	0.0267864
188	0xbc0708c8	-0.00824184
189	0xbbdbde22	-0.00670983
190	0x3cc1d8e8	0.023663
191	0x3cb037a1	0.0215109
192	0xbd0f5e27	-0.0350019
193	0x3c0370f9	0.00802254
194	0x3c410300	0.0117805
195	0xbd38e73d	-0.0451424
196	0xbd4dfd69	-0.0502905
197	0xbb73c3dd	-0.00371956
198	0x3d099a63	0.0335945
199	0xbd21b75a	-0.0394815
200	0x3f6a2920	0.91469
201	0x40966502	4.69983
202	0x3cf37d3b	0.0297228
203	0xc0a62de0	-5.1931
204	0xbfd4193b	-1.65702
205	0xbd54f01c	-0.0519868
206	0x403ee4e2	2.98272
207	0xc00db1af	-2.21397
208	0x3fa31af4	1.27426
209	0xc0704578	-3.75424
210	0x3c07b891	0.00828375
211	0x40149d49	2.3221
212	0xc0db71de	-6.85765
213	0xc0980fa6	-4.75191
214	0xbfeb63b2	-1.83898
215	0xbf43495a	-0.762838
216	0xc062c02f	-3.54298
217	0xbd264884	-0.0405965
218	0x3f8e233a	1.11045
219	0xbfda0903	-1.7034
220	0xbd8c10ca	-0.0683914
221	0xbfd945b7	-1.69744
222	0xc0a3cfc0	-5.11911
223	0x405617ec	3.34521
224	0xbf4329c3	-0.762356
225	0xc0d5d57c	-6.68231
226	0xc04f9a17	-3.24378
227	0x3f7f1a5d	0.996496
228	0xc05b0e56	-3.42275
229	0x3fb1a565	1.38786
230	0xbfd32e49	-1.64985
231	0xc0aa18bd	-5.31552
232	0x3fc8aea7	1.56783
233	0xbe01ff71	-0.126951
234	0x3e999e73	0.300037
235	0xc02a771d	-2.66352
236	0x3f13f541	0.577961
237	0x3fe99e30	1.82514
238	0xbfc6cdf2	-1.55316
239	0xc070572a	-3.75532
240	0xbe5ff9b5	-0.218726
241	0xbf82fa2f	-1.02326
242	0xc0239f02	-2.55658
243	0x3f8bdd44	1.09269
244	0xc02812d7	-2.62615
245	0x401a43fe	2.4104
246	0xbd17dc2a	-0.0370752
247	0xbfa30be1	-1.2738
248	0x4022176e	2.53268
249	0x3f27b396	0.655084
250	0x3efe6128	0.496835
251	0xc04d2839	-3.20558
252	0x3e564a17	0.209267
253	0xbdf93f6c	-0.121703
254	0xbda94efe	-0.0826702
255	0xbcd0e48a	-0.0254996

B4 f4 [50]
0	0xbfa5ce07	-1.29535
1	0x4083a7f0	4.11425
2	0x3d1a86e5	0.0377263
3	0xbccec885	-0.0252421
4	0xc046a20a	-3.10364
5	0xbdc4fccc	-0.0961853
6	0x402bb4cc	2.68291
7	0x400bce5b	2.18447
8	0xbf0a5669	-0.540381
9	0xbf4f29d4	-0.809232
10	0x40b17a4e	5.54618
11	0xbfa6dea9	-1.30367
12	0xbe313fd1	-0.173095
13	0xbf9ba051	-1.21583
14	0x3f108238	0.564487
15	0x3defdeb5	0.117124
16	0x3c950a89	0.0181935
17	0xc00818e7	-2.12652
18	0xbfaa7232	-1.33161
19	0x3fa880c7	1.31643
20	0xbf6b557a	-0.919273
21	0xbe5e30cb	-0.216983
22	0x3e884bc2	0.266203
23	0x4047bff0	3.12109
24	0xbf66173c	-0.898792
25	0xbffd7acc	-1.98031
26	0xbfab1412	-1.33655
27	0x3f03d502	0.514969
28	0xbc43d619	-0.0119529
29	0xc0ab5d10	-5.35511
30	0x3fa7d6b6	1.31124
31	0x3d464f1f	0.0484153
32	0x3fff9581	1.99675
33	0x3e1192ea	0.142162
34	0xbd7a41cb	-0.0610979
35	0xc000cb29	-2.0124
36	0x3fe5cf57	1.79539
37	0x3e310060	0.172853
38	0xbed27e74	-0.411121
39	0x3e2d1eda	0.169063
40	0x4019f488	2.40555
41	0xbd8119b3	-0.0630373
42	0x3fd21d00	1.64151
43	0x3fa8b7d4	1.31811
44	0x404bf3b6	3.18675
45	0x400048bf	2.00444
46	0xbf53177a	-0.824577
47	0xbf433acd	-0.762616
48	0xbf800c74	-1.00038
49	0x40198a87	2.39908

W5 f4 [50, 50]
0	0xbf7afd11	-0.980424
1	0xbe6cee9e	-0.231379
2	0xbe0b5808	-0.136078
3	0x3c001d87	0.00781954
4	0x3e227cbf	0.158679
5	0x3f54994a	0.830464
6	0x3e411516	0.188557
7	0xbe3be6e6	-0.183498
8	0x3e6f95d5	0.23397
9	0xbf8f8088	-1.12111
10	0xbdba851c	-0.0910742
11	0xbe47f5e8	-0.195274
12	0xbfb8f95d	-1.44511
13	0xbecdfeda	-0.402335
14	0xbf9fc361	-1.24815
15	0xbf8460fe	-1.03421
16	0x3e8d360d	0.275803
17	0x3e03b4b3	0.128619
18	0xbe79b802	-0.243866
19	0xbd8c4589	-0.068492
20	0xbf87165d	-1.05537
21	0xbf09c6e3	-0.538191
22	0xbf96edbb	-1.17913
23	0xbe6eac43	-0.233079
24	0xbf567781	-0.837761
25	0xbf0189f0	-0.506011
26	0xbf37c340	-0.717823
27	0xc01eea4b	-2.48305
28	0xbd0b8108	-0.0340586
29	0xbe8e5387	-0.277981
30	0xbfaf2e49	-1.3686
31	0xbe4ff195	-0.20307
32	0xbe86c8d6	-0.263251
33	0xbfd4b146	-1.66166
34	0x3d0371f5	0.0320911
35	0x3dfdedf2	0.123989
36	0x3e91930c	0.284325
37	0x3eea2c02	0.457367
38	0x3ed3cab8	0.413656
39	0xbfc1bb06	-1.51352
40	0x3e6c0011	0.230469
41	0xbfd4216c	-1.65727
42	0x3f07a787	0.5299
43	0xbef469d7	-0.47737
44	0xbf9a8fb0	-1.20751
45	0xbd19bf09	-0.0375357
46	0xbdcad6d9	-0.0990426
47	0xbd1a9923	-0.0377437
48	0xbe636b09	-0.222088
49	0xbe7bfe7e	-0.246088
50	0x3e5f7b18	0.218243
51	0x3daafcb3	0.0834898
52	0x3fec2a45	1.84504
53	0x3a9b8b0b	0.0011867
54	0x3bed55c4	0.00724289
55	0xc0d353e3	-6.60399
56	0xbe39ee89	-0.181574
57	0x3cebdaaf	0.0287908
58	0xbe247e4a	-0.160638
59	0xbff5c7ce	-1.92016
60	0xbc5e4093	-0.0135652
61	0xc071d830	-3.77882
62	0xc01413fd	-2.31372
63	0xbf96cb53	-1.17808
64	0xbfa97636	-1.32392
65	0xc07b9c8d	-3.93143
66	0xc0681cac	-3.62675
67	0xbfe64bdc	-1.79919
68	0xbedad880	-0.427433
69	0x3f2d10c3	0.676037
70	0xbfcf7b9e	-1.62096
71	0x3f112578	0.566978
72	0xc0796042	-3.8965
73	0xc09db08a	-4.9278
74	0x3d812d0c	0.0630742
75	0x3d5bfe7e	0.0537095
76	0xbee3d790	-0.445004
77	0xc0ba7cc4	-5.82773
78	0x3cf6e753	0.0301396
79	0xbec6874d	-0.387751
80	0xbe348e04	-0.176323
81	0xbf97f045	-1.18702
82	0xc002e2c1	-2.04509
83	0xbe95b91f	-0.292428
84	0xbf97ca43	-1.18586
85	0x3f4917d7	0.78552
86	0xc0b00f3d	-5.50186
87	0xc0024cad	-2.03593
88	0xc017e7c0	-2.37352
89	0xbeda8d00	-0.426857
90	0xbebf4cb2	-0.373632
91	0x3f22083a	0.632938
92	0x3f863f14	1.0488
93	0xc047cb3e	-3.12178
94	0xc07961bb	-3.89659
95	0xbfc188e3	-1.51199
96	0xc0db9b7c	-6.86273
97	0xbd35e0dd	-0.0444039
98	0xbeb64ef0	-0.356071
99	0xbfd774bc	-1.68325
100	0x3f7e58c5	0.993542
101	0x3fa1f01c	1.26514
102	0xbfeadff8	-1.83496
103	0x3cbc3464	0.0229742
104	0x3eef6577	0.467571
105	0xbff296e6	-1.89523
106	0xc062f007	-3.5459
107	0xc002cd4b	-2.04378
108	0xbd3c70af	-0.0460059
109	0xbc76c340	-0.0150612
110	0xbf9e9ccb	-1.23916
111	0xc038ab60	-2.88546
112	0xbfeedcb1	-1.86611
113	0xbe6ba387	-0.230116
114	0xbf95d053	-1.17042
115	0xc0047747	-2.06978
116	0xc005ebd9	-2.09252
117	0xbf4d1783	-0.80114
118	0xc091ba5e	-4.554
119	0xbf50534c	-0.813771
120	0x3f95e3a8	1.17101
121	0x3f8197a2	1.01244
122	0x3ee367c3	0.444151
123	0xbfcc486b	-1.59596
124	0xc0977510	-4.73304
125	0xc06b6627	-3.67811
126	0xc0653871	-3.58157
127	0xc01dcd60	-2.46566
128	0xbce9c561	-0.0285365
129	0xc045eab3	-3.09245
130	0xbfaecd9f	-1.36565
131	0x4034811b	2.82038
132	0xc0083e96	-2.12882
133	0x3e8f0692	0.279347
134	0x3f311505	0.691727
135	0xbfd62047	-1.67286
136	0x4043f16b	3.06161
137	0xbeba5f63	-0.364009
138	0xbfce2681	-1.61055
139	0xbeb733ec	-0.357818
140	0xc0403ec0	-3.00383
141	0xc039fa6e	-2.90591
142	0xbfcd9503	-1.60611
143	0xc090527e	-4.51007
144	0xbecc5e92	-0.399159
145	0xbda61424	-0.0810931
146	0xbf23e61d	-0.64023
147	0xbf089df1	-0.53366
148	0x3f047cb7	0.517528
149	0xbf3ea865	-0.744757
150	0xbee079a3	-0.438428
151	0x3ee9c348	0.456568
152	0x3f904d01	1.12735
153	0xbd07ed4f	-0.0331853
154	0xbe1ad18d	-0.15119
155	0xbfe588e3	-1.79324
156	0x3e0683c3	0.131362
157	0xbf11bf59	-0.569326
158	0x3fc477ee	1.53491
159	0xbe83ffef	-0.257812
160	0xbe9b70ac	-0.303594
161	0xbf7616e8	-0.961287
162	0x3ea7748a	0.327061
163	0x3cd47065	0.0259325
164	0xbef74b40	-0.482996
165	0x3e27aaef	0.163738
166	0x3ed8cdea	0.423446
167	0xbf2f0037	-0.683597
168	0x3e23ff26	0.160153
169	0xbd95484c	-0.0728918
170	0xba594c15	-0.000828923
171	0x3bd20ed6	0.00641046
172	0x4031e204	2.77942
173	0x3db0bcbe	0.0862975
174	0xbd636eb5	-0.0555255
175	0xbf253448	-0.645329
176	0x3f3ce39b	0.737848
177	0x3f1aab47	0.604176
178	0xbcff63f9	-0.0311756
179	0xbeb8f345	-0.361231
180	0x3f080e9d	0.531473
181	0xbf312c28	-0.69208
182	0x3f699008	0.912354
183	0x3e157796	0.145964
184	0x3f2d9c8d	0.67817
185	0x3df8a223	0.121403
186	0x3f8f14ba	1.11782
187	0x3fadbf9c	1.35741
188	0x3e30403a	0.17212
189	0xc032385c	-2.78469
190	0x3f4cc2a4	0.799845
191	0x3fa9aee6	1.32565
192	0xbf9d64d8	-1.22964
193	0x3efe47dc	0.496642
194	0x3df231c6	0.118259
195	0x3f64c8bd	0.893688
196	0xbf3d5193	-0.739526
197	0xbe59be0a	-0.212639
198	0x3e3aeb3e	0.182538
199	0x3c57858d	0.0131544
200	0xbe117d28	-0.142079
201	0x3e3fc979	0.187292
202	0x3f29ce9e	0.663309
203	0xbb694553	-0.00355943
204	0xbe89c62a	-0.26909
205	0x3d581494	0.052754
206	0xbef338f8	-0.475044
207	0x3f66b52d	0.901202
208	0xbceb80b7	-0.0287479
209	0xbdc4d694	-0.0961124
210	0xbdbb83b4	-0.0915598
211	0x3f1c447c	0.61042
212	0xbeaa5f85	-0.33276
213	0x3ed7210c	0.420174
214	0xbf09bff0	-0.538085
215	0xbe9cbf0a	-0.306145
216	0xbde7f456	-0.113259
217	0x3d644b39	0.0557358
218	0x3f0a5365	0.540335
219	0xbd3b5328	-0.0457336
220	0x3d047b90	0.0323444
221	0xbd983f92	-0.07434
222	0x3f42e2a8	0.761271
223	0x3dbe5d91	0.0929519
224	0xbf692b4e	-0.910817
225	0x3f0d948e	0.553048
226	0xbf06b0d9	-0.526136
227	0x3f3ce853	0.73792
228	0xbc441feb	-0.0119705
229	0xbeba14cf	-0.36344
230	0x3e9a5df2	0.301498
231	0xbeac00fc	-0.335945
232	0x3ed738a4	0.420354
233	0x3f2b1e5c	0.668432
234	0x3e8d92b8	0.27651
235	0x3f2b1f15	0.668443
236	0xbd50162d	-0.0508024
237	0xbec0c6d6	-0.376517
238	0xbe2c91d1	-0.168525
239	0x3e204ab6	0.156535
240	0x3dbf092a	0.0932792
241	0xbfee5d8d	-1.86223
242	0x3fa5c7ce	1.29516
243	0x3edcead1	0.431479
244	0xbef39735	-0.475763
245	0xc0142118	-2.31452
246	0x3facbeb6	1.34957
247	0xbbb4dafe	-0.00551927
248	0x3e91d1b3	0.284803
249	0xbf0a4f55	-0.540273
250	0x3f0a147b	0.539375
251	0xbe0c447c	-0.13698
252	0x3f04a00a	0.518067
253	0x3cbce77c	0.0230596
254	0xbea238fc	-0.316841
255	0x40172696	2.36173

B5 f4 [50]
0	0x4057890d	3.36774
1	0x4022efb3	2.54588
2	0xbd1f9bc2	-0.0389669
3	0xbff51687	-1.91475
4	0xc02d12c2	-2.70427
5	0xc07ff6d3	-3.99944
6	0xbeed5758	-0.463557
7	0x3fc1ff82	1.51561
8	0x3f0611fd	0.523712
9	0x4003c52e	2.05891
10	0xc08800fc	-4.25012
11	0x3f466b40	0.775074
12	0x3f042eba	0.516338
13	0xbd04989b	-0.0323721
14	0xc0433943	-3.05037
15	0xc0bd3ad2	-5.91343
16	0xbd637e1f	-0.0555402
17	0x40fee32a	7.96523
18	0xbe91f7f9	-0.285095
19	0x4091ce85	4.55646
20	0xc045da27	-3.09144
21	0xbc3ce421	-0.011529
22	0x3f6379a7	0.888575
23	0x3fa6a6f4	1.30197
24	0xbfe50dae	-1.78948
25	0xc019df3b	-2.40425
26	0xbd14524d	-0.0362113
27	0xc03c8755	-2.94576
28	0xc0a5680a	-5.16895
29	0xc0914f37	-4.54092
30	0x3f73f24e	0.952916
31	0xbce60fca	-0.0280837
32	0x3f27400c	0.653321
33	0x3fe16d09	1.76114
34	0xbe63532e	-0.221997
35	0x3f91fe87	1.14058
36	0xc06ec986	-3.73105
37	0x3effed42	0.499857
38	0x3f7d2cbf	0.988964
39	0xc060949a	-3.50907
40	0xc07a7992	-3.91367
41	0xc03f6f7e	-2.99118
42	0x409b99d9	4.86253
43	0xc01a0bcc	-2.40697
44	0x3f161a50	0.586339
45	0xbd001712	-0.031272
46	0xc0948327	-4.64101
47	0xc0b5559b	-5.6667
48	0xc01dd7b2	-2.46629
49	0x3fe1ff2e	1.7656
