data/acasxu/nets/ACASXU_run2a_3_1_batch_2000.onnx (onnx, 53878 bytes, 14 tensors)

W0 f4 [50, 5]
0	0xbfc609ab	-1.54717
1	0xbf10345d	-0.563299
2	0xbe3f3062	-0.186708
3	0xbdffadb0	-0.124843
4	0x3df4b48d	0.119485
5	0xbf22f790	-0.63659
6	0x3cae2da5	0.021262
7	0xb96f90a5	-0.000228467
8	0xbf881798	-1.06322
9	0xbf0b414a	-0.543965
10	0x3d1f0274	0.0388207
11	0x3f820cf2	1.01602
12	0x3ce9da59	0.0285465
13	0x3ed08701	0.40728
14	0xbeba5269	-0.36391
15	0x3c605b1f	0.0136936
16	0xbe709353	-0.234937
17	0x3e881d3b	0.265848
18	0xbfc202c9	-1.51571
19	0xbee00e49	-0.437609
20	0xbf5dc4ca	-0.866284
21	0x3f328406	0.697327
22	0x3ca5bf0c	0.0202327
23	0x3d155db0	0.0364663
24	0xbeb9f4b2	-0.363195
25	0xbd505ac1	-0.0508678
26	0x3ea08a05	0.313553
27	0xbf00856e	-0.502036
28	0x3f13ab43	0.576832
29	0xbf79f5cf	-0.976407
30	0xbb56f545	-0.00328
31	0x3ef0d64d	0.470385
32	0xbf2ec205	-0.682648
33	0x3dcb79d9	0.0993535
34	0xbea78594	-0.327191
35	0xbd1d8227	-0.0384542
36	0x3f27f79d	0.656122
37	0xbf2a236c	-0.664603
38	0xbec2ed78	-0.380718
39	0x3fb53e81	1.41597
40	0xbfbac17f	-1.45903
41	0xbd3d4d33	-0.0462162
42	0x3d50dc91	0.0509916
43	0xbe7a005c	-0.244142
44	0x3e087e7c	0.133295
45	0x3e386445	0.18007
46	0x3fad13e8	1.35217
47	0xbba31a61	-0.00497751
48	0xbd72bb3e	-0.0592606
49	0x3e251090	0.161196
50	0x3d3776c5	0.044791
51	0x3dbd2c7c	0.09237
52	0x3f975009	1.18213
53	0x3de582dc	0.112066
54	0x3d85eb4c	0.0653902
55	0xc0097f63	-2.1484
56	0x3d005377	0.0313296
57	0xbc2831e3	-0.0102658
58	0xbd987103	-0.0744343
59	0xbc50f627	-0.012754
60	0x3d5513a8	0.0520207
61	0x3f94bdba	1.16204
62	0x3dd0e454	0.101998
63	0xbdf9bdc7	-0.121944
64	0xbd74d113	-0.0597697
65	0xbd200863	-0.0390705
66	0x3c85da6a	0.0163395
67	0xb97c153a	-0.000240405
68	0xbf9c61fa	-1.22174
69	0x3f4315f9	0.762054
70	0xbe0c8d5c	-0.137258
71	0xbaaf93d7	-0.00133955
72	0x39aa47c5	0.000324784
73	0xbccd2e51	-0.0250465
74	0xbc5d76d4	-0.0135171
75	0xc00720b0	-2.11137
76	0x3d361f5c	0.0444635
77	0xbc168c49	-0.00918872
78	0x3b96d417	0.00460292
79	0x3dbc2e34	0.091885
80	0xbe9519bd	-0.291212
81	0xbf6f90fb	-0.935806
82	0x3fa0fca4	1.25771
83	0x3e07763e	0.132287
84	0xbf064aae	-0.524577
85	0xbbd1d103	-0.00640309
86	0x3b6d31f2	0.00361931
87	0xbb10742c	-0.00220419
88	0x3a707ada	0.000917358
89	0x3cb186f6	0.0216708
90	0x3f761651	0.961278
91	0xbdf68273	-0.120366
92	0x3d1fa278	0.0389733
93	0x3c056a8e	0.00814308
94	0xbfd96777	-1.69847
95	0xbff3e3d2	-1.90539
96	0x3e1cba73	0.153055
97	0xbd8e0aa0	-0.0693562
98	0xbb2646d1	-0.00253718
99	0xbc3ef508	-0.0116551
100	0xbe0ac9f3	-0.135536
101	0x3b201660	0.00244274
102	0xba068105	-0.000513092
103	0xbd1aee13	-0.0378247
104	0xbc82f5e9	-0.0159864
105	0xbed0fbec	-0.408172
106	0x3db291ee	0.0871924
107	0xbc8fc647	-0.0175506
108	0x3dd2178f	0.102584
109	0x3ec7a8b5	0.389959
110	0xbd252d4c	-0.0403264
111	0xbc2b7f75	-0.0104674
112	0xbf3b2ce9	-0.731154
113	0xbf486951	-0.782857
114	0x3f165a79	0.587318
115	0xbf4fda30	-0.811923
116	0xbd0542e5	-0.0325345
117	0x3f1212c7	0.570599
118	0xbd64fed8	-0.0559071
119	0x3e56d224	0.209786
120	0xbcdd5c31	-0.0270215
121	0x3dd73648	0.105084
122	0x3c5ce1ee	0.0134816
123	0xbf0cab3f	-0.549488
124	0x3f77707a	0.96656
125	0xbf50625f	-0.814001
126	0x3ea28ef7	0.317497
127	0xbdbce259	-0.0922286
128	0x3e2f633d	0.171277
129	0x3d06272c	0.0327522
130	0xbdabda1b	-0.0839121
131	0x3f80ded3	1.0068
132	0x3e1544bb	0.14577
133	0xbe11697f	-0.142004
134	0xbe4e392e	-0.20139
135	0x3d6b239a	0.057407
136	0x3f25f794	0.648309
137	0x3eb4a277	0.352802
138	0x3ecd8623	0.401414
139	0xbe0913a5	-0.133864
140	0xbc685c75	-0.0141822
141	0x3eb192ea	0.346824
142	0xbf00a2db	-0.502485
143	0xbe6e392e	-0.23264
144	0xbfda14cf	-1.70376
145	0x3dcdd591	0.100505
146	0x3e9d5e4a	0.30736
147	0x3f9ae536	1.21012
148	0x3e4aba7c	0.197977
149	0x3ca07e5a	0.0195915
150	0xbc4f9061	-0.0126687
151	0xbe688616	-0.227074
152	0x3f77fda4	0.968714
153	0xbebfc4a0	-0.374547
154	0x3ea3d4f1	0.319984
155	0xbfe91e64	-1.82124
156	0x3ca895b6	0.0205792
157	0xbb491507	-0.00306827
158	0x3c2c6cdb	0.010524
159	0xbd136700	-0.0359869
160	0x3d878b44	0.0661836
161	0x3fdd84f5	1.73062
162	0xbfe07304	-1.75351
163	0xbb800305	-0.00390661
164	0x3eaf40c4	0.342291
165	0xc00855b0	-2.13023
166	0xbd4fd8d6	-0.0507439
167	0x3ba6dfd3	0.0050926
168	0x3de16617	0.110058
169	0xbd804260	-0.0626266
170	0x3cc86925	0.0244642
171	0x3e06ae7d	0.131525
172	0xbdc4e011	-0.0961305
173	0xbfd68049	-1.67579
174	0xbf134eec	-0.575423
175	0xbf8ff099	-1.12453
176	0x3dec942d	0.115517
177	0xbe071b8b	-0.131941
178	0xbdf265ae	-0.118358
179	0x3d56d9cc	0.0524538
180	0xb9e310a0	-0.000433092
181	0xbe7b12d3	-0.245189
182	0x3ed5c9e6	0.417556
183	0x3cab58a9	0.0209163
184	0xbff31de7	-1.89935
185	0x3e90181e	0.281434
186	0xbfa51cc1	-1.28994
187	0x3f21b7f1	0.631713
188	0xbe8d5c31	-0.276094
189	0x3daad264	0.0834091
190	0xbd89f150	-0.0673548
191	0x3fab5350	1.33848
192	0x3de7afa7	0.113128
193	0xbe8b738e	-0.272366
194	0x3e245804	0.160492
195	0xbf917247	-1.1363
196	0x3ea2cade	0.317954
197	0xbf5f6fd2	-0.8728
198	0x3cd0eb0a	0.0255027
199	0x3d90ada5	0.0706437
200	0xbacdc36d	-0.00156985
201	0xbca7d7b5	-0.0204886
202	0xbb2b51d3	-0.00261413
203	0xbaedf008	-0.00181532
204	0xbb94e81a	-0.00454427
205	0xbf7d1117	-0.988542
206	0x3c004b8a	0.00783051
207	0xbc3595e4	-0.0110831
208	0xbf520aa6	-0.820475
209	0xbdd02d5a	-0.101649
210	0xbd00832d	-0.0313751
211	0xbe1a5f85	-0.150755
212	0xbd22258f	-0.0395866
213	0xbf63c936	-0.889789
214	0xbfd78da4	-1.68401
215	0x3a1b25b6	0.00059184
216	0xbf231f25	-0.637194
217	0xbfa949a5	-1.32256
218	0x3e925615	0.285813
219	0xbe337b4a	-0.175275
220	0x3d5f42f1	0.0545072
221	0x3f3e25a7	0.742762
222	0x3edba57f	0.428997
223	0xbea09742	-0.313654
224	0x3deeff5c	0.116698
225	0xbcd87a15	-0.0264254
226	0x3c28ad9e	0.0102953
227	0x3c258489	0.0101024
228	0xbf920807	-1.14087
229	0x3f2b3cd5	0.668897
230	0x3ca8558a	0.0205486
231	0x3ab1b5c5	0.00135582
232	0xbf3d8a55	-0.740392
233	0xbf041776	-0.515983
234	0x3e7784a9	0.241717
235	0xbcb17c7a	-0.0216658
236	0x3c19c975	0.00938641
237	0x3bd22ee1	0.00641428
238	0xbf0816ad	-0.531596
239	0xbf0f29e5	-0.559233
240	0xb8eef871	-0.00011395
241	0xbbb95968	-0.00565641
242	0x3b9de1a8	0.00481816
243	0xbfd6d091	-1.67824
244	0xbf04c511	-0.518632
245	0xbf3ae5de	-0.73007
246	0x3ef383cf	0.475615
247	0x3e348c2e	0.176316
248	0x3d1b7ab0	0.0379588
249	0x38828b08	6.22478e-05

B0 f4 [50]
0	0xbf22556d	-0.634116
1	0xbf5ce443	-0.862858
2	0x3cd7fb34	0.0263649
3	0xbf4724ea	-0.777907
4	0xbe309247	-0.172433
5	0x3dadea7c	0.0849199
6	0x3e59b281	0.212595
7	0xbd8a2e9a	-0.0674717
8	0xbec0db27	-0.376672
9	0x3e50a02c	0.203736
10	0x3e014403	0.126236
11	0xbf0e57fb	-0.55603
12	0xbeeafdb9	-0.458967
13	0xbe9cf0b7	-0.306524
14	0xbd8827d2	-0.0664822
15	0xbf09b79e	-0.537958
16	0x3eb1f384	0.347561
17	0xbcb9907a	-0.0226519
18	0xbec67caf	-0.38767
19	0xbf10e5f7	-0.566009
20	0xbd940548	-0.0722757
21	0x3e4615ec	0.193443
22	0x3e240464	0.160173
23	0xbdef416c	-0.116824
24	0x3dae0fa8	0.0849908
25	0xbc908d81	-0.0176456
26	0xbe492924	-0.196446
27	0x3e4645a2	0.193625
28	0xbf2dcfcc	-0.678952
29	0xbd3b0c7b	-0.0456662
30	0x3e3052d6	0.172191
31	0xbebadc2b	-0.364961
32	0xbeb311e8	-0.349746
33	0xbf115f67	-0.567862
34	0xbf453565	-0.770346
35	0xbdd858bc	-0.105638
36	0xbf53ab86	-0.826836
37	0x3f0b4bc7	0.544125
38	0x3f0d5433	0.552066
39	0xbe8ef6f9	-0.279228
40	0xbcc7f928	-0.0244108
41	0xbf264042	-0.649418
42	0xbf2cfa8b	-0.675698
43	0xbd5b03ac	-0.0534703
44	0x3d343618	0.0439969
45	0xbdcefdca	-0.10107
46	0x3dd254e7	0.102701
47	0x3ec5349c	0.385167
48	0xbf249763	-0.642935
49	0xbcbdf48d	-0.0231879

W1 f4 [50, 50]
0	0x3fe3a733	1.77854
1	0x401acf96	2.41892
2	0x3f04c9fb	0.518707
3	0xbe2e00d2	-0.169925
4	0xbc641e22	-0.0139232
5	0xbe27c350	-0.163831
6	0x3f311202	0.691681
7	0x3ed2517e	0.410778
8	0x3dbb4734	0.0914444
9	0xba39a336	-0.000708151
10	0x3de8cdea	0.113674
11	0xbedc2efd	-0.430046
12	0x3e0d8cb0	0.138232
13	0xbe06277c	-0.13101
14	0x3e187486	0.148882
15	0x3cc01d27	0.0234514
16	0x3f02ada3	0.510462
17	0xbc991794	-0.018688
18	0x3e0aa4fd	0.135395
19	0x3f04d5fa	0.51889
20	0x3dfa6480	0.122262
21	0x3d36a162	0.0445875
22	0x3eac4007	0.336426
23	0x3eef368b	0.467213
24	0xbed83793	-0.422299
25	0xbdfd0a67	-0.123555
26	0x3fd6cbfb	1.6781
27	0xbf8710cb	-1.0552
28	0xbf7e3b8a	-0.993096
29	0xbf31b90f	-0.69423
30	0x3f68e91d	0.909807
31	0x3e6f2cb6	0.233569
32	0xbeb9cf9a	-0.362912
33	0xbe5a1c69	-0.212999
34	0xbe94766c	-0.289966
35	0xbcbaac39	-0.0227872
36	0xbfe3544c	-1.77601
37	0x3eb65493	0.356114
38	0x3f2ccdea	0.675017
39	0xbf27c686	-0.655373
40	0xbb9b479a	-0.00473876
41	0x3e98c198	0.298352
42	0xbe9196b7	-0.284353
43	0xbf143d25	-0.579058
44	0xbf0124e1	-0.504469
45	0xbf1c63f1	-0.6109
46	0xbf5a3704	-0.852402
47	0xbf4d98d0	-0.803113
48	0x3ec8f430	0.392488
49	0xbe4916ca	-0.196376
50	0xbe7f3908	-0.249241
51	0xbdcad8f2	-0.0990466
52	0xbe484d77	-0.195608
53	0xbfdbba88	-1.71663
54	0xbd7e5d33	-0.0621006
55	0xbe8ad96a	-0.27119
56	0x3f49a08c	0.787606
57	0x3e77ad08	0.241871
58	0x3f5b49ae	0.856593
59	0x3dd8d4fe	0.105875
60	0xbfc6f34d	-1.5543
61	0xbf166741	-0.587513
62	0x3f3561f6	0.708526
63	0xbd963561	-0.073344
64	0x3e392ab7	0.180827
65	0x3eda8651	0.426806
66	0xbe486cec	-0.195728
67	0x3d3fa4e1	0.0467881
68	0xbd8cf90d	-0.0688344
69	0xbed6c15d	-0.419444
70	0x3e25332b	0.161328
71	0x3eb614e0	0.355628
72	0x3e1ce9a3	0.153235
73	0xbde59a74	-0.112111
74	0xbea6ce36	-0.325792
75	0x3ece1826	0.402528
76	0x3e5486f0	0.207546
77	0xbe6c3e75	-0.230707
78	0xbf11512f	-0.567645
79	0xbf9743e9	-1.18176
80	0xbf3418f8	-0.703506
81	0xbec1611c	-0.377694
82	0x3eb3a94c	0.350901
83	0x3f2828b3	0.656871
84	0xbf3ad352	-0.729787
85	0x3cb66949	0.022267
86	0x3ef9c326	0.487817
87	0xbf80c34c	-1.00596
88	0xbbab8e39	-0.00523546
89	0xbdf1c53f	-0.118052
90	0x3ca0fb8e	0.0196512
91	0x3f48ac19	0.783876
92	0xbf200faa	-0.625239
93	0xbd8d552b	-0.0690101
94	0x3dddfd26	0.108393
95	0x3db153a2	0.0865853
96	0x3e81bfbe	0.253416
97	0x3de69835	0.112595
98	0x3fbf8da4	1.49651
99	0xbea8f96e	-0.330028
100	0xbe1f61aa	-0.155646
101	0x3fce2824	1.6106
102	0xbec21965	-0.3791
103	0x3e9c5ef6	0.305412
104	0x3f29f03d	0.663822
105	0x3cf690b6	0.0300983
106	0x3eb25b53	0.348353
107	0xbd863a77	-0.0655412
108	0x3f49ccea	0.788283
109	0x3f693198	0.910913
110	0x3efe290f	0.496407
111	0x3f98f1d4	1.19488
112	0xbf033eab	-0.512675
113	0xc0bff948	-5.99918
114	0x3e4ca70d	0.199856
115	0x3f283c8e	0.657174
116	0x3e744d87	0.238577
117	0x3c745bf2	0.0149145
118	0x3eaed4a2	0.341466
119	0xc021fce3	-2.53106
120	0x3e7f7c67	0.249498
121	0xbf3c64fe	-0.735916
122	0xbe60e736	-0.219632
123	0xbd9b7fe1	-0.0759275
124	0xc01c00fc	-2.43756
125	0xbee08638	-0.438524
126	0xbecc2614	-0.398728
127	0xbf709f95	-0.939935
128	0x3f817732	1.01145
129	0xbd199f94	-0.0375057
130	0xbeda7b0b	-0.42672
131	0x3f1ccfe1	0.612547
132	0xbf129f8c	-0.572747
133	0x3fbe732e	1.48789
134	0x3f11ec5f	0.570013
135	0x3e9e238e	0.308865
136	0x3fbd8d7a	1.48088
137	0xbe69da59	-0.228372
138	0x3e31cc10	0.17363
139	0x3ef2ec29	0.474458
140	0xbd2b7fc6	-0.0418699
141	0x3f9cd6a1	1.2253
142	0x3f1b4539	0.606525
143	0x3cc97ecf	0.0245966
144	0x3bec4436	0.00721028
145	0xbf5e002a	-0.86719
146	0xbee25094	-0.442021
147	0xbeb0ed81	-0.345562
148	0x3d22339c	0.0396
149	0xbe093682	-0.133997
150	0x3ea38024	0.319337
151	0xbf3fe62e	-0.749606
152	0x3e271045	0.163148
153	0x3ea58a98	0.323323
154	0xbec5f2cb	-0.386618
155	0xbef7f5c7	-0.484297
156	0x3ef44999	0.477124
157	0x3b5df53e	0.00338681
158	0x3ed49386	0.415188
159	0x3f249891	0.642953
160	0xbf91bc56	-1.13856
161	0xbe002539	-0.125142
162	0xc00a4da9	-2.16099
163	0xc02bd0a6	-2.68461
164	0x3e1ac322	0.151135
165	0xbee24639	-0.441942
166	0xbead058e	-0.337933
167	0xbba092dd	-0.00490032
168	0xbde59210	-0.112095
169	0xbf09b08a	-0.53785
170	0x3e2f94c8	0.171466
171	0x3f540054	0.82813
172	0x3e49af5c	0.196958
173	0x3eab8d61	0.335063
174	0xbeb0750c	-0.344643
175	0x3e21a7a0	0.157866
176	0xbe5f6662	-0.218164
177	0xbc98d0b1	-0.0186542
178	0x3e51da7b	0.204935
179	0xbfa51c19	-1.28992
180	0xbe91185d	-0.283389
181	0x3ec6687f	0.387516
182	0xbc342e70	-0.0109974
183	0xbd6877b9	-0.0567548
184	0xbe2c1fc9	-0.16809
185	0x3dd11948	0.102099
186	0x3e1dc726	0.15408
187	0xbe0699c8	-0.131446
188	0xbdd443d4	-0.103645
189	0xbe893f29	-0.26806
190	0x3cdd289a	0.0269969
191	0x3ea1d606	0.316086
192	0xbf2075a3	-0.626795
193	0xbea522ea	-0.322532
194	0xbe8d2b4e	-0.275721
195	0xbeaf2171	-0.342052
196	0x3e4b1e5c	0.198358
197	0xbd7ce564	-0.0617422
198	0x3f128c9c	0.572458
199	0xbe578e9f	-0.210505
200	0xbd32bcd1	-0.0436371
201	0xbb678a93	-0.00353304
202	0xbd33b62b	-0.0438749
203	0xbd450954	-0.0481046
204	0xbd0e1a24	-0.0346929
205	0x3cf15909	0.0294614
206	0xbd06941e	-0.0328561
207	0x3b96a22e	0.00459697
208	0xbbae8188	-0.0053255
209	0xbc1a1dc3	-0.00940651
210	0x3bd8641a	0.00660373
211	0x3c1edb2d	0.00969581
212	0x3c50bfa1	0.012741
213	0xbd20262b	-0.0390989
214	0xbb2024f9	-0.00244361
215	0xbb7a3236	-0.00381769
216	0xbc0fade8	-0.00876949
217	0xbca3c3bf	-0.0199908
218	0xbc794134	-0.0152133
219	0xbcc82b48	-0.0244347
220	0x39915bbb	0.000277249
221	0xbd3be7bd	-0.0458753
222	0x3c9040f6	0.0176091
223	0x3ac497f5	0.00149989
224	0xbcc30a0b	-0.0238085
225	0xbc9d575f	-0.0192067
226	0xbabed99a	-0.00145607
227	0xbd0b0de6	-0.0339488
228	0xbbc2add0	-0.00594113
229	0x3c34677b	0.011011
230	0x3d386d65	0.0450262
231	0xbd4a7321	-0.0494262
232	0x3ca232c5	0.0197996
233	0x3b9774d1	0.00462208
234	0x3d19c22e	0.0375387
235	0x3b4b7bbf	0.00310491
236	0xbd26b5fd	-0.0407009
237	0xbd0c95c0	-0.0343225
238	0xbd19ebb4	-0.0375783
239	0x3ca4ceb7	0.0201181
240	0x3ac2455f	0.00148217
241	0xbd393a2e	-0.0452215
242	0x3c496edf	0.0122945
243	0x3d2e1918	0.0425044
244	0x3a21b1c1	0.000616815
245	0xbd1407a4	-0.0361401
246	0xbce80b4c	-0.0283257
247	0xbd434c86	-0.0476804
248	0x3c58b9d5	0.0132279
249	0x3c4de63d	0.0125671
250	0xc0976ead	-4.73226
251	0xbea798b7	-0.327337
252	0xbec25a04	-0.379593
253	0xbf9a5700	-1.20578
254	0x3d96a104	0.0735493
255	0x3e3d8cf4	0.185108

B1 f4 [50]
0	0xbed7abda	-0.421233
1	0x3e12db1f	0.143414
2	0xbf7f418d	-0.997094
3	0x3ec11ec9	0.377188
4	0xbc29b571	-0.0103582
5	0xbf382785	-0.719353
6	0xbeab2874	-0.334293
7	0xbf45ee13	-0.773164
8	0xbb752c3c	-0.00374104
9	0xbd719f14	-0.0589896
10	0xbeb37e2c	-0.350572
11	0xbf696862	-0.911749
12	0xbf13e122	-0.577654
13	0xbf8770ce	-1.05813
14	0x3e8ea833	0.278627
15	0xbc18d295	-0.00932755
16	0xbc4a5bd9	-0.012351
17	0xbecefc37	-0.404268
18	0xbf3f398f	-0.746972
19	0xbda9f135	-0.0829796
20	0xbf9562e1	-1.16708
21	0xbf049060	-0.517828
22	0x3f2e47cb	0.680783
23	0xbe550ebb	-0.208064
24	0xbf4cd1e9	-0.800078
25	0x3867f4b7	5.53026e-05
26	0xbe48b978	-0.19602
27	0x3f19c369	0.600638
28	0x3e943ce2	0.289527
29	0x3ef654d6	0.481116
30	0x3cea80a7	0.0286258
31	0x3e82d9f1	0.255569
32	0xbbcaf013	-0.00619317
33	0xbf3df362	-0.741995
34	0xbe13a2e0	-0.144176
35	0xbf0e8901	-0.556778
36	0xbe8425af	-0.2581
37	0xbe90d951	-0.282908
38	0xbef72cf9	-0.482765
39	0xbb94fec0	-0.00454697
40	0x3e9ac12b	0.302255
41	0xbf28345d	-0.657049
42	0xbf132c1f	-0.574892
43	0x3fa103da	1.25793
44	0x3e63582a	0.222016
45	0x3facca82	1.34993
46	0xbed8dcfd	-0.423561
47	0xbedb137b	-0.427883
48	0x3e9c141f	0.304841
49	0xbde0e8c9	-0.109819

W2 f4 [50, 50]
0	0x3ef04902	0.469307
1	0xbf42bcf9	-0.760696
2	0xc0e49b91	-7.14399
3	0xbf1c9342	-0.611622
4	0x3bfac848	0.00765327
5	0x3f21a73b	0.631458
6	0x3f4547e0	0.770628
7	0xbeb8a06f	-0.360599
8	0x3ccbad48	0.0248629
9	0xbf04c88a	-0.518685
10	0x3efa2df9	0.488632
11	0x3d0d7915	0.0345393
12	0x40373fd1	2.86327
13	0xbfb892cd	-1.44198
14	0x3dd719f8	0.10503
15	0x3d1f1214	0.0388356
16	0x3cc74bef	0.0243282
17	0x3deabde4	0.11462
18	0xbf845f07	-1.03415
19	0x3fbb7c46	1.46473
20	0x3edfa54c	0.436808
21	0x3d7eb979	0.0621886
22	0x3e3e6751	0.185941
23	0xbfd868dc	-1.6907
24	0xbf10e593	-0.566003
25	0x3e8e9100	0.27845
26	0xbf7b7f9d	-0.982416
27	0x3e21d430	0.158036
28	0xbfc8193b	-1.56327
29	0xbebaf33d	-0.365137
30	0xbe4157ef	-0.188812
31	0x3e687e39	0.227044
32	0x3c4daa42	0.0125528
33	0x3f84fe9b	1.03902
34	0xbfee4b88	-1.86168
35	0xbea3760c	-0.31926
36	0xbf4fdd44	-0.81197
37	0xbf278994	-0.654443
38	0x3f5a2329	0.852099
39	0x3d2332ba	0.0398433
40	0xbe3dd6e0	-0.18539
41	0x3daf6f24	0.0856612
42	0xbfa460fe	-1.28421
43	0x3e79a88b	0.243807
44	0xc084e4a4	-4.15291
45	0xbf6dd8d8	-0.92909
46	0xc08d21d5	-4.41038
47	0x3d687b7f	0.0567584
48	0x3e776c05	0.241623
49	0xbf6c801f	-0.92383
50	0xbed22468	-0.410434
51	0xbecfb5f2	-0.405685
52	0xc0493040	-3.14357
53	0x3f85f0c3	1.04641
54	0xbb587750	-0.00330301
55	0xbdf25bb8	-0.118339
56	0x3ea91772	0.330257
57	0xbf1ee47e	-0.620674
58	0x3b44c948	0.00300272
59	0xbf66f9ca	-0.902249
60	0xbcc77a12	-0.0243502
61	0xbf9b6406	-1.21399
62	0xc08a3626	-4.31911
63	0xbe4cb3a2	-0.199904
64	0x3f232db2	0.637416
65	0x3d17dc60	0.0370754
66	0xbd416fd7	-0.0472258
67	0x3e9a2121	0.301034
68	0xbf4976ab	-0.786967
69	0xbfaa0b4e	-1.32847
70	0x3f57e4de	0.843336
71	0xbea356b8	-0.319021
72	0xbbf5dab8	-0.00750288
73	0x3f413ad6	0.754804
74	0xbdffa97e	-0.124835
75	0x3c187827	0.00930599
76	0x3eb7878b	0.358456
77	0x3f352aa6	0.707682
78	0xbf763c00	-0.961853
79	0xbfcdf1bf	-1.60894
80	0x3e296a6a	0.165445
81	0x3f1162d0	0.567914
82	0x3d097cb6	0.0335662
83	0xbc32c768	-0.0109118
84	0x3f0302b4	0.51176
85	0xc05fffd6	-3.49999
86	0xbd62d9cf	-0.0553835
87	0x3fbd5bab	1.47936
88	0x3f23d4bf	0.639965
89	0x3d015890	0.0315786
90	0x3f13d4ae	0.577464
91	0x3e3c6ac2	0.184001
92	0x3f7b1898	0.980844
93	0xbe91bcba	-0.284643
94	0x40305c14	2.75562
95	0xbfdbe0df	-1.7178
96	0xc007930c	-2.11835
97	0x3ed441ff	0.414566
98	0x3fd13997	1.63457
99	0x3cd40d33	0.0258852
100	0xbef2c9d1	-0.474196
101	0x3da03ae1	0.0782373
102	0x3fc95df6	1.57318
103	0xbd00a55c	-0.0314077
104	0x3d126ff5	0.0357513
105	0xbdfcac8e	-0.123376
106	0x3dee5a36	0.116383
107	0xbe809763	-0.251155
108	0x3cd78dbb	0.0263127
109	0x3ebf774b	0.373957
110	0x3e00999e	0.125586
111	0xbf1c1b22	-0.609789
112	0x3dc9552e	0.098307
113	0xbe8dc3bd	-0.276884
114	0xbee9aaa4	-0.45638
115	0x3c8d5c74	0.017256
116	0x3ab59aac	0.00138553
117	0x3cc795f6	0.0243635
118	0x3d9fa21a	0.0779459
119	0xbd6195e7	-0.0550746
120	0xbef997e5	-0.487487
121	0x3e9ac109	0.302254
122	0x3d8b4d63	0.0680187
123	0xbe19de48	-0.150262
124	0xbf01cf14	-0.507066
125	0x3f8beb07	1.09311
126	0xbe947a3a	-0.289995
127	0xbed97e56	-0.424792
128	0x3e4620ef	0.193485
129	0x3e9eefc3	0.310423
130	0xbe040853	-0.128938
131	0xbdb93591	-0.0904342
132	0xbbb44618	-0.00550152
133	0xbe267664	-0.162561
134	0x3bde0a77	0.00677615
135	0x3ecf3e03	0.40477
136	0xbe5760bf	-0.21033
137	0x3fa39a17	1.27814
138	0x3e67dd44	0.22643
139	0xbccc5da7	-0.024947
140	0xbdc62223	-0.0967448
141	0x3e08e150	0.133672
142	0xbce1e090	-0.0275729
143	0xbd877476	-0.0661401
144	0x3d49e35e	0.0492891
145	0x3e8ded07	0.277199
146	0xbea232f4	-0.316795
147	0x3e2829d0	0.164222
148	0xbe589d28	-0.211537
149	0xbe6e058a	-0.232443
150	0xbeab0d52	-0.334086
151	0xbfba66ba	-1.45626
152	0xbf3102cd	-0.691449
153	0xbe261566	-0.162191
154	0x3d254e1e	0.0403577
155	0xbf71eaab	-0.944987
156	0x3e4d0247	0.200204
157	0xbf5cd014	-0.86255
158	0x3c12659e	0.00893536
159	0x3f9cb146	1.22416
160	0xbebf401c	-0.373536
161	0xbf1605ff	-0.586029
162	0x3e914d0e	0.283791
163	0xc0136556	-2.30306
164	0x3ed289fc	0.411209
165	0x3d2db8bb	0.0424125
166	0xbc9d627c	-0.019212
167	0xbdceff5c	-0.101073
168	0xc0a7753a	-5.23306
169	0xbed3e2f8	-0.413841
170	0xbf97fe09	-1.18744
171	0x3f9bb646	1.2165
172	0xbf0eeb70	-0.55828
173	0xbfb99c39	-1.45008
174	0x3f0fe4de	0.562086
175	0xbd39940b	-0.0453072
176	0xbf9b8ef3	-1.2153
177	0x3eac903f	0.337038
178	0xbec8b6fa	-0.392021
179	0x3f0542b3	0.520549
180	0x3e933ede	0.287589
181	0xbd283ee3	-0.0410756
182	0xbc65f30e	-0.014035
183	0xbeebfd2f	-0.460916
184	0x3e2fd47c	0.171709
185	0xbe23f67f	-0.16012
186	0xbe7cd142	-0.246892
187	0x3e9083dc	0.282256
188	0xbeb6e58a	-0.35722
189	0xbc30516c	-0.0107616
190	0xbf7d9eb6	-0.990703
191	0x3fb7f6d3	1.43722
192	0xbe756b87	-0.239668
193	0x3f133051	0.574956
194	0xbf8d64d8	-1.10464
195	0x3e926bd7	0.285979
196	0xbee4f3ba	-0.447172
197	0xbd3c5e1f	-0.0459882
198	0xbf327ce1	-0.697218
199	0xbf4012f1	-0.750289
200	0xbefb86b1	-0.491262
201	0xbfa686d7	-1.30099
202	0xbced959a	-0.029002
203	0x3ed49cd4	0.415259
204	0x3cda33be	0.026636
205	0xbd53118a	-0.0515304
206	0x3c63878f	0.0138873
207	0x3f4d0df1	0.800994
208	0xbd204e39	-0.0391371
209	0xbeacf228	-0.337785
210	0xbf035686	-0.513039
211	0x3e0a682b	0.135163
212	0x3efbd1ee	0.491836
213	0x3f5d1117	0.863542
214	0x3fb264c3	1.3937
215	0xbca85f2f	-0.0205532
216	0x3d021a3c	0.0317633
217	0xbe5ed4a2	-0.217608
218	0xbf651dbd	-0.894985
219	0x3f51805e	0.818365
220	0xbfaa9d1f	-1.33292
221	0xbf1619fc	-0.586334
222	0x3eeac6ef	0.458549
223	0xbf8d1687	-1.10225
224	0xc03eb075	-2.97952
225	0xbe5a7c5b	-0.213365
226	0x3d60c2ee	0.0548734
227	0x3ec4fb76	0.384731
228	0x3fc0912a	1.50443
229	0x3f255a9f	0.645914
230	0xbf6a8d22	-0.916216
231	0x3f013975	0.504783
232	0x3d432f45	0.0476525
233	0x3ef74a12	0.482987
234	0xbf63f7cf	-0.8905
235	0xbef0fda0	-0.470685
236	0xbf105522	-0.563799
237	0x3ef22596	0.472943
238	0x3efb8434	0.491243
239	0x3cfe0b69	0.0310113
240	0xbe9c4391	-0.305203
241	0x3f518762	0.818472
242	0xbf5580b2	-0.833995
243	0xbe36da45	-0.178567
244	0x3d9d3911	0.076769
245	0x3f34ba62	0.705969
246	0x3f3ab8c7	0.729382
247	0xbf2b3dd1	-0.668912
248	0xbe6e79ab	-0.232886
249	0xbfad3a93	-1.35335
250	0x3e8d7386	0.276272
251	0xbf8bb9e0	-1.09161
252	0x3cbcb740	0.0230366
253	0xbf8f2cf9	-1.11856
254	0xbcbc7ea1	-0.0230096
255	0x3efa274a	0.488581

B2 f4 [50]
0	0x3f871de7	1.0556
1	0xbfba6666	-1.45625
2	0x3eb5898b	0.354565
3	0xbebed0f6	-0.372688
4	0x3ff8cd21	1.94376
5	0x3ef8750c	0.485268
6	0xbcf7f067	-0.030266
7	0x3e18a8b1	0.149081
8	0xbfd46983	-1.65947
9	0x3f9813a9	1.1881
10	0xbfa55bab	-1.29186
11	0xbe870e6f	-0.263782
12	0xbf3cb125	-0.737078
13	0xbf59edd0	-0.851285
14	0x3ded90e2	0.115999
15	0xbd7f790c	-0.0623713
16	0xbd04db31	-0.0324356
17	0x3e89d0ea	0.269172
18	0xbe131ad2	-0.143657
19	0x3e4b1855	0.198335
20	0xbfdfeea2	-1.74947
21	0xbe851761	-0.259944
22	0xbf2a9175	-0.666282
23	0x3e2bbf51	0.167722
24	0xbeccf4c7	-0.400305
25	0xbf16224f	-0.586461
26	0xbc4b196e	-0.0123962
27	0xbe8e1fc1	-0.277586
28	0x3ea538ce	0.322699
29	0x3e941feb	0.289306
30	0xbd825eb5	-0.0636572
31	0x3d9c0bc2	0.0761943
32	0xbe88d2a2	-0.267232
33	0xbf631056	-0.886968
34	0x3d97cfd8	0.0741269
35	0xbf1a60e5	-0.603041
36	0xbfbcf228	-1.47614
37	0xbf7d89ce	-0.990384
38	0x3e929585	0.286297
39	0x3c8d254d	0.0172297
40	0xbcec3b27	-0.0288368
41	0x3f0e7547	0.556477
42	0x3eb35760	0.350276
43	0xc0068e8a	-2.10245
44	0xbcef4822	-0.0292092
45	0x3d682c6f	0.056683
46	0xbf465f0f	-0.774888
47	0xbcfca212	-0.030839
48	0xbebc9b20	-0.368371
49	0xbd7d11f4	-0.0617847

W3 f4 [50, 50]
0	0xbf2c5522	-0.673174
1	0x3dc73124	0.0972617
2	0xbe2ff8a9	-0.171847
3	0x3ea3bcd3	0.3198
4	0x3d2562ab	0.0403773
5	0x3ce3ed0f	0.027823
6	0x3d00fc7f	0.0314908
7	0x3eca2f8c	0.394894
8	0x3dfaba7c	0.122426
9	0x3dc93d53	0.0982615
10	0xbc8de8c1	-0.0173229
11	0x3d875595	0.0660812
12	0x3e8a7ce1	0.270484
13	0xbe95b5b7	-0.292402
14	0x3d29a997	0.0414215
15	0xbe97f349	-0.296778
16	0x3c8927c7	0.0167426
17	0xbe5b8130	-0.21436
18	0xbe5ae6c9	-0.213771
19	0x3f8ce315	1.10068
20	0xbfbbe037	-1.46778
21	0xbd556e77	-0.0521073
22	0xbe2117f8	-0.157318
23	0x3f19798e	0.599511
24	0x3f1ee73e	0.620716
25	0xbf1b4e77	-0.606666
26	0xbc64b87c	-0.01396
27	0x3e80f6cf	0.251883
28	0xbfc06c76	-1.50331
29	0xbec31c22	-0.381074
30	0xbeed6f97	-0.463742
31	0x3ebf8f8a	0.374142
32	0xbe0157ac	-0.126311
33	0x3efdc24c	0.495623
34	0xbc5a7be2	-0.0133352
35	0xbed1d53d	-0.40983
36	0x3ec4579f	0.383481
37	0xbe824096	-0.254399
38	0x3d97fd68	0.0742138
39	0x3ea96335	0.330835
40	0xbe11a7a0	-0.142241
41	0xbe40d738	-0.188321
42	0xbed0b418	-0.407624
43	0x3e604e62	0.219049
44	0xbdbf54df	-0.0934236
45	0x3ea35dcc	0.319075
46	0x3e142635	0.144677
47	0x3d1d4017	0.0383912
48	0x3ee03409	0.437897
49	0x3ec0a8f4	0.376289
50	0x3e34488c	0.176058
51	0x3e795853	0.243501
52	0xbb2a2502	-0.0025962
53	0x3e31a6d7	0.173488
54	0xbead6bca	-0.338713
55	0xbe689657	-0.227136
56	0x3d424cc7	0.0474365
57	0x3f1806e2	0.593855
58	0x3e7c3266	0.246286
59	0x3eb52696	0.35381
60	0x3f387421	0.720522
61	0xbee42529	-0.445596
62	0xbe121102	-0.142643
63	0x3d525ae1	0.0513562
64	0xbe586bdf	-0.211349
65	0x3f1f53a4	0.62237
66	0xbb2709f0	-0.00254881
67	0xbe636934	-0.222081
68	0x3e9ca926	0.305978
69	0x3e667382	0.22505
70	0xbea1769b	-0.315358
71	0x3e5a5daf	0.213248
72	0xbcd34811	-0.0257912
73	0x3df269e0	0.118366
74	0x3ea73de2	0.326644
75	0x3f0abfa9	0.541987
76	0xbc8abb7b	-0.0169351
77	0x3ebfa637	0.374315
78	0xbd8d853f	-0.0691018
79	0x3ebf24b7	0.373327
80	0x3de2d9cf	0.110767
81	0xbead79f2	-0.338821
82	0xbe927781	-0.286068
83	0xbe0193b4	-0.12654
84	0xbdf2bf55	-0.118529
85	0x3e83d428	0.257478
86	0x3e5fab97	0.218428
87	0x3ca561ef	0.0201883
88	0xbeac9fd8	-0.337157
89	0xbe0cd20b	-0.13752
90	0xbe8e30ec	-0.277717
91	0x3e36e58a	0.17861
92	0x3e427807	0.189911
93	0xbeeb8fbd	-0.460081
94	0xbd9ba45e	-0.0759971
95	0x3d32bfc0	0.0436399
96	0x3db3ef28	0.0878585
97	0xbcab610d	-0.0209203
98	0xbf504828	-0.813601
99	0xbee47065	-0.44617
100	0x3ebc3201	0.367569
101	0xbf5bfb59	-0.859304
102	0x3fba708f	1.45656
103	0xbd04c7b0	-0.032417
104	0xbf23925c	-0.638952
105	0xbe9aec4a	-0.302584
106	0xbd492055	-0.0491031
107	0x3ebe31d7	0.371474
108	0x3f4dabe2	0.803404
109	0xbdd7d6b6	-0.10539
110	0x3de82624	0.113354
111	0xbf8b4cc2	-1.08828
112	0x3e0e5040	0.138978
113	0xbe80eb89	-0.251797
114	0x3f0d2ba1	0.551447
115	0x3d9c69c3	0.0763736
116	0x3d09ef1d	0.0336753
117	0x3cb37868	0.021908
118	0xbf1ef06b	-0.620856
119	0xbce12af3	-0.0274863
120	0x3f70228a	0.938027
121	0x3e96106b	0.293094
122	0x3f2e3c97	0.680612
123	0x3e50e5e6	0.204002
124	0x3e8109d0	0.252028
125	0x3e69a7c1	0.228179
126	0xbbd0760f	-0.00636173
127	0xbea88b54	-0.329188
128	0x3a74876b	0.000932804
129	0xbd43094f	-0.0476163
130	0xbec28912	-0.379952
131	0xbe19ba5e	-0.150125
132	0x3eb9e604	0.363083
133	0xbdc87d70	-0.0978955
134	0xbd6cf638	-0.057852
135	0x3d446cfd	0.0479555
136	0xbd3c2cbc	-0.0459411
137	0x3e39a5ec	0.181297
138	0xbe1fde72	-0.156122
139	0xbeca8fe2	-0.395629
140	0xbe69207d	-0.227663
141	0x3f5cb641	0.862156
142	0x3f0a7514	0.540849
143	0xbdc162ae	-0.0944265
144	0xbcf8868f	-0.0303376
145	0x3eda78f2	0.426704
146	0x3efb6c9c	0.491063
147	0xbd62392b	-0.0552303
148	0x3c8854ce	0.016642
149	0x3f8a6613	1.08124
150	0x3e9ede76	0.310291
151	0x3f045f39	0.517078
152	0xbe596894	-0.212313
153	0xbefe5ffa	-0.496826
154	0xbe839c30	-0.257051
155	0x3ed3c127	0.413583
156	0xbb88bbd1	-0.00417278
157	0x3d7ce945	0.0617459
158	0xbe26d71f	-0.16293
159	0x3f8dd4e9	1.10806
160	0x3fb75ec8	1.43258
161	0x3d3baa9b	0.045817
162	0xbf492b1b	-0.785814
163	0x3e37fbf0	0.179672
164	0xbdad84e1	-0.0847261
165	0xbe7641f6	-0.240486
166	0xbd293010	-0.0413056
167	0xbe1491b0	-0.145087
168	0xbea23bde	-0.316863
169	0x3e095358	0.134107
170	0x3cd1a438	0.025591
171	0x3e916e9c	0.284047
172	0x3e23686a	0.159578
173	0x3d952a34	0.0728344
174	0x3f02bcd8	0.510694
175	0x3eb3b7b7	0.351011
176	0x3d3c2e19	0.0459424
177	0x3fa936a4	1.32198
178	0xbf7292f7	-0.947555
179	0x3f6e5a14	0.931062
180	0x3daf0168	0.0854519
181	0xbd6271ca	-0.0552843
182	0xbbb33b56	-0.00546972
183	0xbf839629	-1.02802
184	0x3e452114	0.192509
185	0x3e7fd5cb	0.249839
186	0xbf8a4a38	-1.08039
187	0xbe908484	-0.282261
188	0x3f11943a	0.568668
189	0x3e059ea5	0.130488
190	0x3f4228bb	0.758434
191	0x3e248e47	0.160699
192	0x3eeb6fa0	0.459836
193	0xbf62937d	-0.885063
194	0x3dae1b59	0.0850131
195	0xbe5d9275	-0.216379
196	0xbe536b90	-0.206465
197	0xbc523191	-0.0128292
198	0xbf22faa4	-0.636637
199	0x3e48e5c5	0.196189
200	0xbe1b64e0	-0.151752
201	0xbf8491d1	-1.0357
202	0x3e45ebb7	0.193282
203	0xbd7c412f	-0.0615856
204	0xbdd9e519	-0.106394
205	0xbf351d58	-0.707479
206	0xbd47c0f4	-0.048768
207	0xbe5ef912	-0.217747
208	0xbf352019	-0.707521
209	0xbefb03c0	-0.490263
210	0x3e1f67f5	0.15567
211	0xbf975105	-1.18216
212	0xbd354c48	-0.0442622
213	0x3e941e79	0.289295
214	0x3ef2a327	0.473901
215	0x3ed62824	0.418275
216	0xbd45f400	-0.0483284
217	0xbe242bb6	-0.160323
218	0x3eb0576d	0.344417
219	0x3f4823ea	0.781798
220	0xbf699afa	-0.912521
221	0x3e0d3177	0.137884
222	0x3f79dfa8	0.976069
223	0x3fa9ff2e	1.3281
224	0xbf1c95c0	-0.61166
225	0xbef71c97	-0.48264
226	0x3d2a3ff5	0.0415649
227	0x3e4aa3f0	0.197891
228	0xbdcffe2a	-0.101559
229	0x3d3545fd	0.0442562
230	0xbec0f55e	-0.376872
231	0x3e8bce21	0.273057
232	0xbe046f58	-0.129331
233	0xbea3f61b	-0.320237
234	0x3cedeef1	0.0290446
235	0x3c808271	0.0156872
236	0x3f6fd556	0.936849
237	0x3edb8b05	0.428795
238	0xbef48494	-0.477574
239	0x3d5acc34	0.0534174
240	0xbfac663c	-1.34687
241	0xbe8c53b1	-0.274076
242	0x3f836ae8	1.0267
243	0x3de9be0a	0.114132
244	0x3f3a084a	0.726689
245	0xbe20d738	-0.157071
246	0xbf65666b	-0.896094
247	0x3d20a06f	0.0392155
248	0x3e0acd9f	0.13555
249	0x3ea3c4f4	0.319862
250	0x3ea1f905	0.316353
251	0xbd0bf785	-0.0341716
252	0x3e5ca5be	0.215476
253	0xbe066adb	-0.131267
254	0xbf4f1a5d	-0.808996
255	0x3e1e518f	0.154608

B3 f4 [50]
0	0x3e494079	0.196535
1	0xbeca38da	-0.394965
2	0x3daa36d5	0.0831124
3	0xbf501e15	-0.812959
4	0xbe88ef9a	-0.267453
5	0xbf1f71b9	-0.622829
6	0xbf06a51e	-0.525957
7	0x3e295cc8	0.165393
8	0xbfbae3e7	-1.46008
9	0x4006f7ba	2.10887
10	0xbf37ea3e	-0.718418
11	0x3eab532e	0.334619
12	0xbcedbd3d	-0.0290209
13	0xbfb62e0a	-1.42328
14	0x3e484a94	0.195597
15	0x3e4ecaef	0.201946
16	0xbf9245f6	-1.14276
17	0x401c302b	2.44044
18	0xbdac4f13	-0.0841352
19	0xbf81c38b	-1.01378
20	0x3f6b7660	0.919775
21	0xbfab1609	-1.33661
22	0xc030299e	-2.75254
23	0xbdd8ef35	-0.105925
24	0xbf7a4bba	-0.977718
25	0x3ebac062	0.364749
26	0x3f753ee6	0.957991
27	0xbeef3776	-0.46722
28	0x3dbbb9c2	0.0916629
29	0xbfb64207	-1.42389
30	0xbfe668b2	-1.80007
31	0x3f72df83	0.948723
32	0xbe49cf14	-0.197079
33	0x3f3178f7	0.693252
34	0xbf9ad96a	-1.20976
35	0xbf9ecba7	-1.24059
36	0xbf239abf	-0.63908
37	0x3c94a10c	0.0181432
38	0xbe618266	-0.220224
39	0xbfeb2032	-1.83692
40	0x4039c194	2.90244
41	0x3e85147f	0.259922
42	0x3f3fd76f	0.749381
43	0x3d072706	0.0329962
44	0x3d66ddf0	0.056364
45	0xbfffa9d2	-1.99737
46	0xbec1db23	-0.378625
47	0x3f124042	0.571293
48	0x3ffe04c0	1.98452
49	0x3ecac519	0.396035

W4 f4 [50, 50]
0	0x3e43ffef	0.191406
1	0xbec0d499	-0.376622
2	0x3e44449e	0.191668
3	0xbea0995b	-0.31367
4	0xbd46970e	-0.0484839
5	0x3ebde8d5	0.370917
6	0xbe02bcb6	-0.127673
7	0x3dc18571	0.0944928
8	0x3f161d54	0.586385
9	0xbebbfceb	-0.367164
10	0xbde41a26	-0.111378
11	0xbe41b973	-0.189184
12	0x3efc095f	0.492259
13	0xbe9e2de8	-0.308944
14	0x3c2b39d5	0.0104508
15	0xbec0a3d7	-0.37625
16	0xbde540cc	-0.11194
17	0xbdc7a3ce	-0.0974804
18	0x3d3edd71	0.0465979
19	0x3ead5b25	0.338586
20	0x3eeb8cb9	0.460058
21	0xbdaa529f	-0.0831654
22	0x3d1a545a	0.0376781
23	0x3edc8084	0.430668
24	0x3e8d5b03	0.276085
25	0xbd7ba2d9	-0.0614346
26	0xbe2af2d8	-0.166942
27	0x3d9b90c2	0.0759597
28	0x3dafc760	0.0858295
29	0x3c770012	0.0150757
30	0xbd1b2357	-0.0378755
31	0xbe87d6d8	-0.265311
32	0x3ec7ed20	0.390481
33	0x3d6cfb40	0.0578568
34	0xbee2f1ed	-0.443252
35	0x3e68d3f2	0.227371
36	0xbe4815a0	-0.195395
37	0x3e3a9a3d	0.182229
38	0x3d60f9c5	0.0549257
39	0x3d8d4f4c	0.0689989
40	0xbe3a01ac	-0.181647
41	0x3f51116b	0.816672
42	0xbeb4f095	-0.353398
43	0x3e67032a	0.225598
44	0x3ea367e4	0.319152
45	0x3dc4a6f9	0.0960216
46	0x3d7d6a74	0.0618691
47	0xbef652df	-0.481101
48	0x3e192253	0.149545
49	0xbe6bc9cd	-0.230262
50	0xbe1f97ab	-0.155852
51	0xbe84ea07	-0.259598
52	0x3e4d3aa3	0.200419
53	0xbdeb9a17	-0.11504
54	0x3e04c22f	0.129647
55	0x3d2c1029	0.0420076
56	0xbe1b6bf4	-0.151779
57	0x3d6236dc	0.0552281
58	0x3e163cfb	0.146717
59	0xbc24ec49	-0.0100661
60	0xbd18faa3	-0.0373484
61	0xbe63af32	-0.222348
62	0xbce6fae1	-0.0281958
63	0xbe7f4278	-0.249277
64	0x3d99a19f	0.0750153
65	0xbe85d463	-0.261386
66	0xbddc4114	-0.107546
67	0x3c9535f2	0.0182142
68	0x3e97ed20	0.296731
69	0xbe07429a	-0.13209
70	0xbef86035	-0.485109
71	0x3b38a64f	0.00281753
72	0x3ba61883	0.00506884
73	0xbe4c532a	-0.199536
74	0x3cf62fd2	0.0300521
75	0x3d3874a1	0.0450331
76	0xbd55b467	-0.052174
77	0xbe744fe3	-0.238586
78	0xbdd2ab69	-0.102866
79	0xbe96f7a1	-0.294858
80	0x3cd3528d	0.0257962
81	0x3d83779f	0.064193
82	0xbe36de76	-0.178583
83	0xbe742a67	-0.238443
84	0xbeaffc76	-0.343723
85	0xbe7f9618	-0.249596
86	0x3dac3075	0.0840768
87	0x3d9f2f12	0.0777265
88	0xbdcc545f	-0.0997703
89	0xbe434b51	-0.190717
90	0x3cfcd35b	0.0308625
91	0x3f00013f	0.500019
92	0xbe553826	-0.208222
93	0x3c4a2b9d	0.0123395
94	0x3d6777c4	0.0565107
95	0x3e862563	0.262004
96	0x3c1c2b19	0.00953176
97	0xbdd1cc96	-0.102441
98	0xbdd4face	-0.103994
99	0x3e8af4ae	0.271398
100	0x3c0efdb4	0.00872748
101	0xbf6b80bb	-0.919933
102	0xbd9e825f	-0.0773971
103	0x3daa0d4f	0.0830332
104	0x3eb68a93	0.356526
105	0x3ea2aed1	0.31774
106	0xbe5bfa09	-0.214821
107	0x3eda7ce1	0.426734
108	0x3e4bef8d	0.199156
109	0xbc97f9f2	-0.0185518
110	0xbe36cdaf	-0.178519
111	0xbd4a553e	-0.0493977
112	0xbce055ab	-0.0273846
113	0x3e6d898b	0.23197
114	0x3dc86bc4	0.0978618
115	0x3da939a8	0.0826295
116	0x3f1cb231	0.612094
117	0xbe25e95b	-0.162023
118	0x3e066dbd	0.131278
119	0x3eace315	0.33767
120	0x3db96d8f	0.090541
121	0xbe460f1b	-0.193417
122	0x3e6b7e0b	0.229973
123	0x3f504e94	0.813699
124	0xbea69425	-0.325349
125	0x3d111daf	0.0354287
126	0xbdc21003	-0.0947571
127	0x3da6abc3	0.0813823
128	0x3d3b9c23	0.0458032
129	0xbee57abc	-0.448202
130	0xbdeff2a1	-0.117162
131	0xbdaece2f	-0.0853542
132	0x3e894d0e	0.268166
133	0x3e7962d0	0.243541
134	0xbed3be88	-0.413563
135	0xbeb94339	-0.361841
136	0xbe91c561	-0.284709
137	0xbdca3f1e	-0.0987532
138	0x3da6b8c4	0.0814071
139	0x3dfae148	0.1225
140	0xbf08eeaf	-0.534892
141	0x3f6968e8	0.911757
142	0xbf2ff013	-0.687257
143	0x3e031d2e	0.128041
144	0xbe0b0532	-0.135762
145	0x3f3eaf68	0.744864
146	0x3edc901d	0.430787
147	0xbed32336	-0.412378
148	0xbda71690	-0.081586
149	0xbcb4538f	-0.0220125
150	0x3f0d59f7	0.552154
151	0xbfec9321	-1.84824
152	0xbea6f88c	-0.326115
153	0x3e02a5a4	0.127585
154	0x3f1052d6	0.563764
155	0x3ea02afe	0.312828
156	0xbde6c8f7	-0.112688
157	0x3e25336e	0.161329
158	0x3f2e324d	0.680455
159	0x3e84a03c	0.259035
160	0x3c3f1ac8	0.0116641
161	0xbe27c201	-0.163826
162	0xbf222f7b	-0.633537
163	0x3f1810d8	0.594007
164	0x3e24da4d	0.160989
165	0xbc1886f5	-0.00930952
166	0xbeca9585	-0.395672
167	0x3ceef9e9	0.0291719
168	0x3f4fd7c3	0.811886
169	0x3f3aef70	0.730216
170	0x3dc6de5b	0.0971038
171	0x3ad9f656	0.00166292
172	0xc0273094	-2.61234
173	0x3fdf9485	1.74672
174	0x3d043af8	0.0322828
175	0x3d8c546c	0.0685204
176	0x3e3d538b	0.184889
177	0xbf7ff477	-0.999824
178	0xbd689134	-0.0567791
179	0x3f2182dc	0.630903
180	0x3d948ec0	0.0725379
181	0xbe6364bf	-0.222064
182	0xbe6a79bc	-0.22898
183	0x3f8346dc	1.0256
184	0xbf69703f	-0.911869
185	0xbe1bfa4c	-0.152322
186	0xbe24a2fd	-0.160778
187	0xbe35cd92	-0.177542
188	0xbea96e9c	-0.330922
189	0x3dd9fba4	0.106437
190	0xbf06a3cf	-0.525937
191	0x401ffd61	2.49984
192	0xc0089058	-2.13381
193	0xbf25c140	-0.64748
194	0xbea0afe6	-0.313842
195	0xbf410471	-0.753974
196	0x3dedb728	0.116072
197	0xbfa33cb4	-1.27529
198	0x3e3db835	0.185273
199	0xbd9956f7	-0.0748729
200	0x3d3acd91	0.0456062
201	0x3d9ff060	0.0780952
202	0xbce236f7	-0.0276141
203	0xbdab7506	-0.0837193
204	0x3e017d6b	0.126455
205	0x3d7dbfea	0.0619506
206	0xbe33860a	-0.175316
207	0x3c0587d4	0.00815006
208	0x3e04c61e	0.129662
209	0xbbe6e567	-0.00704639
210	0x3dbb4020	0.0914309
211	0x3c9a0316	0.0188003
212	0x3dc52a19	0.0962717
213	0x3d6cd7cf	0.057823
214	0xbbf737da	-0.0075445
215	0xbe13dd98	-0.1444
216	0xbc0ceb6b	-0.00860105
217	0xbeab6c16	-0.334809
218	0xbc30e9ad	-0.0107979
219	0x3dbf2587	0.0933333
220	0x3d0bec82	0.0341611
221	0x3d2bd307	0.0419493
222	0x3e0cab3f	0.137372
223	0xbc04f609	-0.0081153
224	0xbdb697e5	-0.0891569
225	0xbd87ecbb	-0.0663695
226	0xbcf0ced5	-0.0293955
227	0xb9a8d939	-0.000322053
228	0xbe61de27	-0.220574
229	0x3d5afa22	0.0534612
230	0x3ca0ea5b	0.019643
231	0xbc0fde85	-0.00878108
232	0xbdcb0051	-0.0991217
233	0xbdcc42b4	-0.0997366
234	0x3df4c554	0.119517
235	0xbebe5a9b	-0.371785
236	0xbde35efa	-0.111021
237	0x3d6981da	0.0570086
238	0xbe025f63	-0.127317
239	0xbd8bd3f9	-0.0682754
240	0xbd3ab78c	-0.0455852
241	0xbcf48da6	-0.0298527
242	0xbe614446	-0.219987
243	0xbdb2ec79	-0.0873651
244	0x3d522135	0.0513012
245	0xbca215d4	-0.0197858
246	0x3da99476	0.0828027
247	0xbdf21d54	-0.11822
248	0xbcb9686c	-0.0226328
249	0xbd45d0e0	-0.0482949
250	0x3db02272	0.0860032
251	0xbe27e953	-0.163976
252	0xbf0900a4	-0.535166
253	0xbd0d3df1	-0.0344829
254	0x3e9e132b	0.30874
255	0x3e6ba0a5	0.230105

B4 f4 [50]
0	0x3ef4cd53	0.478129
1	0x3f03e154	0.515157
2	0x3ed37500	0.413002
3	0xbf2050ad	-0.626231
4	0xbd72e713	-0.0593024
5	0xbdceec7d	-0.101037
6	0xc0076ae8	-2.1159
7	0x3f090eed	0.535384
8	0x3f1e618d	0.618676
9	0x3fdf721d	1.74567
10	0x3e84d09a	0.259404
11	0x3fb189df	1.38702
12	0xbfe372c5	-1.77694
13	0x3eb8bb90	0.360806
14	0xbf6be60c	-0.921479
15	0xbf8783cf	-1.05871
16	0xbd2dca58	-0.0424293
17	0x3ecec398	0.403836
18	0x3ecc86f0	0.399467
19	0x3da7f9af	0.0820192
20	0xbf58e8c9	-0.847302
21	0xbe880fbb	-0.265745
22	0x3eec52e7	0.46157
23	0x3fba584f	1.45582
24	0x3f8ac376	1.08409
25	0xbfb97636	-1.44892
26	0xbf30a116	-0.689958
27	0x3ee4801f	0.44629
28	0x3f7c91b0	0.986598
29	0xbe93cddd	-0.28868
30	0x3f6f70ce	0.935315
31	0x3f9b482c	1.21314
32	0xbee01c50	-0.437716
33	0x3f90ae53	1.13032
34	0xbd95b5b7	-0.0731005
35	0xbe825f20	-0.254632
36	0xbed59d56	-0.417216
37	0x3e6b3312	0.229687
38	0x3e4a5615	0.197594
39	0x3f45ab7e	0.772148
40	0xbdfc05d5	-0.123058
41	0x3f95bc56	1.16981
42	0x3ec5be3c	0.386217
43	0xbe7f7b18	-0.249493
44	0xbf1da522	-0.615801
45	0xbfd66373	-1.67491
46	0x3fdbc409	1.71692
47	0x3f96238e	1.17296
48	0x3edc47e5	0.430236
49	0xbf237ec3	-0.638653

W5 f4 [50, 50]
0	0xbed9b196	-0.425183
1	0xbdd719f8	-0.10503
2	0x3c6fae0e	0.0146289
3	0xbfb13ae7	-1.38461
4	0xbd4c409b	-0.0498663
5	0x3f02594b	0.509175
6	0xbdc0a40d	-0.0940629
7	0x3e410f95	0.188536
8	0xbecf99a2	-0.405469
9	0xc06c826b	-3.69546
10	0xbff7544c	-1.93226
11	0xbf746595	-0.954675
12	0x3e506c87	0.203539
13	0xbfb0e5b4	-1.38201
14	0x3e723704	0.236538
15	0xbe245bf2	-0.160507
16	0xbe67ced9	-0.226375
17	0xbcbc69a8	-0.0229996
18	0x3e50dd40	0.203969
19	0x3f2b913f	0.670185
20	0xbd8d811a	-0.0690939
21	0xbfb36263	-1.40144
22	0xbd25f486	-0.0405164
23	0xbce67ffc	-0.0281372
24	0x3ea159a3	0.315137
25	0xbe9ab303	-0.302147
26	0x3ee421c0	0.44557
27	0xbe7cef24	-0.247006
28	0x3d5c1590	0.0537315
29	0x3d23d592	0.0399986
30	0x3e344b2b	0.176068
31	0xbf0c9d8c	-0.549279
32	0xc027b2d5	-2.62029
33	0xbe07c201	-0.132576
34	0xbff7c9ef	-1.93585
35	0xb7f94a46	-2.97177e-05
36	0xbf3f1bef	-0.74652
37	0x3e9d7796	0.307553
38	0xbe40531a	-0.187817
39	0xbd0c3471	-0.0342297
40	0x3dcea5b5	0.100902
41	0xbd368b92	-0.0445667
42	0x3dd46349	0.103705
43	0xbfc766f9	-1.55783
44	0xbfca11dc	-1.57867
45	0xbda4d885	-0.0804911
46	0xbfcf0cdd	-1.61758
47	0xbea3baba	-0.319784
48	0x3da1ec26	0.0790637
49	0xbc843625	-0.0161391
50	0xbf521dc9	-0.820767
51	0xbedc62c3	-0.430441
52	0xbf455992	-0.770898
53	0x3e4a3876	0.197481
54	0xbcee1e8c	-0.0290673
55	0xbf12e18b	-0.573754
56	0x3eb27d67	0.348613
57	0x3ec3dfd2	0.382567
58	0xbdec0618	-0.115246
59	0xbe632724	-0.221829
60	0x3e847779	0.258724
61	0x3f02b25b	0.510534
62	0xbe846328	-0.258569
63	0x3cf813d8	0.0302829
64	0x3f764c0e	0.962098
65	0x3d36ab58	0.044597
66	0x3eb75a75	0.358112
67	0x3ba410ec	0.0050069
68	0xbf83f823	-1.03101
69	0xbf86d7c7	-1.05346
70	0xbe9f3cd5	-0.311011
71	0x3f0a88ad	0.541148
72	0xbe2c5e70	-0.168329
73	0x3c2ca007	0.0105362
74	0xbdb0dc91	-0.0863582
75	0x3dc235b5	0.094829
76	0xbed55da2	-0.41673
77	0xbee93965	-0.455516
78	0xbe526245	-0.205453
79	0xbefcc1ca	-0.493666
80	0x3e68ea3a	0.227456
81	0x3ece8145	0.40333
82	0xbfa589df	-1.29327
83	0xbdfe1e2e	-0.124081
84	0xbd8f2a90	-0.0699054
85	0xbeb23098	-0.348027
86	0xc0163c75	-2.34744
87	0x3e4ec17f	0.20191
88	0x3c6ee088	0.0145799
89	0x3e3669cf	0.178138
90	0xbe909e13	-0.282456
91	0xbd1ff6c6	-0.0390537
92	0x3ebb762e	0.366136
93	0x3f4ba4e8	0.795485
94	0xbee1cbcd	-0.441008
95	0xbf2abc0e	-0.666932
96	0xbe249668	-0.16073
97	0xbdc9b0ee	-0.098482
98	0x3e406ab1	0.187907
99	0xbdc02009	-0.0938111
100	0xbccdd64d	-0.0251266
101	0x3de0d34a	0.109778
102	0xbd1cc20d	-0.038271
103	0xbcc8a556	-0.0244929
104	0x3d06b485	0.032887
105	0x3eaece36	0.341417
106	0x3cff78bc	0.0311855
107	0xbd71535f	-0.0589174
108	0x3c46ccd9	0.0121338
109	0x3d9d75c7	0.0768848
110	0x3e04bad8	0.129619
111	0x3e842678	0.258106
112	0xbd4bb44e	-0.0497325
113	0xbe747fdc	-0.238769
114	0x3ef70bd0	0.482512
115	0x3d472416	0.0486184
116	0x3d115d55	0.0354894
117	0x3d98b0f9	0.0745563
118	0xbe663950	-0.224828
119	0xbeff077d	-0.498104
120	0xbc99ddc2	-0.0187825
121	0xbbc8ebed	-0.00613164
122	0x3b485519	0.00305683
123	0xbdf1a5ca	-0.117992
124	0xbdad0c80	-0.0844965
125	0xbd84e669	-0.0648926
126	0x3e0c4828	0.136994
127	0x3da9ee61	0.0829742
128	0x3c8f1a4f	0.0174686
129	0xbdb2d999	-0.0873291
130	0x3e02b51c	0.127644
131	0xbd9a37c7	-0.0753017
132	0xbc90e2a6	-0.0176862
133	0xbedaac11	-0.427094
134	0x3e193f6c	0.149656
135	0x3e0b6a62	0.136148
136	0xbbcc68b9	-0.00623807
137	0x3d11ab74	0.0355639
138	0xbb12ffcc	-0.00224303
139	0x3ce32350	0.0277268
140	0x3ce13900	0.027493
141	0x3dc0583d	0.0939183
142	0x3e40a84c	0.188142
143	0xbff60e41	-1.92231
144	0xbd83bcb9	-0.0643248
145	0x3d0ad5cc	0.0338953
146	0xbd9af7ab	-0.0756677
147	0x3dcc1f1a	0.0996687
148	0xbba33cdb	-0.00498162
149	0xbe808fa8	-0.251096
150	0x3e423d0c	0.189686
151	0x3e05f41b	0.130814
152	0x3d958e07	0.0730248
153	0x3db91b9d	0.0903847
154	0x3d0c6442	0.0342753
155	0xbcd02e81	-0.0254128
156	0xbe140853	-0.144563
157	0xbda0ea26	-0.0785716
158	0xbd8fefe8	-0.0702818
159	0xbd90698a	-0.0705138
160	0xbd2518a3	-0.0403067
161	0xbe050614	-0.129906
162	0x3da7fc91	0.0820247
163	0x3e29a9da	0.165687
164	0xbcb2fdef	-0.0218496
165	0x3e0af6c7	0.135707
166	0x3e0ed352	0.139478
167	0x3de9289e	0.113847
168	0x3eaecb10	0.341393
169	0xbe32ce46	-0.174615
170	0x3cc08a69	0.0235035
171	0xbeb68dfc	-0.356552
172	0xbe07a205	-0.132454
173	0xbc2ca7ff	-0.0105381
174	0x3c8f79bb	0.0175141
175	0xbd8b3e8d	-0.0679904
176	0x3d41a6ae	0.0472781
177	0xbd3de87e	-0.0463643
178	0xbc1f5c06	-0.00972653
179	0xbdbe6008	-0.0929566
180	0x39d1985b	0.000399771
181	0x3dc18a51	0.0945021
182	0xbe319115	-0.173405
183	0x3d553c8d	0.0520597
184	0xbe414a0a	-0.188759
185	0xbbf56ba7	-0.00748964
186	0xbcc0c8b3	-0.0235332
187	0x3ca57c26	0.0202008
188	0xbd959e55	-0.0730559
189	0x3e18ec96	0.14934
190	0x3d1bf21f	0.0380727
191	0x3d35b2d5	0.04436
192	0x3c8a8fa6	0.0169142
193	0xbc84ced2	-0.0162119
194	0xbe171da3	-0.147574
195	0xbdb7f3a7	-0.0898202
196	0xbd773612	-0.0603543
197	0x3c195490	0.00935854
198	0xbda1791f	-0.0788443
199	0x3ba9c536	0.00518098
200	0x3df5757d	0.119853
201	0x3e6966be	0.227931
202	0x3d8d8d87	0.0691176
203	0xbe1cd7cf	-0.153167
204	0xbd805e0f	-0.0626794
205	0x3ea593c4	0.323393
206	0x3e8285cb	0.254927
207	0xbd03e151	-0.0321973
208	0x3e776f2a	0.241635
209	0xbfa7a733	-1.30979
210	0x3c71f0de	0.0147669
211	0x3d7fee98	0.0624834
212	0x3eb0cf3a	0.345331
213	0xbe272368	-0.163221
214	0xbea1c8a8	-0.315984
215	0xbdf89e77	-0.121396
216	0xbe7671ac	-0.240668
217	0x3c392db4	0.0113024
218	0xbe90b32d	-0.282617
219	0xbfb59408	-1.41858
220	0x3d6c57fd	0.0577011
221	0x3e4e5471	0.201494
222	0x3e6ee957	0.233312
223	0xbd258ad4	-0.0404156
224	0x3e1e6ff8	0.154724
225	0xbee5b2b3	-0.448629
226	0x3e50fe48	0.204095
227	0xbb4e1f07	-0.00314516
228	0xbe8610ae	-0.261846
229	0xbef48c72	-0.477634
230	0x3cdd3382	0.0270021
231	0xbc4dcde9	-0.0125613
232	0xc02a36b9	-2.65959
233	0xbe82bcd8	-0.255347
234	0xbf1020f7	-0.563003
235	0x3e893682	0.267994
236	0xbe717f84	-0.235838
237	0x3e3d6dc2	0.184989
238	0x3e423c00	0.189682
239	0xbe895df6	-0.268295
240	0xbc90bdf3	-0.0176687
241	0xbcf72a6e	-0.0301716
242	0x3c9c3987	0.0190704
243	0x3f93becb	1.15426
244	0xbfd3ac1d	-1.65369
245	0x3e256cd7	0.161548
246	0x3d913181	0.0708952
247	0xbe484dba	-0.195609
248	0x3ec58adb	0.385825
249	0x3cf99ca4	0.0304702
250	0x3e488f00	0.195858
251	0xbc43c8ad	-0.0119497
252	0xbf086af4	-0.532882
253	0xbe55f202	-0.208931
254	0x3e332a06	0.174965
255	0xbf8261d0	-1.01861

B5 f4 [50]
0	0xbe9dcbbc	-0.308195
1	0xbf043f2d	-0.516589
2	0xbcae4bd8	-0.0212764
3	0xbdcc00f5	-0.0996112
4	0xbddd16fd	-0.107954
5	0x3c4f5e0c	0.0126567
6	0xbf74f484	-0.956856
7	0xbd9b7176	-0.0759
8	0xbec8e475	-0.392368
9	0xbf0ef77f	-0.558464
10	0xbdba569b	-0.0909855
11	0xbf72e819	-0.948854
12	0xbe2a2fcf	-0.166198
13	0xbe0c0b9a	-0.136763
14	0xbb82542e	-0.00397732
15	0xbc4e859f	-0.0126051
16	0xbc95cd27	-0.0182863
17	0xbf533a15	-0.825105
18	0x3d1c9f3d	0.0382378
19	0xbe875e42	-0.264391
20	0xbd8ee2a1	-0.0697682
21	0x3c390215	0.011292
22	0xbc8f0aca	-0.0174612
23	0xbb503c99	-0.00317744
24	0xbe903a54	-0.281695
25	0xbf1cf11b	-0.613054
26	0x3eff0154	0.498057
27	0xbd51c5ab	-0.0512139
28	0xbd42ff09	-0.0476065
29	0xba184372	-0.000580839
30	0xba7253d6	-0.000924406
31	0xbd81b061	-0.0633247
32	0xbd8db0a8	-0.0691846
33	0xbdfa6efc	-0.122282
34	0xbf475265	-0.778601
35	0xbad47f1e	-0.00162122
36	0x3ddc10d8	0.107454
37	0xbe984bc2	-0.297453
38	0x3f1b2368	0.606009
39	0x3d8d165c	0.0688903
40	0xbf194424	-0.598696
41	0xbe66c26a	-0.225351
42	0x3d819729	0.0632766
43	0xbe86718b	-0.262585
44	0xbf551959	-0.832418
45	0xbee68f6d	-0.450313
46	0xbf05d702	-0.522812
47	0xbe2095f2	-0.156822
48	0xbf9a65bf	-1.20623
49	0xbae80dc6	-0.00177043
