data/acasxu/nets/ACASXU_run2a_2_4_batch_2000.onnx (onnx, 53878 bytes, 14 tensors)

W0 f4 [50, 5]
0	0x3c63509d	0.0138742
1	0xbbdf9221	-0.00682284
2	0xbae9dc7d	-0.00178422
3	0x3bc6e1bc	0.00606939
4	0xba4a21b3	-0.000771071
5	0xbc51ef4b	-0.0128134
6	0xbeea3140	-0.457407
7	0x3eef9c20	0.467988
8	0xbf80ed3e	-1.00724
9	0x3e84fbfc	0.259735
10	0xbe400820	-0.187531
11	0x3ed60179	0.41798
12	0x3e9d4ac3	0.307211
13	0x3db2e2ab	0.0873464
14	0xbe1e6080	-0.154665
15	0x3d815f96	0.0631706
16	0xbfa636e3	-1.29855
17	0x3fa47896	1.28493
18	0xbd6cad73	-0.0577826
19	0xbec3e729	-0.382623
20	0xbc2c17b6	-0.0105037
21	0xbe2635e7	-0.162315
22	0x3e29fc6e	0.166002
23	0xbf077e0b	-0.529267
24	0xbf551809	-0.832398
25	0x3f7772e7	0.966597
26	0xbb04870e	-0.00202221
27	0x3c363978	0.0111221
28	0x3ad4dd12	0.00162402
29	0xbd6bee9b	-0.0576006
30	0x3da5dd82	0.0809889
31	0xbf1185e0	-0.568449
32	0x3f3d3aa3	0.739176
33	0x3e0ff7e0	0.140594
34	0xbea79c20	-0.327363
35	0xbfb40735	-1.40647
36	0xbe064628	-0.131127
37	0xbc7fd9d5	-0.0156159
38	0x3d8e70e9	0.0695513
39	0x3d4628f4	0.0483789
40	0x3c9424e6	0.018084
41	0xbe4f7660	-0.2026
42	0x3eca8ed6	0.395621
43	0xbfa12008	-1.25879
44	0x3f351948	0.707417
45	0x3c983912	0.0185819
46	0x3ec6c398	0.388211
47	0xbe92d1af	-0.286756
48	0xbfe1628d	-1.76082
49	0x3f3352ca	0.700482
50	0xbd39ac44	-0.0453303
51	0xbe22e7b4	-0.159087
52	0x3e3130e0	0.173038
53	0xbf88c4f0	-1.06851
54	0xbf6b5d03	-0.919388
55	0x3ca52985	0.0201614
56	0xbe2fdef8	-0.171749
57	0xbed4f723	-0.415948
58	0xbf767664	-0.962744
59	0x3df06706	0.117384
60	0xbc0095b2	-0.00784819
61	0xbcfe6fdd	-0.0310592
62	0x3e44588a	0.191744
63	0xbe50df16	-0.203976
64	0x3e051698	0.129969
65	0x3c23d7e1	0.0100002
66	0x3a09c261	0.00052551
67	0xb9de240d	-0.0004237
68	0x3b7e0d62	0.00387653
69	0x3c52c387	0.012864
70	0x3d2c9412	0.0421334
71	0xbd11cee5	-0.0355977
72	0x401bd6e0	2.43499
73	0x3d82f62c	0.0639461
74	0xbd0113e1	-0.0315131
75	0xbd0b1c79	-0.0339627
76	0xbf33c548	-0.702229
77	0x3f405c14	0.751405
78	0xbe18561d	-0.148766
79	0x3e9865f9	0.297653
80	0xbf3cc144	-0.737324
81	0xbd070b57	-0.0329698
82	0x3c121602	0.00891638
83	0xbe427bb3	-0.189925
84	0xbd1c3845	-0.0381396
85	0xbdb94226	-0.0904582
86	0x3f225ebb	0.634258
87	0xbf25c10d	-0.647477
88	0x3e2dc982	0.169714
89	0xbf44d0ab	-0.768809
90	0x3af145a8	0.00184076
91	0xbe7c710d	-0.246525
92	0x3e899008	0.268677
93	0x3fb26f3f	1.39402
94	0x3e809c1b	0.251191
95	0x3c6309bb	0.0138573
96	0xbeed68a5	-0.463689
97	0xbeda7dcc	-0.426741
98	0xbf432021	-0.762209
99	0x3edb32cf	0.428122
100	0x3edf1bce	0.435759
101	0xbf38a84c	-0.721318
102	0xbe242310	-0.16029
103	0xbe89b3d0	-0.26895
104	0x3d68a358	0.0567964
105	0x3a5e85c3	0.000848856
106	0xbdafbd0c	-0.0858098
107	0x3e85e658	0.261523
108	0xbf1815e4	-0.594084
109	0xbf9e13d3	-1.23498
110	0xbda7b50e	-0.0818883
111	0xbdb2b8ad	-0.0872663
112	0x3e3b1898	0.182711
113	0xbf7b0c56	-0.980657
114	0x3fd11f0c	1.63376
115	0xbbee2fc9	-0.00726888
116	0x3f043f2d	0.516589
117	0xbf0e00d2	-0.5547
118	0xbf6632d3	-0.899213
119	0x3fc6af79	1.55223
120	0xbdb1a27d	-0.0867357
121	0x3ef361bb	0.475355
122	0xbec76816	-0.389466
123	0xbec94b5a	-0.393153
124	0x3e850d28	0.259866
125	0x3c855509	0.0162759
126	0x3b6a1e97	0.00357238
127	0x39ecf61e	0.000451968
128	0xba5d5f4a	-0.000844468
129	0x3b0bb906	0.002132
130	0xbd430f2e	-0.0476219
131	0xbe354a80	-0.177042
132	0x3efc588a	0.492863
133	0xbf37cd79	-0.717979
134	0x3f06bb23	0.526293
135	0xbb9382bf	-0.00450167
136	0xbd66f212	-0.0563832
137	0x3f8bd70a	1.0925
138	0x3cc0b532	0.0235239
139	0xbc8533e7	-0.0162601
140	0x3da8a655	0.0823485
141	0x40377271	2.86636
142	0xbe3c17ec	-0.183685
143	0x3d62cda5	0.0553719
144	0xbd74108e	-0.0595861
145	0x3c88c8c7	0.0166973
146	0x3f676695	0.903909
147	0xbf73c5ef	-0.952239
148	0xbf887d2c	-1.06632
149	0x3f096ffc	0.536865
150	0x3d5ee9b5	0.0544221
151	0x3eab502b	0.334596
152	0xbe94a1f1	-0.290298
153	0xbf4701da	-0.777372
154	0xbf1a0a0f	-0.601716
155	0x3d6fb2ab	0.05852
156	0xbfaa5aee	-1.3309
157	0x3f522c34	0.820987
158	0x3d70fe70	0.0588364
159	0xbd2de25c	-0.0424522
160	0xbfcf7cee	-1.621
161	0xbe08398a	-0.133032
162	0x3b965a0a	0.00458837
163	0xbcd4a036	-0.0259553
164	0x3bf609b2	0.00750848
165	0xbc56b300	-0.0131042
166	0xc000e411	-2.01392
167	0xbd5cd050	-0.0539096
168	0x3dd70718	0.104994
169	0xbe7334c6	-0.237506
170	0x3d2d4a86	0.0423074
171	0x3ee9e8a3	0.456853
172	0x3efb3fc8	0.490721
173	0xbe514057	-0.204347
174	0x3db8c5d7	0.0902211
175	0xbbd6521c	-0.00654055
176	0xbd65828b	-0.0560327
177	0x3d874b4e	0.0660616
178	0x3f3b24a7	0.731028
179	0xbeca7e95	-0.395497
180	0x3c911531	0.0177103
181	0x3eb406e2	0.351615
182	0xbe8f74cd	-0.280188
183	0x3f708adf	0.939619
184	0xbf93573f	-1.1511
185	0xbf65e58e	-0.898034
186	0xbe2c05d5	-0.167991
187	0x3d616b55	0.055034
188	0xbd93ca4d	-0.0721632
189	0xbd0c74d3	-0.0342911
190	0x3f06d118	0.526628
191	0xbd350607	-0.0441952
192	0xbf48c3d2	-0.784238
193	0x3de816f0	0.113325
194	0xbd7cf4e8	-0.061757
195	0x3c52a122	0.0128558
196	0xbf54cf29	-0.831286
197	0xbe4147ae	-0.18875
198	0xbde7d3d4	-0.113197
199	0x3ea3d578	0.319988
200	0xbc8f01fc	-0.017457
201	0xbe6836eb	-0.226772
202	0x3e396feb	0.181091
203	0xbe451c5c	-0.192491
204	0xbfa1a2c6	-1.26278
205	0xbc9c391c	-0.0190702
206	0xbde1650a	-0.110056
207	0xbf44caf7	-0.768722
208	0xbedbc46e	-0.429233
209	0x3e74cb9f	0.239058
210	0xbe814c66	-0.252536
211	0x3d1e393c	0.0386288
212	0xbd27fbad	-0.0410115
213	0x3d9a0847	0.0752111
214	0x3e94e747	0.290827
215	0xbdc2e2b9	-0.095159
216	0xc01e8c15	-2.4773
217	0x3fedde6a	1.85835
218	0xbd7f7af0	-0.0623731
219	0xbe0f1bef	-0.139755
220	0x3c276d98	0.010219
221	0xb82db0b9	-4.1411e-05
222	0x3c5c1179	0.0134319
223	0xba777709	-0.000944004
224	0xbb8b74fe	-0.00425589
225	0xbebce3de	-0.368926
226	0xbe53fd93	-0.207022
227	0x3ed2be6a	0.411609
228	0xbd84aeff	-0.0647869
229	0xbf4d6fca	-0.802487
230	0x3ce9a4aa	0.0285209
231	0x3f5303c0	0.824276
232	0x3f48c6b5	0.784282
233	0x3d9e776a	0.0773762
234	0xbca64ff6	-0.0203018
235	0xbfbf6113	-1.49515
236	0x3dbb2406	0.0913773
237	0x3d610e88	0.0549455
238	0x3c5f3e54	0.0136257
239	0xbd8dfc42	-0.0693288
240	0xbee50119	-0.447274
241	0xbe35b24f	-0.177438
242	0xbc93660e	-0.017993
243	0xbe6d9cf1	-0.232044
244	0xbf7fd545	-0.999348
245	0xbd50520d	-0.0508595
246	0x3dff255f	0.124583
247	0x3d2229c1	0.0395906
248	0x3efe9d73	0.497295
249	0xc000f2d0	-2.01482

B0 f4 [50]
0	0xbc9e46a8	-0.0193208
1	0xbddd640f	-0.108101
2	0x3c887c3b	0.0166608
3	0x3e256c0d	0.161545
4	0xbddafe1e	-0.10693
5	0x3e945719	0.289727
6	0x3f283926	0.657122
7	0xbe18d8ed	-0.149265
8	0xbe124702	-0.142849
9	0xbf1b2581	-0.606041
10	0xbf0234b9	-0.508617
11	0xbea17a68	-0.315387
12	0x3d65c8e7	0.0560998
13	0xbcaa6381	-0.0207994
14	0x3d4b1c79	0.0495877
15	0x3eb7ecbb	0.359228
16	0xbe0a3012	-0.134949
17	0xbd44bb1b	-0.04803
18	0x3de8ede5	0.113735
19	0x3d623c1a	0.0552331
20	0x3e400ef1	0.187557
21	0xbf111fe6	-0.566893
22	0x3d654295	0.0559717
23	0xbeeb2208	-0.459244
24	0x3e14d445	0.145341
25	0xbc9e37f9	-0.0193138
26	0x3d8ddf1c	0.0692732
27	0x3dc32fa3	0.0953057
28	0x3dd038e3	0.101671
29	0x3ded51f8	0.115879
30	0xbeea1b3b	-0.457239
31	0xbed3e271	-0.413837
32	0xbeaa5b10	-0.332726
33	0xbd58f8da	-0.0529717
34	0x3d7957c0	0.0608747
35	0x3ec2e2da	0.380637
36	0x3e7570c5	0.239688
37	0x3d005eb0	0.0313403
38	0x3e7a4c1f	0.244431
39	0x3e2cc708	0.168728
40	0xbe0273d6	-0.127395
41	0x3d415e54	0.0472091
42	0x3dbf1788	0.0933066
43	0xbe529175	-0.205633
44	0xbca78911	-0.0204511
45	0xbea83750	-0.328547
46	0x3d8977f1	0.0671233
47	0xbe8c6cdb	-0.274268
48	0xbf0a131b	-0.539354
49	0xbf1ab2d1	-0.604291

W1 f4 [50, 50]
0	0x3d1bcefe	0.0380392
1	0x3f1c38d2	0.610242
2	0x3e4d07c8	0.200225
3	0x3e161848	0.146577
4	0x3f091dac	0.535609
5	0xbf7cd76b	-0.987662
6	0xbf3d421c	-0.73929
7	0x3ee4eb35	0.447107
8	0x3f13a1b2	0.576686
9	0xbed574b4	-0.416906
10	0xbd242c2f	-0.0400812
11	0x3fd1fd37	1.64054
12	0x3e91b2c4	0.284567
13	0xbc05b704	-0.00816131
14	0xbf2992a7	-0.662394
15	0xbf0bd8ae	-0.546275
16	0x3e85681f	0.26056
17	0xbf4c39ac	-0.797755
18	0x3e122a6f	0.14274
19	0xbdc67b1c	-0.0969145
20	0x3f910625	1.133
21	0x3eaf3301	0.342186
22	0x3f228e71	0.634986
23	0xbf825658	-1.01826
24	0xbe1b1ee2	-0.151485
25	0x3d010a3c	0.0315039
26	0x3f2af6d7	0.667829
27	0x3e8d3133	0.275766
28	0x3ed79896	0.421086
29	0x3c1dc5ae	0.00962965
30	0xbed6f30a	-0.419823
31	0xbef619db	-0.480666
32	0x3f8a1f4b	1.07908
33	0x3e6acd18	0.229298
34	0x3f35a2b6	0.709514
35	0x3e6b8d82	0.230032
36	0xbe473c4f	-0.194566
37	0xbecdab7e	-0.401699
38	0xbe2cb4af	-0.168658
39	0xbece0d24	-0.402444
40	0x3e70d2c4	0.235179
41	0x3f267158	0.650167
42	0xbff4bd66	-1.91203
43	0x3dba1159	0.0908534
44	0xbc7518b1	-0.0149595
45	0xbf3b9de5	-0.732878
46	0x3fb2833c	1.39463
47	0x3e8080d8	0.250983
48	0x3e44f2ae	0.192332
49	0x3f87851f	1.05875
50	0xbc8f3486	-0.0174811
51	0xbf1348c3	-0.575329
52	0xbe5a105a	-0.212953
53	0x3d66f263	0.0563835
54	0xbddae03b	-0.106873
55	0xbe8dee9a	-0.277211
56	0xbe81dc72	-0.253635
57	0xbeb6fb09	-0.357384
58	0x3c074a4c	0.00825746
59	0xbf8d26e9	-1.10275
60	0x3f1cebff	0.612976
61	0xbf3136a4	-0.69224
62	0xbec29b28	-0.38009
63	0x3d2f7172	0.0428328
64	0xbd842e2d	-0.0645412
65	0xbb5fe808	-0.00341654
66	0x3f650c80	0.894722
67	0x3f1c6aa1	0.611002
68	0xc0adf338	-5.43594
69	0x3f5a64d4	0.853101
70	0x3e0683c3	0.131362
71	0x3f27c2ec	0.655318
72	0xc03eea21	-2.98304
73	0xbd1d854c	-0.0384572
74	0x3de3b57c	0.111186
75	0x3c894e5d	0.016761
76	0x3e8bc9ef	0.273025
77	0x3dee1587	0.116252
78	0xbf387d70	-0.720664
79	0x3d2ec41e	0.0426675
80	0x3eb9b329	0.362695
81	0x3fabaace	1.34115
82	0x3fa2f1aa	1.273
83	0xbe8db014	-0.276734
84	0x3ea5e508	0.324013
85	0x3d76c4ee	0.0602464
86	0x3cbad7d8	0.022808
87	0x3f01c726	0.506945
88	0x3e9321c4	0.287367
89	0xbf2e0ed8	-0.679914
90	0xbc85875e	-0.0162999
91	0xbdde6d59	-0.108607
92	0xbfca8b6e	-1.58238
93	0xbe3feeb3	-0.187434
94	0x3a8f079a	0.00109123
95	0x3f100853	0.562627
96	0x3edd2c7c	0.43198
97	0xbd38d300	-0.0451231
98	0x3f9d26e9	1.22775
99	0x3f965e89	1.17476
100	0xbd070111	-0.03296
101	0xbf874784	-1.05687
102	0x3e91dcf9	0.284889
103	0x3fa087fd	1.25415
104	0xbdb732b7	-0.0894522
105	0xbdd9e94b	-0.106402
106	0x3d1d4266	0.0383934
107	0x3c7582ce	0.0149848
108	0xbf466aa9	-0.775065
109	0x3ec67019	0.387574
110	0x3cbf6d9e	0.0233677
111	0x3f071a3b	0.527744
112	0xbdbb9601	-0.0915947
113	0x3d195fd3	0.0374449
114	0xbeb4a01b	-0.352784
115	0xbfbcfba9	-1.47643
116	0x3f06ff09	0.527329
117	0xbdbfe12c	-0.0936912
118	0x3d5b0483	0.0534711
119	0x3e37d135	0.179509
120	0xbeddeb96	-0.433438
121	0x3fa66e44	1.30024
122	0xbc88feac	-0.016723
123	0x3d9286b6	0.071546
124	0x3f455593	0.770837
125	0xbd2a0c5e	-0.0415157
126	0xbf47bcb2	-0.780223
127	0xbf5c9e77	-0.861793
128	0x3e8e2585	0.27763
129	0x3f689082	0.908455
130	0xbf014046	-0.504887
131	0xc003dc72	-2.06033
132	0x3e8387df	0.256896
133	0xbf94f7ba	-1.16381
134	0xbe742bfa	-0.238449
135	0xbe9849cb	-0.297438
136	0x3ef827fa	0.48468
137	0x3e31b4fe	0.173542
138	0x3f0138de	0.504774
139	0xbf1793ee	-0.592101
140	0xbe847736	-0.258722
141	0x3ee23422	0.441804
142	0x3e8d2c5a	0.275729
143	0x3eea8d65	0.45811
144	0x38d7d638	0.000102919
145	0x3fb1ee78	1.39009
146	0xbedf7a70	-0.436481
147	0xbd146471	-0.0362286
148	0xbd5e9d7a	-0.0543494
149	0x3f7cd424	0.987612
150	0xbc37e9e7	-0.0112252
151	0x3f14ace2	0.580763
152	0xbe2971c1	-0.165473
153	0xbe456f76	-0.192808
154	0x3f0d8def	0.552947
155	0xbdc62a36	-0.0967602
156	0xbe3d230c	-0.184704
157	0xbd45e892	-0.0483175
158	0x3f123209	0.571076
159	0xbf19858c	-0.599694
160	0x3f47a54c	0.779866
161	0x3f3843f6	0.719787
162	0x3eb22a0b	0.347977
163	0x3cc006b6	0.0234407
164	0xbf2ccc57	-0.674993
165	0xbd268c26	-0.040661
166	0xbe84b76f	-0.259212
167	0xbe25ec81	-0.162035
168	0xbdccd7cf	-0.100021
169	0xbf0bf1c7	-0.546658
170	0x3ebd0870	0.369205
171	0x3fad4fdf	1.354
172	0xc0519d34	-3.27522
173	0x40444841	3.06691
174	0x3eb51676	0.353687
175	0x3c431f3a	0.0119093
176	0x3ed6e02a	0.419679
177	0xbef569b1	-0.479322
178	0x3e640a28	0.222695
179	0xbbe4b8fd	-0.00698006
180	0x3f9b52a8	1.21346
181	0x3f13e79f	0.577753
182	0xbe8c8627	-0.274461
183	0xbf0175d1	-0.505704
184	0xbedc60cc	-0.430426
185	0xbf83d9a9	-1.03008
186	0xbfa3fd0d	-1.28116
187	0x3e99b4dd	0.300208
188	0x3c66a4e5	0.0140774
189	0xbcfc2118	-0.0307775
190	0x3ebe29b7	0.371412
191	0xbdc6be1d	-0.0970423
192	0xc0116c0d	-2.27222
193	0xbc949de7	-0.0181417
194	0x3c94d361	0.0181672
195	0x3f25cc21	0.647646
196	0x3e87e1fc	0.265396
197	0x3ea4f2d0	0.322165
198	0x3fa64c83	1.29921
199	0xc02ebde4	-2.73034
200	0xbcdcd340	-0.0269562
201	0xbfb077ee	-1.37866
202	0xbec053c1	-0.375639
203	0x3ff76502	1.93277
204	0xbf08f249	-0.534947
205	0x3e299f1b	0.165646
206	0xbfd11e11	-1.63373
207	0xbdb99c89	-0.0906306
208	0xbfa9f16b	-1.32768
209	0x3f37444e	0.715886
210	0xbedb4480	-0.428257
211	0x3e142635	0.144677
212	0xbee7f456	-0.453036
213	0xbcec3f8f	-0.0288389
214	0xc0a39763	-5.11223
215	0xbfae80f1	-1.36331
216	0xbe3e3b47	-0.185773
217	0x3e826f1e	0.254754
218	0x3f0cd5d8	0.550138
219	0xbe1a033e	-0.150403
220	0xbf25871e	-0.646593
221	0x3febbfc6	1.84179
222	0xbd9af097	-0.0756542
223	0x3ef681aa	0.481458
224	0x3f075547	0.528645
225	0x3bbe56e8	0.0058087
226	0xbf9ca287	-1.22371
227	0xbfb96f00	-1.4487
228	0x3f2f990b	0.685929
229	0x3f56f838	0.839725
230	0x3ee3f24e	0.445208
231	0xbb8d8b2e	-0.00431957
232	0x3e119371	0.142164
233	0xbde0bcbe	-0.109735
234	0xbf4fee1c	-0.812227
235	0xbf1c840e	-0.61139
236	0x3f573301	0.840622
237	0x3c21683a	0.00985151
238	0x3efb7b8d	0.491177
239	0xbe8eff7e	-0.279293
240	0xbec82afe	-0.390953
241	0x3ea89aed	0.329307
242	0x3dd3edd9	0.103481
243	0x3d19a126	0.0375072
244	0xbd247c4c	-0.0401576
245	0x40189ca2	2.38456
246	0xbef73472	-0.482822
247	0xbde96356	-0.113959
248	0xbf20038a	-0.625054
249	0xbf2bf24e	-0.671666
250	0x3c8b68b4	0.0170177
251	0x3bbd7a09	0.00578237
252	0xbc1d6972	-0.00960766
253	0xbba4dd1a	-0.00503124
254	0xbc953f98	-0.0182188
255	0x3cf5880d	0.0299721

B1 f4 [50]
0	0xbf4cfebd	-0.800762
1	0xbf5b8a8f	-0.857583
2	0x3f28bfb1	0.659175
3	0x3da5a2ff	0.0808773
4	0xbe36130a	-0.177807
5	0xbbd165a3	-0.00639029
6	0xbbbe45cb	-0.00580666
7	0x3dd5c6c1	0.104383
8	0xbbb48909	-0.0055095
9	0xbf54dc87	-0.83149
10	0xbf5d8efc	-0.865463
11	0xbe8ae1ef	-0.271255
12	0xbe8ff8cb	-0.281195
13	0x3e86f545	0.26359
14	0xbd022432	-0.0317728
15	0x3f13776c	0.576041
16	0xbcb8e8ea	-0.022572
17	0x3e0337eb	0.128143
18	0xbe25692b	-0.161534
19	0xbdf25e57	-0.118344
20	0x3f54dca9	0.831492
21	0x3f376391	0.716363
22	0xbc9fa1bc	-0.0194863
23	0xbe0a4f01	-0.135067
24	0xbd325933	-0.0435421
25	0xbe55b39e	-0.208693
26	0xbc42897d	-0.0118736
27	0x3d7775ee	0.0604152
28	0xbc13e977	-0.00902783
29	0xbdf68e82	-0.120389
30	0x3b69688f	0.00356153
31	0x3f468859	0.775518
32	0x3f3ed9be	0.74551
33	0xbee6de55	-0.450915
34	0xbf3a33ad	-0.727351
35	0xbf62d656	-0.886083
36	0x3e49c4db	0.19704
37	0xbed15012	-0.408814
38	0xbd48626f	-0.048922
39	0xbd78dadd	-0.0607556
40	0x3e5cd291	0.215647
41	0xbc8fc499	-0.0175498
42	0xbea8405b	-0.328616
43	0x3f1ccaa3	0.612467
44	0xbf1524d1	-0.582593
45	0xbc6d9a37	-0.0145021
46	0xbecf18ec	-0.404487
47	0xbf898e75	-1.07466
48	0xbf2003ef	-0.62506
49	0xbe3e820e	-0.186043

W2 f4 [50, 50]
0	0x3e5c0379	0.214857
1	0x3f7a1ef7	0.977035
2	0xbe8a2681	-0.269825
3	0xbd659917	-0.0560542
4	0x3f21edaf	0.632533
5	0xbd2c1adb	-0.0420178
6	0x3cab327e	0.0208981
7	0x3df61cbd	0.120172
8	0xbeee67f9	-0.465637
9	0x3e023316	0.127148
10	0xbf560a42	-0.836094
11	0xbf6bf280	-0.921669
12	0xbf102928	-0.563128
13	0xbdb8ce7e	-0.0902376
14	0xbefe9ad4	-0.497275
15	0xbdc55b03	-0.096365
16	0xbd077616	-0.0330716
17	0xbc406abf	-0.0117442
18	0x3f99143c	1.19593
19	0x3fddbda5	1.73235
20	0xc01cd5d0	-2.45055
21	0x3cc55f86	0.0240934
22	0xba8e500f	-0.00108576
23	0x3ed23b9b	0.410611
24	0xbd487e03	-0.0489483
25	0x3f76583f	0.962284
26	0xbb014c1b	-0.00197292
27	0xbd6e1247	-0.0581229
28	0x3ab69f0e	0.00139329
29	0x3ebf4a34	0.373613
30	0x3f6432a9	0.891398
31	0x3e028177	0.127447
32	0x3f818a87	1.01204
33	0xbe59ed39	-0.212819
34	0x3f1cdf05	0.612778
35	0xbe41b329	-0.18916
36	0x3cc3dd04	0.0239091
37	0xbf83e61d	-1.03046
38	0x3f152c06	0.582703
39	0x3f93923a	1.1529
40	0x3f83dd44	1.03019
41	0xbcfb30c3	-0.0306629
42	0xbe1e53eb	-0.154617
43	0x3ebb0100	0.365242
44	0x3df41637	0.119183
45	0xbb2feabf	-0.00268428
46	0x3f91d92b	1.13944
47	0xbef8e53f	-0.486124
48	0x3f43e8ff	0.765274
49	0x3efe8577	0.497112
50	0x3e17c30d	0.148205
51	0xbe3344c3	-0.175067
52	0xbe935bb4	-0.287809
53	0xbec4af2d	-0.384149
54	0xbfd08b97	-1.62926
55	0xbcc0be01	-0.0235281
56	0xbd04014c	-0.0322278
57	0xbf1b8317	-0.607469
58	0x3f1d2125	0.613787
59	0xbece1c15	-0.402558
60	0x3f43007a	0.761726
61	0xbe1da9ca	-0.153968
62	0xbf737e5f	-0.951147
63	0x3e558687	0.208521
64	0x3eb1f278	0.347553
65	0x3f1738e7	0.590712
66	0x3c27bef6	0.0102384
67	0xbd7f9196	-0.0623947
68	0xbfeb5a86	-1.8387
69	0xbebe70a0	-0.371953
70	0xbe5fd7a1	-0.218596
71	0x3f223098	0.633554
72	0xbc960c46	-0.0183164
73	0xbe5cc3a0	-0.21559
74	0xbd665493	-0.056233
75	0x3ef7cb71	0.483974
76	0xbc3cb959	-0.0115188
77	0x3f557061	0.833746
78	0x3c1b44bf	0.00947684
79	0x3e936545	0.287882
80	0xbf8790eb	-1.05911
81	0x3f066a66	0.525061
82	0xbdcadf57	-0.0990588
83	0x3da263e6	0.0792921
84	0xbf6539c9	-0.895413
85	0x3e263d3e	0.162343
86	0xbdab312e	-0.0835899
87	0xbf817492	-1.01137
88	0xbedcbb1b	-0.431115
89	0x3f88ab60	1.06773
90	0xbed18937	-0.40925
91	0xbcf4aba4	-0.029867
92	0xbf0100d6	-0.503919
93	0x3efb2208	0.490494
94	0xbfa1b0de	-1.26321
95	0xbcdbbfaf	-0.0268248
96	0xc0008e37	-2.00868
97	0x3ca0483f	0.0195657
98	0xbe5230ba	-0.205264
99	0xbf981648	-1.18818
100	0xbf2eb0b8	-0.682384
101	0xbcc5780f	-0.0241051
102	0xc0a064d8	-5.01231
103	0x3e1a38b9	0.150607
104	0xbd0d3522	-0.0344745
105	0x3cfc716b	0.0308158
106	0x3d43801d	0.0477296
107	0x3c9f7e15	0.0194693
108	0x3f404a51	0.751134
109	0x3f2327bb	0.637325
110	0x40566003	3.34961
111	0x3db4d991	0.0883056
112	0xbfbd7b74	-1.48033
113	0x3ff54ee4	1.91647
114	0x3f4ee7c5	0.808224
115	0xbe3deebb	-0.185481
116	0x3bd1611c	0.00638975
117	0xc0b9dcf0	-5.80822
118	0x3eeb3cc5	0.459448
119	0xc0172ec7	-2.36223
120	0x3d871972	0.0659665
121	0xbeb1d0a6	-0.347295
122	0xbd4602c9	-0.0483425
123	0x3f45130e	0.769822
124	0x3aa7711e	0.00127748
125	0xbed31c22	-0.412324
126	0x3cd18d5c	0.0255801
127	0x3fd23b25	1.64243
128	0xbc239ba6	-0.00998584
129	0xbf3cd706	-0.737656
130	0xbf381206	-0.719025
131	0x3e9e3001	0.30896
132	0x3f95ad97	1.16936
133	0xbf8464ed	-1.03433
134	0x3ea4a9ce	0.321608
135	0x3cb46746	0.0220219
136	0xbf3612a5	-0.711222
137	0x3d27892c	0.0409023
138	0xbf50793e	-0.81435
139	0xbfa70a91	-1.30501
140	0x3d1bef65	0.0380701
141	0x3ca41447	0.0200292
142	0x4085ff19	4.18739
143	0xbfef3626	-1.86884
144	0xbf653719	-0.895372
145	0x3cd488ee	0.0259442
146	0xbd224f15	-0.0396262
147	0xc0251d69	-2.57992
148	0xbe20f345	-0.157178
149	0xbfc1ff2e	-1.5156
150	0xbe932160	-0.287364
151	0x3f70cb9f	0.940607
152	0xbdcb073d	-0.0991349
153	0x3c4654e4	0.0121052
154	0x3e2e742a	0.170365
155	0xbd39d7ad	-0.0453717
156	0x3d20f8b9	0.0392997
157	0x3f0a0957	0.539205
158	0x3d9e301c	0.0772402
159	0x3f633387	0.887505
160	0xbf3d5012	-0.739503
161	0x3ead4fbe	0.338499
162	0x3c0d6c0f	0.00863172
163	0xbe6bb3c8	-0.230178
164	0xbe6bd662	-0.23031
165	0x3b77aef9	0.00377935
166	0xba6c6d9e	-0.000901902
167	0xbea3923a	-0.319475
168	0x3fbc754f	1.47233
169	0xbd2d344b	-0.0422862
170	0x3e29c5e7	0.165794
171	0x3dfae0c1	0.122499
172	0x3d296b33	0.041362
173	0x3dedd2f2	0.116125
174	0xbcbbf0a7	-0.0229419
175	0xbe9b5611	-0.303391
176	0x3d28844e	0.0411418
177	0xbf09ca8e	-0.538247
178	0xbd50e52b	-0.0509998
179	0x3ed10753	0.408259
180	0x3e9908c4	0.298895
181	0xbfab33db	-1.33752
182	0x3e8548ed	0.260322
183	0x3e828199	0.254895
184	0x3d7cac59	0.0616878
185	0xbb698971	-0.00356349
186	0x3e80ec31	0.251802
187	0xbfd101e2	-1.63287
188	0xbeeec43f	-0.466341
189	0xbf699674	-0.912452
190	0x3f2c91b0	0.674098
191	0x3d35a8a9	0.0443503
192	0xbe190364	-0.149427
193	0x3e9a4f44	0.301386
194	0xbf411330	-0.754199
195	0x3d064f3a	0.0327904
196	0x3f40332f	0.750781
197	0xbd95c132	-0.0731224
198	0xbe59d6ae	-0.212733
199	0xbed13a2e	-0.408647
200	0x3efbbfd7	0.491698
201	0x3e95c747	0.292536
202	0xbeec5309	-0.461571
203	0x3d39c56e	0.0453543
204	0xbe14bd77	-0.145254
205	0xbca2581a	-0.0198174
206	0xbd03f9bf	-0.0322206
207	0xbe24373f	-0.160367
208	0xbf515ffe	-0.817871
209	0xbd8893d3	-0.0666882
210	0xbeb5fd69	-0.355449
211	0xbe590929	-0.211949
212	0xbe2478c8	-0.160617
213	0x3d0e13da	0.0346869
214	0x3e86edee	0.263534
215	0x3e999158	0.299937
216	0x3d362f16	0.0444785
217	0xbf115193	-0.567651
218	0xbf037e3d	-0.513645
219	0xbfd57f63	-1.66795
220	0xbf391080	-0.722908
221	0xbe8fdb2b	-0.280969
222	0xbd455b03	-0.0481825
223	0x3d92ad74	0.0716199
224	0x3be62e32	0.00702455
225	0x3d2adc4d	0.041714
226	0x3c143541	0.0090459
227	0x3f92238e	1.14171
228	0x3d3ca7d6	0.0460585
229	0xbfe3342f	-1.77503
230	0x3e01b1d9	0.126655
231	0xbe253932	-0.161351
232	0x3fd3290b	1.64969
233	0x3f7ed5e0	0.995451
234	0xbe97d007	-0.296509
235	0x3f9f8c54	1.24647
236	0xbf30f6f1	-0.691268
237	0xbffd3f7d	-1.9785
238	0xbef922fb	-0.486595
239	0xbf25f7a5	-0.64831
240	0x3f37cbc5	0.717953
241	0xbb40c4d7	-0.00294142
242	0x3f39b5fa	0.725433
243	0xbe62584f	-0.22104
244	0x3ebbf8fd	0.367134
245	0x3c0fe129	0.00878171
246	0x3f986d1e	1.19083
247	0x4015e4cd	2.34209
248	0x3e7769ec	0.241615
249	0x3f4a5732	0.790393
250	0xbde4b3c4	-0.111671
251	0xbdd0a676	-0.10188
252	0xbef8f302	-0.486229
253	0xbe69d063	-0.228334
254	0x3ec780fe	0.389656
255	0x3bbc76e9	0.00575148

B2 f4 [50]
0	0xbf10d823	-0.565798
1	0x3f2fb7d8	0.686399
2	0x3ea4ba73	0.321735
3	0x3da104e3	0.0786226
4	0xbe48f367	-0.196241
5	0x3dfa61e1	0.122257
6	0xbf983223	-1.18903
7	0xbf5c298d	-0.860009
8	0xbfb442d9	-1.40829
9	0xc0060cf2	-2.09454
10	0xbf810870	-1.00807
11	0xbeaf6be3	-0.34262
12	0xbe8fa073	-0.280521
13	0x3e2681aa	0.162604
14	0xbf8580b2	-1.04299
15	0x3f20f4b6	0.628734
16	0x3f006434	0.501529
17	0xbf1b789a	-0.607309
18	0xc078c1a9	-3.88682
19	0xbebae382	-0.365017
20	0xbe80ef35	-0.251825
21	0x3e57c88e	0.210726
22	0xbf7dfc1a	-0.992128
23	0xbe983148	-0.297251
24	0x3ec2e925	0.380685
25	0xbf5202c9	-0.820355
26	0xbd0b9dc3	-0.034086
27	0xbf6e5860	-0.931036
28	0xbfac68dc	-1.34695
29	0x3f9637df	1.17358
30	0x3f0f5925	0.559954
31	0xbde2f48c	-0.110818
32	0x3fc0b5dd	1.50555
33	0xbe7c022a	-0.246102
34	0xbf3ab8b7	-0.729381
35	0xbfa6add6	-1.30218
36	0xbe792bc3	-0.243331
37	0x3f4a5eee	0.790511
38	0x3f998202	1.19928
39	0xbf232dc3	-0.637417
40	0xbc8793a8	-0.0165499
41	0xbf1aa63b	-0.604099
42	0xbeebda30	-0.460649
43	0x3f95f7a5	1.17162
44	0x3f338d61	0.701376
45	0xbe3f826f	-0.187021
46	0xbcaba74e	-0.0209538
47	0xbf6299a6	-0.885157
48	0x3f0052a4	0.501261
49	0xbfa2e297	-1.27254

W3 f4 [50, 50]
0	0x3c23c70f	0.00999619
1	0xbb2b2eed	-0.00261205
2	0xbd539706	-0.0516577
3	0x3ceae5f2	0.0286741
4	0xbd316441	-0.0433085
5	0xbca47270	-0.0200741
6	0xbcbf6dd4	-0.0233678
7	0x3cbe32a0	0.0232175
8	0x3d0a1852	0.0337146
9	0xbc3422b2	-0.0109946
10	0xbcac1b47	-0.0210091
11	0xbc54265d	-0.0129486
12	0x3cef98aa	0.0292476
13	0xbd059104	-0.032609
14	0xbd39a218	-0.0453206
15	0x3ceb2b27	0.0287071
16	0xbd26e420	-0.0407449
17	0xbb741df5	-0.00372493
18	0xbd2ef2c7	-0.042712
19	0xbd2d89c1	-0.0423677
20	0x3c5bb532	0.0134099
21	0xbc19c955	-0.00938638
22	0x3d2c6b48	0.0420945
23	0x3c0f9178	0.00876271
24	0xbd140322	-0.0361358
25	0x3c656910	0.0140021
26	0xbb99c15d	-0.00469224
27	0xbd14826e	-0.0362572
28	0x3a8c11f2	0.00106865
29	0x3cf72134	0.0301672
30	0xba2feeb4	-0.000671129
31	0x3d26bfa2	0.0407101
32	0x3b3398c9	0.00274043
33	0x3cef89c6	0.0292405
34	0x3c8f1547	0.0174662
35	0x3c5428e2	0.0129492
36	0xbc05f934	-0.00817709
37	0xbd427a2e	-0.0474798
38	0xbd0ac9bd	-0.0338838
39	0x3c254824	0.010088
40	0xbab04d0f	-0.00134507
41	0xbc366730	-0.011133
42	0xbd21b9df	-0.0394839
43	0xb9cf42d1	-0.000395319
44	0xbd14bd26	-0.0363132
45	0x3a8930c1	0.00104668
46	0x3c4e5e32	0.0125957
47	0x3d00db0c	0.0314589
48	0xbd1de4d2	-0.0385483
49	0xbd430bee	-0.0476188
50	0x39998bcf	0.000292866
51	0xbc76bcf6	-0.0150597
52	0xbc294721	-0.0103319
53	0xbd2e5dac	-0.0425698
54	0x3d1c6287	0.0381799
55	0x3bf8553c	0.00757852
56	0x3d166adb	0.036723
57	0x3c8a8b3f	0.0169121
58	0x3b917635	0.00443914
59	0x3ca5204b	0.020157
60	0xbd586cc3	-0.0528381
61	0x3bb4cf80	0.0055179
62	0xbd17486c	-0.0369343
63	0xbd3bed4c	-0.0458806
64	0x3cc02986	0.0234573
65	0xbde82492	-0.113351
66	0xbe152d66	-0.145681
67	0x3c9928c6	0.0186962
68	0xbd2c23e0	-0.0420264
69	0x3d0f8bc4	0.0350454
70	0xbd0ba5f1	-0.0340938
71	0xbc0be38e	-0.00853814
72	0x3cbc419a	0.0229805
73	0x3c6cab24	0.0144451
74	0xbd46b8d1	-0.0485161
75	0xbd50827f	-0.0509057
76	0xbcb22af5	-0.021749
77	0x3cbd99f4	0.0231447
78	0xbd2f37ab	-0.0427777
79	0x3c9352c3	0.0179838
80	0xbd14f2bb	-0.0363643
81	0x3b1c2a6e	0.0023829
82	0xbc0d92db	-0.00864097
83	0xbce0dbad	-0.0274485
84	0x3cd1ddae	0.0256184
85	0x3e2c408e	0.168215
86	0x3c1d8603	0.00961447
87	0x3c41d8e8	0.0118315
88	0xbd136497	-0.0359846
89	0x3d3ced77	0.0461249
90	0xbcc460ee	-0.023972
91	0x3d4f42c9	0.0506008
92	0xbda45f4d	-0.0802599
93	0xbcc92791	-0.024555
94	0xbcad6056	-0.0211641
95	0x3c7f667d	0.0155884
96	0x3d476768	0.0486826
97	0xbac0c1d2	-0.00147062
98	0xbc179080	-0.00925076
99	0x3ce17998	0.0275238
100	0x3da1d268	0.0790146
101	0xbd415352	-0.0471986
102	0x3d7ec502	0.0621996
103	0xbdb90570	-0.0903424
104	0x3e24e098	0.161013
105	0x3d75a8c4	0.0599754
106	0xbd2dd957	-0.0424436
107	0x3dcb35cc	0.0992237
108	0x3eb152f4	0.346336
109	0x3d6c0f38	0.0576317
110	0x3be8167f	0.00708276
111	0xbf0ec9f3	-0.557769
112	0xbe3fceb8	-0.187312
113	0x3e968427	0.293977
114	0x3e45ccc9	0.193164
115	0x3e8bbf94	0.272946
116	0xbe952221	-0.291276
117	0x3e3d6302	0.184948
118	0xbddd9770	-0.108199
119	0x3f038e9f	0.513895
120	0xbd2d0e71	-0.0422501
121	0xbd89e74d	-0.0673357
122	0xbee99c5a	-0.456271
123	0x3e2c7608	0.168419
124	0x3cc89fe2	0.0244903
125	0x3c5fa6c4	0.0136506
126	0x3cd155fe	0.0255537
127	0x3e8d58a7	0.276067
128	0x3c4b2598	0.0123991
129	0xbc9a07e9	-0.0188026
130	0x3dc5dd67	0.0966137
131	0xbe330058	-0.174806
132	0x3c648982	0.0139488
133	0xbe3f7447	-0.186967
134	0xbe01c10d	-0.126713
135	0x3bc2bafb	0.0059427
136	0xbe21882b	-0.157746
137	0xbec7cdab	-0.390241
138	0x3f22d656	0.636083
139	0xbed73b00	-0.420372
140	0xbe00a7c6	-0.12564
141	0xbeb16e9c	-0.346547
142	0x3e4ffd61	0.203115
143	0xbe280022	-0.164063
144	0xbddc7608	-0.107647
145	0x3f15a05a	0.584478
146	0xbd2ed45f	-0.042683
147	0x3eb99392	0.362454
148	0x3a5eb0c7	0.000849497
149	0xbe4aac11	-0.197922
150	0x3db27f6c	0.0871571
151	0xbe885f8d	-0.266354
152	0xbf6d0a46	-0.925938
153	0x3d6ae460	0.0573467
154	0xbfb66cf4	-1.4252
155	0x3fac89f4	1.34796
156	0x3f4dc9e6	0.803862
157	0x3dee5711	0.116377
158	0xbff9a177	-1.95024
159	0xbeac6b05	-0.336754
160	0x3f608f97	0.877191
161	0x3eae35a4	0.340253
162	0x3e1b29a2	0.151526
163	0xbf53aeff	-0.826889
164	0xbe1ba909	-0.152012
165	0xbf6756b8	-0.903667
166	0xbe17b02d	-0.148133
167	0x3fb78423	1.43372
168	0x3cf33150	0.0296866
169	0x3e8d59d5	0.276076
170	0xbdbb8943	-0.0915704
171	0x3f12148c	0.570626
172	0x3f6cc8cd	0.924939
173	0x3f8687d3	1.05102
174	0xbf8f7319	-1.1207
175	0x3f9bd567	1.21745
176	0xbcc8adef	-0.024497
177	0x3e966213	0.293717
178	0xbed4299e	-0.41438
179	0x3e47542a	0.194657
180	0xbf387e28	-0.720675
181	0xc007b867	-2.12063
182	0x3edfef5b	0.437373
183	0xbe265b21	-0.162457
184	0xc0f61188	-7.68964
185	0xbe9d8a11	-0.307694
186	0xbfbd8a87	-1.48079
187	0xbe871327	-0.263818
188	0xbcb73846	-0.0223657
189	0x3fcc0c20	1.59412
190	0xbe9e6905	-0.309395
191	0xbeaa85ec	-0.333053
192	0xbebe3cda	-0.371558
193	0x3ff300bd	1.89846
194	0x3e90c910	0.282784
195	0xbec9bbf1	-0.394012
196	0x3d028043	0.0318606
197	0xbf94c932	-1.16239
198	0x3dee92d5	0.116491
199	0xbde37e6f	-0.111081
200	0xbf5b83ae	-0.857478
201	0xbf7b25d5	-0.981046
202	0x3f5ecc0c	0.870301
203	0xbfae137f	-1.35997
204	0xbf1ac658	-0.604589
205	0xbf91d9d3	-1.13946
206	0x3f387dd4	0.72067
207	0x3e6e7a74	0.232889
208	0xbef0509c	-0.469365
209	0xbf71680e	-0.942994
210	0xbfbaa993	-1.4583
211	0xbec668c2	-0.387518
212	0xbf09844d	-0.537175
213	0xbf8d76de	-1.10519
214	0x3e501d5c	0.203237
215	0x3f2757f7	0.653686
216	0x3f20f399	0.628717
217	0xbf1245e5	-0.571379
218	0xbf469d0f	-0.775834
219	0x3e86d203	0.263321
220	0xbf9af9db	-1.21075
221	0xbdd7b7c8	-0.105331
222	0x3f13c2fc	0.577194
223	0xbf53445f	-0.825262
224	0x3f37d2e9	0.718062
225	0x3ea8999e	0.329297
226	0x3d43bcb9	0.0477874
227	0x3ffb0015	1.96094
228	0xbe1f36ac	-0.155482
229	0xbf44259e	-0.766199
230	0x3f929153	1.14506
231	0xbfe37cee	-1.77725
232	0x3f380bed	0.718932
233	0x3e245458	0.160478
234	0xbf234257	-0.637731
235	0xbf06a5e8	-0.525969
236	0x3ec64f33	0.387323
237	0x3f289481	0.658516
238	0xc026f7e4	-2.60888
239	0x3f0b8f69	0.545157
240	0x3f00df9c	0.503412
241	0xbebc05b4	-0.367231
242	0xbf38c2f8	-0.721725
243	0xbdbe8089	-0.0930186
244	0xbeab5ed9	-0.334708
245	0xbf89d4e9	-1.07681
246	0x3c9d77aa	0.0192221
247	0x3f0dbf8c	0.553704
248	0x3f6f71fc	0.935333
249	0x3fbc0e17	1.46918
250	0xbf957732	-1.1677
251	0xbfa5faec	-1.29672
252	0xbf8466e4	-1.03439
253	0x3efc1312	0.492333
254	0xbf2d0a13	-0.675935
255	0xbe8abcb6	-0.270971

B3 f4 [50]
0	0xbc63e583	-0.0139097
1	0xbd9a3104	-0.0752888
2	0x4004d57c	2.07553
3	0x3dccda6e	0.100026
4	0xbf3185cf	-0.693448
5	0xbfa2a7f0	-1.27075
6	0xbfa906cd	-1.32052
7	0xbf848c93	-1.03554
8	0xbf9c331e	-1.22031
9	0xbfe09668	-1.75459
10	0xbdf82ecb	-0.121183
11	0xc00a6834	-2.16261
12	0xbe1280ae	-0.143069
13	0xbdcaad1d	-0.098963
14	0x3f1e92d5	0.619428
15	0xc0150529	-2.32844
16	0xbf6f722e	-0.935336
17	0xbf1020f7	-0.563003
18	0xc05546b2	-3.33244
19	0xbfac10b6	-1.34426
20	0xbd338adc	-0.0438336
21	0x3f0bafc9	0.545651
22	0xbfb90dae	-1.44573
23	0xbe91af7d	-0.284542
24	0xbf11b9d8	-0.569242
25	0xbf071572	-0.527671
26	0x3ea9ed18	0.331887
27	0xbf95681f	-1.16724
28	0x3f1981ae	0.599635
29	0xbf93ae68	-1.15376
30	0x3f2cd541	0.675129
31	0x3d3db538	0.0463154
32	0xbf41526e	-0.755164
33	0x3f679dc3	0.904751
34	0xbf8c970f	-1.09836
35	0x3efb3e36	0.490709
36	0xbfea4895	-1.83034
37	0xbea9118c	-0.330212
38	0xbf44028e	-0.765664
39	0x3faa5aee	1.3309
40	0xbd4ca397	-0.0499607
41	0xbd07750a	-0.0330706
42	0x3f719ce0	0.9438
43	0xbfb5d6e0	-1.42062
44	0x3f940e17	1.15668
45	0x3ef0663c	0.46953
46	0xbdf7ae58	-0.120938
47	0xbfa0f51b	-1.25748
48	0x3e87e62e	0.265428
49	0xbf90aff7	-1.13037

W4 f4 [50, 50]
0	0x3ca53727	0.0201679
1	0x3cfc42dc	0.0307936
2	0x3e18a7a4	0.149077
3	0xbe6fdef8	-0.234249
4	0x3a8e9a8d	0.00108798
5	0x3dd87f88	0.105712
6	0xbf8e786c	-1.11305
7	0x3ea3fb7a	0.320278
8	0xbe7f8f47	-0.24957
9	0x3eb4b578	0.352947
10	0x3d96f0d0	0.0737015
11	0xbf1aa498	-0.604074
12	0xbeff37da	-0.498473
13	0x3dca6ffb	0.0988464
14	0x3ec1f1d0	0.378798
15	0xbd4942ef	-0.0491361
16	0xbea5d639	-0.3239
17	0x3eb6f1bb	0.357313
18	0x3dd73f31	0.105101
19	0xbf8028a2	-1.00124
20	0xbd31bc20	-0.0433923
21	0xbf2b620f	-0.669465
22	0x3b96cfa5	0.00460239
23	0x3c29b42e	0.0103579
24	0xbd89681b	-0.0670931
25	0x3ec288f0	0.379951
26	0xbe73d07d	-0.2381
27	0xbdc34f76	-0.0953664
28	0x3f1b7db7	0.607387
29	0x3d6dfc78	0.0581021
30	0xbe77b289	-0.241892
31	0x3de386d3	0.111097
32	0xbf72a583	-0.947838
33	0x3e283fd5	0.164306
34	0xbe3295a7	-0.174399
35	0x3ebbfbdf	0.367156
36	0xbf858cd2	-1.04336
37	0xbf1907d9	-0.597776
38	0x3e20b674	0.156946
39	0xbc7d482a	-0.0154591
40	0xbf20a655	-0.627538
41	0x3d2604ac	0.0405318
42	0xbf1c9d06	-0.611771
43	0x3e66e222	0.225472
44	0x3ef21cce	0.472876
45	0xbf17326a	-0.590613
46	0x3e1bd838	0.152192
47	0xbefbbc4d	-0.491671
48	0xbf36584f	-0.712285
49	0xbc44629b	-0.0119864
50	0xbc9d20a2	-0.0191806
51	0xbccf71f8	-0.0253229
52	0x3ef0928a	0.469868
53	0x3f50c166	0.815451
54	0x3ecaff09	0.396477
55	0xbf89bff0	-1.07617
56	0xbf14c3c2	-0.581112
57	0x402ba9a8	2.68223
58	0x3f76ee63	0.964575
59	0xbe2ed41b	-0.170731
60	0x3fc823b8	1.56359
61	0x40251e64	2.57998
62	0xbf5f3d3a	-0.872028
63	0xbd2f8239	-0.0428488
64	0x3f15cde6	0.585173
65	0x3e46e265	0.194223
66	0xbf22e297	-0.63627
67	0xbf487076	-0.782966
68	0x3f460d56	0.773641
69	0xbf7a2b06	-0.977219
70	0x3f37ce10	0.717988
71	0x3fdf8f47	1.74656
72	0xbd73cf70	-0.059524
73	0x3fc07b35	1.50376
74	0x3de86f8b	0.113494
75	0x3e4ea8da	0.201816
76	0x3ecaf838	0.396425
77	0x3f501377	0.812797
78	0x3fd5dc72	1.67079
79	0x3d9bc035	0.0760502
80	0xbfe6cba7	-1.80309
81	0xbed8bae9	-0.423301
82	0x4010779a	2.2573
83	0xbfa2f73c	-1.27317
84	0xbf4ee05d	-0.808111
85	0x3f60df26	0.878405
86	0xc01e324d	-2.47182
87	0xbf3dc8da	-0.741346
88	0x3fc084b6	1.50405
89	0xbf1f4df0	-0.622283
90	0xbf8292a3	-1.0201
91	0xbb573531	-0.00328381
92	0xbf53393b	-0.825092
93	0x3f53b470	0.826972
94	0x400dc1e8	2.21496
95	0x3fc44b0a	1.53354
96	0x3e9bb9ae	0.304151
97	0x404070e3	3.00689
98	0x3f2e6e33	0.681369
99	0xbd9634c0	-0.0733428
100	0x3d46bbdc	0.048519
101	0x3decb103	0.115572
102	0xbf2e9dc7	-0.682095
103	0xbd8d21c9	-0.0689121
104	0x3f7a3d71	0.9775
105	0xbfe72df5	-1.80609
106	0xbfefe719	-1.87424
107	0xbefd85be	-0.495161
108	0x3e1eefe5	0.155212
109	0x3f325f42	0.696766
110	0x3f152ae9	0.582686
111	0xbecec398	-0.403836
112	0xc0751538	-3.82942
113	0x3e1ce0b9	0.153201
114	0xbf1ea455	-0.619695
115	0x3da73ec6	0.0816627
116	0x3ea6ad92	0.325543
117	0xbf595b25	-0.849047
118	0x3f2f3fea	0.684569
119	0xbfd56fa8	-1.66747
120	0x3ff1800a	1.88672
121	0x3dff81a6	0.124759
122	0x3f4ec01e	0.807619
123	0xbf9f54a0	-1.24477
124	0xbf8061a6	-1.00298
125	0x3ee030c2	0.437872
126	0x3cc166d3	0.0236086
127	0xbf2ea3df	-0.682188
128	0xbf44a00a	-0.768067
129	0x3e4bc6a8	0.199
130	0xbcf2f8e6	-0.0296597
131	0x3f873626	1.05634
132	0x3f91b37d	1.13829
133	0x3e9f5f91	0.311276
134	0xbefaa194	-0.489514
135	0xbf2f471f	-0.684679
136	0x3fada900	1.35672
137	0xbd557d5b	-0.0521215
138	0xbf556b87	-0.833672
139	0x3e04666f	0.129297
140	0xbf2ee504	-0.683182
141	0x3c0aea54	0.00847872
142	0xbfbb79fb	-1.46466
143	0x3f35d6f1	0.710311
144	0x3f02cfb7	0.510982
145	0x3eb988f4	0.362373
146	0xbedcc07b	-0.431156
147	0xbea090f7	-0.313606
148	0xbeccacb0	-0.399755
149	0x3ed3dc27	0.413789
150	0xbd1d0d06	-0.0383425
151	0x3d8e9c53	0.0696341
152	0xbec94403	-0.393097
153	0x3e441a26	0.191506
154	0x3d149dcc	0.0362833
155	0x3e3c83ed	0.184097
156	0x3e061cbd	0.130969
157	0xbf12d613	-0.573579
158	0xbea5f19d	-0.324109
159	0x3ea18d47	0.315531
160	0xbccc0c12	-0.0249081
161	0x3dd70bd0	0.105003
162	0x3ed737da	0.420348
163	0x3dc20594	0.0947372
164	0xbe9f7836	-0.311464
165	0x3cc7c201	0.0243845
166	0x3eccfedf	0.400382
167	0xbec96b76	-0.393398
168	0x3e1c8ffc	0.152893
169	0xbe5e8ff3	-0.217346
170	0xbe4e22e6	-0.201305
171	0x3ddb6241	0.107121
172	0x3d1e2585	0.03861
173	0x3f07c89f	0.530405
174	0xbe46d7e9	-0.194183
175	0xbf8fde94	-1.12398
176	0xbe844d87	-0.258404
177	0xbe378c87	-0.179247
178	0x3d9d5c24	0.0768359
179	0x3e2ece14	0.170708
180	0x3a08af6f	0.000521413
181	0xbe8bee1c	-0.273301
182	0xbf27e7c0	-0.65588
183	0xbdb8ed1c	-0.090296
184	0x3ee6ac00	0.450531
185	0xbd84b4de	-0.0647981
186	0xbdc3fd78	-0.0956983
187	0x3ed5ddb1	0.417707
188	0xbd3b2499	-0.0456892
189	0xbf26599f	-0.649805
190	0xbe9fd695	-0.312184
191	0x3c621533	0.013799
192	0xbe43a798	-0.191069
193	0x3cbdd11c	0.023171
194	0xbfe87dd4	-1.81634
195	0xbfa83569	-1.31413
196	0x3ef9ea9a	0.488118
197	0xbbebd1b5	-0.00719663
198	0xbe8b45f1	-0.272018
199	0xbc190ee5	-0.00934193
200	0xbd4d9cbc	-0.0501983
201	0xbc7793b5	-0.0151109
202	0xbf347cfa	-0.705032
203	0xbe5c8323	-0.215344
204	0x3e22b94e	0.15891
205	0xbf5e9be1	-0.869566
206	0xbf23d945	-0.640034
207	0xbea74cb2	-0.326757
208	0xbf23a8b5	-0.639293
209	0xbe3d9f0a	-0.185177
210	0x3e60a6fc	0.219387
211	0xbf4e81fe	-0.806671
212	0xbeaa4441	-0.332552
213	0xbc89415d	-0.0167548
214	0xbf468017	-0.775392
215	0xbc43f87d	-0.0119611
216	0x3f00dff0	0.503417
217	0xbeb0754f	-0.344645
218	0xbd6b44bd	-0.0574386
219	0xbf7bd295	-0.983682
220	0x3ea9cc53	0.331637
221	0xbfce7232	-1.61286
222	0x3df8a43c	0.121407
223	0xbed89b52	-0.42306
224	0xbf64c587	-0.893639
225	0xbf3346aa	-0.700297
226	0xbdc15ecd	-0.0944191
227	0x3ea9d346	0.33169
228	0xbce191eb	-0.0275354
229	0x3d504288	0.0508447
230	0xbf0f9b02	-0.560959
231	0x3ebf351a	0.373452
232	0xbf51d81f	-0.819704
233	0x3f28aa22	0.658846
234	0x3f1f4480	0.622139
235	0xc01c5c3e	-2.44313
236	0x3eef59ab	0.467481
237	0x3f3805f7	0.718841
238	0xbf524873	-0.821418
239	0xbe4f876a	-0.202665
240	0xbf913997	-1.13457
241	0x3d452107	0.0481272
242	0xbf891eb8	-1.07125
243	0x3e7fe3f3	0.249893
244	0xbf06ec4a	-0.527043
245	0x3f202225	0.625521
246	0xbef8ee6c	-0.486194
247	0xbf8e0126	-1.10941
248	0xbfa84620	-1.31464
249	0xbeb909f2	-0.361404
250	0x3b9bfd37	0.00476041
251	0x3dfb0ccc	0.122583
252	0xbf991f0c	-1.19626
253	0xbe635979	-0.222021
254	0xbdc3c3f5	-0.0955886
255	0xbe98913a	-0.297983

B4 f4 [50]
0	0xbde0125a	-0.10941
1	0xc08d4cad	-4.41561
2	0x3fa21f4b	1.26658
3	0xbeea2878	-0.45734
4	0x400c0ded	2.18835
5	0xbebb8088	-0.366215
6	0x3ebafa72	0.365192
7	0xbfbdce07	-1.48285
8	0x3e36cc1d	0.178513
9	0x3dc09884	0.0940409
10	0x3f02f017	0.511476
11	0xbff87b89	-1.94127
12	0xbf33c9cd	-0.702298
13	0xbe10a915	-0.14127
14	0x3f88063a	1.06269
15	0x3f07120a	0.527619
16	0x3f48012e	0.781268
17	0xbffa0cf2	-1.95352
18	0xc0196580	-2.39682
19	0xbf4a04d1	-0.789136
20	0x3e4d89ce	0.200721
21	0xbf46a50d	-0.775956
22	0x3f37a2f0	0.71733
23	0xbfd4fa05	-1.66388
24	0x3f8a5e89	1.08101
25	0xbd82c5e3	-0.063854
26	0x3fc899af	1.56719
27	0x3d2817fc	0.0410385
28	0x3fe311c7	1.77398
29	0xbd873cbb	-0.0660338
30	0x3efd91ef	0.495254
31	0xc027a0cf	-2.61919
32	0x3fd5205c	1.66505
33	0xbf2d35db	-0.676603
34	0x3ed46c98	0.414891
35	0xbf9bbecb	-1.21676
36	0x3f8eba49	1.11506
37	0x3f6da71a	0.928331
38	0x3e6b367a	0.2297
39	0x3d59578a	0.053062
40	0x400803c5	2.12523
41	0xbf841c82	-1.03212
42	0x3f211288	0.629189
43	0xc06077ee	-3.50732
44	0xbf01e204	-0.507355
45	0x3ebea7ad	0.372373
46	0x3f6e98bb	0.932018
47	0xbf00def4	-0.503402
48	0xbfb67818	-1.42554
49	0x3f620efa	0.883041

W5 f4 [50, 50]
0	0xbc07b287	-0.00828231
1	0xbc0c8001	-0.00857544
2	0x3c04ffc4	0.00811762
3	0x3bb4c8f5	0.00551712
4	0xbbf25720	-0.00739564
5	0xbdd3d6c7	-0.103437
6	0xbd266a2d	-0.0406286
7	0x3b922c93	0.00446088
8	0xbc0b2d30	-0.00849466
9	0x3c914ae1	0.0177359
10	0x3d81178d	0.0630332
11	0xbaaf3bed	-0.00133693
12	0x3ca0d167	0.0196311
13	0xbd076fcb	-0.0330656
14	0xbc4bef57	-0.0124472
15	0xbd6000f2	-0.0546884
16	0x3ee716b1	0.451345
17	0xbd1afea4	-0.0378405
18	0xbc01f771	-0.00793253
19	0xbc687097	-0.014187
20	0x3d9dab0c	0.0769864
21	0xbd21e0c6	-0.039521
22	0x3d84d6ca	0.0648628
23	0xbc2a015b	-0.0103763
24	0x3d2a1116	0.0415202
25	0xbb1c31a4	-0.00238333
26	0x3e465e46	0.193719
27	0xbda49e60	-0.0803802
28	0x3e05cc42	0.130662
29	0x3d3b2a0d	0.0456944
30	0x3bf3da98	0.00744183
31	0xbcf4e1bf	-0.0298928
32	0xbc7815bb	-0.0151419
33	0x3bd58786	0.0065164
34	0x3cb7f280	0.0224545
35	0xbb840243	-0.00402859
36	0x3e289a89	0.164652
37	0xbcb1791f	-0.0216642
38	0x3c52a1f9	0.012856
39	0xbd736827	-0.0594255
40	0x3cc3a9a3	0.0238846
41	0x3d24eff4	0.0402679
42	0x3d2d051c	0.0422412
43	0x3d8576cd	0.065168
44	0xbd607e5a	-0.054808
45	0xbcbeee1d	-0.0233069
46	0x3df7b41c	0.120949
47	0x3c8d8483	0.0172751
48	0xbbabaced	-0.00523912
49	0x3ebbeb18	0.367028
50	0x3ea386d3	0.319388
51	0x3f044b4d	0.516774
52	0xbe35f0f6	-0.177677
53	0x3db88f50	0.0901171
54	0x3e8320fb	0.256111
55	0xbefdb1a7	-0.495496
56	0xc095db77	-4.68304
57	0x3e6d3565	0.231649
58	0x3f3c6bf0	0.736022
59	0xbea5ddb1	-0.323957
60	0x3fb1259a	1.38396
61	0x3b7f9e5b	0.00390043
62	0xc08cecab	-4.40389
63	0xbfbee536	-1.49137
64	0xbf89ee78	-1.07759
65	0xbf78723b	-0.970493
66	0xbde6d267	-0.112706
67	0xbfca1816	-1.57886
68	0x3e93914f	0.288218
69	0xbf9c317b	-1.22026
70	0x3e9211cb	0.285292
71	0x3e0aaac1	0.135417
72	0x3e731ec1	0.237422
73	0xbe94983d	-0.290224
74	0x3f14ab3f	0.580738
75	0x3e6d0fa6	0.231505
76	0xbe2df86e	-0.169893
77	0xbf17fa6e	-0.593665
78	0x3e50ae10	0.203789
79	0x3fb56d5d	1.4174
80	0xbebdc572	-0.370647
81	0xc024feef	-2.57806
82	0x3e72d01c	0.237122
83	0x3e3fcb92	0.1873
84	0xc0bd758e	-5.9206
85	0xbfda5aee	-1.7059
86	0x3f006973	0.501609
87	0xbe15d5f5	-0.146324
88	0x3ab4e880	0.00138022
89	0x3e06e2a8	0.131724
90	0x3edb44c3	0.428259
91	0xbeabf291	-0.335835
92	0x3d751175	0.0598311
93	0x3e95d93c	0.292673
94	0x39fa25f6	0.00047712
95	0x3e8eafab	0.278684
96	0xbf006dc6	-0.501675
97	0xbec57f95	-0.385739
98	0x3e16bd6f	0.147207
99	0x3f853d86	1.04094
100	0x3d4d0f98	0.0500637
101	0x3cb38aa7	0.0219167
102	0xbd1eae91	-0.0387407
103	0xbd3e582a	-0.0464708
104	0xbc14b315	-0.0090759
105	0x3de135db	0.109966
106	0x3d2094e6	0.0392045
107	0x3c8a20eb	0.0168614
108	0xbd22fa36	-0.0397894
109	0xbd0200f7	-0.0317392
110	0x3d17e473	0.0370831
111	0xba88cb15	-0.00104365
112	0x3e224207	0.158455
113	0xbd2ab368	-0.041675
114	0xbced2b11	-0.0289512
115	0xbd4bae04	-0.0497265
116	0x3e9cd014	0.306275
117	0xbdd76ddb	-0.10519
118	0x3d157ed2	0.0364979
119	0x3d39b6a5	0.0453402
120	0x3d097072	0.0335545
121	0xbd8a1de1	-0.0674398
122	0x3d716609	0.0589352
123	0xbc9ce513	-0.0191522
124	0xbe8b48f5	-0.272041
125	0xbceae1c0	-0.0286721
126	0x3e37ae58	0.179376
127	0xbe1dd50b	-0.154133
128	0x3dbb9057	0.0915839
129	0xbe4debd9	-0.201095
130	0x3d29df98	0.041473
131	0xbcb8b51e	-0.0225473
132	0x3e8fcb4f	0.280848
133	0x3db6e654	0.0893065
134	0x3eb43aa8	0.35201
135	0x3d46d29d	0.0485407
136	0x3e2b97ff	0.167572
137	0x3d6e5dc7	0.0581949
138	0x3e4e5d9e	0.201529
139	0xbdce9574	-0.100871
140	0xbd56f0c2	-0.0524757
141	0x3c669dc4	0.0140757
142	0xbe42799a	-0.189917
143	0xbdb83d5e	-0.0899608
144	0xbe11886e	-0.142122
145	0xbda6a070	-0.0813607
146	0x3dd4c122	0.103884
147	0x3e35f139	0.177678
148	0xbd460e01	-0.0483532
149	0xbda64727	-0.0811904
150	0xba596da3	-0.000829423
151	0x3d3317d5	0.0437239
152	0x3cfc1ba5	0.0307749
153	0x3d401a6d	0.0469002
154	0xbce6fe06	-0.0281973
155	0xbdaadf9a	-0.0834343
156	0xbd04f9ea	-0.0324649
157	0x3acab8a0	0.00154664
158	0x3e1f672c	0.155667
159	0xbcd771d7	-0.0262994
160	0xbdd97f63	-0.1062
161	0xbcbf7dfa	-0.0233755
162	0xbbe25a68	-0.00690775
163	0xbd3cbf39	-0.0460808
164	0xbd025b3f	-0.0318253
165	0x3bce7686	0.00630075
166	0xbe614057	-0.219972
167	0xbc9f9775	-0.0194814
168	0x3c43038b	0.0119027
169	0x3d0d988a	0.0345693
170	0xbbe2effa	-0.00692558
171	0x3730d487	1.05399e-05
172	0x3c94d438	0.0181676
173	0xbccafcb3	-0.0247787
174	0xbe009f62	-0.125608
175	0x3df18091	0.117921
176	0x3e534699	0.206324
177	0xbe6e8ee7	-0.232967
178	0x3e6e2542	0.232564
179	0xbd3109f9	-0.0432224
180	0xbef91905	-0.486519
181	0xbce881ff	-0.0283823
182	0x3d62d7ec	0.0553817
183	0xbcb4988e	-0.0220454
184	0xbfec51ec	-1.84625
185	0x3db2755b	0.0871379
186	0xbc42253e	-0.0118497
187	0x3c181555	0.00928243
188	0x3de86595	0.113475
189	0x3e7b7fe1	0.245605
190	0xbb59d142	-0.00332363
191	0xbfdd64d8	-1.72964
192	0xbe250939	-0.161168
193	0xbc165c78	-0.00917732
194	0xbde0b674	-0.109723
195	0xbaca54a2	-0.00154366
196	0xbd568273	-0.0523705
197	0xbc0461e4	-0.00807998
198	0xbac2bf83	-0.00148581
199	0x3d850fba	0.0649714
200	0x3bea7c76	0.00715595
201	0x3c146837	0.00905805
202	0xbd44034a	-0.0478547
203	0xbcaab226	-0.0208369
204	0xbcc1de5c	-0.0236656
205	0x3c8c5c2f	0.0171338
206	0x3d2aa708	0.0416632
207	0xbd4bdeab	-0.0497729
208	0xbc865336	-0.0163971
209	0x3b48b7ea	0.00306272
210	0xbc20a237	-0.0098043
211	0x3c93766a	0.0180008
212	0xbd15739a	-0.0364872
213	0xbd1fce16	-0.0390149
214	0x3ce66524	0.0281244
215	0xbc7bf5af	-0.0153784
216	0xbd067580	-0.0328269
217	0x3c59f82e	0.0133038
218	0xbbf99e92	-0.00761778
219	0xbd13f169	-0.0361189
220	0x3bcae064	0.0061913
221	0x3d3627da	0.0444716
222	0x3c245f5b	0.0100325
223	0xbd1447eb	-0.0362014
224	0xbca8d9de	-0.0206117
225	0xbd24c023	-0.0402223
226	0xbd4f4faf	-0.0506131
227	0xbd3b7a0f	-0.0457707
228	0xbd265534	-0.0406086
229	0x3cc93e37	0.0245658
230	0xbd28d21c	-0.041216
231	0xbd095041	-0.0335238
232	0xbd8152f4	-0.0631465
233	0x3ce7bef6	0.0282893
234	0x3d39fd6d	0.0454077
235	0x3cc7f598	0.0244091
236	0x3bdc2c51	0.00671915
237	0xbabcf91a	-0.00144175
238	0x3c54ee03	0.0129962
239	0xbcc57aff	-0.0241065
240	0x3b40650a	0.00293571
241	0xbca9fed7	-0.0207514
242	0xbc6cfcee	-0.0144646
243	0xbca9f6df	-0.0207476
244	0xbd3e9a70	-0.046534
245	0xbd1c31c5	-0.0381334
246	0x3bfecd90	0.00777597
247	0x3ccbf099	0.024895
248	0x3c9f43c8	0.0194415
249	0xbd06b9f9	-0.0328922
250	0xbe3e5bc8	-0.185897
251	0xbd6305d9	-0.0554255
252	0xbd5e5230	-0.0542776
253	0xbdecf074	-0.115693
254	0x3a3c9674	0.000719405
255	0xbe07570c	-0.132168

B5 f4 [50]
0	0x3e705532	0.2347
1	0xbff7ecab	-1.93691
2	0xbef38e08	-0.475693
3	0xbec4ead1	-0.384604
4	0xbcc49a2e	-0.0239993
5	0x3e01ea79	0.126871
6	0x3e082f94	0.132994
7	0xbf8a6128	-1.08109
8	0x3d7682f9	0.0601835
9	0xbe1e84f1	-0.154804
10	0xbf364085	-0.711922
11	0xbf1bca86	-0.608559
12	0x3d5a98ee	0.0533685
13	0x3d61f645	0.0551665
14	0x3ee60eb6	0.449331
15	0xbeada123	-0.33912
16	0xbdb570b8	-0.0885939
17	0xc0296113	-2.64655
18	0xbe46aad2	-0.194011
19	0x3ed474da	0.414954
20	0x3efc4439	0.492708
21	0xbdd3f7cf	-0.1035
22	0x3ec2fc8b	0.380833
23	0x3dc7d6b6	0.0975775
24	0xbea15ee1	-0.315177
25	0x3e9a4b34	0.301355
26	0xbf759125	-0.959246
27	0xbece5775	-0.403011
28	0xbe791fb4	-0.243285
29	0x3eedd80e	0.464539
30	0x3e7acd9f	0.244925
31	0xbf2f61aa	-0.685084
32	0xbeb3165d	-0.34978
33	0xbf5b0564	-0.855551
34	0xc0022d38	-2.03401
35	0xbebb927d	-0.366352
36	0x3c724b0c	0.0147884
37	0x3ea35d89	0.319073
38	0x3eda630f	0.426537
39	0x3e863044	0.262087
40	0xbe14d61b	-0.145348
41	0xbf42abac	-0.760432
42	0xc02f3626	-2.73768
43	0x3de7c9de	0.113178
44	0xbd5f5bcb	-0.0545309
45	0x3e4a22b4	0.197398
46	0xc05a14f9	-3.40753
47	0xbd6c0b56	-0.057628
48	0xbf4a7fc3	-0.791012
49	0x3f37354c	0.715657
