data/acasxu/nets/ACASXU_run2a_1_4_batch_2000.onnx (onnx, 53878 bytes, 14 tensors)

W0 f4 [50, 5]
-0.0395018 -1.41847 1.47517 0.135736 0.0389717 0.0120216 0.199366 -0.216711
-0.0353016 0.316366 0.056533 -0.225589 0.380374 -0.0377091 0.440564 0.684328
-0.00133011 0.00263773 0.0116189 -0.0129474 -0.494969 -0.188058 -0.11851 -0.00865882
0.18443 -0.00840325 -0.420833 -0.0874792 -0.349877 0.488327 0.0337894 -0.931442
0.926133 0.138986 -0.0116514 -0.783106 0.100605 -0.250244 0.114133 -0.13382
0.0180871 0.903799 -0.888916 0.147684 -0.0200081 0.511953 0.153048 0.200532
0.169218 -0.382742 0.0684677 -0.320413 -0.62605 -0.267176 -0.336843 -0.221223
-0.155735 0.0796697 0.353886 -0.50704 0.0606741 0.0417699 -0.0118821 -0.861796
0.128879 -0.764391 0.000336967 0.013641 -0.262112 0.0798616 0.76836 -0.0060185
0.000350357 0.00290887 0.00206422 0.211743 -1.51632 0.0565157 0.067299 -0.16831
-0.148701 -0.118536 -1.05559 0.0618803 0.340344 -0.0108199 0.886404 -0.780939
0.0648079 0.0114166 0.0246807 0.935522 -0.905057 0.105352 0.00159691 -0.126134
0.0466088 1.52146 0.121802 -0.0547925 0.488196 0.256809 0.418449 -0.0761425
-0.00782754 -0.420788 0.0472295 0.158398 0.09412 -0.614288 -1.06235 0.00221572
-0.00850644 0.176503 0.205159 -0.0488251 -0.967274 -0.896858 0.476252 -0.0110914
0.414606 -0.047399 -0.22337 0.245017 -0.339442 -0.701973 0.0137312 0.0458956
-0.276719 0.034836 -0.0126479 0.01935 0.0148617 -0.414703 0.0161653 -0.0635048
-0.130185 -0.0497407 0.15439 -0.15024 0.0625001 0.656029 -0.96345 0.259981
-0.538318 -0.0453164 0.532377 0.252941 0.335111 0.0205671 -0.0318498 -0.0414124
-2.06235 0.0426944 -0.0188684 0.174076 -0.642233 0.100181 0.232883 -0.0151666
0.0657868 0.884327 1.05344 0.549857 -0.0920642 -0.0860989 0.0809227 -0.0668156
-0.548491 0.613773 -1.00837 0.00125332 -0.000852931 0.0041906 -0.00364144 0.115093
-0.980595 -0.433917 0.360358 0.00515081 0.0398886 1.48347 0.0706297 0.178293
-0.206754 0.233332 -0.567322 -0.0461301 0.372629 -0.642213 -0.346693 0.587292
0.620237 0.0914515 0.224343 0.0655744 0.0199249 -0.0475638 -0.169779 -1.20735
-0.655624 0.293638 -0.317237 0.125208 0.213678 -0.115206 -0.00422838 0.0722236
-0.175088 0.507115 0.122805 -0.0501639 0.022231 -0.846307 -0.230277 -0.903588
-0.124324 0.141175 0.0243627 0.0143059 0.43091 0.00683724 -0.000388599 0.16686
-0.133292 0.0922804 -1.53382 0.0231053 0.190254 -0.524982 0.0977074 0.518127
0.206567 0.0575096 0.00487371 0.400787 0.0257774 0.00213768 0.0420911 -0.775051
-0.101257 1.00075 0.630066 0.667964 0.0454992 0.751965 -0.232683 0.0481399
-0.0465909 0.0270151
00000000: a4cc 21bd 6d90 b5bf 5fd2 bc3f 61fe 0a3e
00000010: caa0 1f3d 3ff6 443c 9a26 4c3e 7de9 5dbe
00000020: 6998 10bd b9fa a13e 268f 673d ce00 67be
00000030: 62c0 c23e db74 1abd 9b91 e13e 1f30 2f3f
00000040: 1657 aeba c4dd 2c3b 335d 3e3c 5521 54bc
00000050: 946c fdbe 4792 40be 5fb5 f2bd b9dd 0dbc
00000060: 38db 3c3e c9ad 09bc 6c77 d7be 4b28 b3bd
00000070: 1423 b3be ff05 fa3e c166 0a3d fc72 6ebf
00000080: 0d17 6d3f 5952 0e3e 83e5 3ebc a379 48bf
00000090: ff09 ce3d fb1f 80be 90be e93d 1c08 09be
000000a0: 662b 943c 5f5f 673f 0090 63bf 793a 173e
000000b0: 07e8 a3bc 5a0f 033f 9db8 1c3e 4358 4d3e
000000c0: 7c47 2d3e c2f6 c3be cb38 8c3d 2c0d a4be
000000d0: d044 20bf 4bcb 88be b076 acbe 4888 62be
000000e0: ff78 1fbe de29 a33d 8c30 b53e 60cd 01bf
000000f0: 6885 783d ea16 2b3d 24ad 42bc aa9e 5cbf
00000100: dbf8 033e 21af 43bf f2aa b039 807e 5f3c
00000110: 8b33 86be 7b8e a33d 3eb3 443f d636 c5bb
00000120: 1fb0 b739 bea2 3e3b dd47 073b 28d3 583e
00000130: c616 c2bf 027d 673d 0fd4 893d 7559 2cbe
00000140: 1345 18be 01c3 f2bd 931d 87bf 3376 7d3d
00000150: 9241 ae3e f345 31bc 5feb 623f 9eeb 47bf
00000160: 01ba 843d b10c 3b3c 2e2f ca3c 5f7e 6f3f
00000170: d1b1 67bf cac2 d73d 684f d13a 4529 01be
00000180: dee8 3e3d 34bf c23f 5473 f93d 1a6e 60bd
00000190: d3f4 f93e 787c 833e f33e d63e 99f0 9bbd
000001a0: 153f 00bc 8671 d7be b873 413d 1633 223e
000001b0: fdc1 c03d fa41 1dbf 16fb 87bf 9d35 113b
000001c0: 985e 0bbc 34bd 343e 3315 523e d4fc 47bd
000001d0: 459f 77bf 7c98 65bf 4dd7 f33e b4b8 35bc
000001e0: 3d47 d43e 7425 42bd 1bbb 64be bde5 7a3e
000001f0: 58cb adbe 81b4 33bf d4f8 603c 06fd 3b3d
00000200: 1dae 8dbe 32b0 0e3d 2339 4fbc e483 9e3c
00000210: 7d7e 733c f453 d4be 176d 843c ce0e 82bd
00000220: 374f 05be e7bc 4bbd 6a18 1e3e 84d8 19be
00000230: 0d00 803d 84f1 273f a9a4 76bf 3b1c 853e
00000240: 35cf 09bf b09d 39bd dc49 083f 7c81 813e
00000250: ab93 ab3e 567c a83c f074 02bd 0ca0 29bd
00000260: 8bfd 03c0 53e0 2e3d e791 9abc fb40 323e
00000270: 6269 24bf b22b cd3d e278 6e3e 557d 78bc
00000280: 3bbb 863d 4163 623f 1fd7 863f 6ec3 0c3f
00000290: 288c bcbd 9f54 b0bd cdba a53d 9ed6 88bd
000002a0: e869 0cbf 3a20 1d3f 4512 81bf 7146 a43a
000002b0: 3b97 5fba 4d51 893b 3aa5 6ebb e1b5 eb3d
000002c0: 4608 7bbf 5e2a debe d880 b83e 20c8 a83b
000002d0: 3b62 233d 58e2 bd3f 4ea6 903d 7192 363e
000002e0: 52b7 53be 95ee 6e3e 043c 11bf eaf2 3cbd
000002f0: 3ac9 be3e 1268 24bf bf81 b1be c558 163f
00000300: dac7 1e3f ed4a bb3d 2cba 653e df4b 863d
00000310: 8b39 a33c 42d2 42bd 8cda 2dbe 728a 9abf
00000320: f9d6 27bf b857 963e e36c a2be 8736 003e
00000330: 68ce 5a3e 20f1 ebbd 398e 8abb f7e9 933d
00000340: 454a 33be 4ad2 013f 3081 fb3d a978 4dbd
00000350: c91d b63c 93a7 58bf bccd 6bbe 8b51 67bf
00000360: 959d febd 2e90 103e 4994 c73c 4b63 6a3c
00000370: 3ca0 dc3e ed0a e03b e0bc cbb9 59dd 2a3e
00000380: b37d 08be 82fd bc3d 3754 c4bf 5347 bd3c
00000390: f2d1 423e 3865 06bf d11a c83d f9a3 043f
000003a0: 4d86 533e 308f 6b3d a5b3 9f3b f433 cd3e
000003b0: 202b d33c 5218 0c3b b867 2c3d be69 46bf
000003c0: d45f cfbd 9318 803f 014c 213f b0ff 2a3f
000003d0: 5e5d 3a3d c780 403f 7444 6ebe 582e 453d
000003e0: 19d6 3ebd c54e dd3c

B0 f4 [50]
-0.369373 0.00315185 0.00301783 0.221023 -0.0753087 -0.0262499 -0.345649 -0.154741
-0.273819 0.173578 -0.265225 0.000613303 -0.306727 -0.279696 0.251846 0.0949108
0.0778243 -0.166489 -0.351362 -0.00480022 0.115562 -0.255651 -0.109777 -0.163728
0.144826 -0.192059 0.0838486 0.0418943 -0.214747 0.0722195 0.053901 0.00113897
-0.176408 -0.0249854 -0.281221 0.115408 0.0307758 0.000826755 -0.0943837 -0.513369
-0.237885 0.0780937 -0.30906 -0.181298 0.163018 -0.135047 0.0954323 -0.0828482
-0.130238 0.165064
00000000: 751e bdbe 458f 4e3b c9c6 453b da53 623e
00000010: 733b 9abd 080a d7bc e8f8 b0be 6d74 1ebe
00000020: 0132 8cbe 6ebe 313e 92cb 87be 11c6 203a
00000030: 520b 9dbe 5034 8fbe f5f1 803e 9860 c23d
00000040: 5962 9f3d 187c 2abe b8e5 b3be 2a4b 9dbb
00000050: c5ab ec3d b0e4 82be c4d2 e0bd 50a8 27be
00000060: 444d 143e 1dab 44be d1b8 ab3d 5c99 2b3d
00000070: a3e6 5bbe d1e7 933d 4cc7 5c3d 7e49 953a
00000080: 4ca4 34be 2eae ccbc 33fc 8fbe 085b ec3d
00000090: 881d fc3c 97ba 583a 3e4c c1bd 276c 03bf
000000a0: 2098 73be 97ef 9f3d 1d3d 9ebe 2fa6 39be
000000b0: 31ee 263e c349 0abe 0272 c33d 51ac a9bd
000000c0: 1c5d 05be 8a06 293e

W1 f4 [50, 50]
-2.01993 -0.833152 -0.548497 -0.2743 0.146239 0.668857 -4.31973 -0.094445
-0.712179 -0.152718 -0.276525 0.280243 -0.312702 -0.0430779 -0.234524 0.420669
-0.179004 -0.650549 0.273392 -0.686594 0.417101 0.731141 0.256221 1.20092
0.123298 -0.468038 0.163633 -0.466937 -0.118639 -0.122801 -0.112459 -0.677905
2.11231 0.660412 0.458469 0.320484 -0.119894 0.179143 -0.0505378 0.337387
-0.293809 0.104597 0.221845 -0.647709 0.176623 0.00540538 0.0538897 0.662836
-0.297245 -0.06449 0.185148 -0.573048 0.222547 0.146894 -0.210569 0.184316
-1.53261 0.413587 -0.321123 -0.598089 0.0815465 -0.0745796 -0.373626 -0.338692
0.229968 0.124767 0.0530503 0.452033 -0.323096 -0.0940652 -0.331094 0.192571
0.126723 0.616009 -0.176977 -0.33652 0.66865 0.134696 -0.0921797 0.0724006
-0.459469 0.211469 -0.0948294 -0.1173 0.634155 -0.126283 0.329295 0.159513
0.0756357 -1.21942 0.330285 -0.0547313 0.140908 0.185944 0.149742 -0.319654
-0.0239946 -0.165817 -0.109698 0.0252197 0.66532 0.301978 1.19812 0.12231
0.248293 -0.544866 -0.0404397 0.68342 0.360503 -0.0839736 -0.150078 -0.102423
-0.0945288 1.13583 0.100045 -1.27979 -0.310305 -0.0404397 -0.571752 -0.207816
0.121122 0.530521 -0.494735 0.369788 0.411471 0.469254 0.418175 0.517969
-0.0898617 -0.376062 0.281367 -0.567953 0.205329 -0.569743 0.392759 -0.559743
0.104501 0.976007 0.258411 0.283937 0.761917 -0.371441 0.0855986 -0.126323
0.0512811 -0.295773 -0.231875 0.418433 -0.126401 -0.0152162 0.159672 -0.504678
-0.83774 0.157048 0.0555537 0.172948 -3.75506 -0.469423 -1.62968 -0.395159
-0.0309846 -0.85492 -0.162924 0.422335 0.144864 0.48202 0.271931 0.969786
-2.77281 -0.0348501 -0.00168228 -1.56569 -0.0697254 -0.297917 -0.224357 0.328824
0.444331 -0.393421 0.211066 -0.164122 -0.0912588 0.0696306 0.955925 0.755047
1.00563 0.188776 0.386326 -0.464033 0.763006 0.0482046 -0.079556 0.322759
1.1035 0.87652 -0.0657173 0.131124 0.415728 0.288753 0.126773 0.35583
0.82356 -0.528588 -0.230676 0.350935 0.574079 0.0208535 -2.50434 -0.977384
-1.37276 0.079817 -5.48629e-05 -0.187235 0.53925 -0.364116 0.171528 0.397665
-0.40552 0.745399 -3.59939 -0.21983 1.01809 -0.0587881 -0.462385 1.05147
0.869969 -0.089275 0.4922 -0.0928476 -0.138399 0.258645 0.438945 0.484013
0.0251874 0.993897 1.59474 0.191721 -0.231503 0.0971592 0.175079 0.218186
0.538184 -0.135224 0.379581 -0.209131 0.398008 -0.618286 1.16487 -0.169634
0.523358 -0.819229 -0.141487 -0.602455 -0.139665 -0.308014 0.337242 0.251178
00000000: 8846 01c0 7349 55bf 4d6a 0cbf 0d71 8cbe
00000010: adbf 153e 363a 2b3f 3a3b 8ac0 616c c1bd
00000020: 5d51 36bf 1b62 1cbe af94 8dbe 037c 8f3e
00000030: 7a1a a0be 7472 30bd 0f27 70be ed61 d73e
00000040: d34c 37be 618a 26bf 09fa 8b3e a0c4 2fbf
00000050: 438e d53e 0e2c 3b3f 662f 833e bfb7 993f
00000060: a983 fc3d ada2 efbe 698f 273e 5e12 efbe
00000070: 01f9 f2bd 177f fbbd e750 e6bd 2f8b 2dbf
00000080: 1630 0740 c310 293f 73bc ea3e 7b16 a43e
00000090: fc8a f5bd 4371 373e b900 4fbd fdbd ac3e
000000a0: 226e 96be f436 d63d 562b 633e 42d0 25bf
000000b0: a9dc 343e 9d1f b13b 72bb 5c3d 9faf 293f
000000c0: 7f30 98be 5513 84bd 7097 3d3e 46b3 12bf
000000d0: 5ce3 633e 616b 163e 669f 57be 55bd 3c3e
000000e0: 912c c4bf adc1 d33e 3c6a a4be 5c1c 19bf
000000f0: da01 a73d 30bd 98bd e84b bfbe 0a69 adbe
00000100: bb7c 6b3e d785 ff3d 454b 593d df70 e73e
00000110: d76c a5be 41a5 c0bd 2785 a9be 5531 453e
00000120: adc3 013e c4b2 1d3f 7539 35be 594c acbe
00000130: a52c 2b3f c0ed 093e b6c8 bcbd c446 943d
00000140: 853f ebbe 548b 583e eb35 c2bd fb3a f0bd
00000150: fb57 223f 5550 01be 5b99 a83e 6057 233e
00000160: e4e6 9a3d f415 9cbf 1e1b a93e ed2d 60bd
00000170: 304a 103e 1b68 3e3e f855 193e b0a9 a3be
00000180: 5390 c4bc efcb 29be 58a9 e0bd 8b99 ce3c
00000190: 6952 2a3f dc9c 9a3e ff5b 993f aa7d fa3d
000001a0: 8540 7e3e 577c 0bbf 19a4 25bd 9df4 2e3f
000001b0: d993 b83e 5afa abbd 0cae 19be 26c3 d1bd
000001c0: 5198 c1bd e162 913f 65e4 cc3d 29d0 a3bf
000001d0: 4ce0 9ebe 19a4 25bd 575e 12bf b8cd 54be
000001e0: d00e f83d 39d0 073f e84d fdbe da54 bd3e
000001f0: 54ac d23e 0f42 f03e 091b d63e 9e99 043f
00000200: 6909 b8bd 338b c0be 560f 903e 5e65 11bf
00000210: c441 523e adda 11bf b517 c93e 514b 0fbf
00000220: 9f04 d63d 98db 793f 724e 843e 3160 913e
00000230: fe0c 433f 842d bebe 524e af3d d15a 01be
00000240: 210c 523d 8f6f 97be a470 6dbe da3c d63e
00000250: 446f 01be 5e4d 79bc 0f81 233e 9432 01bf
00000260: 2176 56bf 31d1 203e 478c 633d 4819 313e
00000270: e752 70c0 3658 f0be 5b99 d0bf 4852 cabe
00000280: 6ad3 fdbc 0adc 5abf 8dd5 26be 4b3c d83e
00000290: 3a57 143e 53cb f63e 8a3a 8b3e e543 783f
000002a0: b875 31c0 fabe 0ebd f37f dcba 8868 c8bf
000002b0: 31cc 8ebd 9488 98be d7bd 65be 9f5b a83e
000002c0: 5a7f e33e 7a6e c9be af21 583e 990f 28be
000002d0: e5e5 babd 7d9a 8e3d 80b7 743f c34a 413f
000002e0: 7cb8 803f 7f4e 413e 85cc c53e bc95 edbe
000002f0: 5c54 433f 3072 453d 42ee a2bd ab40 a53e
00000300: 7d3f 8d3f 9d63 603f cb96 86bd 5f45 063e
00000310: 4dda d43e 6fd7 933e c8d0 013e 5a2f b63e
00000320: d4d4 523f 8b51 07bf 5436 6cbe c1ad b33e
00000330: d7f6 123f f6d4 aa3c 1b47 20c0 d635 7abf
00000340: 9ab6 afbf 1877 a33d 971c 66b8 88ba 3fbe
00000350: 4a0c 0a3f 6a6d babe 09a5 2f3e bf9a cb3e
00000360: 51a0 cfbe 78d2 3e3f 685c 66c0 1e1b 61be
00000370: c650 823f cacb 70bd babd ecbe 9296 863f
00000380: 4ab6 5e3f d0d5 b6bd a301 fc3e e226 bebd
00000390: 78b8 0dbe 1e6d 843e 66bd e03e 8dd0 f73e
000003a0: ce55 ce3c 0970 7e3f 7120 cc3f 8352 443e
000003b0: 1f0f 6dbe 67fb c63d e947 333e 276c 5f3e
000003c0: 6dc6 093f 2978 0abe 7158 c23e 7026 56be
000003d0: b4c7 cb3e fe47 1ebf 761a 953f 89b4 2dbe
000003e0: cafa 053f feb8 51bf f8e1 10be 7e3a 1abf
000003f0: 5704 0fbe 03b4 9dbe fcaa ac3e 679a 803e

B1 f4 [50]
0.382169 0.00166248 -0.137998 -0.244854 -0.325385 -0.0245272 -0.11076 -0.445537
-0.0850719 0.105577 -0.423913 0.115091 0.0655763 -0.0162038 0.000240604 0.275273
0.254595 -0.0222079 -0.0140566 -0.0146991 -0.00874918 0.213732 0.0647144 -0.0343601
0.28537 0.251249 0.145391 -0.264349 0.31018 0.218686 -0.197985 0.203644
0.0062139 -0.0105777 0.254698 -0.0206959 0.138987 0.119722 0.457022 0.124881
-0.00447418 -0.225507 0.61899 -0.017492 -0.0868525 0.264633 -0.0424146 0.160821
0.0366903 -0.061099
00000000: a8ab c33e 92e7 d93a 594f 0dbe 02bb 7abe
00000010: dd98 a6be 44ed c8bc 24d6 e2bd 6d1d e4be
00000020: 2d3a aebd c138 d83d 200b d9be d5b4 eb3d
00000030: de4c 863d d5bd 84bc a54a 7c39 95f0 8c3e
00000040: 475a 823e 58ed b5bc a74d 66bc 7ed4 70bc
00000050: b858 0fbc 90dc 5a3e fc88 843d 2dbd 0cbd
00000060: 041c 923e b5a3 803e 61e1 143e c158 87be
00000070: eacf 9e3e 39ef 5f3e 94bc 4abe 0e88 503e
00000080: f99d cb3b 174e 2dbc c767 823e 738a a9bc
00000090: 9c52 0e3e cf30 f53d cafe e93e 9cc1 ff3d
000000a0: 249c 92bb 4feb 66be 2176 1e3f 624b 8fbc
000000b0: b9df b1bd fa7d 873e eeba 2dbd 43ae 243e
000000c0: 9148 163d f242 7abd

W2 f4 [50, 50]
-0.169829 0.342705 -0.00282311 -0.0193453 -0.0768167 -0.112314 0.0153192 -0.129009
0.361025 -0.381985 0.236715 -1.43248 0.454945 -0.0467389 0.131148 -0.630444
0.0431693 -0.0157403 -0.0457553 0.0502577 -0.0291447 0.0230787 -0.216204 0.194524
0.0664373 0.128685 -0.551173 0.10846 -1.52646 0.222207 -0.178005 0.0863612
-0.0817317 -0.0113265 0.452604 0.0114901 0.0480069 -0.0913485 -1.54313 -0.329767
0.026967 -0.403658 -0.193985 0.0211499 0.122934 0.220511 0.940515 -0.279074
0.173995 0.147961 -0.475294 -0.826891 -0.390154 -0.0170888 0.110656 -1.60814
0.648792 -0.626143 0.824838 0.938041 -1.06978 -2.54191 -0.440981 -0.0354503
-0.247592 -0.199719 -0.270123 0.018465 -0.0262478 0.00149664 0.0434606 0.757133
-0.290331 -0.656356 -1.06158 -1.11064 -0.662462 -1.27994 0.252781 0.467893
0.336842 -0.12009 1.19429 0.00993293 0.479156 -0.0454872 0.794731 -0.715639
-0.747265 -0.219888 0.00750124 0.803743 -0.724026 0.0344254 -0.243391 -0.413551
0.202527 -0.977148 -0.785956 0.283609 -0.0339333 -0.0190298 0.382125 -0.469543
-0.287045 0.0462946 0.0554156 -0.0536569 -0.703076 0.0441522 -0.0503235 -0.681017
0.239887 0.0165401 0.412436 -0.440803 0.138762 -0.0189441 0.00657243 -0.0447491
-0.0182351 -0.295108 0.0913789 -0.255042 0.00971959 -0.0448783 0.104978 -0.289511
-0.57464 0.670618 -0.198583 0.203339 0.141446 -0.0132596 0.543214 -0.020843
-0.0808625 0.0789636 1.38733 -1.2351 -0.0448213 -0.295843 0.0896856 -0.0168534
0.190552 -0.280026 -0.76795 0.517603 -0.735659 -0.443124 0.147337 0.266237
-0.284259 0.668942 -0.072692 0.757678 0.0722431 0.074061 0.388199 -0.0605556
-1.168 0.325906 0.110261 -0.0396847 0.0342388 -0.0755862 0.239578 0.047526
-0.00667792 0.0058068 0.0369078 0.482913 0.128932 0.420591 -0.297297 -0.347362
0.79085 0.998547 0.827809 0.533013 0.198523 0.0911564 0.354707 0.00522784
0.286108 0.00504259 -0.558388 -0.35844 -0.778525 -0.0475052 -0.0185975 -0.112278
-0.190818 0.00941089 0.324199 0.426832 0.133177 -0.19924 0.125064 0.328281
0.124438 0.00353404 -0.100228 0.305727 -0.174501 -0.389061 -0.307741 -0.0264458
-1.02634 -0.559084 0.148981 -0.606594 0.326905 0.0100905 -0.244499 -0.537623
0.238148 0.0151147 0.032386 -0.0520829 -0.0432306 0.342266 0.28186 -0.374576
0.102986 -0.0636546 0.431026 0.22733 -0.138003 -0.0484715 0.0894576 -0.0971562
-0.0916201 0.0172601 -0.322015 0.0254344 0.143841 -0.111983 0.375474 -0.316487
0.0221097 0.703398 0.197021 0.0275872 0.283764 0.634616 0.268626 -0.405536
0.0136381 -0.483947 0.0474524 -0.10544 0.155522 -0.138122 -0.0718477 0.423231
00000000: a7e7 2dbe 0877 af3e ed03 39bb 097a 9ebc
00000010: 1352 9dbd e204 e6bd 62fd 7a3c ef1a 04be
00000020: 45d8 b83e 8a93 c3be 6b65 723e 815b b7bf
00000030: 8dee e83e 4a71 3fbd a94b 063e c764 21bf
00000040: 4bd2 303d cdf1 80bc e969 3bbd 05db 4d3d
00000050: dec0 eebc 8b0f bd3c 9564 5dbe 4d31 473e
00000060: 4710 883d 00c6 033e ac19 0dbf 4720 de3d
00000070: 0b63 c3bf 3b8a 633e f146 36be 24de b03d
00000080: f362 a7bd c992 39bc b6bb e73e f940 3c3c
00000090: e2a2 443d ec14 bbbd 4985 c5bf 38d7 a8be
000000a0: e6e9 dc3c 43ac cebe 01a4 46be 8e42 ad3c
000000b0: d2c4 fb3d a3cd 613e 97c5 703f cae2 8ebe
000000c0: bf2b 323e 1783 173e bc59 f3be 21af 53bf
000000d0: 44c2 c7be d0fd 8bbc 9d9f e23d 88d7 cdbf
000000e0: 3c17 263f e84a 20bf 9528 533f 7423 703f
000000f0: 8dee 88bf a7ae 22c0 43c8 e1be 5534 11bd
00000100: c288 7dbe 2383 4cbe 904d 8abe e943 973c
00000110: a005 d7bc e82a c43a be03 323d 78d3 413f
00000120: 44a6 94be f206 28bf dae1 87bf 7429 8ebf
00000130: 1c97 29bf 13d5 a3bf 836c 813e ac8f ef3e
00000140: 8e76 ac3e bff1 f5bd 7fde 983f babd 223c
00000150: ef53 f53e c950 3abd 7e73 4b3f 1e34 37bf
00000160: c24c 3fbf 522a 61be f6cc f53b 1ac2 4d3f
00000170: c559 39bf a601 0d3d 7e3b 79be f5bc d3be
00000180: 3d63 4f3e 5f26 7abf 6a34 49bf 3335 913e
00000190: a5fd 0abd 62e4 9bbc e3a5 c33e f167 f0be
000001a0: 90f7 92be 689f 3d3d 78fb 623d 56c7 5bbd
000001b0: cafc 33bf f0d8 343d 0420 4ebd 2157 2ebf
000001c0: f0a4 753e 1b7f 873c d02a d33e eeb0 e1be
000001d0: a017 0e3e a830 9bbc 8a5d d73b d54a 37bd
000001e0: c761 95bc 6518 97be dc24 bb3d dd94 82be
000001f0: ea3e 1f3c 4fd2 37bd b5fe d63d c93a 94be
00000200: 9b1b 13bf 9fad 2b3f 5859 4bbe 1938 503e
00000210: 38d7 103e cb3e 59bc 1310 0b3f f0be aabc
00000220: 3d9b a5bd abb7 a13d 0894 b13f c217 9ebf
00000230: 8a96 37bd bc78 97be 15ad b73d 2410 8abc
00000240: 1020 433e 915f 8fbe 5f98 44bf a181 043f
00000250: 2654 3cbf 26e1 e2be 83df 163e 3750 883e
00000260: 658a 91be c83f 2b3f 8bdf 94bd 2ff7 413f
00000270: 31f4 933d 4bad 973d 05c2 c63e 2609 78bd
00000280: 0681 95bf 27dd a63e 85d0 e13d 6d8c 22bd
00000290: fc3d 0c3d f0cc 9abd ef53 753e 9faa 423d
000002a0: 74d2 dabb f846 be3b a22c 173d 5f40 f73e
000002b0: c006 043e b457 d73e 5037 98be 6fd9 b1be
000002c0: 2575 4a3f c7a0 7f3f 4aeb 533f 8a73 083f
000002d0: 9d49 4b3e 35b0 ba3d 289c b53e 4d4e ab3b
000002e0: bf7c 923e 503c a53b 84f2 0ebf 7385 b7be
000002f0: 6a4d 47bf d094 42bd c959 98bc 02f2 e5bd
00000300: cb65 43be 2230 1a3c 69fd a53e b989 da3e
00000310: 8d5f 083e 9205 4cbe c710 003e 7214 a83e
00000320: 5ad9 fe3d 5a9b 673b 5644 cdbd 4088 9c3e
00000330: 64b0 32be 0133 c7be 3a90 9dbe dda4 d8bc
00000340: 1c5f 83bf 2120 0fbf 7a8e 183e bf49 1bbf
00000350: 1860 a73e a052 253c f25d 7abe a9a1 09bf
00000360: 12dd 733e a6a3 773c 2fa7 043d e154 55bd
00000370: 9212 31bd 7d3d af3e f44f 903e 6dc8 bfbe
00000380: 53ea d23d 585d 82bd 71af dc3e 32c9 683e
00000390: a950 0dbe 0d8a 46bd 8c35 b73d d4f9 c6bd
000003a0: 52a3 bbbd 0e65 8d3c 26df a4be ce5b d03c
000003b0: 0e4b 133e 5857 e5bd 213e c03e 960a a2be
000003c0: 671f b53c e411 343f dfbf 493e 8dfe e13c
000003d0: 8449 913e 3276 223f 5989 893e 6aa2 cfbe
000003e0: 5672 5f3c e7c7 f7be 735d 423d edf0 d7bd
000003f0: 2941 1f3e db6f 0dbe e324 93bd bcb1 d83e

B2 f4 [50]
0.00689582 0.952469 0.52965 -0.628442 -0.202114 -0.0525329 -0.00145183 0.152733
0.12339 0.0151248 -0.0187019 0.247583 0.0617326 -0.079445 -0.0170591 -0.0274716
-0.487533 -0.0392027 0.3461 0.875897 -0.0260367 0.0715242 -0.0165934 0.109651
0.0985657 -0.211419 0.217096 0.0258201 0.161871 -0.00649603 -0.353837 0.434845
0.0781304 -0.245891 -0.339401 0.376279 -0.120906 -0.0937791 -0.470906 -0.4611
0.0852379 -0.145894 0.029137 -0.00843813 -0.116458 -0.132918 -0.976487 -0.0652477
-0.110021 -0.30549
00000000: 55f6 e13b 02d5 733f 2497 073f 93e1 20bf
00000010: f9f6 4ebe bd2c 57bd 554b beba 0a66 1c3e
00000020: e5b3 fc3d 02ce 773c ba34 99bc 6686 7d3e
00000030: 53db 7c3d 0fb4 a2bd 87bf 8bbc 1f0c e1bc
00000040: ed9d f9be 0393 20bd 0534 b13e c93a 603f
00000050: eb4a d5bc 487b 923d e2ee 87bc b490 e03d
00000060: d0dc c93d 397e 58be 6a4e 5e3e ad84 d33c
00000070: 83c1 253e a6dc d4bb 202a b5be 01a4 de3e
00000080: d502 a03d daca 7bbe f8c5 adbe a4a7 c03e
00000090: 919d f7bd 420f c0bd 971a f1be 4d15 ecbe
000000a0: 3591 ae3d 3d65 15be b8b0 ee3c 1540 0abc
000000b0: 8881 eebd a81b 08be 0dfb 79bf 96a0 85bd
000000c0: b152 e1bd 2f69 9cbe

W3 f4 [50, 50]
0.266717 0.0545713 -0.204 -0.412823 0.416874 -0.119741 -0.154034 -0.230601
0.0110953 -0.0147831 0.0437091 -0.144595 -0.622151 -0.360383 -0.0185605 -0.956421
1.24508 0.388495 0.15834 0.154835 0.0718615 -0.203107 -0.0384666 -0.292914
0.205209 0.049579 0.956341 0.294347 -0.377612 0.0237351 0.324927 0.554263
0.62681 0.111369 0.585597 0.680868 -0.184368 -0.392989 -0.409628 -1.25586
0.542816 -1.45456 -0.352549 0.00550042 0.81984 -2.31322 -0.353467 0.272672
-0.349029 0.380969 0.0081746 0.0514721 0.167018 0.31573 -0.0250189 0.708967
-0.498635 0.53681 0.403511 -0.0316565 -0.0177012 -0.208788 -1.10436 -0.190999
-0.0331534 0.518039 -0.246328 0.157474 -0.345496 -0.243689 -1.11946 0.549515
0.0280631 0.382952 0.0356118 -0.0321515 -0.610927 -1.11303 0.720065 0.297841
-0.665746 0.369236 -0.905313 -0.234478 -0.016336 -0.222965 0.411871 0.907648
0.534581 0.24821 0.645851 -0.686704 -0.0713674 0.00988535 0.176631 2.38067
0.119998 0.279619 0.274593 0.478989 -0.211596 0.283349 -0.0807078 -0.605522
0.653894 -0.494369 0.352907 0.376633 0.418221 0.091943 0.0459877 -0.0783425
-0.216715 0.00655 -0.0245316 -0.175435 -0.0950803 -0.0628291 -0.0328429 -0.201022
0.0172119 0.100855 -0.00199895 -0.240686 -0.170208 -0.446214 0.253831 0.316993
-0.265747 -0.288359 -0.189411 0.265999 -0.0540192 1.05511 0.121075 -0.41328
-0.543232 -0.496847 0.5345 -0.0393852 0.042962 0.655004 0.743137 0.010864
-0.112011 0.378311 -1.01821 -0.54834 -0.0986728 1.5043 -0.0769043 0.0202726
-0.0467247 0.288934 0.0683932 -0.0870506 -0.0638946 -0.0430776 0.0950796 0.0882309
0.0427012 -0.216033 0.168213 -0.0109669 0.000640957 -0.136948 0.0344363 -0.202757
0.367372 -0.0970976 -0.0518982 0.115276 0.0181934 0.357493 0.0380872 -0.00697342
-0.0175701 -0.0487712 -0.121746 0.0660001 -0.078095 0.00745882 -0.222119 -0.301709
-0.0144974 0.0254846 -0.093026 0.0621451 0.0306856 0.201355 0.411389 0.224321
-0.0304648 -0.0140259 0.180089 -1.02562 0.100609 0.0361427 -0.12455 0.0497385
-0.119445 0.24457 -0.661094 -0.147684 -0.276691 0.603267 -0.314773 -0.058497
0.391833 0.447239 -0.0207454 -0.0465531 0.195645 0.302417 -0.0263603 -0.782581
-0.0597397 -0.053063 -0.104164 0.250024 -0.112067 0.402737 0.0404919 0.169166
-0.252885 -0.00362727 0.538119 0.0845551 0.105398 0.247252 0.795841 -0.287386
-0.137084 -0.306948 -0.0640116 -0.0809487 0.00671289 -0.208322 -0.0384561 -0.576041
0.142892 0.0133811 0.464749 -0.00962916 0.12657 -2.10987 0.0323051 0.528327
-0.360524 0.179673 -0.00780729 0.000301838 0.0212471 0.0255319 -0.00453281 0.00378572
00000000: 218f 883e 2886 5f3d 60e5 50be 895d d3be
00000010: 8270 d53e c53a f5bd 17bb 1dbe ab22 6cbe
00000020: 10c9 353c d134 72bc 5008 333d b610 14be
00000030: 4a45 1fbf 1f84 b8be 310c 98bc 02d8 74bf
00000040: c85e 9f3f d1e8 c63e e223 223e 118d 1e3e
00000050: 1f2c 933d 48fb 4fbe 278f 1dbd d3f8 95be
00000060: 4f22 523e 5913 4b3d c4d2 743f a6b4 963e
00000070: 5c56 c1be 1d70 c23c d55c a63e 2ee4 0d3f
00000080: 9f76 203f 6e15 e43d afe9 153f 5e4d 2e3f
00000090: f7ca 3cbe db35 c9be c3ba d1be 05c0 a0bf
000000a0: fdf5 0a3f 062f babf 4d81 b4be de3c b43b
000000b0: 09e1 513f cc0b 14c0 a0f9 b4be aa9b 8b3e
000000c0: eeb3 b2be 5e0e c33e c2ee 053c 69d4 523d
000000d0: c406 2b3e 5da7 a13e 70f4 ccbc dc7e 353f
000000e0: 164d ffbe 616c 093f fe98 ce3e 3faa 01bd
000000f0: 1b02 91bc 85cc 55be ab5b 8dbf 3e95 43be
00000100: dccb 07bd 349e 043f 683d 7cbe dd40 213e
00000110: dae4 b0be 9c89 79be 774a 8fbf 04ad 0c3f
00000120: 96e4 e53c 4912 c43e aedd 113d 4bb1 03bd
00000130: b665 1cbf c477 8ebf 2e56 383f 9e7e 983e
00000140: 546e 2abf 800c bd3e 98c2 67bf 001b 70be
00000150: 13d3 85bc f050 64be c1e0 d23e 9f5b 683f
00000160: 4dda 083f c32a 7e3e 7e56 253f d5cb 2fbf
00000170: 1229 92bd 2af6 213c c2de 343e e65c 1840
00000180: 83c1 f53d 392a 8f3e 7497 8c3e 0c3e f53e
00000190: 9fac 58be 1f13 913e 224a a5bd 7d03 1bbf
000001a0: 9965 273f ef1d fdbe 3ab0 b43e 0ad6 c03e
000001b0: 1021 d63e 9d4c bc3d 995d 3c3d 0872 a0bd
000001c0: 89ea 5dbe 62a1 d63b 7ef6 c8bc 3ca5 33be
000001d0: 76b9 c2bd 8bac 80bd 4786 06bd b6d8 4dbe
000001e0: f8ff 8c3c 118d ce3d d100 03bb 6476 76be
000001f0: 024b 2ebe 2976 e4be 23f6 813e e84c a23e
00000200: fe0f 88be caa3 93be f5f4 41be 0531 883e
00000210: 3d43 5dbd d80d 873f 2bf6 f73d 7099 d3be
00000220: 4111 0bbf bb62 febe fed4 083f 6052 21bd
00000230: ecf8 2f3d 58ae 273f 3a3e 3e3f ebfe 313c
00000240: 0666 e5bd fbb1 c13e b554 82bf 0360 0cbf
00000250: f714 cabd e78c c03f 0080 9dbd b912 a63c
00000260: 6662 3fbd 28ef 933e bc11 8c3d 9647 b2bd
00000270: 2cdb 82bd 2372 30bd 18b9 c23d 67b2 b43d
00000280: 74e7 2e3d c137 5dbe 0740 2c3e 83ae 33bc
00000290: e505 283a 193c 0cbe 140d 0d3d 889f 4fbe
000002a0: 2f18 bc3e 1bdb c6bd 3593 54bd d315 ec3d
000002b0: 530a 953c 5309 b73e 5301 1c3d 4981 e4bb
000002c0: 2cef 8fbc 4fc4 47bd f855 f9bd 0f2b 873d
000002d0: 45f0 9fbd 1e69 f43b 2a73 63be 9a79 9abe
000002e0: 8186 6dbc 14c5 d03c 6a84 bebd dc8b 7e3d
000002f0: 5e60 fb3c 0130 4e3e 94a1 d23e 67b4 653e
00000300: 5191 f9bc e3cc 65bc 4069 383e 8447 83bf
00000310: 170c ce3d 5e0a 143d 1214 ffbd 99ba 4b3d
00000320: 959f f4bd 8f70 7a3e 753d 29bf 793a 17be
00000330: 71aa 8dbe b56f 1a3f ed29 a1be 8d9a 6fbd
00000340: 569e c83e 83fc e43e 42f2 a9bc 77ae 3ebd
00000350: 2a57 483e 67d6 9a3e 8ef1 d7bc 3a57 48bf
00000360: 9eb1 74bd 9758 59bd ef53 d5bd 2503 803e
00000370: 6283 e5bd 8b33 ce3e d6da 253d da39 2d3e
00000380: 257a 81be 7eb7 6dbb 2bc2 093f 392b ad3d
00000390: e8da d73d a12f 7d3e 3cbc 4b3f 4224 93be
000003a0: c05f 0cbe 4a28 9dbe 8418 83bd 6fc8 a5bd
000003b0: cef7 db3b 5d52 55be 2584 1dbd 6c77 13bf
000003c0: 4852 123e 673c 5b3c 95f3 ed3e a0c3 1dbc
000003d0: 919b 013e 1c08 07c0 5a52 043d 7040 073f
000003e0: 9a96 b8be 33fc 373e 4cd4 ffbb 0340 9e39
000003f0: 660e ae3c 4628 d13c f787 94bb d819 783b

B3 f4 [50]
0.0155347 -0.631073 -0.0486595 0.335439 -0.888915 -0.0137748 -1.69129 -0.012756
-0.000522399 -0.015696 -0.251987 -0.196714 -0.530208 -0.293496 -0.553786 -0.147319
0.156436 -0.0192311 -0.102137 -0.538109 0.490462 1.25979 -1.03258 -0.678107
0.408626 0.0693874 -0.325771 -0.907601 0.751887 -0.142395 0.245313 0.531784
-0.182009 0.187916 -0.411634 -0.708323 -0.306723 -0.252112 -0.539402 -0.504027
-0.0109692 -0.220625 0.334337 -0.0266191 -0.380621 -0.916368 -0.213362 0.260158
0.06855 -0.00156863
00000000: 4185 7e3c 008e 21bf 2f4f 47bd a9be ab3e
00000010: ef8f 63bf b3af 61bc 317c d8bf 8bfe 50bc
00000020: 9af1 08ba e694 80bc 7104 81be 656f 49be
00000030: b6bb 07bf 1c45 96be ebc4 0dbf cbda 16be
00000040: c230 203e 8a8a 9dbc 342d d1bd 83c1 09bf
00000050: d61d fb3e cc40 a13f 952b 84bf 6c98 2dbf
00000060: 6d37 d13e fb1a 8e3d 75cb a6be 8a58 68bf
00000070: ab7b 403f ffcf 11be 5533 7b3e ff22 083f
00000080: 9160 3abe 0d6d 403e b1c1 d2be a854 35bf
00000090: cc0a 9dbe d314 81be 4016 0abf ea07 01bf
000000a0: 29b8 33bc 85eb 61be 382e ab3e 4c10 dabc
000000b0: c1e0 c2be 1897 6abf 917b 5abe 6e33 853e
000000c0: f163 8c3d 7d9a cdba

W4 f4 [50, 50]
0.125513 0.176836 -0.0216921 0.200851 -0.0754255 -0.026029 0.232362 0.0394177
0.0324159 -0.0284708 0.192393 -0.565311 0.0476488 -0.245567 0.369022 -0.236585
0.192072 -0.18809 -0.027616 -0.497178 -0.396993 0.0666075 -0.246176 -0.286119
-0.124394 0.00626901 -0.554793 -0.0581742 -0.0362795 -0.20312 -0.528694 0.260333
-0.0765851 -0.136807 -0.333546 -0.429952 -0.539542 0.0987065 0.0363758 -0.396645
-0.00390028 -0.052178 -0.0553703 0.282056 0.0019453 -0.0333526 0.0709012 -0.0574869
0.315772 0.327003 -0.098821 -0.132462 -0.139818 0.20619 -0.0121947 0.00218709
0.264261 -0.023931 0.0969156 0.0164345 -0.0436928 -0.233774 -0.380817 0.23342
-0.062715 -0.00421639 -0.154382 -0.241675 0.22273 -0.163773 -0.116499 -0.109799
-0.0434818 -0.150148 -0.078467 -0.0317658 -0.0658056 0.147516 -0.0403031 0.456147
-0.305743 -0.0562785 0.0821379 0.0593842 0.0227594 0.188704 0.358832 0.0337639
-0.0864971 -0.236634 0.0262884 -0.0407373 0.00423544 0.00975815 0.013469 0.0795847
-0.126736 -0.226635 -0.080251 0.17358 -0.196962 -0.307561 0.131863 0.560629
-0.219982 -0.0163186 0.288348 0.0249176 0.632648 -0.0405176 0.589308 0.0657722
0.876414 0.290785 -0.0846225 -0.180849 -0.150768 0.43641 0.21585 0.337556
0.376591 -0.179293 -0.137742 -0.10792 0.126279 -0.0640706 -0.291689 -0.259966
-0.0384812 0.33722 -0.0569566 0.310203 -0.327739 -0.14268 -0.518181 0.21277
0.246723 -0.0432833 0.141028 -1.40745 0.00101294 0.0129236 -0.187416 0.313201
0.213102 0.0647856 -0.0388178 -0.212692 0.238978 0.77066 0.160602 0.00994539
0.156195 0.666178 -0.699353 -0.0088495 -0.00286848 0.0424457 -0.582196 0.0367345
0.707936 0.153137 0.131915 0.17029 0.394649 -1.03435 0.54161 -0.263539
0.458596 0.578934 0.411824 -0.155268 0.423704 0.247454 0.273752 0.0216356
0.270857 0.0485161 0.118419 -0.158359 0.664507 0.123729 -1.05338 0.135732
-0.959315 0.160425 -0.00253633 0.265676 -0.448633 -1.04687 -0.02894 -0.160858
0.15391 0.0785918 -0.0723302 0.278654 0.00848194 -0.710978 0.795395 0.0518481
-0.211128 0.412422 0.123399 0.373952 -1.50982 0.045906 0.294424 0.0347862
0.348559 -0.0141077 0.0691413 -1.07988 -0.174584 -0.000342782 0.629962 -0.226621
0.124902 -0.40642 0.362076 -0.192037 -0.766142 -0.0701377 0.105444 0.0882291
-0.0185186 0.226319 -0.321888 -0.593537 0.306424 0.118593 -1.26938 0.246875
-0.889313 -0.0837658 1.30832 -0.372811 -0.40145 0.250915 0.428471 0.104226
0.00680427 -0.0596805 0.0302451 0.653236 0.147241 0.354549 0.0677294 -0.298127
0.679015 0.527076 -0.157846 0.288657 0.111408 0.372397 -0.783473 -0.0235667
00000000: 7b86 003e 7f14 353e a2b3 b1bc e2ab 4d3e
00000010: af78 9abd c53a d5bc 4ef0 6d3e 7474 213d
00000020: 89c6 043d 983b e9bc ac02 453e 39b8 10bf
00000030: 632b 433d ea75 7bbe 74f0 bc3e 5743 72be
00000040: 86ae 443e aa9a 40be f33a e2bc 1d8e febe
00000050: ab42 cbbe 8369 883d 9015 7cbe 317e 92be
00000060: 48c2 febd 446c cd3b ea06 0ebf 1248 6ebd
00000070: d099 14bd b0fe 4fbe 7d58 07bf 5e4a 853e
00000080: a6d8 9cbd 2217 0cbe 8bc6 aabe ab22 dcbe
00000090: 6d1f 0abf a226 ca3d cafe 143d 0e15 cbbe
000000a0: d79b 7fbb 99b8 55bd f8cb 62bd a569 903e
000000b0: 70f9 fe3a bc9c 08bd a634 913d 6277 6bbd
000000c0: deac a13e f06c a73e aa62 cabd 1ea4 07be
000000d0: 732c 0fbe 7923 533e 47cc 47bc 4855 0f3b
000000e0: 384d 873e f20a c4bc b07b c63d a5a1 863c
000000f0: 39f7 32bd 7462 6fbe 72fa c2be a705 6f3e
00000100: b970 80bd a529 8abb 5116 1ebe a779 77be
00000110: 5513 643e 1cb4 27be 0797 eebd 4cde e0bd
00000120: f919 32bd 66c0 19be 4eb3 a0bd db1c 02bd
00000130: 16c5 86bd 6f0e 173e dd14 25bd 198c e93e
00000140: 598a 9cbe 4984 66bd ea37 a83d d93c 733d
00000150: ec71 ba3c 9f3b 413e d4b8 b73e 044c 0a3d
00000160: 6425 b1bd 2f50 72be c55a d73c 28dc 26bd
00000170: 72c9 8a3b a6e0 1f3c 15ad 5c3c 4efd a23d
00000180: 15c7 01be 0113 68be a35a a4bd f5be 313e
00000190: 68b0 49be a378 9dbe 1807 073e 6285 0f3f
000001a0: f642 61be 96ae 85bc 59a2 933e ff1f cc3c
000001b0: 38f5 213f c8f5 25bd e4dc 163f 93b3 863d
000001c0: ab5c 603f c6e1 943e 904e adbd 7b30 39be
000001d0: ed62 1abe 2271 df3e c807 5d3e 24d4 ac3e
000001e0: 89d0 c03e 9698 37be 3d0c 0dbe 2905 ddbd
000001f0: 484f 013e 7237 83bd 4358 95be 431a 85be
00000200: 769e 1dbd 1aa8 ac3e 534b 69bd edd2 9e3e
00000210: 68cd a7be b51a 12be 83a7 04bf 61e0 593e
00000220: f4a4 7c3e d449 31bd a569 103e 5227 b4bf
00000230: a0c4 843a 82bd 533c fbe9 3fbe e25b a03e
00000240: 6937 5a3e 50ae 843d 6aff 1ebd efcb 59be
00000250: a6b6 743e f949 453f da74 243e fdf1 223c
00000260: 95f1 1f3e a48a 2a3f cc08 33bf 7efd 10bc
00000270: 1cfd 3bbb 8bdb 2d3d cc0a 15bf ea76 163d
00000280: 4b3b 353f f2cf 1c3e ba14 073e 8060 2e3e
00000290: 6f0f ca3e 9565 84bf f4a6 0a3f 95ee 86be
000002a0: 18cd ea3e 0535 143f 98da d23e 93fe 1ebe
000002b0: bbef d83e 9564 7d3e 3929 8c3e 243d b13c
000002c0: c5ad 8a3e d1b8 463d a985 f23d dd28 22be
000002d0: 211d 2a3f a165 fd3d 28d5 86bf 54fd 0a3e
000002e0: ab95 75bf 7446 243e 8e38 26bb af06 883e
000002f0: 39b3 e5be d6ff 85bf 9413 edbc f6b7 24be
00000300: 959a 1d3e bdf4 a03d db21 94bd bdab 8e3e
00000310: d6f7 0a3c a702 36bf 029f 4b3f ac5e 543d
00000320: f031 58be fa28 d33e 9db8 fc3d a376 bf3e
00000330: c841 c1bf ee07 3c3d bebe 963e f97b 0e3d
00000340: 5376 b23e fc23 67bc f499 8d3d 8239 8abf
00000350: 26c6 32be 6cb7 b3b9 3145 213f 560f 68be
00000360: 9fcc ff3d 4816 d0be 0762 b93e 59a5 44be
00000370: e221 44bf 5ba4 8fbd 06f3 d73d 75b1 b43d
00000380: 52b4 97bc 2bc0 673e 81ce a4be 0af2 17bf
00000390: 9be3 9c3e e3e0 f23d 0b7b a2bf cdcc 7c3e
000003a0: 04aa 63bf 678d abbd 0877 a73f 15e1 bebe
000003b0: db8a cdbe ee77 803e 8d60 db3e 7174 d53d
000003c0: 5bf6 de3b 8a73 74bd 92c4 f73c 793a 273f
000003d0: 58c6 163e 7287 b53e b6b5 8a3d 1aa4 98be
000003e0: edd3 2d3f 74ee 063f 62a2 21be daca 933e
000003f0: e129 e43d d2aa be3e b091 48bf f40e c1bc

B4 f4 [50]
0.76189 0.519563 0.531614 -0.364361 -0.271891 -0.29651 0.231529 0.816997
-0.248478 0.208621 -0.0739025 -0.20577 1.43396 0.877413 -0.064898 0.756465
-0.452439 -0.493981 -0.153937 0.556736 -0.00391318 -0.106949 0.0592174 0.0755056
0.776322 0.263774 0.00581868 0.330154 0.143501 0.0437457 0.115844 -0.272837
-0.457723 -0.421299 -0.0126626 0.759291 -0.205184 -0.0633554 -0.245921 0.550258
-0.115609 0.0972322 -0.0107375 -0.048002 -0.359291 -0.0119613 1.00619 0.58802
-0.379719 -1.40777
00000000: 390b 433f 1502 053f db17 083f 868d babe
00000010: 4c35 8bbe 29d0 97be f015 6d3e b726 513f
00000020: 0471 7ebe bea0 553e 325a 97bd 5fb5 52be
00000030: 008c b73f 239e 603f 3ee9 84bd b1a7 413f
00000040: 16a6 e7be 14eb fcbe a9a1 1dbe 4086 0e3f
00000050: 223a 80bb 1408 dbbd f28d 723d aea2 9a3d
00000060: 0abd 463f 630d 873e a0aa be3b f209 a93e
00000070: edf1 123e b12e 333d 9e3f ed3d 4bb1 8bbe
00000080: ab5a eabe 81b4 d7be cb76 4fbc e560 423f
00000090: c11b 52be 7ac0 81bd b7d2 7bbe b5dd 0c3f
000000a0: 69c4 ecbd ad21 c73d 57ec 2fbc bf9d 44bd
000000b0: fdf4 b7be 54f9 43bc d5ca 803f 7b88 163f
000000c0: 876a c2be cf31 b4bf

W5 f4 [50, 50]
-0.457292 0.414959 0.103043 0.312375 -0.660092 0.0364239 0.245184 -0.253138
-0.00130138 -0.649596 0.338111 0.472632 -0.0600197 0.21794 -0.31761 -0.00945438
0.224794 0.13437 -0.216226 0.355496 0.111287 -0.0678751 -0.00988532 -0.0181844
0.273002 0.10815 -0.369472 0.539365 0.805486 0.451548 -0.377207 0.0993429
-0.259333 0.0803735 -0.00492693 -0.166181 -0.200929 -0.0876089 -0.171463 0.911612
0.0465435 -0.0111733 0.0204196 0.0292301 0.0651678 -0.0447694 0.303644 0.149328
-0.617515 -0.0401157 0.0887083 -0.247627 0.00145933 0.0469893 -0.013754 0.0786243
-0.275029 -0.0011107 0.131817 -0.0432472 0.20786 -0.172311 0.0835628 0.0977446
-0.0247337 -2.28707 -0.0132609 -0.0390241 -0.00772557 -0.24595 0.0693193 -0.0535675
-0.0160236 0.0418162 -0.200339 0.129464 -0.0758862 -0.00458621 0.352495 -0.320179
0.00345791 0.0544157 -0.124459 0.0177132 -0.00417442 -0.0590186 9.34975e-05 -0.0212812
0.141649 0.575859 -0.0487461 -0.0537001 -0.0398706 -0.011957 0.0291024 -0.0240292
-0.0159499 -0.0510695 -0.0934144 -0.219114 0.188537 1.41325 -0.434736 0.0561307
-0.00647279 -2.03852 0.0260422 0.0166881 0.877338 0.0117961 1.56269 -1.00154
0.839913 0.250541 -0.353818 0.264861 -0.567714 -1.54365 -0.11826 0.0849641
0.254117 -0.0302722 -0.0367163 0.0960344 -0.230414 0.309071 -0.586315 -0.245786
-0.49395 -0.0391251 0.0172928 0.0236738 -0.888556 0.0962182 0.0120746 -0.185315
-0.209314 0.00841509 -1.93484 -1.47583 -1.73819 0.023115 0.0142314 -1.69501
0.0671644 -0.0486769 0.0425092 0.0322112 -0.0137046 -0.0728753 0.166856 0.202326
-0.085514 -0.0250968 0.0428867 0.156775 -0.0124576 -0.00585942 0.115959 -0.030321
0.168134 0.202055 0.150588 0.104154 0.0541801 0.099628 -0.150738 -0.0327525
-0.101739 0.151597 -0.0709201 -0.330365 0.115021 0.0781336 0.153563 0.0580359
-0.294292 -0.069141 0.450762 -0.0611258 -0.0259058 -0.179374 -0.237544 -0.153529
-0.0355357 0.0578256 0.0135781 -0.240865 -0.115993 0.522178 -0.0357805 0.00784026
-0.0397764 -0.123287 -0.234369 -0.0456371 0.027643 0.0361155 -0.105624 -0.60469
-0.0389386 0.0965699 -0.0723423 -0.0654781 0.055646 -0.00962708 -0.112337 -0.0220819
-0.284923 -0.0333403 -0.155382 0.0751229 0.11055 0.0556223 0.0692447 -0.00935782
-0.0786888 0.0959329 0.147967 0.123281 0.08731 -0.043096 0.0875265 -0.0815771
0.0271965 0.0588546 -0.0448606 0.0434745 0.755759 -0.031145 -0.00318924 0.0620921
0.0556765 0.0235626 -0.0257167 -0.148716 -0.0358234 0.00636764 0.299624 1.11193
0.286913 -0.0148753 -0.000369931 0.215336 -0.199996 0.0188989 -0.0272726 -0.0422928
0.0372646 -0.50539 -0.0264442 0.0338041 -0.0237254 -0.0482664 -0.0355041 0.0352484
00000000: 2d22 eabe 8275 d43e 3508 d33d 9eef 9f3e
00000010: cafb 28bf 3a31 153d 8411 7b3e 4e9b 81be
00000020: 1193 aaba ec4b 26bf e31c ad3e d2fc f13e
00000030: 38d7 75bd aa2b 5f3e c79d a2be 8be6 1abc
00000040: 6630 663e 4a98 093e 596a 5dbe 9203 b63e
00000050: 70ea e33d 1a02 8bbd 0af6 21bc 73f7 94bc
00000060: ebc6 8b3e bf7d dd3d 6f2b bdbe d313 0a3f
00000070: 5534 4e3f 4d31 e73e 4721 c1be 4a74 cb3d
00000080: 4cc7 84be dd9a a43d 1672 a1bb 5a2b 2abe
00000090: 55c0 4dbe 4c6c b3bd ff93 2fbe 675f 693f
000000a0: 66a4 3e3d 3810 37bc 0147 a73c f673 ef3c
000000b0: b276 853d 1e60 37bd 3a77 9b3e 70e9 183e
000000c0: 7715 1ebf 5c50 24bd b2ac b53d ef91 7dbe
000000d0: fd46 bf3a da77 403d 7558 61bc c705 a13d
000000e0: 9ad0 8cbe e894 91ba 09fb 063e fa23 31bd
000000f0: 40d9 543e 4b72 30be f922 ab3d 522e c83d
00000100: 549e cabc 5b5f 12c0 3f44 59bc bcd7 1fbd
00000110: c726 fdbb 51da 7bbe 47f7 8d3d 9869 5bbd
00000120: ed43 83bc 7747 2b3d ab25 4dbe 3692 043e
00000130: 396a 9bbd eb47 96bb 3a7a b43e 80ee a3be
00000140: 1a9e 623b ffe2 5e3d 5ce4 febd 461b 913c
00000150: 93c9 88bb 7dbd 71bd 1714 c438 e955 aebc
00000160: 6f0c 113e 7f6b 133f fea9 47bd a3f4 5bbd
00000170: 5b4f 23bd 4be7 43bc 2868 ee3c e3d8 c4bc
00000180: 5da9 82bc 412e 51bd 0d50 bfbd 6c5f 60be
00000190: d80f 413e 60e5 b43f b895 debe 4ee9 653d
000001a0: b319 d4bb 1d77 02c0 7456 d53c 7bb5 883c
000001b0: 3999 603f 6e44 413c 3a06 c83f 7632 80bf
000001c0: 8a04 573f e946 803e a227 b5be dc9b 873e
000001d0: b455 11bf 5396 c5bf 4d32 f2bd a801 ae3d
000001e0: a01b 823e 68fd f7bc d563 16bd afad c43d
000001f0: a6f1 6bbe 8e3e 9e3e bd18 16bf 53af 7bbe
00000200: 04e7 fcbe a441 20bd a1a9 8d3c 8fef c13c
00000210: 6878 63bf 0c0e c53d 8bd4 453c 37c3 3dbe
00000220: 6956 56be 72df 093c d6a8 f7bf ffe7 bcbf
00000230: 037d debf ab5b bd3c d12a 693c 16f6 d8bf
00000240: 7d8d 893d 6e61 47bd 201e 2e3d e4ef 033d
00000250: 4289 60bc a53f 95bd 4ddc 2a3e 8c2e 4f3e
00000260: f721 afbd ce97 cdbc f7a9 2f3d a089 203e
00000270: f61a 4cbc 6100 c0bb ea7b ed3d bf63 f8bc
00000280: 522b 2c3e 82e7 4e3e be33 1a3e b14e d53d
00000290: f4eb 5d3d c409 cc3d 105b 1abe 7c27 06bd
000002a0: 895c d0bd 3e3c 1b3e 8f3e 91bd 9a25 a9be
000002b0: 2190 eb3d 8204 a03d 9e3f 1d3e 0db7 6d3d
000002c0: 71ad 96be cc99 8dbd 47ca e63e 0c5f 7abd
000002d0: 6638 d4bc d1ad 37be bc3e 73be b536 1dbe
000002e0: e28d 11bd 89da 6c3d ae76 5e3c 51a5 76be
000002f0: bd8d edbd 75ad 053f 938e 12bd 6f74 003c
00000300: 94ec 22bd e57d fcbd 6dfe 6fbe f8ed 3abd
00000310: 9373 e23c d9ed 133d 6551 d8bd f7cc 1abf
00000320: 157e 1fbd 71c6 c53d 3328 94bd 6219 86bd
00000330: 0fed 633d e6ba 1dbc f110 e6bd 1ae5 b4bc
00000340: 6de1 91be d78f 08bd 761c 1fbe 09da 993d
00000350: 0a68 e23d 35d4 633d 2ad0 8d3d 8b51 19bc
00000360: 9827 a1bd 7878 c43d a984 173e c07a fc3d
00000370: 96cf b23d 6e85 30bd 1841 b33d e511 a7bd
00000380: 32cb de3c 8511 713d c0bf 37bd 5112 323d
00000390: 6c79 413f cd23 ffbc 9102 51bb 4954 7e3d
000003a0: 0b0d 643d 5b06 c13c d4ab d2bc 0249 18be
000003b0: 8fbb 12bd a3a7 d03b 5168 993e b953 8e3f
000003c0: 43e6 923e 88b7 73bc 4cf3 c1b9 0a81 5c3e
000003d0: c0cb 4cbe ded1 9a3c ca6a dfbc 373b 2dbd
000003e0: c4a2 183d 3d61 01bf 82a1 d8bc 2b76 0a3d
000003f0: c55b c2bc fdb2 45bd bf6c 11bd a060 103d

B5 f4 [50]
0.036662 0.146299 -0.276478 -0.0752405 0.303311 -0.0044188 -0.437884 -1.09187
0.194901 -0.22143 0.0951171 0.270773 -0.0641339 0.201964 0.36729 0.493122
-0.398609 0.0997479 0.303024 0.285142 -0.300404 -0.691614 0.00512819 -0.0296667
-0.601868 -0.0492263 0.19325 0.400419 0.0289287 0.334966 -0.482399 0.383772
-0.0079781 -0.797585 0.29203 0.0853985 -0.0246967 0.254005 -1.08467 0.461397
-0.0165199 -1.94975 0.0738549 -1.20344 0.470261 4.86305e-05 -0.58007 0.297705
-0.230848 0.21546
00000000: e52a 163d 68cf 153e 868e 8dbe b117 9abd
00000010: 944b 9b3e 95cb 90bb 5532 e0be 65c2 8bbf
00000020: 2194 473e 8cbe 62be c1cc c23d c2a2 8a3e
00000030: a258 83bd a7cf 4e3e 6f0d bc3e 7d7a fc3e
00000040: 7b16 ccbe a148 cc3d f625 9b3e 22fe 913e
00000050: 8ece 99be 9d0d 31bf 600a a83b 9407 f3bc
00000060: 0514 1abf 84a1 49bd 54e3 453e b803 cd3e
00000070: e2fb ec3c aa80 ab3e 00fd f6be c37d c43e
00000080: 94b6 02bc 882e 4cbf f584 953e 69e5 ae3d
00000090: bc50 cabc f20c 823e 77d6 8abf 3a3c ec3e
000000a0: be54 87bc 6891 f9bf 3d41 973d 520a 9abf
000000b0: 0dc6 f03e 9af8 4b38 787f 14bf ca6c 983e
000000c0: 6b63 6cbe 8ca1 5c3e

W6 f4 [5, 50]
-0.00740043 0.00106226 0.0146637 0.0251117 0.00961905 -0.000256544 0.00720876 0.00644332
-0.0174862 -0.0180394 0.00532936 0.00521689 0.148149 0.0056108 0.00778911 0.047139
0.0358591 0.0296149 0.0465097 0.0192698 -0.0202153 0.0442979 0.00166064 0.0177144
-0.0396172 -0.0505307 0.0424073 0.000637434 0.0702069 0.0163163 0.00731906 0.00617011
-0.00663592 0.0115704 0.0261659 0.00247661 -0.033037 0.0500586 0.0124338 0.0280224
0.0120128 -0.0342538 0.00305054 -0.0403145 -0.00485782 -0.00940874 -0.0409477 0.0292207
0.0238053 0.0369466 -0.0492278 0.00944073 0.0126886 0.0371608 0.0208221 -0.0139273
0.00956425 0.00742506 -0.0330321 -0.0222336 0.0147649 0.0259143 0.0443465 0.00200017
0.00244253 0.0422063 0.0286563 0.0138902 0.0418485 0.0168949 -0.012286 0.0452398
0.0152656 0.0401174 -0.0345733 -0.0951211 0.0253042 0.00075441 -0.00410591 0.0223391
0.00574851 0.031675 0.0272525 0.00848951 0.0718541 -0.0132743 -0.0190335 0.0546775
0.00279392 0.0179959 -0.046121 -0.0295114 0.00798944 -0.0510485 0.0376941 -0.0056273
-0.00735928 0.0453207 0.0240043 -0.000548188 0.00271379 0.00980951 0.013324 0.0105918
0.01748 0.0319348 -0.0359332 -0.00930435 -0.0303052 -0.0163139 2.70856e-05 -0.0159212
0.0977264 0.0268617 0.00531203 0.0398862 0.0373715 0.0422391 0.046226 0.0153987
-0.0339616 0.0528113 0.0121873 0.0247019 -0.0375883 -0.0600599 0.0368621 0.0407348
-0.00201755 0.00746646 -0.00119678 0.00244916 0.0113937 0.0146667 0.0136485 0.0156135
-0.0305262 0.0566126 0.0212427 0.04528 -0.0690613 -0.0361065 -0.00623078 -0.0357482
-0.00582894 -0.0118445 -0.0424254 0.0473172 0.0190327 -0.000746903 -0.0818275 0.0117639
0.0138881 0.0415505 -0.00723774 -0.00543698 -0.00431732 0.0299625 0.00421791 -0.00763339
0.0280352 0.0421725 -0.0221462 0.00187436 0.035457 0.0483732 0.0270071 0.0333807
0.028413 -0.0103309 0.00638869 0.0480525 0.0104732 0.00258553 -0.030285 0.00731191
0.0347284 -0.00165317 -0.00466949 0.0251637 0.0139697 0.0345454 -0.0059827 -0.00343899
0.0125293 -0.0369835 0.000836872 0.0406803 -0.0137702 -8.97445e-06 -0.0532537 -0.00495798
-0.0155333 -0.0693337 0.0646478 0.015235 -0.0280043 0.00977423 0.0291885 0.0040716
0.00364678 0.0101844 0.0140774 0.0367543 -0.00645958 -0.0170818 -0.0538468 -0.0190225
0.00896211 -0.0314234 -0.0219746 -0.0477445 0.0183975 0.0302078 -0.0112789 0.0443875
0.0427121 0.0219714 0.0513299 0.0268611 0.000587132 0.0565547 0.0142434 -0.0249213
-0.0313865 0.152637 0.0420032 0.0441129 -0.00726827 0.0130517 -0.00916278 0.000967669
0.00154142 0.0223049 -0.0126949 0.0318336 0.015093 0.0584555 0.0425587 0.0145179
-0.0275295 -0.0419406 0.0213531 0.00885423 0.00383943 -0.0254618 0.0123378 0.00774069
0.00220089 0.00260947
00000000: 4e7f f2bb 883b 8b3a 0440 703c 0db7 cd3c
00000010: 3899 1d3c c180 86b9 7637 ec3b 7c22 d33b
00000020: 383f 8fbc 5dc7 93bc e9a1 ae3b 72f2 aa3b
00000030: 5fb4 173e cdda b73b ca3b ff3b d314 413d
00000040: fee0 123d f29a f23c f580 3e3d b3db 9d3c
00000050: 8f9a a5bc b771 353d d5a9 d93a ca1d 913c
00000060: a545 22bd 47f9 4ebd 47b3 2d3d 7919 273a
00000070: a3c8 8f3d c3a9 853c bad4 ef3b a22e ca3b
00000080: 2272 d9bb c691 3d3c df59 d63c 9f4e 223b
00000090: ce51 07bd 3f0a 4d3d 23b7 4b3c 3b8f e53c
000000a0: 56d1 443c b64d 0cbd 92eb 473b d120 25bd
000000b0: 592e 9fbb 1e27 1abc c7b8 27bd 4060 ef3c
000000c0: 5503 c33c 5155 173d 17a3 49bd 4bad 1a3c
000000d0: d9e3 4f3c ec35 183d 1c93 aa3c 552f 64bc
000000e0: 5fb3 1c3c eb4d f33b ab4c 07bd 3d23 b6bc
000000f0: 7be8 713c 3a4a d43c ada4 353d 4915 033b
00000100: da12 203b 83e0 2c3d 9ec0 ea3c b993 633c
00000110: 5569 2b3d 2c67 8a3c 384b 49bc 5e4d 393d
00000120: 911c 7a3c 2552 243d bc9c 0dbd dace c2bd
00000130: c14a cf3c 99c3 453a df8a 86bb 7d00 b73c
00000140: ff5d bc3b a5bd 013d a340 df3c 9617 0b3c
00000150: 3e28 933d 737c 59bc 25ec 9bbc 84f5 5f3d
00000160: 331a 373b 236c 933c 60e9 3cbd e4c1 f1bc
00000170: 24e6 023c 3b18 51bd 2165 1a3d 3765 b8bb
00000180: 1d26 f1bb 33a2 393d aaa4 c43c 46b4 0fba
00000190: d7d9 313b 11b8 203c e84c 5a3c 3b89 2d3c
000001a0: 3832 8f3c 11ce 023d b12e 13bd 4671 18bc
000001b0: 9c42 f8bc baa4 85bc e235 e337 2d6d 82bc
000001c0: c724 c83d 110d dc3c 8a10 ae3b b65f 233d
000001d0: dc12 193d e802 2d3d 7957 3d3d d44a 7c3c
000001e0: 521b 0bbd a950 583d 3ead 473c a45b ca3c
000001f0: 30f6 19bd 5f01 76bd b7fc 163d 89d9 263d
00000200: df38 04bb 35a9 f43b 46dd 9cba 1682 203b
00000210: a4ac 3a3c 994c 703c f59d 5f3c c4cf 7f3c
00000220: 1512 fabc 9de2 673d 2c05 ae3c 8577 393d
00000230: 0370 8dbd 69e4 13bd 922b ccbb b46c 12bd
00000240: b100 bfbb 6f0f 42bc 42c6 2dbd aecf 413d
00000250: 77ea 9b3c d0cb 43ba 2d95 a7bd 5fbd 403c
00000260: ea8a 633c db30 2a3d 902a edbb b228 b2bb
00000270: 4e78 8dbb eb73 f53c 6536 8a3b 8421 fabb
00000280: 13aa e53c 12bd 2c3d f36b b5bc 16ad f53a
00000290: 5c3b 113d fa22 463d fe3d dd3c 33ba 083d
000002a0: 61c2 e83c ef42 29bc 3758 d13b b3d2 443d
000002b0: c997 2b3c ff71 293b 4018 f8bc bf98 ef3b
000002c0: 5e3f 0e3d 2eaf d8ba 8502 99bb 1b24 ce3c
000002d0: 2be1 643c 7a7f 0d3d 860a c4bb ae60 61bb
000002e0: b147 4d3c 037c 17bd 8761 5b3a 63a0 263d
000002f0: 689c 61bc f890 16b7 8d20 5abd 8d76 a2bb
00000300: 627f 7ebc d4fe 8dbd 1166 843d 399c 793c
00000310: 4669 e5bc 1824 203c b91c ef3c 0e6b 853b
00000320: d1fe 6e3b 78dc 263c e5a4 663c ad8b 163d
00000330: e2aa d3bb 22ef 8bbc 768e 5cbd 13d5 9bbc
00000340: d0d5 123c d3b5 00bd 1404 b4bc bd8f 43bd
00000350: 5bb6 963c 5976 f73c 23cb 38bc abcf 353d
00000360: e2f2 2e3d 5efd b33c 4d3f 523d cf0b dc3c
00000370: c3e9 193a e7a5 673d 265d 693c c127 ccbc
00000380: 218f 00bd e04c 1c3e 8c0b 2c3d baaf 343d
00000390: ab2a eebb ccd6 553c 7c1f 16bc 2bab 7d3a
000003a0: 7909 ca3a c4b8 b63c 45fe 4fbc f363 023d
000003b0: a148 773c 096f 6f3d 0852 2e3d 7cdc 6d3c
000003c0: 8c85 e1bc e8c9 2bbd b2ec ae3c 5511 113c
000003d0: f29e 7b3b 4495 d0bc 7c24 4a3c 9da5 fd3b
000003e0: cf3c 103b a403 2b3b

B6 f4 [5]
-0.0205129 -0.0196129 -0.0192439 -0.0192424 -0.0193447
00000000: ab0a a8bc 3cab a0bc 62a5 9dbc 3da2 9dbc
00000010: c778 9ebc
