data/acasxu/nets/ACASXU_run2a_5_2_batch_2000.onnx (onnx, 53878 bytes, 14 tensors)

W0 f4 [50, 5]
0	0x3de41a26	0.111378
1	0x3f44c554	0.768636
2	0xbf45e258	-0.772985
3	0xbdf7b6bb	-0.120954
4	0xbfb3a1f5	-1.40338
5	0x3da69b4d	0.0813509
6	0x3f11f72f	0.570178
7	0x3ec18aa8	0.378011
8	0xbe8d73eb	-0.276275
9	0x3e580d3d	0.210988
10	0xbfd2ed67	-1.64787
11	0xbbae32d9	-0.00531612
12	0x3d0e415c	0.0347303
13	0x3a70d822	0.000918748
14	0x3c5c4eb5	0.0134465
15	0x3e5085b2	0.203635
16	0x3fb9debe	1.45211
17	0xbfc1e796	-1.51488
18	0x3db34e84	0.0875521
19	0xbcc389c3	-0.0238694
20	0xbd739ba3	-0.0594746
21	0x3f9f17ad	1.24291
22	0x3dab782c	0.0837253
23	0x3d6139a1	0.0549866
24	0x3c7fbf68	0.0156096
25	0x3c38c1e8	0.0112767
26	0xbdcfc1df	-0.101444
27	0x3df3fea0	0.119138
28	0xbf15f224	-0.585726
29	0x3f236dec	0.638396
30	0xbe961262	-0.293109
31	0xbed7bfe8	-0.421386
32	0xbded2e51	-0.115811
33	0x3e8c11c3	0.273573
34	0xbd838f5f	-0.0642383
35	0x3c1f0183	0.00970495
36	0x3cbae9e1	0.0228166
37	0xbd737451	-0.0594371
38	0xbf59b8ed	-0.850478
39	0xbf6ee85c	-0.933233
40	0x3c997298	0.0187314
41	0x3bdf7e40	0.00682047
42	0xb7eccb2b	-2.8228e-05
43	0x3b79cb08	0.00381154
44	0x3b7d4a43	0.0038649
45	0xbef5f480	-0.480381
46	0x3eb66b40	0.356287
47	0x3da61b88	0.0811072
48	0x3d88dcce	0.0668274
49	0x3c324272	0.0108801
50	0x3d61f3f6	0.0551643
51	0x3f00666f	0.501563
52	0x3dbb6325	0.0914977
53	0xbe3823c8	-0.179824
54	0xbd8ff07b	-0.0702829
55	0x3d78b94f	0.0607236
56	0xbd68c65d	-0.0568298
57	0x3fa79bbb	1.30944
58	0x3d95d4c1	0.0731597
59	0xbdd6c615	-0.10487
60	0xbd04c7e6	-0.0324172
61	0x3ac8e892	0.00153281
62	0x3c63ff84	0.0139159
63	0xbf13b613	-0.576997
64	0xbfa8f909	-1.3201
65	0xb9bb8382	-0.000357654
66	0xbcecaa4d	-0.0288898
67	0x3df21683	0.118207
68	0xbfb60cf2	-1.42227
69	0x3f4ec5a0	0.807703
70	0xbf5b1fcd	-0.855954
71	0xbd5bc9c0	-0.0536592
72	0x3d858347	0.0651918
73	0x3bb2c5e5	0.00545572
74	0xbc3df315	-0.0115936
75	0x3c464198	0.0121006
76	0x3df099e1	0.117481
77	0x3f1b41d1	0.606473
78	0xbf33f594	-0.702966
79	0x3dedca08	0.116108
80	0x3ce7f0e0	0.0283131
81	0x3d6346dc	0.0554875
82	0xbf016aad	-0.505534
83	0x3efed224	0.497697
84	0xbf53649d	-0.825754
85	0xbf1de0f8	-0.616714
86	0x3de913a5	0.113807
87	0xbdc18c77	-0.0945062
88	0xbebba10a	-0.366463
89	0x3e294c01	0.165329
90	0xbf968145	-1.17582
91	0x3deac42f	0.114632
92	0xbd8a916e	-0.0676602
93	0xbe95c4eb	-0.292518
94	0xbf149a46	-0.580479
95	0xbfb93309	-1.44687
96	0xb95d1fab	-0.00021088
97	0x3d0e38c3	0.0347221
98	0x3bdcd9a0	0.00673981
99	0xbbe874b4	-0.00709399
100	0xbbd09a62	-0.00636606
101	0x3b1e886c	0.00241902
102	0xbb23a536	-0.00249703
103	0x3b55c442	0.00326182
104	0x3bbb62ad	0.00571855
105	0x3bec2ccf	0.00720749
106	0x3f94a03c	1.16114
107	0x3c8c1517	0.0170999
108	0x3e337c57	0.175279
109	0xbe01f70e	-0.126919
110	0xbd48a556	-0.0489858
111	0xbcfe670e	-0.031055
112	0x3dec0ad0	0.115255
113	0x3d740216	0.0595723
114	0xc004b146	-2.07332
115	0xbfa5d830	-1.29566
116	0x3d99cb25	0.0750945
117	0xbdad25e0	-0.0845449
118	0x3ea53cde	0.32273
119	0xbece0fc3	-0.402464
120	0xbf3775fb	-0.716644
121	0x3e93e4ac	0.288854
122	0xbecb4246	-0.39699
123	0x3ddd334c	0.108008
124	0xbd614ab9	-0.0550029
125	0xbf9ae72e	-1.21018
126	0x3b81a775	0.00395673
127	0x3cf89dd6	0.0303487
128	0x3c1c5ccd	0.00954361
129	0xbed95f03	-0.424553
130	0xbba7be35	-0.00511911
131	0xbd4494ba	-0.0479934
132	0x3c9f90bf	0.0194782
133	0xbf3ea0fd	-0.744644
134	0xbdf35d25	-0.11883
135	0x3ce08b5b	0.0274102
136	0xbf9be1da	-1.21783
137	0x3f6cb631	0.924655
138	0xbc78d1a3	-0.0151867
139	0x3d212cf1	0.0393495
140	0x3d35b234	0.0443594
141	0x3ffc5825	1.97144
142	0x3bc65087	0.00605208
143	0x3d4bbbdb	0.0497397
144	0xbd96e689	-0.0736819
145	0xbfb8299e	-1.43877
146	0x3b9021b6	0.00439855
147	0xbcb7a701	-0.0224185
148	0xbe5e2b49	-0.216962
149	0xbd6eeaea	-0.0583295
150	0x3ea3bd38	0.319803
151	0x3f642657	0.89121
152	0xbf51eaab	-0.819987
153	0xbcff1661	-0.0311386
154	0x3e0845dd	0.133079
155	0xbeca1d11	-0.394753
156	0x392ee4e3	0.000166792
157	0x3f219e1f	0.631319
158	0xbc35e163	-0.0111011
159	0xbac0cae1	-0.00147089
160	0x3d5c78dd	0.0538262
161	0x3f6cfe26	0.925753
162	0x3d23076c	0.039802
163	0xbeb4b231	-0.352922
164	0x3be73706	0.00705612
165	0xbfb8024b	-1.43757
166	0x3d4ebd32	0.0504734
167	0x3bef356d	0.00730007
168	0xbe466384	-0.193739
169	0xbea14079	-0.314945
170	0x3d460c54	0.0483516
171	0xbd75e0f8	-0.060029
172	0xbf885b18	-1.06528
173	0xbf80b242	-1.00544
174	0x3e827e95	0.254872
175	0x3c33d733	0.0109766
176	0x3c2023a1	0.00977412
177	0x3ab6213a	0.00138954
178	0x3aeffe80	0.00183101
179	0xb9be1730	-0.000362569
180	0xbfe1b3d0	-1.7633
181	0x3c74c610	0.0149398
182	0xbb7944a5	-0.00380353
183	0x3bb80c0b	0.00561667
184	0x3c319539	0.0108388
185	0x3b72d31c	0.00370521
186	0x3e571bce	0.210067
187	0xbe3a94bc	-0.182208
188	0xc0024ef9	-2.03607
189	0x3ed6746d	0.418857
190	0x3d6b4dc1	0.0574472
191	0xbf70d866	-0.940802
192	0xbf834b73	-1.02574
193	0x3d0bacc2	0.0341003
194	0xbd93457f	-0.0719099
195	0xbf4b3c92	-0.793893
196	0x3d0f6208	0.0350056
197	0xbbb21b46	-0.00543538
198	0xbf66b9f5	-0.901275
199	0xbeff2607	-0.498337
200	0xbb98944b	-0.00465635
201	0xbd9ab962	-0.0755489
202	0x3df04923	0.117327
203	0xbd54e7d4	-0.0519789
204	0xbf906541	-1.12809
205	0xbd307472	-0.0430798
206	0x3f2b59ab	0.669337
207	0xbeea81ba	-0.458021
208	0x3d3bea92	0.045878
209	0xbe1ba733	-0.152005
210	0x3eb346dc	0.35015
211	0xbf879724	-1.0593
212	0x3f722a6f	0.94596
213	0xbd6ff7e0	-0.058586
214	0xbd30f4af	-0.0432021
215	0x3e4a3db4	0.197501
216	0x3d5a8cf9	0.0533571
217	0xbd141596	-0.0361534
218	0xbf3c1ffb	-0.734863
219	0xbf86abde	-1.05212
220	0xbeb5c8b8	-0.355047
221	0x3ce0172c	0.0273548
222	0x3cc684b4	0.0242332
223	0xbe32c83f	-0.174592
224	0xbdc95084	-0.0982981
225	0xbe3db270	-0.185251
226	0x3e965f96	0.293698
227	0xbf348e7a	-0.705299
228	0xbd45d115	-0.0482951
229	0x3edd8f93	0.432736
230	0xbbe9072b	-0.00711145
231	0x3dc17665	0.0944641
232	0xbfe78f47	-1.80906
233	0xbc02afde	-0.0079765
234	0x3cc6880f	0.0242348
235	0x3b9355de	0.00449632
236	0x3ea74880	0.326725
237	0xbeb81cf8	-0.359596
238	0xbf8f2baa	-1.11852
239	0xbf5eb3ee	-0.869933
240	0xbfa407dd	-1.28149
241	0xbd0ac754	-0.0338815
242	0x3d4c5594	0.0498863
243	0xba820e2f	-0.000992244
244	0x3b632d61	0.00346645
245	0x3b46342c	0.00302435
246	0x3d227a99	0.0396677
247	0xbd3bb766	-0.0458292
248	0xbfadf0c3	-1.35891
249	0x3f1faf32	0.623767

B0 f4 [50]
0	0xbf05c726	-0.52257
1	0x3da5ddaa	0.0809892
2	0xbec71477	-0.388828
3	0xbed9057d	-0.42387
4	0x3eba0a0f	0.363358
5	0x3de7913f	0.11307
6	0xbbf62e45	-0.00751284
7	0xbee4d6c3	-0.446951
8	0xbcc9fa1f	-0.0246554
9	0x3b64fdc6	0.00349413
10	0x3e27fcb9	0.16405
11	0x3e1aff2a	0.151364
12	0xbf4b0ad4	-0.793134
13	0xbe83b42d	-0.257234
14	0xbd359437	-0.0443308
15	0xbe3f383f	-0.186738
16	0x3d40ce77	0.0470719
17	0xbde1f8e4	-0.110338
18	0xbf06d3fa	-0.526672
19	0xbe96caef	-0.294517
20	0xbc53388c	-0.0128919
21	0x3e0ed17c	0.139471
22	0xbf3ec658	-0.745214
23	0xbec523b3	-0.385038
24	0xbe02f944	-0.127904
25	0xbe4a38fc	-0.197483
26	0x3e6768e0	0.225986
27	0xbed4da4d	-0.415728
28	0x3d8d2cd9	0.0689332
29	0xbea2e600	-0.318161
30	0x3f0abcd8	0.541944
31	0xbddda598	-0.108226
32	0xbedacaff	-0.42733
33	0xbeee91c9	-0.465956
34	0xbf193911	-0.598527
35	0xbccc6fe5	-0.0249557
36	0xbefbeee5	-0.492057
37	0xbf432789	-0.762322
38	0x3d7609dd	0.060068
39	0xbf4aa002	-0.791504
40	0x3e80a71e	0.251275
41	0x3e07dcbe	0.132678
42	0x3f1f1551	0.621419
43	0xbf0fda62	-0.561926
44	0x3dc07365	0.0939701
45	0xbcd33a3a	-0.0257846
46	0x3c0a9397	0.00845804
47	0xbe6fe5c9	-0.234275
48	0xbe4b8f9b	-0.19879
49	0xbb2b22d9	-0.00261133

W1 f4 [50, 50]
0	0x3f52604e	0.821782
1	0x3b036fb7	0.00200556
2	0xbe75054b	-0.239278
3	0x3ee05858	0.438174
4	0xbd044ccc	-0.0322998
5	0x3fd32229	1.64948
6	0xbdead363	-0.114661
7	0x3ed27a85	0.411091
8	0xbcde31af	-0.0271233
9	0xbf1ff844	-0.624882
10	0xbe94faf0	-0.290977
11	0x3f18ab0d	0.59636
12	0x3f07fc87	0.531197
13	0xbf800789	-1.00023
14	0xbd8a2bb8	-0.0674662
15	0xbed201cd	-0.41017
16	0x3fedcc64	1.8578
17	0xbcebeb40	-0.0287987
18	0x3d48e5d2	0.0490473
19	0xbf0e7610	-0.556489
20	0xbd375c8e	-0.044766
21	0x3f086e2b	0.532931
22	0xbf043090	-0.516366
23	0x3e7094a3	0.234942
24	0xbd4b66d1	-0.0496586
25	0x3f0fffce	0.562497
26	0xbf8ee33f	-1.11631
27	0x3eb56883	0.354313
28	0xbe6aef70	-0.229429
29	0x3ef3d7b2	0.476255
30	0xbe8defe9	-0.277221
31	0x3e9ab1f7	0.302139
32	0xbdad0310	-0.0844785
33	0xbe585e3e	-0.211297
34	0xbf0fc372	-0.561576
35	0xbd51fe9b	-0.0512682
36	0x3f1ba82f	0.608035
37	0xbf5d4584	-0.864342
38	0x3d82c5d5	0.0638539
39	0xbf528c26	-0.822451
40	0x3f32046c	0.69538
41	0xbe9d6191	-0.307385
42	0xbeafe77d	-0.343563
43	0xbed33b32	-0.412561
44	0xbf04f052	-0.519292
45	0x3f6db0ab	0.928477
46	0xbe75b813	-0.23996
47	0x3f979431	1.18421
48	0xbe003b82	-0.125227
49	0x3e5d92b8	0.21638
50	0x3c8082a7	0.0156873
51	0xbc1077a7	-0.00881759
52	0xbca1e167	-0.0197608
53	0x3cc981bf	0.024598
54	0xbd2ebeaa	-0.0426623
55	0x3c154b8c	0.00911225
56	0xbd37c061	-0.0448612
57	0x3c828f26	0.0159374
58	0xbc40c04f	-0.0117646
59	0xbd28bd59	-0.0411962
60	0xbbac2207	-0.00525308
61	0xbcc4be76	-0.0240166
62	0x3c8865ca	0.0166501
63	0xbd55e1b4	-0.0522172
64	0xbd577715	-0.0526038
65	0xbcf18655	-0.029483
66	0xbcbe1402	-0.0232029
67	0x3d3fe08b	0.046845
68	0xbd00db92	-0.0314594
69	0xbcfd34a9	-0.0309089
70	0xbd13019a	-0.0358902
71	0xbd04adca	-0.0323923
72	0x3c7fe3e6	0.0156183
73	0x3cc7d9e9	0.0243959
74	0xbcf3998b	-0.0297363
75	0x3ac9b596	0.00153892
76	0xbd22a008	-0.0397034
77	0xbd034cbc	-0.0320556
78	0xbd31b8c5	-0.0433891
79	0xbd473117	-0.0486308
80	0x3a21d835	0.000617388
81	0xbc49fca3	-0.0123283
82	0xbd3e4af4	-0.0464582
83	0xbcb7849c	-0.0224021
84	0xbd630e07	-0.0554333
85	0xbc1a9807	-0.00943566
86	0xbc85afd8	-0.0163192
87	0x3d01e6db	0.0317143
88	0xbcf70e8a	-0.0301583
89	0xbb2f6965	-0.00267657
90	0x3b9d93cf	0.00480888
91	0x3c546dab	0.0129656
92	0xbd2d06c9	-0.0422428
93	0xbc24eb72	-0.0100659
94	0x3cb5ec4b	0.0222074
95	0x3cfbe7d8	0.0307502
96	0x3cfeee1d	0.0311194
97	0xbcb41942	-0.0219847
98	0xbbbd33e8	-0.00577401
99	0xbc1c0295	-0.0095221
100	0x3f6f340d	0.934388
101	0x3e3af859	0.182588
102	0xbdf9f3c7	-0.122047
103	0x3e015fcc	0.126342
104	0xbf56fdca	-0.83981
105	0xc0081cd6	-2.12676
106	0x3d39f920	0.0454036
107	0xbf3106ee	-0.691512
108	0xbd2dc352	-0.0424226
109	0x3e37635e	0.17909
110	0xbf038a09	-0.513825
111	0xbe3c6da4	-0.184012
112	0x3fb473ac	1.40978
113	0xbec34224	-0.381364
114	0x3ed4254a	0.414347
115	0xbe450657	-0.192407
116	0xbe9859a7	-0.297559
117	0x3ec7d114	0.390267
118	0x3f0b5265	0.544226
119	0xbe54aada	-0.207683
120	0x3c4e2669	0.0125824
121	0xbf361dfc	-0.711395
122	0xbf1b313c	-0.60622
123	0xbe2545c8	-0.161399
124	0x3f469d95	0.775842
125	0x3e6bd988	0.230322
126	0x3e88a8b1	0.266912
127	0xbfaffdb5	-1.37493
128	0xbe9b1727	-0.302911
129	0x3d37fc0b	0.0449181
130	0xbee5bf27	-0.448724
131	0xbf6cbaf9	-0.924728
132	0x3dbf97ee	0.0935515
133	0x3eec10f9	0.461067
134	0x3e4459da	0.191749
135	0xbbeb6a06	-0.00718427
136	0xc004fec5	-2.07805
137	0xbfb81fc9	-1.43847
138	0x3df11be7	0.117729
139	0x3fcf87be	1.62133
140	0x3d91fa5b	0.0712783
141	0xbf028e0d	-0.50998
142	0x3f2d6755	0.677358
143	0xbee8fa16	-0.455033
144	0x3ee983b6	0.456083
145	0x3efa209b	0.48853
146	0xbe83c276	-0.257343
147	0x3e5a109d	0.212954
148	0xbe309fa5	-0.172484
149	0xbf0df03d	-0.554447
150	0x3d4b0f78	0.0495753
151	0xbd4e2ba7	-0.0503346
152	0x3e8c7b24	0.274377
153	0xbe5618ce	-0.209079
154	0x3e3a393f	0.181859
155	0xbbc7c942	-0.00609699
156	0x3e430058	0.190431
157	0x3ecf1b69	0.404506
158	0x3b5f0534	0.00340302
159	0xbd1c0bea	-0.0380973
160	0x3e001217	0.125069
161	0xbd125a90	-0.0357309
162	0x3f5212f9	0.820602
163	0xbe401f32	-0.187619
164	0x3e8b53f8	0.272125
165	0x3cb274fd	0.0217843
166	0xbdc430a4	-0.0957959
167	0x3e96da88	0.294636
168	0x3f63a030	0.889163
169	0x3e820ad9	0.253989
170	0xbcd037bb	-0.0254172
171	0xbe22e2b9	-0.159068
172	0x3dbb16f8	0.0913524
173	0xbe19a3d3	-0.150039
174	0x3e453dea	0.192619
175	0x3ec64389	0.387234
176	0x3eeb8002	0.459961
177	0xbf59b164	-0.850363
178	0x3e1f38c5	0.15549
179	0x3f09bf8c	0.538079
180	0xbed115df	-0.40837
181	0xbd9dc3d8	-0.0770337
182	0xbf4a56bd	-0.790386
183	0x3f65449a	0.895578
184	0x3ea05ee5	0.313224
185	0x3d0d2b47	0.0344651
186	0xc01243aa	-2.28538
187	0x3e8903ea	0.267608
188	0x3de012e0	0.109411
189	0x400e5532	2.22395
190	0x3ec8a41a	0.391877
191	0x3cbb47d5	0.0228614
192	0xbead6ba9	-0.338712
193	0xbeba0968	-0.363353
194	0x3ef33c82	0.475071
195	0x3ed46584	0.414837
196	0xbf291255	-0.660436
197	0x3e9033c6	0.281645
198	0x3e8cda90	0.275105
199	0x3df101b0	0.117679
200	0x3dff11f9	0.124546
201	0x3d83fef0	0.0644511
202	0x3fe89470	1.81703
203	0xbe4c6e6e	-0.19964
204	0x3e674b84	0.225874
205	0x3c922241	0.0178386
206	0x3e5cf249	0.215768
207	0xbe93e511	-0.288857
208	0xbc6d7c04	-0.0144949
209	0x3ecf8876	0.405338
210	0xbe94f0d8	-0.2909
211	0xbe93402d	-0.287599
212	0xbfec10b6	-1.84426
213	0xbda50ef0	-0.0805949
214	0x3dcd8e43	0.100369
215	0x3c7c972a	0.0154169
216	0x3cc16ba5	0.0236109
217	0x3e10ee4a	0.141534
218	0x3f35815a	0.709005
219	0x3f433040	0.762455
220	0x3b864594	0.00409765
221	0xbe02089e	-0.126986
222	0x3e1f861a	0.155785
223	0x3d2a5f19	0.0415946
224	0xbea83d14	-0.328591
225	0xbd651746	-0.0559304
226	0xbd152d59	-0.0364202
227	0x3ec35116	0.381478
228	0xbd929f3f	-0.0715928
229	0xbea1c609	-0.315964
230	0x3d221874	0.0395741
231	0xbc96dd5c	-0.0184161
232	0xbf406fce	-0.751706
233	0x3e6d6ece	0.231868
234	0xbde46a5d	-0.111531
235	0x3bfac95f	0.0076534
236	0x40981d54	4.75358
237	0x3e2fc8f3	0.171665
238	0xbe49d452	-0.197099
239	0xbfd460aa	-1.6592
240	0x3dcd4131	0.100222
241	0x3e783dbc	0.242423
242	0x3d1f78d7	0.0389336
243	0xbf366a87	-0.712563
244	0x3e834fc6	0.256468
245	0x3e5c6d1e	0.21526
246	0x3e452d66	0.192556
247	0xbd4000f2	-0.0468759
248	0x3f5c45aa	0.860438
249	0x3cf41688	0.0297959
250	0x3dcd0e56	0.100125
251	0xbe7441ff	-0.238533
252	0x3d16a741	0.0367806
253	0xbec0d456	-0.37662
254	0xbe41ab4b	-0.18913
255	0x3f721544	0.945637

B1 f4 [50]
0	0xbf652029	-0.895022
1	0xbc992fb2	-0.0186995
2	0x3e501605	0.203209
3	0x3f15ef85	0.585686
4	0xbe9a46e1	-0.301322
5	0x3e64e4c9	0.223529
6	0x3edc219f	0.429944
7	0xbddf8f47	-0.10916
8	0x3e4ae31d	0.198132
9	0x3e80a138	0.25123
10	0x3ecfc915	0.405831
11	0xbf6210f1	-0.883071
12	0xbf5bbd27	-0.858355
13	0xbd4c0fd9	-0.0498198
14	0x3f117cc4	0.56831
15	0xbc904fd9	-0.0176162
16	0x3f221a93	0.633218
17	0xbf9a28cc	-1.20437
18	0xbee25e57	-0.442126
19	0xbe01c7de	-0.126739
20	0xbf476af9	-0.778976
21	0x3de39368	0.111121
22	0xbda6cb2b	-0.0814422
23	0xbebff2c3	-0.374899
24	0xbf2a3d71	-0.665
25	0xbc04f0a0	-0.00811401
26	0xbe782e45	-0.242364
27	0x3ec1307b	0.377323
28	0xbc707d41	-0.0146783
29	0x3c27e232	0.0102468
30	0xbef0010c	-0.468758
31	0xbc7641a6	-0.0150303
32	0xbc112fde	-0.00886151
33	0xbd7e16f2	-0.0620336
34	0x3f204988	0.626122
35	0xbda26cea	-0.0793093
36	0xbc794cf3	-0.0152161
37	0x3f59a8bd	0.850231
38	0x3f04f484	0.519356
39	0x3dfd9fd3	0.12384
40	0x3ed327cc	0.412413
41	0xbcd2f5dc	-0.025752
42	0xbf91dd6e	-1.13957
43	0xbed31290	-0.412251
44	0x3f091505	0.535477
45	0xbc8316d6	-0.0160021
46	0xbd51a3e7	-0.0511817
47	0x3f1a08d1	0.601697
48	0x3f0d3565	0.551596
49	0xbcfeacae	-0.0310882

W2 f4 [50, 50]
0	0x3e89cf57	0.26916
1	0x3d250f69	0.0402979
2	0x3de23748	0.110457
3	0xbe9a0147	-0.300791
4	0x3e808e15	0.251084
5	0x3dce8859	0.100846
6	0x3e5c8f32	0.21539
7	0xbf9dedd0	-1.23382
8	0x3f210a24	0.629061
9	0xbe25918a	-0.161688
10	0x3fe6464a	1.79902
11	0x3f34ce3e	0.706272
12	0xbeca085b	-0.394595
13	0x3f13fd93	0.578088
14	0x3f76c509	0.963944
15	0xba52a9d3	-0.000803617
16	0xbe4baf96	-0.198912
17	0x3e6b6673	0.229883
18	0x4049b3a7	3.15159
19	0xbc90d9a2	-0.0176819
20	0x3fe095c0	1.75457
21	0x3ea1a9fc	0.31575
22	0x3f0f5ec8	0.56004
23	0xbf106ab1	-0.564128
24	0x3ea5dca5	0.323949
25	0x3d00614f	0.0313428
26	0xbe9ee7a3	-0.310361
27	0x3e9d5f57	0.307368
28	0xbd13397e	-0.0359435
29	0x3f3a7e52	0.72849
30	0xbf169025	-0.588137
31	0xbd194b45	-0.0374253
32	0xbd22fe82	-0.0397935
33	0xbaf56cff	-0.00187245
34	0xbe98de2b	-0.29857
35	0x3f14c0ad	0.581065
36	0xbc749279	-0.0149275
37	0xbe7016ce	-0.234462
38	0x3f816627	1.01093
39	0x3d5d65bc	0.0540521
40	0xbf54a4d3	-0.83064
41	0xbe486bdf	-0.195724
42	0x3f81a6b5	1.0129
43	0xbfa56fa8	-1.29247
44	0x3e4ec17f	0.20191
45	0x3c3d8963	0.0115684
46	0xbe9cf3ba	-0.306547
47	0xbf2c9e88	-0.674294
48	0xbf1556b0	-0.583354
49	0x3f9b7a4e	1.21467
50	0x3e13a0c7	0.144168
51	0xbaaf1150	-0.00133566
52	0x3f82e8d1	1.02273
53	0xbeea2af5	-0.457359
54	0xbe1ba94c	-0.152013
55	0x4078a4fd	3.88507
56	0x3f14a7d6	0.580686
57	0xbf2a9681	-0.666359
58	0xbf3d2019	-0.738771
59	0x3db4b0e2	0.088228
60	0x3f3c10b6	0.73463
61	0x3ecb21a3	0.396741
62	0xbe89c6b0	-0.269094
63	0x3fe5a709	1.79416
64	0xbe5868fd	-0.211338
65	0xbcae5c9f	-0.0212844
66	0x3e865493	0.262364
67	0x3eab5936	0.334665
68	0x3e55cdd5	0.208793
69	0x3f69c704	0.913193
70	0x3e289720	0.164639
71	0x3f0df42c	0.554507
72	0x3e8c52c6	0.274069
73	0xbe96e393	-0.294705
74	0xbe3bf65e	-0.183557
75	0x3bba8a95	0.00569279
76	0xbf413c79	-0.754829
77	0xbe9aeff6	-0.302612
78	0x3d1a34af	0.0376479
79	0x3f83eb5b	1.03062
80	0x3cf1f7ca	0.0295371
81	0xbcd0d8cb	-0.025494
82	0x3d2ef59c	0.0427147
83	0xbcce6c09	-0.025198
84	0xbf10dcdb	-0.56587
85	0x3edfc30d	0.437035
86	0x3cf28269	0.0296032
87	0x3eac2b73	0.336269
88	0x3f561bf3	0.836364
89	0xbe9eda45	-0.310259
90	0xbf68d877	-0.909553
91	0xbe92eafb	-0.286949
92	0x3f622930	0.883441
93	0x4017096c	2.35995
94	0x3e04fa8b	0.129862
95	0x3c2f8884	0.0107137
96	0x3e451c5c	0.192491
97	0x3f199ba2	0.600031
98	0xbeac34a0	-0.336339
99	0xbf2adf0d	-0.667466
100	0xbe1ecedd	-0.155086
101	0x3d0f60ab	0.0350043
102	0xbf8262cc	-1.01864
103	0x3d89199f	0.0669434
104	0xbd519ac8	-0.051173
105	0xbf424c30	-0.758975
106	0x3ecbcf2d	0.398065
107	0x3f4fc43b	0.811588
108	0x3e31c582	0.173605
109	0x3ee9a177	0.45631
110	0x3eb1a240	0.346941
111	0xbe01fbc6	-0.126937
112	0x3e698c3b	0.228074
113	0x3eefe975	0.468578
114	0xbebf7553	-0.373942
115	0x3cfb01ff	0.0306406
116	0x3d7fb29d	0.0624262
117	0x3f577543	0.841633
118	0xbddf3062	-0.108979
119	0x3efadd16	0.489968
120	0xbe83d5bb	-0.25749
121	0xbedab0a7	-0.427129
122	0x3e00f40e	0.125931
123	0xbf4d12dc	-0.801069
124	0x3ef852d6	0.485007
125	0x3d1425d7	0.0361689
126	0x3ec970b5	0.393438
127	0x3ef6b980	0.481884
128	0x3c2e90a2	0.0106546
129	0xbf9eb463	-1.23988
130	0xbf5d59c5	-0.864651
131	0x3b81f436	0.00396588
132	0xbd0c6ef4	-0.0342855
133	0x3d34bf5a	0.0441278
134	0xbf84779a	-1.0349
135	0x3ef9bfdf	0.487792
136	0x3be8ba7f	0.00710231
137	0xbf1e3b04	-0.618088
138	0x3f4f3d08	0.809525
139	0x3f4df8b1	0.804576
140	0xbdc9c539	-0.0985207
141	0x3ed9e881	0.425602
142	0x3ead64f9	0.338661
143	0x3ff7d8ae	1.9363
144	0xbe0f1b26	-0.139752
145	0x3bf932dc	0.00760494
146	0x3e03d923	0.128758
147	0xbf12efd4	-0.573972
148	0xbe064841	-0.131135
149	0x3eb15033	0.346315
150	0x3c36dca0	0.011161
151	0x3d42b785	0.0475383
152	0xbbc28aaa	-0.00593694
153	0x3e9eeac8	0.310385
154	0xbf05b6d4	-0.522321
155	0x3cdd11be	0.026986
156	0x3d353678	0.0442414
157	0xbd4fbc36	-0.0507166
158	0x3d8a5ef1	0.0675639
159	0xbdca3f39	-0.0987534
160	0xbd9f5225	-0.0777934
161	0xbfad4b49	-1.35386
162	0xbee6a7ad	-0.450498
163	0xbd22d3ba	-0.0397527
164	0x3c912ec7	0.0177225
165	0xbc44d735	-0.0120142
166	0x3e92d98c	0.286816
167	0xbfacef35	-1.35105
168	0x3cc34a6d	0.0238392
169	0x3e6da555	0.232076
170	0xbdd4da4d	-0.103932
171	0x3d2d5462	0.0423168
172	0x3dc20ac4	0.0947471
173	0xbd8123a9	-0.0630563
174	0xbe381e47	-0.179803
175	0xbc638a13	-0.0138879
176	0xbc809ec1	-0.0157007
177	0xbbdf3ebf	-0.0068129
178	0x3d02b628	0.031912
179	0xbddf0aa2	-0.108907
180	0xbd1506f8	-0.0363836
181	0x3ca70c49	0.0203916
182	0xbcb28efe	-0.0217967
183	0x3ccd39da	0.025052
184	0x3d23ba19	0.0399724
185	0x3ca1cd0f	0.0197511
186	0x3d2f09a3	0.0427338
187	0xbc881e7d	-0.0166161
188	0x3e305144	0.172185
189	0x3e1e9fae	0.154906
190	0x3ce3889b	0.0277751
191	0xbc84a475	-0.0161917
192	0xbbd4ddfe	-0.00649619
193	0xbe22ce89	-0.158991
194	0xbee45804	-0.445984
195	0x3bb7ed01	0.00561297
196	0x3da96f72	0.0827321
197	0xbccd898b	-0.02509
198	0x3cc3a49a	0.0238822
199	0x3e0bcf0b	0.136532
200	0x3e968f2a	0.294061
201	0xbcb71e0f	-0.0223532
202	0xbea5f04e	-0.324099
203	0x3f33f7ad	0.702998
204	0xbe77ef9e	-0.242125
205	0xbc5857b0	-0.0132045
206	0x3e6e92d5	0.232982
207	0xbe920621	-0.285203
208	0x3ecbecee	0.398292
209	0x3dfb5393	0.122718
210	0x3f0878b8	0.533092
211	0x3f94fe9b	1.16402
212	0x3f7eb5d4	0.994962
213	0xbbe21219	-0.00689913
214	0xbd91ecfd	-0.0712528
215	0x3cc236dc	0.0237078
216	0xbf1c3772	-0.610221
217	0x4000833c	2.00801
218	0xbefcd65e	-0.493823
219	0xbf45b585	-0.772301
220	0x3e1f2346	0.155408
221	0xbdf2178f	-0.118209
222	0x3de6e547	0.112742
223	0xbea0d2e5	-0.314109
224	0xbdc34f18	-0.0953657
225	0x3c068164	0.00820956
226	0xbdf71c97	-0.12066
227	0x3e1ef241	0.155221
228	0x3b9b3f0b	0.00473774
229	0xbf74f82f	-0.956912
230	0x3e6505d1	0.223655
231	0x3b9f357a	0.00485867
232	0x3d212564	0.0393423
233	0x3d4493fe	0.0479927
234	0xbe3945fa	-0.180931
235	0x3ed57c0b	0.416962
236	0xbc4cebd6	-0.0125074
237	0xbd54e4c9	-0.051976
238	0xbe506d94	-0.203543
239	0x3eb6b52d	0.356851
240	0xbe872757	-0.263972
241	0xbe9d20b0	-0.30689
242	0x3f0f9ebf	0.561016
243	0xbe160286	-0.146494
244	0x3f271c97	0.65278
245	0x3cb70b9a	0.0223444
246	0xbee29197	-0.442517
247	0x3e5d727a	0.216257
248	0xbe77b891	-0.241915
249	0x3df55ffe	0.119812
250	0x3fdbc116	1.71683
251	0xb780d7a1	-1.53592e-05
252	0xbf4beec4	-0.796612
253	0x3f1980c3	0.599621
254	0xbe975cd1	-0.29563
255	0xc0992142	-4.78531

B2 f4 [50]
0	0xbf2450ce	-0.641858
1	0xbf28dd72	-0.659629
2	0xbfc5cb68	-1.54527
3	0x3f4d05d1	0.80087
4	0x3e5d4563	0.216085
5	0xbe04db9c	-0.129744
6	0xbe0c4d23	-0.137013
7	0xbebad7f9	-0.364929
8	0xbe88e5e6	-0.267379
9	0x3e673472	0.225786
10	0xbfaf1609	-1.36786
11	0xbcd2ec36	-0.0257474
12	0x3f1a9ced	0.603957
13	0xbeaa0275	-0.33205
14	0xbf0d92c9	-0.553021
15	0xbf599a31	-0.850009
16	0x3e595e5b	0.212274
17	0x3eb3fab1	0.351522
18	0xbf8658f7	-1.04959
19	0x3ec26091	0.379643
20	0xbc94fce7	-0.018187
21	0xc03a223e	-2.90834
22	0xbe3b302f	-0.182801
23	0xbdb7b289	-0.089696
24	0xbee6be9d	-0.450673
25	0x3f020631	0.507907
26	0x3ec47065	0.38367
27	0x3d6d3dbb	0.0579202
28	0xbdc32c55	-0.0952994
29	0xbf19970b	-0.599961
30	0xbe4047d4	-0.187774
31	0xbdc14aee	-0.0943812
32	0x3e3e075f	0.185575
33	0xbf9a5d8d	-1.20598
34	0xbf616463	-0.880438
35	0xbf8486ad	-1.03536
36	0xbe910ecb	-0.283316
37	0x3ef0de6e	0.470447
38	0x3e2ed9e0	0.170753
39	0x3cb2cc05	0.0218258
40	0xbdd8793e	-0.1057
41	0x3e82c40d	0.255402
42	0xbf5ece46	-0.870335
43	0xbf9e4fca	-1.23681
44	0xbd0f0e76	-0.0349259
45	0xbf5dd40f	-0.866517
46	0xbf225f74	-0.634269
47	0xbe572368	-0.210096
48	0xbeee581d	-0.465516
49	0x3e83de61	0.257556

W3 f4 [50, 50]
0	0xbe2e0efa	-0.169979
1	0xbeb5ac04	-0.354828
2	0x3f0d13f9	0.551086
3	0xbed80f77	-0.421993
4	0x3e66d8f5	0.225437
5	0x3e90a30e	0.282494
6	0x3f072dc3	0.528042
7	0xbf091b3f	-0.535572
8	0x3f4192da	0.756147
9	0xbd8ebefa	-0.0697002
10	0xbefcb535	-0.49357
11	0xbd17f738	-0.037101
12	0x3f06c604	0.526459
13	0x3f0cd078	0.550056
14	0x3d8390f1	0.0642413
15	0xbf6d768a	-0.92759
16	0xbd080410	-0.033207
17	0xbd4ad836	-0.0495226
18	0x3f9ca57a	1.2238
19	0x3e72bfdb	0.23706
20	0xbcf1f7ca	-0.0295371
21	0x3daedff5	0.0853881
22	0x3fc456d6	1.5339
23	0xbf36c669	-0.713965
24	0x3e7edc3c	0.248887
25	0x3f1427c8	0.578732
26	0x3e756f76	0.239683
27	0x3fbafdca	1.46087
28	0x3cd86bd2	0.0264186
29	0x3f2eda01	0.683014
30	0xbf230729	-0.636828
31	0xbf5d8959	-0.865377
32	0xbf0931fd	-0.535919
33	0xbf42221d	-0.758333
34	0xbee9b739	-0.456476
35	0x3e908b54	0.282313
36	0xbd784eab	-0.0606219
37	0x3ef4a0c3	0.477789
38	0xbed7008a	-0.419926
39	0xbeea960b	-0.458176
40	0xbda80984	-0.0820494
41	0xbebaa6b1	-0.364553
42	0xbd638dd9	-0.0555552
43	0xbecb9431	-0.397615
44	0xbd22bfe9	-0.0397338
45	0x3dac90aa	0.0842603
46	0x3d98d2f3	0.0746211
47	0x3f0a5ebb	0.540508
48	0xbe324420	-0.174088
49	0x3e17214f	0.147588
50	0x3f62f0ae	0.886485
51	0xbf9d7acc	-1.23031
52	0x3f4bca32	0.796054
53	0xc0780221	-3.87513
54	0xbd8ce76f	-0.0688008
55	0x3e40f9d3	0.188453
56	0xbfc0df7a	-1.50682
57	0xbf1066e4	-0.56407
58	0x3ea5fce3	0.324195
59	0x3e2340d5	0.159427
60	0x3f6d0731	0.925891
61	0x3bdef1a8	0.00680371
62	0xbe027f5f	-0.127439
63	0xbea33fa7	-0.318845
64	0x3f008eac	0.502177
65	0x3efaa0a9	0.489507
66	0x3d7df14d	0.0619977
67	0xbf38ace2	-0.721388
68	0xbdd6323c	-0.104588
69	0xbe9331c2	-0.287489
70	0xbcec2b37	-0.0288292
71	0xbf0e5dd1	-0.556119
72	0xc0491d93	-3.14243
73	0xbde76295	-0.112981
74	0x3e8f2f34	0.279657
75	0xbf152524	-0.582598
76	0xbf7d34df	-0.989088
77	0xbda16e6d	-0.0788239
78	0x3f096840	0.536747
79	0xbea3abeb	-0.319671
80	0xbdf8a3b5	-0.121406
81	0x3f14332f	0.578906
82	0x3da3d493	0.0799953
83	0xbf106ef4	-0.564193
84	0xbe7878fb	-0.242649
85	0x3d8765a0	0.0661118
86	0x3ee9cb04	0.456627
87	0x3f187150	0.595479
88	0xbe619008	-0.220276
89	0x3e8c0379	0.273464
90	0x3dd7f499	0.105447
91	0xbf20903f	-0.627201
92	0x3ef6ddad	0.48216
93	0x3e3e8d11	0.186085
94	0x3b900d13	0.00439609
95	0xbeebcfb3	-0.460569
96	0xbe1a2e3c	-0.150567
97	0xbde25a68	-0.110524
98	0xbeb7251c	-0.357705
99	0xbe07674d	-0.13223
100	0xbe7e72da	-0.248485
101	0xbee2595c	-0.442088
102	0x3ec99dcb	0.393782
103	0xbf1b5137	-0.606708
104	0xbf1bcada	-0.608564
105	0x3ee526b7	0.447561
106	0xbe7a43bb	-0.244399
107	0x3e7fb8b2	0.249728
108	0x3e8fa9c1	0.280592
109	0xbdbff972	-0.0937375
110	0x3e65015c	0.223638
111	0xbc94fd88	-0.0181873
112	0x3f04b168	0.518332
113	0x3e2ff089	0.171816
114	0x3bce5fca	0.00629804
115	0xbf56031d	-0.835985
116	0xbe4100e7	-0.18848
117	0x3de3022e	0.110844
118	0xc01d7b74	-2.46066
119	0xbc2f5fd4	-0.010704
120	0x3d3d7aeb	0.0462598
121	0x3c8c0c7e	0.0170958
122	0x3f5f63a2	0.872614
123	0xbe0bbd38	-0.136464
124	0xbf045272	-0.516883
125	0x3e1ce0b9	0.153201
126	0xbd591e7f	-0.0530076
127	0xbf0507c8	-0.51965
128	0x3d9e9a70	0.077443
129	0x3f49347a	0.785957
130	0x3cec65ba	0.0288571
131	0xbea707e1	-0.326232
132	0x3e967b5f	0.29391
133	0xbe3509c0	-0.176795
134	0xbd91ba72	-0.0711564
135	0xbe9e1262	-0.308734
136	0x3f33126f	0.6995
137	0xb9cf41bf	-0.000395311
138	0x3e854c55	0.260348
139	0xbdf4bb5e	-0.119498
140	0xbd62962d	-0.055319
141	0x3f421c69	0.758246
142	0xbec388ec	-0.381904
143	0x3b58c7d8	0.00330781
144	0x3c76fc4b	0.0150748
145	0x3dec5da7	0.115413
146	0x3e630ced	0.221729
147	0x3c43d0a5	0.0119516
148	0x3ebc536d	0.367824
149	0xbdf6cbda	-0.120506
150	0xbe3feef6	-0.187435
151	0xbe5d7d7c	-0.216299
152	0x3e3f38c5	0.18674
153	0x3f2ea9c5	0.682278
154	0x3e4feef6	0.20306
155	0xbf686067	-0.907721
156	0x3d85bdf2	0.0653037
157	0x3e3dbd73	0.185293
158	0xbe0c19c1	-0.136817
159	0xbe1a4010	-0.150635
160	0xbf193c8a	-0.59858
161	0x3cca587e	0.0247004
162	0xbeb10cb3	-0.3458
163	0x3df34507	0.118784
164	0x3f203516	0.62581
165	0xbf422dc7	-0.758511
166	0x3e7a9b8d	0.244734
167	0xbe6e4d5e	-0.232717
168	0xbd5185ea	-0.0511531
169	0x3e5658c5	0.209323
170	0xbcef6406	-0.0292225
171	0xbea3a8c6	-0.319647
172	0x3e2960b7	0.165408
173	0x3df50d28	0.119654
174	0xbe1b44e5	-0.15163
175	0x3ed7eb29	0.421716
176	0xbe90b546	-0.282633
177	0x3fa96c61	1.32362
178	0x3dd34df0	0.103176
179	0x3e982c4d	0.297213
180	0xbdbac7bf	-0.0912013
181	0xbe9f9e17	-0.311753
182	0xbe0584f5	-0.13039
183	0x3f345016	0.704347
184	0x3cbc6a14	0.0229998
185	0x3dea9260	0.114537
186	0x3d1ab573	0.0377707
187	0x3e0d0918	0.13773
188	0xbe13c6c9	-0.144313
189	0xbe9fae79	-0.311878
190	0xbdc51fb7	-0.0962519
191	0xbf07559b	-0.52865
192	0xbea53c36	-0.322725
193	0xbcbe344e	-0.0232183
194	0x3b1ce3d1	0.00239395
195	0xbdca951a	-0.0989172
196	0x3f4123f6	0.754455
197	0x3f0d8adb	0.5529
198	0xbf49184c	-0.785527
199	0x3d7a4195	0.0610977
200	0xbdcff759	-0.101546
201	0x3d837e47	0.0642057
202	0xbe0a58b4	-0.135104
203	0xbfd770ce	-1.68313
204	0x3d61ee4c	0.0551589
205	0x3bfea0f0	0.00777065
206	0x3e09d7fe	0.134613
207	0x3d0a85e6	0.0338191
208	0xbe91420b	-0.283707
209	0x3caaeef7	0.0208659
210	0xbd7a2ed0	-0.0610798
211	0xbc5781c7	-0.0131535
212	0x3db2daa6	0.0873311
213	0x3db42d7f	0.0879774
214	0x3d604260	0.0547508
215	0xbc75975c	-0.0149897
216	0x3e0c3372	0.136915
217	0x3bf84ef1	0.00757777
218	0xbd5e562c	-0.0542814
219	0xbd8d2100	-0.0689106
220	0x3baec479	0.00533348
221	0x3dbd24ef	0.0923556
222	0x3e5a0b5f	0.212934
223	0x3ef867cf	0.485167
224	0xbd56c482	-0.0524335
225	0xbe9b0596	-0.302777
226	0x3c641695	0.0139214
227	0xbeaf0260	-0.341815
228	0x3daaca36	0.0833935
229	0x3d058347	0.0325959
230	0xbd6acd33	-0.0573246
231	0xbccfd6d8	-0.025371
232	0xbdc56ce4	-0.0963991
233	0x3d430264	0.0476097
234	0xbdbea847	-0.0930944
235	0xbe2af252	-0.16694
236	0xbe210fd8	-0.157287
237	0x3d4dca8e	0.050242
238	0x3d8a9ecd	0.0676857
239	0x3ed04296	0.406758
240	0xbe23265b	-0.159326
241	0x3e59a177	0.21253
242	0xbe098eda	-0.134334
243	0x3de21859	0.110398
244	0x3d14e8c5	0.0363548
245	0x3e5c6089	0.215212
246	0xbd208729	-0.0391914
247	0xbd975628	-0.0738948
248	0x3ea84ab6	0.328695
249	0xbcc4d552	-0.0240275
250	0x3f304b2b	0.688647
251	0xbf0b13e0	-0.543272
252	0x3ed7e005	0.421631
253	0xbf17bf1f	-0.59276
254	0xbe994834	-0.299379
255	0x3ef5f6dc	0.480399

B3 f4 [50]
0	0xbd9bbf79	-0.0760488
1	0xbf148041	-0.580082
2	0x3eff3a36	0.498491
3	0xbf912d23	-1.13419
4	0xbe08cac5	-0.133586
5	0xbf2bd48d	-0.671212
6	0x3c5b70d4	0.0133936
7	0xbe9b7825	-0.303651
8	0xbea52589	-0.322552
9	0xbe2b7d85	-0.167471
10	0x3f833c60	1.02528
11	0xbba585e1	-0.00505136
12	0xbf8433c6	-1.03283
13	0xbe4436b9	-0.191615
14	0x3f8ce65c	1.10078
15	0xbf097093	-0.536874
16	0x3fd84bb2	1.68981
17	0xbf9f913f	-1.24662
18	0x3f3178e6	0.693251
19	0x3f548f00	0.830307
20	0x3ea0d10f	0.314095
21	0xbd0fd8f1	-0.035119
22	0xbec85b18	-0.39132
23	0xbe2c6152	-0.16834
24	0x3c5773f0	0.0131502
25	0x3fa92c28	1.32166
26	0x3f1f16a0	0.621439
27	0xbb9d5a99	-0.00480206
28	0x3fe46738	1.7844
29	0x3d9a5f85	0.0753775
30	0xbf92594b	-1.14335
31	0xbf633743	-0.887562
32	0xbfc63e6c	-1.54878
33	0x3f6b2df5	0.91867
34	0xbc06c37e	-0.00822532
35	0xbf6eceff	-0.932846
36	0xbe88c47a	-0.267124
37	0xc0054cec	-2.08282
38	0x3f166a01	0.587555
39	0x3e321251	0.173898
40	0xbf9a8db9	-1.20745
41	0xbe4841ee	-0.195564
42	0xbf0c4806	-0.547974
43	0xbfb6c472	-1.42787
44	0xbf4f8583	-0.810631
45	0x3ceb05d3	0.0286893
46	0x3efbca53	0.491778
47	0x3fabe2d6	1.34286
48	0x3ec10a35	0.377031
49	0xbcc6092e	-0.0241743

W4 f4 [50, 50]
0	0x3cfc8847	0.0308267
1	0x3d902554	0.0703837
2	0x3cbff3d6	0.0234317
3	0x3ea62c77	0.324558
4	0x3f1a5343	0.602833
5	0xbe26594b	-0.16245
6	0xbfad51d7	-1.35406
7	0xbcfe27ee	-0.0310249
8	0xbe0ae148	-0.135625
9	0xbddf35a0	-0.108989
10	0xbd88a710	-0.0667249
11	0x3e4c432d	0.199475
12	0x3ec9f72f	0.394464
13	0x3ead3b2a	0.338342
14	0x3e368230	0.178231
15	0xbec40874	-0.382877
16	0xbdd0adcd	-0.101894
17	0x3d4d7b99	0.0501667
18	0x3e72fa0d	0.237282
19	0xbe886c01	-0.266449
20	0x3e796f65	0.243589
21	0x3e00fa16	0.125954
22	0xbdc0bfd6	-0.0941159
23	0xbc947edd	-0.0181269
24	0xbe399d45	-0.181264
25	0xbe27ffde	-0.164062
26	0x3c49851a	0.0122998
27	0xbd598a15	-0.0531102
28	0xbe2c069e	-0.167994
29	0x3dc69065	0.0969551
30	0x3e04d7ae	0.129729
31	0x3da643a4	0.0811837
32	0x3d9dd7c4	0.0770717
33	0xbdd9934f	-0.106238
34	0xbd2021a9	-0.0390946
35	0x3e236502	0.159565
36	0x3e634ca1	0.221972
37	0xbe21ca3a	-0.157998
38	0x3dbe56c0	0.0929389
39	0xbdbae204	-0.0912514
40	0x3d841e30	0.0645107
41	0xbc71ca48	-0.0147577
42	0x3c376e2b	0.0111957
43	0xbdbc76d1	-0.0920235
44	0x3e8f6167	0.28004
45	0xbcf9b77c	-0.030483
46	0x3d8e690c	0.0695363
47	0xbeb6d17c	-0.357067
48	0x3db57e24	0.0886195
49	0xbd08099f	-0.0332123
50	0x3c5a59e9	0.0133271
51	0xbe125919	-0.142918
52	0x3e2ae31d	0.166882
53	0xbdbff591	-0.0937301
54	0xbf39842b	-0.724673
55	0x3f2f7879	0.685432
56	0x3d2baea5	0.0419146
57	0xbe7ca42b	-0.24672
58	0x3db01dc8	0.0859943
59	0xbddf9160	-0.109164
60	0xbf9ec17f	-1.24028
61	0xbf711eda	-0.941877
62	0x3f1df9ad	0.617091
63	0xbe530ced	-0.206104
64	0x3ea0e582	0.314251
65	0x3f766528	0.962481
66	0xbf22c2ce	-0.635785
67	0xbee75686	-0.451832
68	0xbea5e43f	-0.324007
69	0x3ec4e443	0.384554
70	0x3f1cf5c3	0.613125
71	0x3e941c61	0.289279
72	0x3dfb29a2	0.122638
73	0x3e0e5797	0.139006
74	0x3f3ad3fa	0.729797
75	0xbf1cbeb6	-0.612285
76	0x3d702fa8	0.0586392
77	0xbe1047d4	-0.140899
78	0x3e5f7058	0.218202
79	0x3d9d0112	0.0766622
80	0xbe8739d2	-0.264113
81	0xbde2cba7	-0.11074
82	0xbd7604ef	-0.0600633
83	0xbc4b8edf	-0.0124242
84	0xbbaf3e87	-0.00534803
85	0xbf0316b1	-0.512065
86	0xbf205ab4	-0.626384
87	0xbe3e425b	-0.1858
88	0xbef55ac0	-0.479208
89	0xbd913a42	-0.0709119
90	0x3f95613d	1.16703
91	0xbe963de6	-0.293441
92	0x3e8fe60c	0.281052
93	0xbe1e1826	-0.154389
94	0xbf43340d	-0.762513
95	0xbd44014c	-0.0478528
96	0x3e01187e	0.12607
97	0xbea5f740	-0.324152
98	0x3d3a444f	0.0454753
99	0x3d12e68d	0.0358644
100	0xbe4c115e	-0.199285
101	0xbcfd3e19	-0.0309134
102	0xbe6adb40	-0.229352
103	0xbe4af428	-0.198197
104	0xbf06e936	-0.526996
105	0xbe88e64b	-0.267382
106	0xbf1c6035	-0.610843
107	0xbf861523	-1.04752
108	0x3f2a1826	0.664431
109	0xbf33fd1e	-0.703081
110	0xbe912f2b	-0.283563
111	0xbf04f6e0	-0.519392
112	0x3d67e6cf	0.0566166
113	0x3e6f6a51	0.233804
114	0x3e03d9a9	0.12876
115	0x3d636df9	0.0555248
116	0xbf39cb68	-0.72576
117	0x3f3a2b6b	0.727225
118	0x3e6e1b09	0.232525
119	0x3e629952	0.221288
120	0x3ee0b30b	0.438866
121	0xbf388627	-0.720797
122	0x3e9784a9	0.295934
123	0xbf3fa55d	-0.748617
124	0xbf918256	-1.13679
125	0xbddbc0a0	-0.107301
126	0xbfa64f22	-1.29929
127	0xbbe257b9	-0.00690743
128	0xbf28c7b0	-0.659297
129	0x3e32cdc0	0.174613
130	0x3dffbe77	0.124875
131	0x3e5c7ef1	0.215328
132	0x3ef3db5e	0.476283
133	0x3e407a6c	0.187967
134	0x3b69396a	0.00355872
135	0xbeb1aaa4	-0.347005
136	0x3ddb6aa5	0.107137
137	0x3e5ce67d	0.215723
138	0x3e3211cb	0.173896
139	0xbea36b90	-0.31918
140	0xbe666dbd	-0.225028
141	0xbf4e3001	-0.80542
142	0x3f3c4c16	0.735536
143	0xbbb4d103	-0.00551808
144	0x3f4cdd40	0.800251
145	0x3d3399c0	0.0438478
146	0xbd7cc533	-0.0617115
147	0xbe036007	-0.128296
148	0xbee6b0d9	-0.450568
149	0xbbf46151	-0.00745789
150	0xbd1f885c	-0.0389484
151	0xbe890cf6	-0.267677
152	0x3eaa875d	0.333064
153	0x3e3bbf0e	0.183346
154	0xbe9ae664	-0.302539
155	0xbf452c38	-0.770206
156	0xbf31fdf0	-0.695281
157	0xbe8eaceb	-0.278663
158	0x3ddd5561	0.108073
159	0xbe51a4be	-0.20473
160	0xbf7839de	-0.969633
161	0xbda60617	-0.0810663
162	0xbe8b11e8	-0.271621
163	0x3ed3f1c7	0.413954
164	0x3ee7ff9b	0.453122
165	0xbf7f1c11	-0.996522
166	0xbecfd04a	-0.405886
167	0x3eb9a283	0.362568
168	0x3f9bb83d	1.21656
169	0x3e99b36c	0.300197
170	0x3f111ada	0.566816
171	0xbe6e60c4	-0.232791
172	0x3e384f4c	0.17999
173	0xbeae364c	-0.340258
174	0xbf8b295f	-1.0872
175	0xbebb9a39	-0.366411
176	0xbf5088b5	-0.814586
177	0xbdc46230	-0.0958904
178	0xbf04bf1a	-0.518541
179	0xbea2ceab	-0.317983
180	0x3e536651	0.206445
181	0x3ec689a9	0.387769
182	0x3ee3c1f0	0.444839
183	0xbec071e7	-0.375869
184	0x3d41b6ef	0.0472936
185	0x3cb276e0	0.0217852
186	0x3eb97508	0.362221
187	0xbd7797e7	-0.0604476
188	0x3ed18a44	0.409258
189	0xbf0d2a41	-0.551426
190	0xbf0cdd72	-0.550254
191	0xbf5cf27c	-0.863075
192	0x3de41893	0.111375
193	0x3c6803f5	0.0141611
194	0xbe8291b8	-0.255018
195	0xbc3fcaf1	-0.0117061
196	0xbc249866	-0.0100461
197	0xbe1f837b	-0.155775
198	0xc0e13fe6	-7.03905
199	0x3d122be7	0.0356864
200	0xbda6f84f	-0.0815283
201	0x3e04e098	0.129763
202	0xbdca0382	-0.0986395
203	0x3e4bd2b7	0.199046
204	0x3f5b8f04	0.857651
205	0xbd34add7	-0.0441111
206	0x3e1a8c15	0.150925
207	0xbdedfbd7	-0.116203
208	0xbdfcbf6e	-0.123412
209	0x3d1a42f2	0.0376615
210	0xbcbf3b4a	-0.0233437
211	0x3c42c5e3	0.011888
212	0x3d1b1ed5	0.0378712
213	0x3dd4a98b	0.103839
214	0x3dee6538	0.116404
215	0xbc2a9c20	-0.0104132
216	0xbda40937	-0.0800957
217	0x3d0f4c39	0.0349848
218	0xbeae518f	-0.340466
219	0xbdc1fd30	-0.0947212
220	0x3e07bc7f	0.132555
221	0x3e13aeef	0.144222
222	0xbd4a222d	-0.049349
223	0x3a02c191	0.000498795
224	0xbe527dcc	-0.205558
225	0xbe0b1359	-0.135816
226	0xbe14b6e9	-0.145229
227	0xbdaae3e7	-0.0834425
228	0xbdb8a230	-0.0901531
229	0xbdfbff04	-0.123045
230	0x3cc5cfee	0.024147
231	0x3a5899f9	0.000826269
232	0x3da9c6cb	0.0828987
233	0xbd8fbbf3	-0.0701827
234	0xbcdec553	-0.0271937
235	0xbddb634e	-0.107123
236	0xbd603fc1	-0.0547483
237	0x3d18c2da	0.0372952
238	0x3a4f7c77	0.000791497
239	0xbd73b894	-0.0595022
240	0x3c418861	0.0118123
241	0xbd087de8	-0.0333232
242	0x3e5cc8de	0.21561
243	0xbd61a76a	-0.0550913
244	0xbd742495	-0.0596052
245	0xbc161469	-0.00916014
246	0x3e80ca1d	0.251542
247	0x3c9223b9	0.0178393
248	0xbe837868	-0.256778
249	0x3ca89b95	0.020582
250	0xbd6d26fa	-0.0578985
251	0xbe27396d	-0.163305
252	0xbcd262d9	-0.0256819
253	0x3c4bd414	0.0124407
254	0xbf20ea29	-0.628573
255	0xbe5eefa2	-0.217711

B4 f4 [50]
0	0xbf69c897	-0.913217
1	0x3dc99b3a	0.0984406
2	0x3f93d36f	1.15489
3	0xbea6b980	-0.325634
4	0xbe08bb0a	-0.133526
5	0x3eaea726	0.341119
6	0x3c939f19	0.0180202
7	0x3f6676c9	0.90025
8	0x3e3bbbe8	0.183334
9	0x3f02e782	0.511345
10	0xbea98f3f	-0.331171
11	0x3f657add	0.896406
12	0x3fc269ad	1.51885
13	0x3ebd028a	0.36916
14	0xbfdca42b	-1.72376
15	0x3ed2393f	0.410593
16	0xbe3ec95c	-0.186315
17	0x3e87ae36	0.265001
18	0xbe2c15d3	-0.168052
19	0x3e4b24a7	0.198382
20	0x4008708f	2.13187
21	0xbd70c290	-0.0587793
22	0x3f244f90	0.641839
23	0xbedc399b	-0.430127
24	0x3cb9a82d	0.0226632
25	0xbd1dfd92	-0.0385719
26	0xbe241f64	-0.160276
27	0x3ea6a748	0.325495
28	0xbefb7cbb	-0.491186
29	0x3f118bc6	0.568539
30	0xc03893c9	-2.88402
31	0x3f0a706d	0.540778
32	0x3f4740d5	0.778333
33	0xbf59a933	-0.850238
34	0x3f62b6bf	0.885601
35	0xbf94da90	-1.16292
36	0xbefb6e72	-0.491077
37	0x3f306b38	0.689136
38	0xbf106e5d	-0.564184
39	0x3e7debd9	0.24797
40	0xbec6fa61	-0.388629
41	0xbd36cd6c	-0.0446295
42	0x3ef4095f	0.476634
43	0x3dde08af	0.108415
44	0xbff706a3	-1.92989
45	0xbfa51dbd	-1.28997
46	0x3e453e70	0.192621
47	0xbe7d4995	-0.247351
48	0x3e99e59f	0.30058
49	0x3deb0a70	0.114766

W5 f4 [50, 50]
0	0x3efdf4a1	0.496007
1	0x3d55302e	0.0520479
2	0xbf0c5804	-0.548218
3	0xbfe3f7cf	-1.781
4	0xbccb1720	-0.0247913
5	0x3f2fdf2b	0.686999
6	0xbe0b6912	-0.136143
7	0xbdeadeec	-0.114683
8	0xbfed8256	-1.85554
9	0xbdbdac76	-0.0926141
10	0x3f2f9703	0.685898
11	0x3f9db5c8	1.23211
12	0x3d0fec8d	0.0351377
13	0x3e08fda0	0.13378
14	0xbe20739b	-0.156691
15	0xbf86ad82	-1.05217
16	0xbf0ebe38	-0.55759
17	0xbf308302	-0.689499
18	0x3e086d2f	0.133229
19	0x3eacd63d	0.337572
20	0xbe2635e7	-0.162315
21	0x3e09e83e	0.134675
22	0x3f2d66ae	0.677348
23	0xbf0e19ca	-0.555081
24	0x3eb8e065	0.361087
25	0xbc25b8f7	-0.0101149
26	0x3cb639e3	0.0222444
27	0xbe91be90	-0.284657
28	0xbea41f21	-0.32055
29	0xbc4be8a1	-0.0124456
30	0x3e129e90	0.143183
31	0x3e163a19	0.146706
32	0x3da46d0a	0.0802861
33	0xbcc0abf7	-0.0235195
34	0xbf0f8c54	-0.560735
35	0x3dd6683c	0.104691
36	0xbe9ba6ad	-0.304006
37	0x3dc5b6f9	0.0965404
38	0xbd965201	-0.0733986
39	0xbecaf87b	-0.396427
40	0xbfbb79a7	-1.46465
41	0x3db75df8	0.0895347
42	0x3eaac4f8	0.333534
43	0x3e3d8341	0.185071
44	0xbd7d9019	-0.061905
45	0xbf96bf87	-1.17772
46	0xbecfbe12	-0.405747
47	0xbfd33db0	-1.65032
48	0x3f151eb8	0.5825
49	0x39e522eb	0.000437043
50	0x3e743394	0.238478
51	0xbfc488a4	-1.53542
52	0xbf3f456b	-0.747153
53	0xbe2851ec	-0.164375
54	0xbe17bedb	-0.148189
55	0xc04c1ea3	-3.18937
56	0x3e875be6	0.264373
57	0xbff09ba6	-1.87975
58	0x3f387b67	0.720633
59	0xbeb454bd	-0.352209
60	0x3eb05bc0	0.34445
61	0x3f29b867	0.66297
62	0xbe011234	-0.126046
63	0xbf3318ca	-0.699597
64	0xbe1b36bd	-0.151576
65	0xbc1be935	-0.00951605
66	0x3f86c615	1.05292
67	0x3ff0c9da	1.88116
68	0xbf905b18	-1.12778
69	0xbed787f0	-0.420959
70	0xbf90e704	-1.13205
71	0xbf223c86	-0.633736
72	0x3f7046e9	0.938582
73	0xbe55c209	-0.208748
74	0xbeb67a10	-0.3564
75	0xbc54e535	-0.0129941
76	0xbf4bf66f	-0.796729
77	0x3e829414	0.255036
78	0x3fdc5f07	1.72165
79	0xbd0ae247	-0.0339072
80	0xbe3ed0b3	-0.186343
81	0xbfbfdbf5	-1.4989
82	0x3ddbe5da	0.107372
83	0xbf412e94	-0.754617
84	0xbf28ac4b	-0.658879
85	0xbf59a05a	-0.850103
86	0x3f077931	0.529193
87	0x3e5f483d	0.218049
88	0xc02b91bc	-2.68077
89	0x401441b3	2.31651
90	0xbfe3a7db	-1.77856
91	0xbf2a95fb	-0.666351
92	0x3ff6bbed	1.92761
93	0xbe8c2635	-0.273729
94	0xc1320903	-11.1272
95	0x3f280ee0	0.656477
96	0xc019e76d	-2.40475
97	0xbe5553ac	-0.208327
98	0x3f353c04	0.707947
99	0xbed90e24	-0.423936
100	0xbed73711	-0.420342
101	0xbdd3cb3e	-0.103415
102	0xbd3cb238	-0.0460684
103	0xbd4ba916	-0.0497218
104	0x3e1d0353	0.153333
105	0xbd248adf	-0.0401715
106	0x3cf8487c	0.030308
107	0xbddc0336	-0.107428
108	0xbfdd6580	-1.72966
109	0xbf58f92b	-0.847552
110	0x3e3198f2	0.173435
111	0xbf4abc84	-0.791939
112	0xbcbda689	-0.0231507
113	0x3bb7f753	0.0056142
114	0xc016cb7d	-2.35617
115	0xc012132b	-2.28242
116	0x3eb78df8	0.358505
117	0xbf412221	-0.754427
118	0xbe88ef56	-0.267451
119	0xbd928b02	-0.0715542
120	0xbe552c17	-0.208176
121	0x3de45458	0.111489
122	0xbf7182cb	-0.943402
123	0xbd7a3dcf	-0.0610941
124	0x3e18ad25	0.149098
125	0x3bc7b6a3	0.00609477
126	0x3dd9830e	0.106207
127	0xbf370532	-0.714923
128	0xbf5740a3	-0.84083
129	0x3c9ffe6d	0.0195305
130	0x3d18086a	0.0371174
131	0xbc924ff9	-0.0178604
132	0xc04c5215	-3.19251
133	0x3d454d7d	0.0481696
134	0xbef30058	-0.474612
135	0xbe61b6d4	-0.220424
136	0xc0adcf57	-5.43156
137	0xbfd0523f	-1.62751
138	0xbc809ef7	-0.0157008
139	0xbd32feab	-0.0436999
140	0xbdda1901	-0.106493
141	0xbe3c9d9d	-0.184195
142	0xbc79222b	-0.0152059
143	0xbd632300	-0.0554533
144	0xbda9568b	-0.0826846
145	0xbfc34928	-1.52567
146	0x3cacbea5	0.021087
147	0x3ced193e	0.0289427
148	0xbe9408b7	-0.289129
149	0xbef5336e	-0.478908
150	0x3e3125dd	0.172996
151	0xc1015bd5	-8.08492
152	0x3e581345	0.211011
153	0x3e20a6b9	0.156886
154	0x3f04ab50	0.518239
155	0x3e5aaf79	0.21356
156	0x3e2bb1af	0.16767
157	0xc0072104	-2.11139
158	0x3bf93058	0.00760464
159	0x3d2aa590	0.0416618
160	0xbea691c9	-0.325331
161	0x3eefded7	0.468497
162	0xbed7ff9b	-0.421872
163	0xbee51655	-0.447436
164	0xbe320924	-0.173863
165	0x3b004ec5	0.00195782
166	0xbe17824d	-0.147958
167	0xbea33e36	-0.318834
168	0xbdb54775	-0.0885152
169	0xbe642742	-0.222806
170	0xc0882bd4	-4.25535
171	0x3d8c1631	0.0684017
172	0xbd79cbd4	-0.0609854
173	0x3db7e19e	0.0897858
174	0xbea0880e	-0.313538
175	0xbc991dde	-0.018691
176	0xbef4725c	-0.477435
177	0x3df6e7a3	0.120559
178	0xbfeb9d5e	-1.84074
179	0xbc7c3eaa	-0.0153958
180	0xbec25482	-0.379551
181	0xbd8b05e0	-0.0678823
182	0x3e93b0c4	0.288458
183	0xbe286f48	-0.164487
184	0xbe96dfe7	-0.294677
185	0xbe1518b1	-0.145602
186	0x3b3b34f5	0.00285655
187	0xbebb912e	-0.366342
188	0xbe51f1d0	-0.205024
189	0xbed77660	-0.420825
190	0x3ee8d9f9	0.454788
191	0x3ecfbf83	0.405758
192	0xbe81e061	-0.253665
193	0xbf1b9863	-0.607794
194	0xc03b4d40	-2.92659
195	0xbd387c99	-0.0450407
196	0x3e07aa69	0.132486
197	0xbcc8cfe8	-0.0245132
198	0xbecf7fd0	-0.405272
199	0x3e0bb279	0.136423
200	0x3ed0f990	0.408154
201	0xbd5ce1ee	-0.0539264
202	0x3d19e229	0.0375692
203	0xbe8b9885	-0.272648
204	0xbf08b407	-0.533997
205	0x3f209796	0.627313
206	0xbd156522	-0.0364734
207	0x3c0df31d	0.00866392
208	0xbcfba7ac	-0.0307196
209	0xbc1a8801	-0.00943184
210	0xbe131e3a	-0.14367
211	0x3d058e9a	0.0326067
212	0xbcc92b8d	-0.0245569
213	0x3d5eae0b	0.0543652
214	0xbce89fc7	-0.0283965
215	0xbb82bfb8	-0.00399014
216	0xbd8c0e1e	-0.0683863
217	0xbdb1339a	-0.0865242
218	0x3d74f392	0.0598026
219	0xbd33e06d	-0.0439152
220	0xbd806317	-0.062689
221	0x3bd78791	0.00657744
222	0xbd34dbe0	-0.044155
223	0x3f2660f6	0.649917
224	0xbb7604d4	-0.00375395
225	0x3cce4c94	0.025183
226	0xbd49dd2e	-0.0492832
227	0x3da9ce58	0.0829131
228	0x3d71ca7d	0.059031
229	0x3e0fc936	0.140416
230	0x3d0bc25b	0.0341209
231	0xbc0eb1ca	-0.00870938
232	0xbcd6e7a3	-0.0262335
233	0x3cb326d4	0.0218691
234	0x3d2d0918	0.042245
235	0x3daf2453	0.0855185
236	0xbeb2087d	-0.347721
237	0x3bd45b21	0.00648059
238	0x3c1b515f	0.00947985
239	0x3ee6a8da	0.450507
240	0xbd800b61	-0.0625217
241	0xbcfac7e8	-0.0306129
242	0xbd140754	-0.0361398
243	0x3dfb8801	0.122818
244	0xbf193d64	-0.598593
245	0xbd9581b5	-0.0730013
246	0x3d70bae9	0.058772
247	0xbc254534	-0.0100873
248	0x3d4855a4	0.0489098
249	0xbba3f99a	-0.00500412
250	0x3d9335e0	0.0718801
251	0xbe67e77d	-0.226469
252	0xbe287ca6	-0.164538
253	0xbeda7d03	-0.426735
254	0x3f49c971	0.78823
255	0x3ffde647	1.98359

B5 f4 [50]
0	0xbf66e6c9	-0.901959
1	0xbf19a30a	-0.600144
2	0x3bde3580	0.00678128
3	0xbf12749f	-0.572092
4	0x3daa7ad6	0.0832421
5	0xbf37aa58	-0.717443
6	0xbdcfa051	-0.10138
7	0xc0510bb7	-3.26634
8	0x3d9459b1	0.0724367
9	0xbf4b162b	-0.793307
10	0x3e9b0a0b	0.302811
11	0xbe44b0e2	-0.192081
12	0xbedec56d	-0.4351
13	0xbf092989	-0.53579
14	0xbf12b639	-0.573093
15	0xbe5a60d4	-0.21326
16	0xbeaafe3f	-0.333971
17	0x3d83774e	0.0641924
18	0x3e5f1ed1	0.217891
19	0x3e93d231	0.288713
20	0x3e36965f	0.178308
21	0x3e852631	0.260057
22	0x39ff404e	0.000486853
23	0xbf0ae536	-0.54256
24	0x3de744b3	0.112924
25	0x3eadb8dc	0.339301
26	0xbce6a7d5	-0.0281562
27	0x3e427aea	0.189922
28	0x3ef7077d	0.482479
29	0xbf1099f2	-0.564849
30	0xbfda72da	-1.70663
31	0xbd7f077d	-0.062263
32	0x3ed71bac	0.420133
33	0x3e95423e	0.291521
34	0x3c54bcf1	0.0129845
35	0x3e7b5569	0.245443
36	0xbec204b0	-0.378942
37	0x3e44c511	0.192158
38	0x3e87bf1f	0.26513
39	0x3ea5b76b	0.323665
40	0x3e2df938	0.169896
41	0xbe78f367	-0.243116
42	0xbf67d684	-0.905617
43	0xbf0ac99f	-0.542139
44	0xbfc72b02	-1.556
45	0x3ecbe2d6	0.398215
46	0x3e5b0ab3	0.213908
47	0x3e2649d4	0.162391
48	0x3f04c09c	0.518564
49	0x3eeb3acd	0.459433
