data/acasxu/nets/ACASXU_run2a_5_4_batch_2000.onnx (onnx, 53878 bytes, 14 tensors)

W0 f4 [50, 5]
000000 63 00 72 3c 73 4b c8 3b ca b2 f5 3a bb 7e 41 3c
       0.0147706 0.00611251 0.00187453 0.01181
000010 8c 89 28 bc f0 b4 06 bd 1c b7 20 3f 2f 15 b3 be
       -0.0102867 -0.0328874 0.627794 -0.349771
000020 b3 b5 9a bf 31 5f 32 3f e7 52 f8 bf 4a f9 de 3b
       -1.20867 0.696765 -1.94003 0.00680462
000030 af df c0 3b 58 64 c7 3b b4 ca 8a bb a2 a2 65 3d
       0.00588604 0.00608496 -0.00423559 0.0560633
000040 3e ea 87 3e 0f f1 c7 be dd f6 f3 ba de 00 6b 3f
       0.265459 -0.390511 -0.0018613 0.917982
000050 3d 27 3d 3b 03 26 f8 be cf be 46 bf 96 d0 d5 be
       0.00288625 -0.484665 -0.776349 -0.417607
000060 43 ac 86 3e 91 b8 af 3f 20 3f 61 bb 59 a6 7c bb
       0.263033 1.37282 -0.00343699 -0.00385513
000070 c9 ad 09 bd 8b 87 1c bd 06 4e f0 3a 97 ea 9d 3c
       -0.033613 -0.0382152 0.00183338 0.0192769
000080 ae b8 38 bc 05 a8 ad bf f1 4b a5 bf 7e 79 ac 3d
       -0.0112745 -1.35669 -1.29138 0.0842161
000090 aa 7d 52 bf 18 ce 5d bf 5a 46 0a 3e a7 31 eb bc
       -0.82223 -0.866426 0.135034 -0.0287102
0000a0 c8 b8 41 bb f2 8f 67 39 55 28 fb bb a7 5b 66 3f
       -0.00295596 0.000220835 -0.00766472 0.899836
0000b0 f8 36 2d be f9 c9 87 3c 9c 0f 84 bd 47 c7 55 3e
       -0.169155 0.0165758 -0.0644829 0.208768
0000c0 5c 41 2e bc 3c 31 b3 bf 68 08 27 3d 96 26 89 3f
       -0.0106357 -1.39994 0.0407795 1.07149
0000d0 1c 42 9d 3f 45 0d 8e be eb 71 ff 3d 50 55 b9 be
       1.22858 -0.277445 0.124729 -0.361979
0000e0 5d c4 8b 3f 12 4e d3 bf 84 46 00 be e3 c7 d8 3e
       1.09193 -1.65082 -0.125269 0.4234
0000f0 bb 62 a6 3d 36 c8 ac 3f 0d 1a ae bf b4 34 1c bd
       0.081243 1.34986 -1.36017 -0.0381362
000100 d5 59 85 3e f6 69 0b bd 5f ef fe 3d 2f 4e 2c be
       0.260451 -0.0340366 0.12448 -0.168267
000110 2c 9f 8d 3e c5 ae 88 bd 19 76 d8 bc 70 b6 09 40
       0.276605 -0.0667396 -0.0264235 2.15176
000120 8d 71 af 3d f0 a5 08 3f 34 10 e3 be 71 a6 9e bd
       0.0856658 0.533782 -0.443483 -0.0774659
000130 ff 5b 17 40 9e ef 93 bf b0 39 e6 3b ad 6c 9f be
       2.36499 -1.15575 0.00702592 -0.311376
000140 73 2a 19 3d 69 26 0e 3d ea 16 ab bd 7c d5 b6 bf
       0.037394 0.0347046 -0.0835398 -1.42839
000150 fd f6 b9 bf 6f 95 8c bc f7 cb 27 bc af f9 c4 bb
       -1.45285 -0.0171611 -0.0102415 -0.00601121
000160 2f 23 0a bc a1 73 0c 3c 7a c2 86 bf 50 1a 82 3e
       -0.00843124 0.00857249 -1.05281 0.254107
000170 03 b4 cd be d6 67 38 bd c2 18 99 be 85 88 0a bd
       -0.401764 -0.0450209 -0.299017 -0.0338216
000180 55 f6 e5 be ef fe f8 3e 75 8e a1 bf db 52 07 bf
       -0.449145 0.48632 -1.26216 -0.528608
000190 d8 a3 ec 3a d2 a8 00 bf 52 d3 12 3f ff ff a4 bb
       0.00180542 -0.502576 0.573537 -0.0050354
0001a0 65 a5 95 bf 82 b6 cd 3b 84 a3 82 b8 8c 17 a8 39
       -1.16911 0.00627786 -6.22934e-05 0.00032061
0001b0 47 26 37 3b bc 46 26 bc 39 7d a5 be ee 7c 3a 3d
       0.00279464 -0.0101487 -0.323221 0.0455293
0001c0 59 fa 90 3e e2 e9 b5 be d4 57 00 bc 4a 42 82 be
       0.28316 -0.3553 -0.00783344 -0.254412
0001d0 21 ae 84 be 60 76 6f 3e d4 b5 e6 3e cb be cf bf
       -0.259141 0.23385 0.450606 -1.62301
0001e0 92 e5 29 3d f4 c2 fd bd 94 4b 63 3c f1 ba a6 bf
       0.0414787 -0.123907 0.013873 -1.30258
0001f0 75 1d 7a bf d3 70 85 bd 8f 8e 5f 3f 83 86 9e bf
       -0.977012 -0.0651566 0.873269 -1.23848
000200 51 d0 37 3c 81 5a f4 be 70 52 42 bd aa 4d 57 bd
       0.0112191 -0.477253 -0.0474419 -0.0525643
000210 87 16 99 3d d2 c6 9d bf 42 3f a3 3e 1e f6 a7 bc
       0.07475 -1.23263 0.318842 -0.0205031
000220 15 90 06 3e d2 c8 37 be 30 81 4b 3f 65 de 5e bf
       0.131409 -0.179477 0.79494 -0.870581
000230 7f 3c 2a bd cc bb 95 3d 00 36 45 bd c4 b2 c1 be
       -0.0415616 0.0731121 -0.0481472 -0.378317
000240 65 c7 8e bf a9 de 92 bf 6f c8 80 bd 0d 72 53 3f
       -1.11546 -1.14742 -0.0628823 0.825959
000250 9d bd 23 3e 9b 8e 60 be c3 9e b6 be 50 89 2b 3e
       0.159903 -0.219294 -0.35668 0.167516
000260 f9 4b 0b be 3a 95 dc be 0d 09 be 3d dc 36 c2 bc
       -0.136032 -0.430826 0.0927907 -0.0237078
000270 ae 12 8c 3f 53 3e 6c 3f 55 fb 74 3e 1d 56 18 bf
       1.09432 0.922826 0.23924 -0.595064
000280 e5 28 54 bf bc 58 68 be b0 8c 01 3f 5d 8b 76 be
       -0.828749 -0.226901 0.506053 -0.240766
000290 72 df 92 3e a5 c4 69 3d 85 42 50 bf 62 bb 13 3f
       0.286861 0.0570723 -0.813515 0.577078
0002a0 29 76 14 bf db 8b e8 3d 5b fc 77 bd 75 94 e3 be
       -0.579928 0.113548 -0.0605434 -0.444492
0002b0 49 30 b5 3e f2 3f d9 bd 4c 52 29 3f ac 90 fa bf
       0.353884 -0.106079 0.661412 -1.95754
0002c0 b7 2c 1d bc 9f ba 28 3c 26 00 7f bc be bd ad 3a
       -0.00959318 0.0102984 -0.015564 0.00132554
0002d0 f4 e1 41 bf e1 ca 5e bd c3 9b 41 bf 70 24 10 3e
       -0.757354 -0.0543927 -0.756283 0.140764
0002e0 08 66 fb bc f3 75 41 bf 20 28 bf be 2a 4c 04 3d
       -0.0306883 -0.755706 -0.373353 0.0322992
0002f0 7f 4d d6 3d a2 ee 23 be a9 21 a0 3c a2 b7 68 3e
       0.10464 -0.16009 0.0195473 0.227263
000300 96 41 d5 bd 9f e5 81 bf 84 0d 43 3f 08 10 74 bc
       -0.104129 -1.01482 0.761925 -0.0148964
000310 02 9f 2b 3f b6 82 6e 3f 1a 51 16 3f b2 0d 8c be
       0.670395 0.931682 0.587175 -0.273542
000320 09 fd 64 bf e0 cd 24 3d 6d 37 c5 3b 4d bf c4 be
       -0.894486 0.0402354 0.00601857 -0.384272
000330 d4 d5 2d 3e 2a 87 5c bb 14 72 8a bc c9 0f 47 3b
       0.169761 -0.00336499 -0.0169001 0.00303744
000340 c8 f1 20 3c 86 c6 38 bc f2 5e 19 3f d3 4b 44 bf
       0.00982327 -0.0112778 0.599105 -0.766782
000350 e7 5c b0 bd 0e 2a 16 bc ec 51 94 bf 01 19 0a 3e
       -0.0861147 -0.0091653 -1.15875 0.134861
000360 a2 62 d4 be ae 46 f6 bb 2b db 1f bf 82 e5 90 3e
       -0.414815 -0.00751575 -0.624438 0.283001
000370 d5 bb be 3d d0 ed 21 c0 80 63 ef 3d f7 39 3e 3e
       0.0931317 -2.53014 0.116889 0.185768
000380 9b 0a cc bd e4 37 3b bc c5 4b 91 bd 65 01 bf 3f
       -0.0996296 -0.0114269 -0.0709453 1.49223
000390 3c 66 00 bd 43 63 8c 3d df 01 39 bd 8e 03 2f 3e
       -0.0313475 0.0685487 -0.0451678 0.170912
0003a0 14 75 46 be aa d6 66 bf 39 7c 82 be 1a 9b 27 bd
       -0.193806 -0.901713 -0.254854 -0.0409194
0003b0 a0 32 08 c0 88 4b 0a 40 25 c9 f3 3d 4f 78 e9 bd
       -2.12809 2.16086 0.119036 -0.113999
0003c0 29 37 5b bd a3 8f a1 be df 6d 0a 3f 4a 7e d4 3e
       -0.0535194 -0.315549 0.540739 0.415026
0003d0 aa 9d 21 bf 25 ae 1f bf 2d 0a ab 3e 77 6a 4e 3e
       -0.631312 -0.623751 0.334062 0.201578
0003e0 b2 49 3e 3e a4 3b 23 bd
       0.185828 -0.0398518

B0 f4 [50]
000000 05 7e de bc ef e4 eb be 2e 39 e6 be fc 39 85 3e
       -0.0271597 -0.460731 -0.449655 0.260208
000010 5d 52 35 bb 5b b3 cd 3e e5 9b 2d be 7b 27 70 3d
       -0.00276675 0.401759 -0.16954 0.0586314
000020 44 8b c4 3e 97 71 13 bf 68 ce fa 3d 3a 74 9a be
       0.383875 -0.575952 0.122464 -0.301668
000030 6f 84 fd be 1f c7 b5 3d 53 b0 96 3e c1 1f 86 be
       -0.495151 0.0887587 0.294314 -0.261961
000040 0b f0 b5 be 53 ec e8 bc 6b 46 9e be f9 4a d0 be
       -0.355347 -0.028433 -0.309131 -0.406822
000050 4c 8a 7f be af bc 9a bc af eb 76 3b 9a 98 be be
       -0.249551 -0.0188888 0.00376771 -0.372258
000060 0a 0f ea be 85 41 91 3e a8 72 f2 be fb ac 42 3e
       -0.457146 0.283703 -0.473531 0.190113
000070 f7 ea 17 bf a1 b9 86 be 1f 33 2b bd 13 d5 ab be
       -0.593429 -0.263135 -0.0417968 -0.33561
000080 83 4f 93 be 7d 9a 2e 3d a6 fc 3a bd 93 a6 a9 be
       -0.287716 0.0426278 -0.0456511 -0.331349
000090 d0 25 2c be bd 62 9c bd af 58 89 3b ac 56 36 3e
       -0.168113 -0.0763602 0.00419148 0.178065
0000a0 ee 97 a7 be 85 11 b1 bc 9a 44 e5 be 62 64 ee 3c
       -0.327331 -0.0216148 -0.447789 0.0291006
0000b0 ed 7f 20 3e ec 61 19 3d 58 74 eb 3d 8f 06 9b bd
       0.156738 0.0374469 0.114968 -0.0756961
0000c0 bc 96 10 3e d5 af 34 bd
       0.1412 -0.044113

W1 f4 [50, 50]
000000 ca e4 2f bd 63 4d 9b bd f3 8e db 3e 02 b8 35 3f
       -0.0429428 -0.0758312 0.428825 0.709839
000010 ac e6 51 bf fd 87 9c be 6c b4 0c 3f de 43 c8 bd
       -0.819926 -0.305725 0.549628 -0.0977857
000020 23 db 91 3f e5 0a 8f 3e 27 88 1a be 31 9a 8d 3e
       1.1395 0.27938 -0.15091 0.276567
000030 33 fe a9 3f 15 36 fb 3e a5 14 90 bf 2b 8a 97 be
       1.32807 0.490647 -1.12563 -0.295976
000040 fc a6 00 3f df 09 ec 3c 25 24 42 3f 82 71 d0 3e
       0.502548 0.0288133 0.758364 0.407116
000050 6c eb 97 3e 69 1e 9b bc 91 47 a8 3e 84 d3 f2 3e
       0.296718 -0.0189354 0.328671 0.47427
000060 e1 32 3d 3d 72 18 00 3f 4f 5c 1e be 8e 3a 56 3f
       0.0461911 0.500373 -0.154649 0.836831
000070 37 df 78 be e7 6f 12 3e 93 c3 ef 3e 4e 45 52 3f
       -0.243039 0.143005 0.468289 0.82137
000080 19 90 8d bf 61 4f db 3d b7 d1 48 40 3e 22 22 3f
       -1.10596 0.107085 3.1378 0.633335
000090 1d 58 46 bf df 52 42 3f f1 aa fd 3c db 32 80 3e
       -0.774782 0.759077 0.0309653 0.250388
0000a0 a6 5f 7e 3f e6 2b 37 bc fb 24 03 3f 3a e7 3f bf
       0.993647 -0.0111799 0.512283 -0.749622
0000b0 dd eb 60 bf 2c 5b b0 bd 99 0f 2c 3f 57 43 ad 3d
       -0.878599 -0.0861114 0.672113 0.0846011
0000c0 d9 3f 07 bf 99 9a 84 be 71 5f fd 3c ee 5a 8e c0
       -0.528318 -0.258992 0.0309293 -4.4486
0000d0 bd 72 8d be 8d b8 48 3f 55 db 0d be d4 9b 89 3e
       -0.276266 0.784066 -0.138532 0.268767
0000e0 04 ad 94 3f c6 18 28 be bf 27 26 be 5d 51 6a be
       1.16153 -0.164157 -0.162261 -0.228826
0000f0 5d 4a 62 3d 71 e6 0f 3f 9e ef af be a0 e1 3d 3e
       0.0552467 0.56211 -0.343625 0.185431
000100 a0 16 0b 3f ae d7 58 3f b7 7f d5 bf af b0 00 bd
       0.543314 0.847041 -1.66796 -0.0314185
000110 cf be d2 3e ca a1 aa bc b7 97 94 3f 23 ea cf 3b
       0.411612 -0.0208291 1.16088 0.00634505
000120 5a 9c 41 3e 6a a4 89 3f c2 a3 89 3f 10 79 bb 3e
       0.189073 1.07533 1.07531 0.366158
000130 cc b4 03 40 53 5c 49 3f 5e 63 e7 3e ad fa dc bd
       2.05791 0.786565 0.45193 -0.1079
000140 38 e5 60 3d b2 0f 1a 3f 77 0f 20 3f 6b 9f 8a bf
       0.0549061 0.601802 0.625236 -1.08299
000150 77 f3 60 40 b8 22 81 be 4b 4a b0 bc 68 79 22 3f
       3.51486 -0.252218 -0.0215198 0.634665
000160 9c 18 2e bf 91 37 aa bd db f9 ca bf 17 e2 47 bc
       -0.680063 -0.0831138 -1.58575 -0.0121999
000170 6b 99 ec 3d 89 cf c5 3e 18 ec 22 bf 46 61 72 3c
       0.115527 0.386349 -0.636415 0.0147937
000180 46 26 88 3e a6 27 ec bd c3 d3 5b 3e 30 49 bd be
       0.265917 -0.11531 0.214675 -0.369699
000190 e6 97 dc bc 93 1a da bd 78 13 d7 bc 2d 25 3f 3f
       -0.0269279 -0.106496 -0.0262544 0.746661
0001a0 d3 60 bf bd 58 72 55 3e fc 1d 7a be ad c2 8e be
       -0.0934464 0.208444 -0.244255 -0.278829
0001b0 54 1d ca bf 5f 7b fe bf db 85 86 3e da ae 00 3f
       -1.57902 -1.98814 0.26274 0.502668
0001c0 08 e3 d7 be 96 5e 37 3f 56 f5 12 be fe ee 9d 3c
       -0.421654 0.716287 -0.143514 0.019279
0001d0 a7 ec 34 3e 42 10 fb bc 00 54 11 3e 58 01 4a 3f
       0.176684 -0.0306474 0.141922 0.789083
0001e0 e5 b8 fb bf 80 99 94 3c e7 fc f4 3d 5e d7 eb bf
       -1.96658 0.0181396 0.119623 -1.84251
0001f0 12 89 e2 3d 82 c9 7d be 8e 07 ab be b9 53 c6 3f
       0.110613 -0.247839 -0.334042 1.54943
000200 f1 d7 8c 3f 7e 8c 95 bf 64 67 c0 3c 4a 24 e5 3f
       1.10034 -1.16835 0.0234868 1.79017
000210 9c bf 89 3f f5 81 34 bf 3e 07 66 3e 22 b6 aa bc
       1.07616 -0.705108 0.224637 -0.0208388
000220 ef ac 4d 3e 06 81 d5 3f 58 1d 19 3f 33 18 93 3e
       0.200855 1.668 0.598104 0.287294
000230 45 f4 9b be 91 86 c9 3c f4 4f 0c c0 bd 34 a5 be
       -0.304598 0.0246003 -2.19238 -0.322668
000240 14 79 ca 3e b3 06 ef 3e 1a fb 1e bf d0 7c 0a bf
       0.395455 0.466848 -0.621019 -0.540967
000250 2b fb 04 c0 a9 89 02 bf b8 96 a4 bc 83 73 91 3d
       -2.07783 -0.509913 -0.0200914 0.0710211
000260 a7 3d 65 3e a6 ba 20 bf 4b 76 a8 3f 9d f1 5d 3e
       0.223868 -0.627848 1.31611 0.216742
000270 ab b0 91 3e e6 cb 2b be de 03 cc 3e 28 27 04 c0
       0.284551 -0.16777 0.398467 -2.06489
000280 e0 f3 ab 3f 80 d2 60 3e 1f 5c 0b 3d a6 0a a2 3f
       1.34338 0.219553 0.0340234 1.26595
000290 13 b8 05 3e cc 40 85 3f d7 51 cd be 80 1a ed bc
       0.130585 1.04104 -0.401015 -0.0289433
0002a0 d0 7d 39 bd 16 fb a3 3e eb 8b 88 bf 6f b9 fa 3c
       -0.045286 0.320275 -1.06677 0.030606
0002b0 f7 3f 50 3f d8 82 4e bf a4 51 0d 3f 84 ba a0 be
       0.813476 -0.806684 0.552027 -0.313923
0002c0 1d 21 6f bf 14 ed ae bf 64 80 7a 3d 5e 2d 97 be
       -0.934099 -1.36661 0.0611576 -0.295268
0002d0 71 34 ec bc 36 ac b9 3e 44 14 03 3f d3 a5 ff bd
       -0.0288336 0.362642 0.512028 -0.124828
0002e0 3d f5 b3 3d 48 2f cf 3c 1b 10 09 bf b9 72 02 bf
       0.0878701 0.0252911 -0.535402 -0.509563
0002f0 a1 c9 54 3d 55 d9 03 3f 0e f5 8b be 6d f9 10 bc
       0.0519501 0.515035 -0.273354 -0.00884853
000300 ea 5d 04 bf cc ef 28 3f 4d 10 95 be fb e5 3f bf
       -0.517058 0.659909 -0.29114 -0.749603
000310 c3 c3 4a bd c3 a0 d4 3e 57 24 ae 3e ee 94 86 3f
       -0.0495031 0.415289 0.340121 1.05142
000320 dd 50 47 3d 4c 36 de 3d 53 ea 12 bd 4e d5 7d bf
       0.0486611 0.108502 -0.035868 -0.991536
000330 86 ca df 3d f4 6d 21 3f 79 03 ac 3e ad 25 2e bc
       0.109273 0.630584 0.335964 -0.0106291
000340 34 bf b6 bf b4 1f 95 3f ea 8b 2e bd 62 bd 31 be
       -1.42771 1.16503 -0.0426139 -0.173574
000350 ed 2a ec 3e 5b 5f f4 be 33 c1 80 bd 96 79 eb 3c
       0.461265 -0.47729 -0.0628685 0.0287445
000360 a1 86 f7 3e 69 02 85 3c 6d 58 c3 be f3 99 47 bc
       0.483449 0.0162365 -0.381534 -0.0121827
000370 7f a0 38 3f 01 1b 4b 3d c5 c5 f6 3c 18 24 b5 3e
       0.721199 0.0495863 0.0301236 0.353791
000380 08 b0 58 3e 06 24 8b bd 24 97 8f 3f 58 b4 d4 bc
       0.211609 -0.0679398 1.1218 -0.0259649
000390 c3 ac e1 3c 67 45 4c 3f 7e 70 fe 3d ef 38 8d be
       0.0275482 0.797934 0.124238 -0.275825
0003a0 69 35 a4 3e 6c 25 dc be db 51 40 3f 8f a7 59 bf
       0.32072 -0.429973 0.751249 -0.850213
0003b0 c0 96 17 3f 19 59 e2 be 96 e8 f4 be c6 a7 88 be
       0.592144 -0.442086 -0.478337 -0.266905
0003c0 e7 fb 49 3f af c0 86 bc dc 0f 38 bf 7c 9d 64 be
       0.789 -0.0164493 -0.718992 -0.223257
0003d0 39 9a 53 be c4 7a 1b bf b2 9b 59 3d d1 63 0a 3d
       -0.206643 -0.607342 0.053127 0.0337866
0003e0 0a a3 f1 be df 6e 59 3e e2 3d 07 3d c2 68 46 be
       -0.471947 0.212337 0.033018 -0.193759
0003f0 bb f2 a9 3f 39 5f 6c be b5 c0 ee 3e ab 04 1d c0
       1.32772 -0.230832 0.466314 -2.45341

B1 f4 [50]
000000 7c d5 ee bf 51 14 88 bf d4 d1 d9 be d4 bb 78 bf
       -1.86589 -1.06312 -0.425429 -0.971616
000010 d4 0e 5f be 4f 3e 49 bf 75 7d 55 3c 50 a7 18 bf
       -0.21783 -0.786107 0.0130304 -0.596303
000020 45 d9 7b bd 67 9b 9b 3f 69 57 85 bf ab 12 9b bc
       -0.0614865 1.21568 -1.04173 -0.0189298
000030 fb 20 7f 3f 01 f7 f4 3e 20 97 00 bf 55 87 b0 3f
       0.996597 0.478447 -0.502306 1.37913
000040 ee 88 16 bc 69 19 21 3f 4f ad 96 be 81 04 45 bf
       -0.00918792 0.629294 -0.294291 -0.7696
000050 98 4f 9e be f9 d9 a0 be 5b 22 2f 3f 1a a6 de be
       -0.309201 -0.314163 0.684118 -0.434861
000060 90 44 54 bc 0c e6 23 3f e0 f3 87 bf 72 14 2c 3f
       -0.0129558 0.640229 -1.06213 0.672187
000070 47 c8 74 bf f7 06 37 3f f2 96 ab 3e 04 cb 21 be
       -0.956181 0.71495 0.335136 -0.158001
000080 3f aa 0d 3f f0 e0 37 bf f3 c8 d7 bf 56 48 b5 bf
       0.553379 -0.718276 -1.68582 -1.41627
000090 e6 ac 54 bd 2d 89 7d bc 28 9b d2 bd a2 6d 6b bc
       -0.0519227 -0.0154746 -0.102835 -0.0143694
0000a0 05 19 a1 be 1b f1 64 bd 57 24 ae be 6c b4 6c be
       -0.314644 -0.055894 -0.340121 -0.231157
0000b0 3a 5d 2a bf e9 49 a1 be 7e 37 9d bc 03 96 04 bf
       -0.665485 -0.315017 -0.0191915 -0.517914
0000c0 d3 f6 67 bf 92 a0 f0 bb
       -0.90611 -0.00734336

W2 f4 [50, 50]
000000 c3 33 17 bd b5 20 2f bd aa f7 2f bc c4 c1 94 3c
       -0.0369146 -0.0427558 -0.0107402 0.0181588
000010 63 ec 29 bc bf 95 91 bc 0f 04 0d bd d7 a6 4c bd
       -0.0103713 -0.0177716 -0.0344277 -0.0499638
000020 5f ea 2c 3d e9 5a c5 ba 4c b4 d8 3b dd 34 2c 3d
       0.0422157 -0.0015057 0.00661329 0.0420426
000030 82 43 9e bc 05 7f 09 3c 15 d1 05 bd 29 bf 1b bd
       -0.0193193 0.0083921 -0.0326701 -0.0380241
000040 81 7c 64 bc 78 81 ad 3c 21 7b 38 bd 68 e7 f4 bc
       -0.0139457 0.0211799 -0.0450393 -0.0298955
000050 c5 8b 4a bd 17 01 5f 3c c3 ee 1e bb bc a9 8e bb
       -0.0494497 0.0136111 -0.00242512 -0.00435373
000060 83 97 aa bc f9 44 03 bd b1 e9 b7 3c 9b ae 65 3b
       -0.0208242 -0.0320482 0.0224503 0.00350467
000070 9a 22 80 3c e2 7b 5a bc e8 dc 6d 3c a1 ac 0e 3d
       0.0156415 -0.0133352 0.014518 0.0348326
000080 7b 2f be 3c 8d 70 a4 bc 36 23 03 bd 7a 22 23 bd
       0.023216 -0.0200732 -0.032016 -0.0398278
000090 3b 0d 62 bc 43 f9 27 3c f5 e6 e6 bc 4c 54 af 3c
       -0.0137971 0.0102523 -0.0281863 0.0214025
0000a0 d0 6a 1c bd 91 9b 40 bb 9b 87 dd bc f6 95 c7 bc
       -0.0381878 -0.00293896 -0.0270422 -0.0243635
0000b0 53 a2 d7 bb 28 52 0e bc a7 88 9d bb e0 1b 79 3c
       -0.00658063 -0.00868658 -0.00480755 0.0152044
0000c0 f9 61 29 bd d1 5c 04 bc ff 05 12 bf 0b 41 ce bd
       -0.0413532 -0.00807877 -0.570404 -0.10071
0000d0 cb 2d 9d 3f eb ac 56 3d 46 96 7c 3e 55 c1 34 3f
       1.22796 0.052411 0.246667 0.706075
0000e0 4f b0 2f 3e 81 22 8e be 6c 94 31 bf 05 14 ea 3e
       0.171571 -0.277607 -0.693671 0.457184
0000f0 9d d8 f3 be a3 c3 e8 3c 04 ad c8 bf 2e 72 2f 3e
       -0.476262 0.0284136 -1.56778 0.171334
000100 7c b5 43 be 1a 18 f1 be a4 f0 ea bc 91 47 c0 be
       -0.191122 -0.470887 -0.0286792 -0.375546
000110 c6 4d 3d 3e ab 09 2a 3f be 20 58 3c 24 d6 26 3f
       0.184867 0.66421 0.0131914 0.651705
000120 91 42 09 be c7 58 37 3d 21 cb 22 3d 61 52 84 be
       -0.134043 0.0447624 0.0397445 -0.258441
000130 32 02 3e 3f c8 97 88 be b3 07 fa 3d eb 1d 0e be
       0.742221 -0.266783 0.122085 -0.138786
000140 78 b8 6d be 5c e6 9c bf 75 1f 10 bf 9e 61 66 bf
       -0.232149 -1.22578 -0.56298 -0.899927
000150 3a 57 bc be 83 86 de 3f 8c 2f e2 be 72 81 b0 bc
       -0.367853 1.73848 -0.441769 -0.0215461
000160 5b 2e c1 bd d4 bd 29 3c a8 e2 06 be b3 9a 72 3f
       -0.0943267 0.0103602 -0.131724 0.947673
000170 6a 2f c2 3e d0 09 0d bf e0 f5 15 bf 6e 8a 07 bf
       0.379268 -0.550931 -0.585783 -0.529456
000180 51 72 3d bd 73 64 31 3f 9b 7b 63 3d f0 9a 0a ba
       -0.0462516 0.692939 0.0555378 -0.000528737
000190 1b f2 9f be 73 48 6a be 65 8f 30 be 45 f2 d5 bd
       -0.312394 -0.228792 -0.172422 -0.104466
0001a0 58 59 eb 3e d8 47 d7 3e 9d be 46 bf 69 8e 8c be
       0.459666 0.42047 -0.776346 -0.274524
0001b0 bd 55 4f 3f 51 a3 10 3e 88 b8 15 3f ad 4b 0d bd
       0.809902 0.141248 0.584847 -0.034496
0001c0 82 90 84 be e8 f5 57 be a8 1b 28 be d9 b4 2e 3f
       -0.258915 -0.210899 -0.164168 0.682447
0001d0 45 d6 5a bd 3d 48 cf 3d 4d a1 87 3f c2 16 4b be
       -0.053427 0.101212 1.05961 -0.198329
0001e0 a2 eb 02 be 6e db a7 3d 87 53 a6 be f8 16 f6 3e
       -0.127852 0.0819615 -0.324856 0.480644
0001f0 8d e4 3c 3d 5e 84 39 be 90 f5 10 bf 32 cb c6 be
       0.0461164 -0.181169 -0.566247 -0.388269
000200 14 92 74 3f 3c 88 41 bf 58 59 93 3e 6e 51 76 3e
       0.955354 -0.755985 0.287791 0.240545
000210 cd 95 91 3e b4 12 84 3d 5e b9 56 bf 98 16 c5 be
       0.284346 0.0644888 -0.838766 -0.384938
000220 a8 59 bb bc 12 c8 db 3c 1b bc 9f 3e 88 b8 f9 bc
       -0.0228699 0.0268288 0.311982 -0.0304835
000230 d9 94 5b be 65 37 a3 be e1 99 c0 be 76 c1 24 bf
       -0.214435 -0.318782 -0.376174 -0.643577
000240 c1 c9 86 3e e7 7d 52 bd 73 bb 17 3d 8a af c6 bd
       0.263258 -0.0513896 0.037044 -0.0970145
000250 15 1a 68 3f 87 d8 85 3c 03 79 a6 be 64 5a 6b 3e
       0.906648 0.0163386 -0.325142 0.229837
000260 0d fd 17 bf 8d dd 54 bd d7 dc f1 bd 03 b4 85 3e
       -0.593705 -0.0519691 -0.118097 0.261139
000270 68 cb 29 be 96 bc 10 bd d3 87 8e bf ce 1a 1c be
       -0.165815 -0.0353361 -1.11352 -0.152446
000280 7b a1 20 3f dc 5e f7 3c a8 c6 0b 3f 4c 35 17 3f
       0.627464 0.0301966 0.546 0.590657
000290 dd 7b 08 3f 13 9c 6a be 43 36 f5 bc cc 5d 2b bd
       0.53314 -0.229111 -0.0299331 -0.0418375
0002a0 d2 d3 91 3d 38 11 2d 3e 78 25 49 3d 0d 34 8f be
       0.0712048 0.169011 0.049108 -0.279694
0002b0 ea a2 52 bd f3 ae 62 3f 87 fa dd bc 66 a3 73 3e
       -0.0514249 0.885482 -0.027097 0.237928
0002c0 d6 01 d0 bd a1 2c ac 3e dd 22 d0 bd e5 09 b4 3e
       -0.101566 0.336278 -0.101629 0.351638
0002d0 32 3b fb be b8 c8 15 3f db 9d 3d bb c7 81 57 3e
       -0.490686 0.585094 -0.00289332 0.210456
0002e0 3c 66 e0 3e e6 77 1a bf 97 fd 1a 3f 95 93 da 3c
       0.43828 -0.603392 0.605432 0.0266817
0002f0 b0 72 74 bf 44 24 79 3c bd a8 fe 3b 9f 92 b3 3e
       -0.954875 0.0152064 0.00777158 0.350728
000300 ec a1 e5 3e bb 0c 3f 3e 1f c4 04 3d 96 eb ad 3e
       0.448501 0.186572 0.0324136 0.339688
000310 bf 4c 6f bc 44 7a 40 3d 7a 72 05 3f 2a 24 34 bd
       -0.0146057 0.0469916 0.521278 -0.0439798
000320 cc 9b 07 bf 46 99 b5 be cf 66 b5 bf 76 c1 98 be
       -0.529721 -0.354685 -1.4172 -0.298351
000330 81 78 a1 bf 12 d8 10 3f 66 7b be bc 51 4b 93 3e
       -1.26149 0.565797 -0.0232522 0.287684
000340 10 b3 03 3f 46 25 71 bf 90 66 c4 bf 52 d6 ef 3c
       0.514451 -0.941975 -1.53438 0.029277
000350 e5 98 c4 be 30 4b 9b be 06 a1 a4 3e 6c fe a9 bd
       -0.383979 -0.303308 0.321541 -0.0830048
000360 2c 10 3d bd fa b7 a3 3e 4c 1a e7 bf 54 72 0e 3f
       -0.046158 0.319763 -1.80549 0.556432
000370 c5 3b e0 be 0b ee 0f 3f d7 6a b7 be e1 f1 cd 3e
       -0.437956 0.562226 -0.358237 0.402236
000380 1b 03 3c bd 08 94 b5 3e 76 c1 60 bf e6 e8 85 bf
       -0.0459014 0.354645 -0.877952 -1.04617
000390 77 93 c9 bd 43 e5 e7 3e d3 a4 9c bf af 16 ae bd
       -0.0984258 0.452921 -1.22378 -0.0850042
0003a0 56 61 23 3e da ab 13 3f 83 18 78 3e 1b d9 cd 3e
       0.159551 0.576841 0.242281 0.402047
0003b0 31 b1 b9 3c 7c 45 f7 3c 01 33 bf be c5 d7 48 bd
       0.0226675 0.0301845 -0.373436 -0.0490339
0003c0 31 28 07 3f a0 17 26 bf 09 fa 0b be e5 ef e6 be
       0.527957 -0.648798 -0.136696 -0.451049
0003d0 05 69 96 bf 09 88 b1 3e ec de 8a bc 56 61 63 3f
       -1.17508 0.346741 -0.016952 0.888204
0003e0 ce 00 2f 3f d6 b8 c8 bc b0 ff da 3d 6e 8a 67 be
       0.683606 -0.0245022 0.106933 -0.226114
0003f0 41 29 8a 3e 52 d1 90 3e 4d 58 ee 3b 8c 2f da bd
       0.269846 0.282847 0.00727371 -0.106536

B2 f4 [50]
000000 ba 60 d5 bc 2b 33 75 bf ae 77 89 3d 66 ec 55 3d
       -0.0260471 -0.957812 0.0671228 0.0522274
000010 dd 23 4f bf f5 36 51 3d 68 cf e5 be 19 00 92 be
       -0.809141 0.0510778 -0.448848 -0.285157
000020 90 d7 47 3f e0 0a bd 3d d8 64 d5 3e ee 6b d3 bc
       0.780633 0.0923059 0.416785 -0.0258083
000030 bb 0f a8 be 3f fe 12 3f 9d d8 9b be e8 9f 98 3e
       -0.328245 0.574192 -0.304387 0.298095
000040 a5 a2 41 be e2 92 9f bf 21 b0 b2 bf f2 0c 4c c0
       -0.189097 -1.24667 -1.396 -3.18829
000050 ee e9 8a be 5c cb 54 be a4 e4 59 bf f2 5e 15 bf
       -0.271316 -0.207807 -0.851145 -0.58348
000060 9d 85 1f c0 84 1d 85 bd b5 ff 25 3f 9f 0a 93 bd
       -2.49253 -0.0649977 0.648433 -0.0717976
000070 42 07 01 bf 15 71 52 bf be 0e 01 bd ef 38 a9 3f
       -0.504017 -0.822038 -0.0315082 1.32205
000080 a0 f0 a3 bc 4a 24 91 3f 3f 1c 64 be 1d 71 c8 be
       -0.0200122 1.13392 -0.222764 -0.391488
000090 ee 77 34 3f 34 bd cc be 2a a9 f3 3f b7 4c a1 bd
       0.704955 -0.399881 1.9036 -0.0787596
0000a0 8f 33 72 3d b5 6d 7c bf a4 1b 05 bf 93 6f 0a 3f
       0.0591312 -0.986049 -0.519953 0.540765
0000b0 d9 ce bb bf 21 3b 8f be 31 42 c8 be 89 6c 56 bc
       -1.46725 -0.279748 -0.39113 -0.0130874
0000c0 4c c6 c1 be ca a4 36 bf
       -0.378466 -0.713452

W3 f4 [50, 50]
000000 cc 87 d6 bc 46 b3 0a bf c7 b8 82 be 6d fd dc 3e
       -0.0261878 -0.541798 -0.255316 0.431621
000010 71 ae f1 be 91 29 6f 3e 0e bf a3 be 55 bd 8c 3e
       -0.472034 0.233557 -0.319817 0.274882
000020 a6 df 84 bd fa 3d b6 3d d6 8f 69 bf b9 05 26 3c
       -0.0648797 0.0889854 -0.912351 0.0101332
000030 23 16 a1 be c3 9e f2 bf c6 c3 6b be 3c 6a 14 3f
       -0.314622 -1.89547 -0.230239 0.579746
000040 48 36 6b 3f 9d f7 77 bf 75 3b 63 bf 9a 5f a9 3f
       0.918797 -0.968622 -0.887626 1.32323
000050 a7 1f 7c 3f ff 04 9b bf 5f 0b 9a 3e 00 01 8b be
       0.984858 -1.21109 0.300868 -0.271492
000060 e9 60 a9 3f e0 67 b0 bf 4f 3f 38 3e 04 55 47 bf
       1.32327 -1.37817 0.179929 -0.778641
000070 9b 20 3e bf d4 b7 78 bf 1d af 10 3e 39 ee 44 3e
       -0.742685 -0.971555 0.141293 0.192315
000080 34 23 8d bc b0 1e 5f 3f 67 b5 50 be ac fe 78 be
       -0.0172287 0.871562 -0.203817 -0.243159
000090 2b 6b 1b be 41 48 16 3e 83 52 94 3e 7b 6a 75 3e
       -0.151776 0.14676 0.289692 0.239664
0000a0 f7 2f 1a bd 7d 05 95 bf 7b 11 21 3f e7 72 13 bf
       -0.0376434 -1.16423 0.629173 -0.575972
0000b0 97 8f 54 3f c7 63 9a bf 3e b3 ac bf 1b 5d af 3c
       0.830316 -1.20617 -1.34922 0.0214067
0000c0 85 40 4e be 07 d3 40 3e f0 e0 82 3b 26 19 05 c0
       -0.201418 0.188305 0.0039941 -2.07966
0000d0 ce 6d 0a 3f b3 5e a0 bf 47 ac a2 c0 13 b5 34 3f
       0.540738 -1.25289 -5.08353 0.705888
0000e0 ba 84 e3 3e 1b f5 90 3f 39 62 07 c0 c7 68 3d 3e
       0.444372 1.13248 -2.11537 0.18497
0000f0 59 fa 22 c0 a6 11 2e bd 33 6a fe be fd 4c 01 3f
       -2.54653 -0.0424973 -0.496904 0.505081
000100 0d a6 73 c0 56 d4 20 c0 61 e0 95 3f 8a 72 25 3f
       -3.80701 -2.51296 1.17091 0.646279
000110 d0 7c 42 bf 99 62 ce 3e 5f 29 83 bf 1e 1a 86 be
       -0.759717 0.403096 -1.0247 -0.261918
000120 8c 10 7a c0 0d fc 6c 3f 25 5d 13 be ca 34 6a 3e
       -3.90726 0.925721 -0.14391 0.228717
000130 e2 75 75 bf f8 e2 6b bf 2d b2 85 bf 9b 20 96 bf
       -0.95883 -0.921432 -1.0445 -1.17287
000140 9c f9 99 3f fe 26 b4 3e dc 82 05 3d 9e 29 c3 c0
       1.20293 0.35186 0.0325955 -6.09883
000150 0d c3 1f bf 45 0d b1 c0 a2 46 11 be 9a ce 3a c0
       -0.62407 -5.53287 -0.141871 -2.91886
000160 eb 39 e9 3d ce 34 75 bf e6 90 b9 bd 8d d1 c6 3f
       0.11388 -0.957837 -0.0906084 1.55327
000170 ae d8 4f c0 a3 3c 7f bf 2a a9 d3 3d b4 3e 25 3f
       -3.2476 -0.997019 0.10335 0.645488
000180 6d ff 06 bf 3f b3 7f bc 58 74 fb be 39 b8 28 3f
       -0.527335 -0.0156067 -0.491122 0.659061
000190 d0 fb 55 bd 2a 6f 77 3e 0e f3 19 3f ce c9 66 3c
       -0.0522421 0.241635 0.601365 0.0140862
0001a0 96 95 7e c0 55 6c 84 be a5 da 3f bf 71 c9 65 c0
       -3.97788 -0.258639 -0.74943 -3.59042
0001b0 5e f7 06 3e 00 53 ae be 36 1f d7 bd 6c 1e 4c 3d
       0.131803 -0.340477 -0.10504 0.0498337
0001c0 0c ae 81 3e 5f d0 8a be eb 72 5a be 75 75 4b 3f
       0.253281 -0.271121 -0.213329 0.794761
0001d0 35 0a d9 3e da 3b e3 bd 22 1a 81 3f 32 1c 13 3f
       0.423906 -0.110954 1.00861 0.574649
0001e0 a3 93 45 be 69 40 53 3d ec 33 2f 3f be 4b 49 be
       -0.192946 0.0515751 0.684386 -0.196578
0001f0 99 47 36 c0 a3 95 3f 3f 5f 0c 05 be fa 9c 9b 3e
       -2.84812 0.748377 -0.12993 0.303932
000200 2d 7a 73 3f 76 04 4b bc ab 04 4f bf 38 4b 29 be
       0.951083 -0.0123912 -0.808665 -0.165326
000210 7a ac 74 bc 9a 42 d4 c0 23 f3 74 3f a2 97 8d bf
       -0.0149337 -6.63313 0.956835 -1.10619
000220 3e cb 53 be 34 4b ae bf 2e fe f6 bd 3a e6 2c 3e
       -0.20683 -1.36167 -0.120602 0.168847
000230 9f 74 02 bf 3e e0 6b 3d 3e ea 7f bf 0f b6 20 3f
       -0.509592 0.0575869 -0.999668 0.627778
000240 b8 3f 23 3f 6a 13 b7 3f 6c 04 a2 bf be a7 2d bd
       0.637691 1.43028 -1.26576 -0.0423963
000250 18 23 0e bf 5c ab 1d 3f d0 91 c1 3c 7b 6b b8 3e
       -0.555223 0.615896 0.0236291 0.360195
000260 fe 2b f7 3f f3 3e f6 3e ed 2a 80 3f 46 94 16 bf
       1.93103 0.480949 1.00131 -0.5882
000270 55 87 90 3f aa f3 50 3f 83 bf 03 bf ec c2 9f be
       1.12913 0.816218 -0.514641 -0.312034
000280 6b 2d 0c 3f b6 36 e8 3c cb 83 cc 3e 3f 39 a2 be
       0.547568 0.0283464 0.399443 -0.316843
000290 31 41 16 b9 2b 34 14 bf d2 a6 ba be ea ae 08 3f
       -0.000143294 -0.578921 -0.364554 0.533919
0002a0 42 99 de 3e a2 b7 50 bf c7 66 97 be 5c 3d 93 3f
       0.434763 -0.815302 -0.295706 1.15031
0002b0 9d f6 28 bf 77 bf 16 3f 68 08 b7 be e5 b8 83 bf
       -0.660013 0.588859 -0.357486 -1.02908
0002c0 99 4b 0a be 1c 45 42 bf ca c3 1a 3f 76 e3 7d 3e
       -0.135054 -0.758867 0.60455 0.247938
0002d0 fe 61 3b 3e f3 dd 37 3d 9a 27 57 3a a0 4f 8c 3f
       0.182991 0.0448894 0.00082075 1.09618
0002e0 a8 00 e0 3e a0 c3 86 c0 31 5f 0e c0 b1 4f 20 3e
       0.437505 -4.21138 -2.22456 0.156554
0002f0 f8 6e fb be 5f 07 08 c0 26 36 2b 3f 09 ff ca be
       -0.491081 -2.12545 0.668795 -0.396477
000300 e1 d1 66 bf 96 06 2a bf ca 32 90 3f c2 2f 07 c0
       -0.90164 -0.664163 1.12655 -2.11229
000310 e7 ce 82 bd 33 c7 4d bc 9c a7 c6 3f 93 1b 29 bf
       -0.0638712 -0.0125597 1.55199 -0.660577
000320 a3 f6 11 3d a8 ac 3e bf 94 17 79 be 0a 67 27 be
       0.0356356 -0.744822 -0.243254 -0.163479
000330 7f de 8c be 2d 0a 7f 3f c9 e8 00 3f 9a b4 89 be
       -0.275135 0.996249 0.503552 -0.268956
000340 48 6f d8 3d 3f 1c 04 3e ee 5c d8 be 40 dc 35 3d
       0.105681 0.129014 -0.422584 0.0443995
000350 6e 81 b9 bd dc 9b 5f 3e 98 15 1a 3e de 20 2a 3f
       -0.0905789 0.218368 0.150473 0.664564
000360 18 0d 34 3d de b5 8f 3d 60 1e ea 3e 8e ae 32 3e
       0.0439578 0.0701711 0.457263 0.174494
000370 5b 5d 7a bf 91 29 5f be c7 2d 76 be 2c 02 6d 3d
       -0.977987 -0.217932 -0.240409 0.0578634
000380 f9 9d 66 3e 7d 3c f4 3d 20 ec dc 3e 46 ee 15 3f
       0.225212 0.119256 0.431489 0.585667
000390 1e a7 d0 be 66 10 3f be 15 e3 dc be 7f 6b 87 3e
       -0.407525 -0.186586 -0.43142 0.264492
0003a0 22 d1 ba b9 2b 35 db be 46 42 3b be 0c 1f 41 3f
       -0.000356325 -0.42814 -0.18287 0.75438
0003b0 74 99 2a 3e 81 21 c7 3f 29 5f 2b bd 43 19 9f bd
       0.166601 1.55571 -0.0418388 -0.0776849
0003c0 49 a1 e4 be df 32 07 3e c1 c5 4a be 2d cd 5d 3e
       -0.446543 0.13203 -0.19802 0.216603
0003d0 ab 04 3b be 8a 42 a6 bd ad da 41 bf 5e f9 27 3d
       -0.182635 -0.0811816 -0.757243 0.0410093
0003e0 84 28 44 bd 35 f1 36 3f df f8 9a 3c f0 0d cf ba
       -0.0478902 0.714618 0.0189175 -0.0015797
0003f0 a3 dd f2 bc 3c e5 47 bd 81 cb 48 bd c6 3a b0 3c
       -0.0296467 -0.0488026 -0.0490222 0.0215124

B3 f4 [50]
000000 2b da 6c 3f 6f 62 f8 3e 78 b3 4e bf 9b 20 0a c0
       0.925204 0.485126 -0.807426 -2.15824
000010 90 87 8e 3e ce cc 27 bc 58 73 cc 3f b2 9d 97 3f
       0.278378 -0.0102417 1.59727 1.1845
000020 c5 ae 95 3e 71 3d 82 3e e4 14 6d bf 9e 0c 8e bf
       0.292349 0.254375 -0.9261 -1.10976
000030 52 b8 ae bf e6 22 c6 3f 73 11 93 bf e6 96 2c c0
       -1.365 1.54794 -1.14897 -2.69671
000040 5a f5 89 3e 19 8f 02 bf 40 2d 2b bd dc ba 77 c0
       0.26945 -0.509996 -0.0417912 -3.87078
000050 21 60 68 bd e1 b8 94 3e 44 14 33 3f 73 67 26 be
       -0.0567323 0.290473 0.699528 -0.162504
000060 a1 db db bf 0f 97 b0 bf eb 27 82 bd 8b a6 9b bf
       -1.71764 -1.37961 -0.0635527 -1.21602
000070 66 d8 4d 3d ad fc ba be 4b 93 f6 bf 42 cf 8e bf
       0.0502552 -0.365209 -1.92637 -1.1157
000080 07 d0 7f be 49 11 55 c0 07 0c 46 bf fe 20 87 3d
       -0.249817 -3.32918 -0.773621 0.0659809
000090 6d 39 bb bf b0 c7 9c 3e 5f 2f a3 3d 5d 50 59 c0
       -1.46269 0.306211 0.0796802 -3.39553
0000a0 20 0d 2f bf 45 f0 01 c0 59 fa 0c c0 af e9 79 3f
       -0.683794 -2.03029 -2.20278 0.976222
0000b0 8c a3 da 3e 77 4a bf be 11 07 1f bd 54 57 40 40
       0.427029 -0.373615 -0.0388251 3.00533
0000c0 e3 a5 03 bf ed 2a 2c c0
       -0.51425 -2.69012

W4 f4 [50, 50]
000000 05 a5 24 bf 59 31 94 be 85 7d 1b be e9 e0 8f 3c
       -0.643143 -0.289439 -0.151846 0.0175633
000010 8e 02 00 bf 14 37 33 3d 55 a3 6b bf d7 e5 6f bc
       -0.500039 0.0437537 -0.920461 -0.0146422
000020 1b 4b 18 be 32 e3 52 bd f8 6d 6c 3f 1a 53 08 bf
       -0.148724 -0.0514862 0.923553 -0.532518
000030 44 f1 0f 3d 60 ab cc be 38 ee c9 bd 56 81 8a 3e
       0.0351422 -0.399745 -0.0985989 0.270518
000040 fc ab c7 be 0c 2e bc bd 61 9a 33 bc fb 3b 6b bf
       -0.389984 -0.0918847 -0.0109621 -0.918884
000050 71 4b 75 3c a2 85 bf 3d 1b e6 a5 3d 85 e9 07 3f
       0.0149716 0.0935166 0.0810053 0.530907
000060 f3 21 88 be c8 ea 16 be 3b 67 d5 bc 4e 61 55 3e
       -0.265884 -0.14738 -0.0260502 0.208379
000070 1f 9e 11 bf c7 d9 0c bf 2b dd 7d 3d 79 b1 20 3e
       -0.568819 -0.550198 0.0619785 0.156927
000080 cb 0f 7c be f3 93 7a 3e 1c 31 29 bd f1 67 28 3e
       -0.246154 0.244705 -0.0413066 0.164459
000090 ea 8d 5f bd f8 5d 07 3d ac 91 15 bf b6 f8 bf 3d
       -0.0545787 0.0330486 -0.584254 0.0937361
0000a0 72 4f c7 3e 93 80 22 bd 01 dc 6c bd a1 dc d1 3c
       0.389278 -0.0396734 -0.057827 0.0256179
0000b0 14 06 75 3e db 8a 1d bd 0a 48 1b bd ba d8 f4 3c
       0.239281 -0.0384625 -0.0379105 0.0298885
0000c0 6a 50 04 be e4 bd fa 3e fe d4 88 3f 85 7c c8 be
       -0.129213 0.48973 1.069 -0.391575
0000d0 22 e3 59 3f 02 2c c2 3e ce 26 36 3d 26 ab 02 bd
       0.851122 0.379242 0.0444706 -0.0319015
0000e0 b2 2d 63 3e 5f 46 b1 3f e4 4e d9 be f4 a5 f7 3d
       0.221854 1.38496 -0.42443 0.120922
0000f0 67 9b 9b 3f 23 86 7d 3e c7 f2 5e 3e c6 4d 35 bf
       1.21568 0.247582 0.217723 -0.708218
000100 5c 74 32 bc a6 9d e2 3e 29 3f 85 3f 2a e1 29 bf
       -0.010892 0.442609 1.04099 -0.663592
000110 c6 91 1d 3d 51 dc 81 3e b7 b8 02 3f 33 16 ad 3e
       0.0384691 0.253634 0.510631 0.33806
000120 0e 4a 14 3f a9 bf 4e 3e cb 80 43 bf 55 15 ca be
       0.579255 0.201903 -0.763684 -0.394694
000130 30 d5 6d 39 75 b1 39 be 7c d3 28 bf 6b f3 ff bd
       0.000226815 -0.181341 -0.659477 -0.124976
000140 7c f9 93 bc 52 ee 02 3f bc 24 3e be ae f4 1a 3e
       -0.0180633 0.511449 -0.185687 0.151324
000150 8c be 36 3f 9c 53 3d 3f 41 5f bf bd b6 5e bd bd
       0.713845 0.739557 -0.0934434 -0.0924658
000160 57 5b 81 bf 7a 0c b5 bd 62 cf a8 bc 6b d7 84 be
       -1.0106 -0.0884027 -0.0206067 -0.259456
000170 6a 6d 06 3f 61 ff ad be 9b 54 bc 3e a3 73 2e be
       0.525107 -0.339839 0.367833 -0.170363
000180 10 79 0b bd 48 31 04 bf 1b 83 ae 3d 42 d1 b4 3e
       -0.034051 -0.516377 0.085211 0.353159
000190 d8 28 eb bc ea 63 19 bd 91 16 3d bd 45 d5 cf 3d
       -0.028706 -0.0374488 -0.0461641 0.101481
0001a0 37 e0 f3 3d 4e 3a 1b bd 9f 76 38 3e 55 68 b8 3e
       0.11908 -0.0378974 0.18014 0.360171
0001b0 d4 4d 7d 3d 6c 26 1f be c0 92 2b 3e 1d ed 93 bc
       0.0618418 -0.15542 0.167552 -0.0180574
0001c0 f4 17 6a be e0 2b e2 be a9 83 1c 3d fd 4b 62 3e
       -0.228607 -0.441741 0.0382115 0.220993
0001d0 54 74 58 3f fe f3 04 bf ca 91 0a 3c 8a 58 34 be
       0.845525 -0.519348 0.00845761 -0.176119
0001e0 09 81 26 3d 5e a1 1f 3e f5 a2 fe 3e 7b 2d 08 3e
       0.0406504 0.155889 0.497337 0.132986
0001f0 7a 8a 30 bf 0e f6 06 3e a8 90 eb 3c b6 bd fd bd
       -0.689613 0.131798 0.0287555 -0.123897
000200 bc 7a d5 3d 19 30 92 bc e1 0c 1e 3e 1f 47 93 3d
       0.104238 -0.0178452 0.154346 0.071913
000210 88 90 a9 3d 27 14 02 be be 12 08 3c ad 4f a1 3e
       0.0827952 -0.12703 0.00830525 0.315061
000220 28 9b d2 bd 1b bd ca be ec 30 a6 bd 0d e0 07 c0
       -0.102835 -0.395974 -0.081148 -2.12305
000230 53 96 b1 3e 85 25 00 c0 fa 5f 16 bf 30 69 07 bd
       0.34685 -2.00229 -0.587402 -0.0330593
000240 48 30 ba bd c9 e7 f5 bd c6 e7 04 bd 47 43 61 bd
       -0.0909124 -0.120071 -0.0324476 -0.0549958
000250 18 0a 38 3e dc 07 25 3d e3 a5 92 c0 fd 84 b3 3e
       0.179726 0.0402907 -4.58275 0.350624
000260 4f 20 ac bc b4 b0 3f c0 e9 0e ae 3f 09 80 3b bd
       -0.0210115 -2.99516 1.35983 -0.0457764
000270 7a 70 c3 bf 35 d4 58 be d6 36 cd 3e c9 b0 92 3f
       -1.52687 -0.211747 0.400809 1.14602
000280 30 0d 03 c0 09 8a a4 40 d4 49 96 3e 61 4f 8f bf
       -2.04768 5.14185 0.293532 -1.11961
000290 9b 5a 1e c0 f7 1e c2 bf ac 8b 93 bf e2 58 7f bf
       -2.47428 -1.51657 -1.1527 -0.99745
0002a0 aa b4 aa bc 4e 0a 07 3f e4 2c c8 3f 94 f8 dc be
       -0.0208381 0.527501 1.56387 -0.431584
0002b0 d6 ff 89 bf b9 39 51 3f 2d 27 91 be 22 8e 21 c0
       -1.07812 0.817287 -0.283502 -2.5243
0002c0 62 dc 68 3c 21 93 af c0 e7 00 13 c0 a4 c2 bc 3f
       0.0142127 -5.48671 -2.29693 1.47469
0002d0 7f 2e f2 3e 39 f1 fd be 64 e9 0d c0 cb be fb 3f
       0.473011 -0.495981 -2.21737 1.96676
0002e0 52 61 2e c0 b3 d2 bc bf 28 d4 13 3f 4c 18 79 bf
       -2.72469 -1.47518 0.577456 -0.973027
0002f0 d6 c5 a6 c0 1a 03 c6 bc b0 38 b0 bf 30 f5 93 3f
       -5.21165 -0.0241714 -1.37673 1.15592
000300 18 ec 82 bf 8b c0 a8 be 00 58 49 bf 85 d1 8c be
       -1.02283 -0.329594 -0.786499 -0.275036
000310 6d 04 1d 3d 60 39 6a bf 0e f4 7c bf 4a 29 a0 3f
       0.0383343 -0.914938 -0.988099 1.25126
000320 47 e6 95 3f 8e 06 9c 3f 24 29 b1 3e e8 31 1a 3e
       1.17109 1.21895 0.346017 0.150581
000330 ea 3f 4b bf bb ce 2b 3c ea 20 53 3f f9 64 ad 3e
       -0.793944 0.0104863 0.824721 0.338661
000340 01 13 84 bf 66 88 2b 3f c5 57 03 3f 24 9c b6 c0
       -1.03183 0.67005 0.513058 -5.70656
000350 7a df 00 3f 42 7a 8a 3e aa 8d 7b bd 06 67 00 3f
       0.50341 0.270464 -0.0614144 0.501572
000360 8b 6b 14 3f 7c 98 e5 3e 80 d6 3a 3b f7 c7 0b be
       0.579766 0.448429 0.00285092 -0.136505
000370 cf ff 81 bd b7 d3 3e bf 31 7b 81 be ab 3d 1c 3f
       -0.0634762 -0.745418 -0.252893 0.610316
000380 8e 40 16 40 e0 72 2b bc d1 24 11 bd 76 c0 bd be
       2.34769 -0.0104644 -0.0354355 -0.370609
000390 07 b6 9a be 8f 6d 99 be be bf d9 3e 99 64 54 be
       -0.30217 -0.299664 0.425291 -0.207415
0003a0 07 29 90 be 38 9f 2a bf b8 5a 77 3e 9d 84 26 3f
       -0.281563 -0.666492 0.241557 0.650461
0003b0 36 b0 f5 3d 86 01 7b bf 48 31 08 3f f9 10 20 bf
       0.119965 -0.980492 0.532002 -0.625259
0003c0 97 54 d5 be 1f 0f 7d 3f aa 43 82 bf 11 35 01 3e
       -0.416661 0.988512 -1.01769 0.126179
0003d0 c2 34 3c 3e 39 34 1b bd 4b b6 15 3d f5 db 3b bf
       0.183795 -0.0378916 0.0365508 -0.733825
0003e0 40 de 83 3e 15 72 11 3f ea 24 8b 3e 66 17 67 3d
       0.257555 0.568147 0.271766 0.0564188
0003f0 66 84 d7 3d 87 a5 22 bb b0 ff b2 3e 5b 31 12 3d
       0.105233 -0.00248179 0.349607 0.0356916

B4 f4 [50]
000000 e1 09 79 3f 5c 77 1f c0 ec a4 4e 3e 35 63 85 bf
       0.972807 -2.49166 0.201801 -1.04209
000010 38 db 80 3f d3 a4 6c bf 21 51 cd bc 9e 7d ed 3e
       1.00669 -0.92439 -0.0250631 0.463849
000020 c9 3e 40 3f f6 79 5c 3e 1c b1 e2 bf 05 c0 84 3f
       0.750958 0.215309 -1.77103 1.03711
000030 b8 92 05 c0 2d 43 e4 3f 54 22 64 bc 01 88 9b 3e
       -2.08708 1.7833 -0.0139242 0.303772
000040 d0 7b 1b bf d0 f2 d0 3f d5 ec 41 3f d3 4c 97 be
       -0.607358 1.63241 0.75752 -0.295508
000050 26 e5 46 bf 0f ee ae 3f 10 ae 6c 3f 9f cd 4c c0
       -0.776934 1.36664 0.924531 -3.20005
000060 01 50 ed 3e e0 2b 66 bf 0d fd 9f 3f d1 07 83 3e
       0.463501 -0.899107 1.24991 0.255919
000070 6e f9 40 3f 38 4a a2 3f e7 8b ad 3e 13 b5 2c 3f
       0.753806 1.26789 0.338958 0.674638
000080 aa 7d b6 bf 28 0f c3 bf 8f a5 7f 3e d9 5a fb bf
       -1.42571 -1.5239 0.249655 -1.96371
000090 e8 dc cd 3d 94 4d c9 3f ba a3 df 3d db fc 3f 3e
       0.100519 1.57268 0.109199 0.187488
0000a0 b3 29 8f bf a5 14 10 bf fc 8c 11 c0 26 fc fa bf
       -1.11846 -0.562815 -2.27423 -1.96082
0000b0 d1 96 cb be 81 cd e9 3e b8 78 28 3e 8a af 76 3f
       -0.397635 0.456646 0.164523 0.963616
0000c0 3f 1a 96 be ee 5f 0d c0
       -0.293169 -2.20898

W5 f4 [50, 50]
000000 f0 dc 2b 3e fd 02 80 bd e2 50 a4 3d 06 4e 0f 3c
       0.167835 -0.0625057 0.0802324 0.00874663
000010 12 e9 6d bc 5f 2c ca ba 2b 04 e8 3c 42 c1 b9 3b
       -0.0145209 -0.00154246 0.0283223 0.00566879
000020 a1 84 89 3d d0 b5 2f bd b5 5f 98 3d cc 5e d6 3d
       0.0671475 -0.042898 0.0744013 0.104673
000030 f6 47 a3 bd a6 91 b0 3d 98 1c d2 bc 98 a5 9d 3e
       -0.0797271 0.0862153 -0.0256484 0.307904
000040 98 2f cf 3d d2 80 cb 3c f1 67 38 be 8c d7 9c bd
       0.101165 0.0248417 -0.180084 -0.076583
000050 9c b6 80 bd 36 1d 61 bd 56 80 ad bb 38 50 bb 3b
       -0.0628483 -0.0549595 -0.00529484 0.00571635
000060 9e b4 10 bd 46 34 0f bc b2 b2 22 bc 6f a5 32 3d
       -0.0353285 -0.00874049 -0.0099303 0.0436148
000070 ad 51 7f be 6f 11 28 be 90 a3 d9 3d f5 2d d3 bd
       -0.249335 -0.164129 0.106269 -0.103115
000080 9b 37 ce 3d d3 b1 54 3d a9 0c ca bb 02 8e 14 3c
       0.100692 0.0519274 -0.00616606 0.00906706
000090 c0 fb 94 3d d3 16 07 3e d9 99 e2 3d bb 21 12 3d
       0.0727458 0.131923 0.110645 0.0356767
0000a0 0e 3e 9e bd b3 67 6a bd 97 c8 85 bc a3 b0 cb bd
       -0.0772668 -0.0572278 -0.016331 -0.099458
0000b0 a2 eb 32 3e a1 47 31 3c c6 ea 45 3d b4 3c 8f 3c
       0.174727 0.0108203 0.0483196 0.017485
0000c0 5d c8 7e bd ff a2 3a bd 79 3b 86 bf 78 ee a1 c0
       -0.0622028 -0.0455656 -1.04869 -5.06036
0000d0 3a ec 99 3c 69 ab 92 bd bf 9d e4 3d 35 79 8a be
       0.0187894 -0.071616 0.111629 -0.270456
0000e0 25 b7 41 3d d0 ec da 3d d5 a9 d7 bc 01 4c 09 be
       0.0472938 0.106897 -0.0263261 -0.134079
0000f0 f0 89 d5 3d dc 29 82 bd 97 d7 9d 3a 0f 31 74 3d
       0.104267 -0.0635564 0.00120424 0.0596171
000100 b5 f6 63 bc 0d a4 c0 bd 57 60 b8 be ef 25 08 3d
       -0.0139138 -0.0940629 -0.36011 0.0332393
000110 8b 53 0d 3d df fd a9 be 3c d6 b1 bc 04 89 92 bc
       0.0345035 -0.332015 -0.0217086 -0.0178876
000120 ea 7b bd bd f9 09 ac bd b1 d9 96 3d 3e 6f 34 3d
       -0.0925215 -0.0840034 0.0736574 0.0440514
000130 09 8e 96 bd d1 ea 84 3d 80 66 6f 3b d3 da 74 be
       -0.0735131 0.064901 0.00365296 -0.239116
000140 e5 29 ab 3c 9d be de bd 6c 8d 82 bd 0c 77 ce 3d
       0.020894 -0.108762 -0.0637463 0.100813
000150 7b 2a 0c 3d 2f 55 44 bc 7e 1e 8b 3e 7d 23 0a be
       0.0342202 -0.0119832 0.271717 -0.134901
000160 8c 2f 1a 3e 3e 42 b8 bd da e4 f0 3d 58 62 12 3c
       0.150572 -0.0899701 0.117624 0.00893458
000170 47 d1 fb bb 46 cd 57 3c a2 45 ba 3f f0 df 1c be
       -0.00768486 0.0131715 1.45525 -0.153198
000180 3f b0 be bc 58 9a 4a 3d 5d f9 84 be 01 c9 9f bd
       -0.0232774 0.0494636 -0.259715 -0.0780201
000190 5f 8c 72 bd 13 b7 0e 3f 33 e4 b3 bc bb 0e 55 be
       -0.0592159 0.557481 -0.0219594 -0.208064
0001a0 4b c8 13 3f 97 74 08 bf 2b d7 c0 3c 0a 9e 12 3e
       0.577275 -0.533029 0.0235401 0.143181
0001b0 ea 9e ab 3c e2 c6 ce bb df 69 b7 3d bb 5e 2a 3e
       0.0209498 -0.00631033 0.0895574 0.166377
0001c0 36 21 cd be cf 4e 8e bf ee f3 0e bd 1a f7 e6 bd
       -0.400644 -1.11178 -0.0349006 -0.112776
0001d0 62 ba 38 3f 68 d5 42 bc a0 b0 7a 3d 29 3c 18 3f
       0.721594 -0.0118917 0.0612036 0.594668
0001e0 ac c6 92 be c6 a2 e9 bd e4 5c 94 bd 16 a6 cf bd
       -0.286672 -0.11408 -0.0724428 -0.101391
0001f0 8c bc 6c be 37 8a b4 be 95 9c 9b be 31 27 98 3e
       -0.231188 -0.352617 -0.303929 0.297174
000200 3d a5 3d 3b 48 93 c1 bd b2 a0 20 3e af 78 da be
       0.00289376 -0.0945192 0.156863 -0.426702
000210 07 45 73 be e8 dc 0d 3e b6 d7 e2 3d 99 7e 89 3e
       -0.237568 0.138538 0.110763 0.268544
000220 6c 5e 35 be 83 52 54 3e a9 43 38 3d 22 1b 08 be
       -0.177118 0.207346 0.0449864 -0.132916
000230 d7 95 65 bd d8 f2 4a be 30 d9 78 bc 67 54 8f bd
       -0.0560511 -0.198192 -0.0151885 -0.0699852
000240 d3 c1 ee 3f 39 9a a3 be 45 64 88 3e 11 73 49 3c
       1.86529 -0.319536 0.26639 0.0122955
000250 25 ca 6e 3e 7f 67 9b be 61 5c a0 bd 5a ac 57 bd
       0.233193 -0.303524 -0.0783012 -0.0526546
000260 c5 c8 02 be 31 d3 a6 bf fc 9e 20 3c 7b 8f 09 3d
       -0.127719 -1.30332 0.00980353 0.0335841
000270 fd 27 24 bc a7 94 47 be d3 74 9c bd 80 0d 90 be
       -0.0100193 -0.194903 -0.0763947 -0.281353
000280 f2 38 b6 3d b0 72 68 3e 6a 72 0c 3d 0c 01 88 3e
       0.0889758 0.227 0.0342888 0.265633
000290 83 6b 0e 3d 4b 53 b9 3d cf f3 17 3e 53 f2 85 bd
       0.0347705 0.0904909 0.148391 -0.0654036
0002a0 24 b9 97 bc 8a 56 3a 3f 56 bb 06 be 00 58 3d be
       -0.0185209 0.727883 -0.131574 -0.184906
0002b0 ee 26 88 be 14 96 cc bf 8f df a7 bf 67 9c 56 3e
       -0.265922 -1.59833 -1.31151 0.209581
0002c0 41 61 b0 bd 37 1b 1b be e0 62 4a bd 6b 16 43 3d
       -0.086123 -0.151471 -0.0494107 0.0476288
0002d0 cd ca d6 3e 6b 48 1c 3e 96 be 23 bc 6d ca 05 3e
       0.419516 0.15262 -0.00999417 0.130655
0002e0 4c 89 64 3d ca f9 e2 bd 8f a9 0b 3f 81 b4 b7 be
       0.055795 -0.110828 0.545556 -0.358799
0002f0 77 d6 e6 bf 1f e9 5d bd 53 e8 5c bd 04 2d ee bb
       -1.80342 -0.0541774 -0.0539325 -0.00726855
000300 df 84 87 3d 37 a6 a7 be fb af 43 3e 2b a5 77 3e
       0.0661714 -0.32744 0.191101 0.241841
000310 8f 7e a5 3d 62 87 f1 bd b0 74 0e be 12 d2 24 bd
       0.0808078 -0.117934 -0.139117 -0.0402394
000320 02 6d 26 3d 5e da 10 be 71 e8 5d be bb 8e 92 bd
       0.0406313 -0.141458 -0.216707 -0.0715613
000330 c1 fc 8a 3d 0b 6a 0d bb 61 7c 07 3d e0 37 b4 3d
       0.0678649 -0.00215781 0.0330776 0.0879972
000340 fe bd 6f 3d f5 2c e8 bd a4 a9 5e be b1 f7 02 3e
       0.0585308 -0.113367 -0.217444 0.127898
000350 ca 70 97 ba a4 77 80 3d 10 96 2c bd fc 43 49 bd
       -0.0011554 0.0627282 -0.0421353 -0.0491371
000360 89 34 00 bd 2c 42 18 bc df 7b c9 3c ca a7 17 3e
       -0.0313001 -0.00929312 0.0245952 0.148101
000370 75 c8 4d bb 6f 22 a4 3d 73 d6 27 3c 04 37 f2 bd
       -0.00314 0.0801438 0.010244 -0.118269
000380 f7 6c 42 bc 73 d5 5c 3e 94 e4 78 3a 27 28 6a bc
       -0.0118668 0.215658 0.000949451 -0.0142918
000390 6d 99 82 3c 8d a9 a5 3d 4d 30 1c 3e 8b 90 a5 bd
       0.0159423 0.0808898 0.152528 -0.0808421
0003a0 f3 aa 53 bd a3 e0 ce 3c 83 c4 d1 b8 59 6f 2f bc
       -0.0516767 0.0252536 -0.000100025 -0.0107077
0003b0 e7 53 17 be 5d 32 86 be 65 39 91 be cb ca e5 3b
       -0.147781 -0.262103 -0.283641 0.0070127
0003c0 5c 17 b3 bd 35 66 ad bc c6 80 71 bd ad 51 aa bc
       -0.0874469 -0.0211669 -0.0589607 -0.0207909
0003d0 16 df 90 be 05 a4 dd 3d 22 92 7c 3c 89 95 d1 3c
       -0.282952 0.108223 0.0154157 0.025584
0003e0 74 07 91 3e a6 0a 26 bd 67 dc 0f bd 8a 63 b3 3d
       0.28326 -0.0405375 -0.0351223 0.0875922
0003f0 79 ba e7 3b 3a 51 79 bb 38 cc 04 3c be 66 b9 bc
       0.00707179 -0.00380428 0.00810533 -0.022632

B5 f4 [50]
000000 28 d1 12 bd 80 49 ca 3e 8a 74 4f 3f 55 2e 1c bf
       -0.035844 0.395092 0.810372 -0.610082
000010 d4 d7 9b 3e 5a 63 98 3e 53 76 a2 be f5 2c 18 3f
       0.304381 0.297633 -0.317309 0.594436
000020 bd 00 f3 be 69 9e 2d bd 51 d9 10 be f4 6a 14 bf
       -0.474615 -0.0423874 -0.141454 -0.579757
000030 1e dd d8 3e e5 0a 07 40 c6 29 94 3d f6 c3 be 3b
       0.423562 2.11004 0.0723453 0.0058217
000040 82 ca 0e c0 98 19 16 be bd 8f e3 3d d6 39 7a 3f
       -2.23111 -0.146582 0.111114 0.977445
000050 e6 08 09 3e 16 4b a1 bd 03 88 31 bd d6 48 5c 3c
       0.133823 -0.0787565 -0.0433426 0.0134451
000060 cd 5b d5 bd 24 5a d7 3c c9 90 23 3f c7 a1 a6 3e
       -0.104179 0.0262881 0.638928 0.325453
000070 9c 6c 4b bf 32 77 1b 40 10 75 8f bf 7e c6 a9 bf
       -0.794626 2.42915 -1.12076 -1.32637
000080 b6 f3 75 bf a3 e9 c8 3f b0 28 9b 3d 86 21 ba 3e
       -0.96075 1.56963 0.0757612 0.363537
000090 18 43 81 bf 1a 53 2c bf 8e 2f 10 3d 2b 4e dd be
       -1.00986 -0.673143 0.0352016 -0.432237
0000a0 56 9e 10 3f 32 e6 ce 3d f4 1a e7 bf 12 4d 80 be
       0.564916 0.101025 -1.80551 -0.250588
0000b0 70 d2 64 3f e9 b8 a2 be 22 17 fc 3d 5c ac 80 3e
       0.893836 -0.317817 0.123091 0.251315
0000c0 36 c9 a7 be 7e 52 e5 bf
       -0.327707 -1.79158
