data/acasxu/nets/ACASXU_run2a_3_7_batch_2000.onnx (onnx, 53878 bytes, 14 tensors)

W0 f4 [50, 5]
-0.0192248 -0.236551 0.0856924 0.200317 0.271468 -0.831308 -0.0228881 0.00429791
0.0215723 -0.0241813 0.0957709 -1.45745 0.0540406 0.520521 -0.568239 0.00270354
-2.17045 2.28358 -0.33347 0.477844 0.261472 2.15523 -2.31095 0.295295
-0.827088 -0.000596261 0.00294319 0.0283136 0.00391705 0.00083806 0.0636014 -0.962529
1.47521 0.229052 -0.303901 -0.0464169 0.5871 -0.271994 -0.343503 0.470977
-0.0763251 1.52615 0.0498472 0.0396683 -0.738197 -0.158969 -1.13156 1.59018
-0.190519 0.468766 0.0542527 1.64416 0.434108 0.986632 -1.17364 -2.41323
-0.00434527 -0.0055336 -0.038302 -0.0189904 0.00207077 1.80746e-05 0.00793977 0.0259361
-0.00196897 -0.404558 2.13811 -2.10553 -0.109826 0.505237 0.059818 0.672565
0.232728 -0.379388 0.195361 -0.152746 2.45822 -1.65199 0.194936 -0.799001
0.0340706 0.220598 -0.301466 0.0148213 0.29602 -0.00101912 -0.730161 -1.2083
-0.258133 0.188973 0.0386523 0.307222 1.21872 -0.1087 0.0959046 0.0576233
-1.22319 1.08755 -0.214284 0.368127 -0.0656038 -0.993323 0.845491 0.123455
-0.368917 0.0582329 0.0176986 0.0468038 -0.125637 -1.45639 -0.0249657 1.40909
0.964315 -0.194149 0.765758 0.146626 1.5292 -1.57311 -0.310598 0.534765
0.067069 0.136367 -0.152774 -0.0514448 -0.216232 0.0827161 0.125886 0.209126
-0.297228 -0.0835105 0.092766 -0.451734 -0.0102195 -1.30673 0.175244 0.143881
0.0140977 0.311678 0.371955 -0.38866 0.243149 -0.200708 2.38433 0.325547
-0.0378334 1.50567 0.0102077 0.0146551 0.00457299 0.0639517 -0.0959561 0.302123
0.0460841 0.071701 0.0199826 0.0144506 0.190944 -0.132193 0.449135 -0.455585
0.135702 -1.36703 -0.31247 0.216897 -0.0749274 0.104035 2.45557 -0.0396492
0.619857 -0.742374 -0.00959835 0.857224 0.921071 0.653747 -0.150781 0.527534
-0.459514 0.526059 -0.277562 0.248028 0.0602422 -0.619377 1.04483 0.0424991
0.285455 -0.0314788 0.0361145 -0.793038 0.120974 -0.076952 -0.414617 2.10311
-2.16629 -0.243224 0.656098 0.194064 1.66816 -1.23148 0.115517 0.0835524
-0.0325304 0.331361 -0.832915 -0.279113 -0.799415 0.210364 -0.139827 0.143303
-0.0059344 -0.234224 0.366309 1.93258 0.0844209 0.320295 -0.103844 0.33776
1.36725 -1.86454 0.15427 -0.22728 -0.00670381 -0.584509 -0.406907 0.863706
-0.96987 -0.0972164 0.942324 0.799793 -0.600385 0.151126 0.0115294 -0.554339
-0.792849 -0.96283 1.01621 -0.115406 1.54142 2.18477 0.106084 -0.0504861
0.26701 0.718495 -0.523112 -0.382229 0.377785 8.26039e-05 -0.000200497 -0.0035075
-0.0236127 -0.00617684
00000000: 547d 9dbc 6d3a 72be 7f7f af3d e61f 4d3e
00000010: dbfd 8a3e 9ad0 54bf d37f bbbc 7bd5 8c3b
00000020: 64b8 b03c dd17 c6bc 8923 c43d b98d babf
00000030: ad59 5d3d dd40 053f 1c78 11bf e02d 313b
00000040: a7e8 0ac0 2d26 1240 94bc aabe f8a7 f43e
00000050: a8df 853e 4aef 0940 9be6 13c0 e830 973e
00000060: 0abc 53bf 664e 1cba 89e2 403b ecf1 e73c
00000070: 995a 803b 41b1 5b3a 7341 823d 4d68 76bf
00000080: aed3 bc3f 9c8c 6a3e e998 9bbe a61f 3ebd
00000090: 304c 163f cc42 8bbe a0df afbe e623 f13e
000000a0: 5650 9cbd e258 c33f 942c 4c3d 3a7b 223d
000000b0: 7bfa 3cbf c5c8 22be f5d6 90bf 058b cb3f
000000c0: 6a17 43be 1902 f03e 1438 5e3d d673 d23f
000000d0: 6743 de3e ea93 7c3f d639 96bf 5c72 1ac0
000000e0: c462 8ebb 3453 b5bb 8fe2 1cbd c191 9bbc
000000f0: c1b5 073b e89e 9737 cf15 023c f277 d43c
00000100: d609 01bb 3a22 cfbe cbd6 0840 01c1 06c0
00000110: 74ec e0bd 3657 013f b803 753d 382d 2c3f
00000120: 4050 6e3e 253f c2be b70c 483e 7369 1cbe
00000130: 7a53 1d40 6974 d3bf 4e9d 473e 548b 4cbf
00000140: 9d8d 0b3d 71e4 613e c059 9abe 0ad5 723c
00000150: ef8f 973e fe93 85ba d5eb 3abf 93a9 9abf
00000160: 022a 84be 2382 413e e051 1e3d 344c 9d3e
00000170: 04ff 9b3f 1b9e debd a269 c43d 6906 6c3d
00000180: 7d91 9cbf d734 8b3f 446d 5bbe 247b bc3e
00000190: 495b 86bd 6b4a 7ebf 1972 583f fad5 fc3d
000001a0: b0e2 bcbe 9f85 6e3d a8fc 903c 57b5 3f3d
000001b0: fca6 00be fd6a babf de84 ccbc 105d b43f
000001c0: 59dd 763f ffce 46be b708 443f 2025 163e
000001d0: d3bc c33f ab5b c9bf b306 9fbe 5ce6 083f
000001e0: 795b 893d caa3 0b3e ca70 1cbe c8b7 52bd
000001f0: ec6b 5dbe 0f67 a93d 42e8 003e 2025 563e
00000200: 452e 98be 8e07 abbd 1afc bd3d ae49 e7be
00000210: b16f 27bc ee42 a7bf 2a73 333e 8a55 133e
00000220: 0afa 663c 4294 9f3e e370 be3e 72fe c6be
00000230: 0dfc 783e 6686 4dbe dd98 1840 19ae a63e
00000240: 32f7 1abd cbb9 c03f 323e 273c f21b 703c
00000250: 05d9 953b 1cf9 823d a284 c4bd deaf 9a3e
00000260: aec2 3c3d f9d7 923d 8db2 a33c 36c2 6c3c
00000270: d386 433e 9a5d 07be 06f5 e53e 7042 e9be
00000280: 77f5 0a3e d7fa aebf 11fc 9fbe 3f1a 5e3e
00000290: 8973 99bd 4d10 d53d 0f28 1d40 3367 22bd
000002a0: f3ae 1e3f 390c 3ebf 6642 1dbc 0873 5b3f
000002b0: 4fcb 6b3f f75b 273f 5666 1abe 780c 073f
000002c0: 6b45 ebbe cdab 063f 9b1c 8ebe 0dfb 7d3e
000002d0: 86c0 763d 7e8f 1ebf fdbc 853f 8913 2e3d
000002e0: 2827 923e eaef 00bd ccec 133d 8a04 4bbf
000002f0: 37c1 f73d 0399 9dbd ae48 d4be 5b99 0640
00000300: 7fa4 0ac0 b60f 79be 0af6 273f b7b8 463e
00000310: 4486 d53f 23a1 9dbf 2d94 ec3d 851d ab3d
00000320: 993e 05bd 26a8 a93e eb39 55bf e6e7 8ebe
00000330: 76a6 4cbf a969 573e cf2e 0fbe 06be 123e
00000340: 5b75 c2bb 6bd8 6fbe da8c bb3e c85e f73f
00000350: dde4 ac3d b5fd a33e 2aac d4bd e1ee ac3e
00000360: 0c02 af3f 3fa9 eebf f4f8 1d3e 17bc 68be
00000370: a2ab dbbb 62a2 15bf 1d56 d0be d61b 5d3f
00000380: 6649 78bf 6419 c7bd 253c 713f 3cbf 4c3f
00000390: d5b2 19bf c6c0 1a3e cfe5 3c3c 29e9 0dbf
000003a0: 27f8 4abf 077c 76bf 2b13 823f fb59 ecbd
000003b0: 404d c53f 46d3 0b40 9142 d93d 83ca 4ebd
000003c0: 89b5 883e 4aef 373f abea 05bf 85b3 c3be
000003d0: 096d c13e a23b ad38 813c 52b9 16de 65bb
000003e0: 6c6f c1bc 1767 cabb

B0 f4 [50]
0.0431272 -0.0401916 -0.0585449 -1.0055 -0.477324 -0.020929 -0.323109 0.114672
-0.200925 -0.255762 -0.154282 -0.370077 -0.020573 -0.618581 -0.218585 -0.0791463
0.0769122 0.102669 0.00705174 -0.371219 -0.103562 -0.602158 -0.0181815 -0.707295
0.0436356 -0.0939766 -0.345696 0.122867 0.115288 0.441991 0.0424874 0.113828
0.0938446 -0.219265 -0.0453555 0.112696 -0.31325 0.0477372 -0.304823 -0.467416
-0.413897 0.00173897 0.0511982 0.151261 -0.0639235 0.00237467 0.107278 0.180653
-0.155859 -0.019312
00000000: 26a6 303d f29f 24bd c7cc 6fbd 39b4 80bf
00000010: d063 f4be 4b73 abbc 8b6e a5be 27d9 ea3d
00000020: 48bf 4dbe 3df3 82be 1afc 1dbe bc7a bdbe
00000030: b588 a8bc 535b 1ebf bfd4 5fbe 7517 a2bd
00000040: 2584 9d3d 2044 d23d 4812 e73b 6b10 bebe
00000050: 5018 d4bd 0727 1abf 5ef1 94bc 4911 35bf
00000060: 3ebb 323d ce76 c0bd 11ff b0be b2a1 fb3d
00000070: 1d1c ec3d a54c e23e 4507 2e3d a81e e93d
00000080: 9931 c03d 0187 60be b0c6 39bd 29cd e63d
00000090: 4e62 a0be 1588 433d c311 9cbe 2651 efbe
000000a0: 4fea d3be 27ee e33a 34b5 513d 2ae4 1a3e
000000b0: 53ea 82bd 5aa0 1b3b 91b4 db3d 1afd 383e
000000c0: 8099 1fbe 3334 9ebc

W1 f4 [50, 50]
0.471634 0.0339394 -0.0532099 -0.248636 0.326486 -0.011214 0.497731 -0.997161
0.225809 -0.16954 0.623043 0.288123 0.0325422 0.438228 1.34113 0.0474246
0.107065 0.093247 1.02917 -0.36737 0.295542 0.0358282 0.211802 0.966555
0.337831 0.960601 0.439727 -0.328952 -0.403899 0.266179 -1.66197 -2.23843
0.429359 0.123794 0.357221 -0.322002 -0.758689 -0.702149 0.021418 0.163145
0.292694 -0.443497 -0.584108 -0.237824 -0.978125 -0.326112 0.450615 0.0961138
-0.159938 0.0328651 -0.0189216 -0.0181883 -0.0294312 -0.0251698 -0.0116585 -0.00375126
-0.0336913 0.028121 0.00282111 -0.00561385 0.0345566 -0.02206 -0.0196189 -0.0387966
-0.0317839 -0.00246898 -0.0524909 -0.0410569 -0.0395691 -0.024058 -0.0258204 -0.0437858
-0.0321319 -0.0315203 0.0279731 -0.00869008 -0.0267458 0.0139419 -0.00763055 -0.0498252
0.0390486 -0.0118309 -0.0200459 -0.0496969 -0.00641873 -0.0178686 -0.0502851 -0.0452425
0.0193218 0.0147971 0.0234157 0.0260728 0.0272436 -0.0437915 0.0334802 -0.0537315
-0.0345691 -0.00478897 0.0434592 0.0102731 -0.112401 -0.910264 -0.507129 0.832216
-0.0214269 -0.0377779 -0.0492907 -0.226971 -0.365027 -0.227664 -0.433126 0.257646
0.0190056 -0.748251 -0.178323 0.114562 -0.555027 -0.15387 0.435314 -1.36107
-0.00280356 0.494734 0.162586 0.57141 -0.337037 0.828289 -0.66541 0.0558068
0.136502 0.191458 -0.473854 -0.0533354 0.121861 -0.0377086 0.170591 0.146864
0.287659 0.642807 0.130722 -0.172506 -0.341474 -0.0975096 1.31303 -0.0129297
0.116224 -0.574293 0.134048 0.0152702 -0.646507 0.0370349 1.03591 -0.635793
-0.325012 -3.05112 0.47737 -0.0105169 -2.16741 1.87931 0.382479 -1.49156
0.257158 0.182996 -0.0144514 0.210172 -0.583064 -0.537748 0.810364 0.701581
-0.206544 -1.73528 -1.62414 3.05817 -0.0977143 0.620745 0.197705 1.67245
0.204811 -0.130754 0.328902 0.239366 1.39782 -0.369465 -0.197615 0.807726
0.41426 0.309653 -2.82403 -0.799384 -1.30859 1.86933 -0.548327 -0.598079
0.925655 -1.1256 0.651448 0.294136 0.707169 -0.0743544 -0.0650418 0.0414458
0.517439 0.00621334 0.46788 -0.297158 0.514978 0.0254217 -0.337775 -1.40391
0.847002 -0.0671644 -0.741691 0.18864 0.0312147 0.471681 -0.24863 -0.0792845
0.225687 0.567416 -1.34962 -1.11234 0.592981 0.203895 -2.49142 0.280383
-1.99636 0.145328 0.182011 -1.09965 -0.977035 0.346585 -2.65072 -0.280552
1.13574 0.69097 0.638381 -0.00312489 0.445789 -2.5883 0.29866 0.354139
0.837785 1.23435 -0.0062595 -0.113763 1.03484 -2.1219 -0.309021 -1.2055
-0.639477 0.0436702 0.0230318 0.0272339 0.0219388 0.0105079 -0.0141769 0.0402844
00000000: 037a f13e 0a04 0b3d a0f2 59bd 709a 7ebe
00000010: 2c29 a73e edba 37bc 99d6 fe3e f145 7fbf
00000020: 793a 673e e59b 2dbe bf7f 1f3f dc84 933e
00000030: f84a 053d 6c5f e03e 26aa ab3f 4c40 423d
00000040: e544 db3d 48f8 be3d d8bb 833f ec17 bcbe
00000050: 4851 973e 97c0 123d a0e2 583e 2670 773f
00000060: 2ff8 ac3e f2e9 753f e623 e13e 666c a8be
00000070: dacb cebe 9d48 883e 6fbb d4bf 7042 0fc0
00000080: f1d4 db3e b587 fd3d ace5 b63e 72dd a4be
00000090: 7139 42bf 09c0 33bf cd74 af3c 7c0f 273e
000000a0: fddb 953e 0a12 e3be 1a88 15bf 2288 73be
000000b0: 6666 7abf 27f8 a6be 02b7 e63e 50d7 c43d
000000c0: c9c6 23be 8e9d 063d 7901 9bbc a1ff 94bc
000000d0: b319 f1bc e530 cebc 4b03 3fbc b3d7 75bb
000000e0: e3ff 09bd 035e e63c 5fe2 383b 63f4 b7bb
000000f0: 398b 0d3d 2cb7 b4bc d1b7 a0bc 2fe9 1ebd
00000100: d62f 02bd 9cce 21bb b300 57bd 482b 28bd
00000110: 3513 22bd 4815 c5bc 4e85 d3bc bd58 33bd
00000120: bd9c 03bd 6e1b 01bd d827 e53c d660 0ebc
00000130: 021a dbbc 916c 643c b109 fabb 8215 4cbd
00000140: 6df1 1f3d 64d6 41bc 4d37 a4bc fa8e 4bbd
00000150: 3654 d2bb 2c61 92bc c0f7 4dbd 3350 39bd
00000160: c048 9e3c 896f 723c 48d2 bf3c a096 d53c
00000170: f82d df3c b75e 33bd 8922 093d 9015 5cbd
00000180: 5498 0dbd cbec 9cbb 4602 323d 8150 283c
00000190: 7f32 e6bd 1007 69bf 35d3 01bf 1c0c 553f
000001a0: 7787 afbc 00bd 1abd 0ce5 49bd 166b 68be
000001b0: d2e4 babe c020 69be b1c2 ddbe 2dea 833e
000001c0: a2b1 9b3c 618d 3fbf 4e9a 36be 7b9f ea3d
000001d0: 4016 0ebf 1990 1dbe 7ae1 de3e 8b37 aebf
000001e0: efbb 37bb c64d fd3e f27c 263e ed47 123f
000001f0: 1d90 acbe bf0a 543f 4f58 2abf ac95 643d
00000200: 2ec7 0b3e 910d 443e fe9c f2be 3876 5abd
00000210: 4392 f93d 5574 1abd 68af 2e3e 8463 163e
00000220: 0a48 933e 008f 243f fddb 053e 6aa5 30be
00000230: aed5 aebe 1db3 c7bd 5e11 a83f 18d7 53bc
00000240: d906 ee3d de04 13bf e143 093e dc2f 7a3c
00000250: 7c81 25bf e8b1 173d b398 843f 54c3 22bf
00000260: f967 a6be 8d45 43c0 d769 f43e 134f 2cbc
00000270: d8b6 0ac0 3b8d f03f 4ad4 c33e 70eb bebf
00000280: 37aa 833e 4e63 3b3e 91c5 6cbc 5437 573e
00000290: af43 15bf daa9 09bf 0474 4f3f d09a 333f
000002a0: 4580 53be a81d debf d2e3 cfbf 0fb9 4340
000002b0: 6f1e c8bd 25e9 1e3f 2e73 4a3e d712 d63f
000002c0: fab9 513e 60e4 05be d865 a83e 5c1c 753e
000002d0: c4eb b23f 842a bdbe 965b 4abe 22c7 4e3f
000002e0: e319 d43e d78a 9e3e e8bc 34c0 6ea4 4cbf
000002f0: e17f a7bf 3546 ef3f 295f 0cbf b51b 19bf
00000300: baf7 6c3f a913 90bf 4cc5 263f fe98 963e
00000310: 0709 353f 1f47 98bd a334 85bd 12c3 293d
00000320: e276 043f 4699 cb3b f88d ef3e 1825 98be
00000330: 99d5 033f 2b41 d03c d8f0 acbe 53b3 b3bf
00000340: 20d5 583f 7d8d 89bd 76df 3dbf d82a 413e
00000350: f8b5 ff3c 2c80 f13e dd98 7ebe e95f a2bd
00000360: 7e1a 673e 2d42 113f 59c0 acbf 2861 8ebf
00000370: 9acd 173f dac9 503e 6d73 1fc0 5c8e 8f3e
00000380: b988 ffbf ddd0 143e 1761 3a3e 55c1 8cbf
00000390: f71e 7abf 9773 b13e 65a5 29c0 83a4 8fbe
000003a0: ee5f 913f 69e3 303f f06c 233f f4ca 4cbb
000003b0: 753e e43e b5a6 25c0 f7e9 983e b551 b53e
000003c0: 1479 563f 2eff 9d3f 7e1c cdbb 93fc e8bd
000003d0: a375 843f 36cd 07c0 0038 9ebe d34d 9abf
000003e0: c4b4 23bf 86df 323d 2fad bc3c a119 df3c
000003f0: 00b9 b33c 5429 2c3c 3a46 68bc 4101 253d

B1 f4 [50]
-0.20769 -0.0108832 0.0229485 1.00512 -0.813316 -0.0168151 0.0737148 -0.0149607
-0.0112389 0.765333 0.160393 0.65211 -0.283459 0.385884 1.17672 -0.841651
-0.00885195 -0.350855 0.392412 -0.677577 -0.280763 -0.0315113 -0.406521 -0.282666
0.0525866 -1.39727 0.28939 -0.174217 0.199102 -1.01602 -0.0172245 -0.903313
-0.424674 -0.0065654 -0.0148428 -0.330074 0.515645 -0.0103069 0.780041 -0.455794
-0.0150817 0.764783 -0.178888 -0.407995 0.65919 -0.653812 -0.226833 -0.583916
0.962187 0.473837
00000000: b0ac 54be 734f 32bc 7efe bb3c c6a7 803f
00000010: 7a35 50bf d2bf 89bc c9f7 963d b91d 75bc
00000020: 5d23 38bc ddec 433f 103e 243e aef0 263f
00000030: 8a21 91be 9692 c53e c39e 963f 7176 57bf
00000040: c507 11bc 44a3 b3be 3aea c83e b075 2dbf
00000050: 2bc0 8fbe fe11 01bd 8523 d0be 99b9 90be
00000060: 0c65 573d bed9 b2bf ed2a 943e f165 32be
00000070: 65e1 4b3e f20c 82bf 651a 8dbc 853f 67bf
00000080: df6e d9be 9122 d7bb 372f 73bc 76ff a8be
00000090: 5001 043f 46de 28bc c4b0 473f d55d e9be
000000a0: 3c19 77bc d2c8 433f 6a2e 37be b8e4 d0be
000000b0: adc0 283f 3960 27bf e946 68be 857b 15bf
000000c0: e351 763f c39a f23e

W2 f4 [50, 50]
0.393981 -0.0155381 0.461754 -0.0478437 -0.0314279 -0.00458025 -0.390854 -0.0449847
-0.0184199 -0.0415721 0.327233 0.570253 0.00219201 -0.772162 0.0479306 0.0505795
-0.0211955 -0.00631095 -0.543553 -0.108288 0.391302 -0.00913608 0.293634 -0.524023
-0.38544 -0.228119 0.108626 1.10085 0.412676 0.77076 0.0172689 0.269026
0.690677 -0.548139 0.0481579 -0.0424349 0.423299 0.0179163 -0.0986316 0.211403
0.0397099 0.122103 0.251955 0.345402 -0.225844 -0.986877 0.438699 -0.059731
-0.144091 0.123856 -0.397124 -0.0155149 1.40392 -0.492922 0.640584 -0.024246
0.754982 0.0399953 -0.00405178 -0.477891 1.07457 1.49748 0.087858 0.246577
-0.052656 0.701198 0.000481234 0.046423 0.092713 -0.363225 -0.748277 -0.0290078
0.458907 -0.255077 -0.161118 0.503103 -0.28267 0.377661 0.997304 -0.0705768
0.029517 2.04706 -2.70217 0.474331 0.0209152 0.766291 0.158133 0.045521
0.349658 -0.99352 0.0455086 0.136223 -0.133311 -0.580526 0.24013 0.277747
0.773401 1.25012 0.245177 -0.49695 0.559504 -0.0443274 -0.780499 -0.20553
0.793728 0.0477819 0.526072 0.0199344 -0.0339258 0.192746 -0.479514 1.34069
-0.111687 0.00776689 0.160331 0.0489269 0.0361109 0.544982 0.664612 0.483871
1.0763 -0.0075502 -0.312409 0.925134 0.32844 -0.486519 -0.915642 -1.32471
-0.334456 0.867049 -0.0122155 -0.223534 0.86831 0.550527 -0.0328579 0.832834
0.437467 -0.0149368 -0.12981 0.739187 0.0244397 0.249152 0.631223 1.65606
0.185623 0.0508386 1.5585 -0.0943578 -0.382836 -0.186489 -0.5539 0.0382964
-3.18572 0.214384 1.47108 -0.00342264 1.64543 0.0268703 0.0205949 1.03449
0.572549 -0.424897 -0.395668 -0.0230158 0.330267 0.177941 0.0166146 -1.25104
-0.0346412 0.481476 0.127167 0.0559204 1.3752 -1.22587 0.886134 0.134025
-0.0243408 0.423656 1.18011 0.887644 -0.0195013 -0.032923 -0.452213 0.403777
0.00823667 -0.199245 0.298144 0.0103839 -0.602419 1.27596 0.0300771 0.328654
0.822616 -2.75169 -0.00786473 -0.240399 2.94742 -2.11238 0.105847 -1.01788
0.466957 0.0063767 -2.0201 0.0239167 -0.489017 -0.0392799 1.13888 0.00628137
0.0434892 0.283436 0.425442 2.322 0.147055 -0.138894 -1.4181 0.102892
0.0434501 -0.418769 -0.625234 0.508168 0.118785 -0.0551446 -0.845484 -1.0081
1.03426 0.694277 -0.133798 -1.9005 0.537798 1.29405 0.0222373 -4.88006
-4.06341 1.52834 0.0250282 0.622711 0.0626481 0.0557933 0.365778 0.406549
0.0215654 -0.6618 2.9261 -3.58514 0.69128 2.3236 -0.736047 1.31443
0.267471 -0.838461 0.126086 0.0143115 -0.905822 -0.0461854 -5.17837 0.0394581
00000000: e1b7 c93e 8493 7ebc 056b ec3e c1f7 43bd
00000010: 8bba 00bd ec15 96bb 041e c8be e041 38bd
00000020: 55e5 96bc 8247 2abd 158b a73e 1afc 113f
00000030: d3a7 0f3b 69ac 45bf e052 443d 732c 4f3d
00000040: 2fa2 adbc 16cc cebb 4a26 0bbf 19c6 ddbd
00000050: bc58 c83e 7faf 15bc 3257 963e 5f26 06bf
00000060: 6458 c5be 0798 69be 4f77 de3d a7e8 8c3f
00000070: 454a d33e 8750 453f 8277 8d3c c7bd 893e
00000080: 35d0 303f d652 0cbf 3841 453d 38d0 2dbd
00000090: a6ba d83e 34c5 923c 5dff c9bd 077a 583e
000000a0: d9a6 223d 2311 fa3d 3f00 813e 88d8 b03e
000000b0: a643 67be f9a3 7cbf 289d e03e 7ea8 74bd
000000c0: 978c 13be 37a8 fd3d d653 cbbe 3532 7ebc
000000d0: a7b3 b33f 4660 fcbe 50fd 233f 8c9f c6bc
000000e0: 8046 413f 1dd2 233d cbc4 84bb 21ae f4be
000000f0: 828b 893f 6dad bf3f e5ee b33d ae7e 7c3e
00000100: d1ad 57bd b681 333f 224e fc39 0b26 3e3d
00000110: 50e0 bd3d a1f8 b9be 158f 3fbf c4a1 edbc
00000120: dcf5 ea3e 7499 82be 1efc 24be 5ccb 003f
00000130: 1fba 90be c85c c13e 514f 7f3f 928a 90bd
00000140: a3cd f13c 0803 0340 5af0 2cc0 83db f23e
00000150: 5a56 ab3c a62b 443f 9eed 213e 3a74 3a3d
00000160: 6006 b33e 5457 7ebf 3a67 3a3d 0b7e 0b3e
00000170: ae82 08be 5a9d 14bf a4e4 753e db34 8e3e
00000180: 9cfd 453f ef03 a03f ae0f 7b3e 3b70 febe
00000190: a73b 0f3f a690 35bd c8ce 47bf 7576 52be
000001a0: c231 4b3f f4b6 433d a8ac 063f 784d a33c
000001b0: c8f5 0abd 355f 453e dc82 f5be bb9b ab3f
000001c0: 27bc e4bd 6581 fe3b cf2d 243e 9367 483d
000001d0: 06e9 133d f183 0b3f 0324 2a3f f1bd f73e
000001e0: 33c4 893f ab67 f7bb 13f4 9fbe 95d5 6c3f
000001f0: 4a29 a83e 0519 f9be 8467 6abf 1990 a9bf
00000200: d13d abbe ecf6 5d3f 8523 48bc 19e6 64be
00000210: 9049 5e3f 56ef 0c3f 0196 06bd 9c34 553f
00000220: adfb df3e 7bb9 74bc eaec 04be 5c3b 3d3f
00000230: c435 c83c b421 7f3e d597 213f c6f9 d33f
00000240: f513 3e3e 233c 503d ee7c c73f aa3e c1bd
00000250: 1503 c4be f9f6 3ebe 64cc 0dbf b0dc 1c3d
00000260: d6e2 4bc0 7b87 5b3e 594c bc3f 5f4e 60bb
00000270: 739d d23f 1a1f dc3c a3b6 a83c 2b6a 843f
00000280: 9292 123f 198c d9be ff94 cabe a28b bcbc
00000290: c218 a93e 2a36 363e 571b 883c 1422 a0bf
000002a0: eee3 0dbd 0684 f63e 1138 023e ca0c 653d
000002b0: 8e06 b03f 4fe9 9cbf aed9 623f d93d 093e
000002c0: 5b66 c7bc 70e9 d83e d80d 973f a33c 633f
000002d0: 31c1 9fbc 45da 06bd 7688 e7be dcbb ce3e
000002e0: 19f3 063c e206 4cbe 55a6 983e 3c21 2a3c
000002f0: 2238 1abf a852 a33f 4064 f63c 5645 a83e
00000300: f696 523f b01b 30c0 12db 00bc 282b 76be
00000310: 87a2 3c40 3c31 07c0 50c6 d83d e449 82bf
00000320: fd14 ef3e a3f3 d03b 5249 01c0 f5ec c33c
00000330: 7060 fabe f6e3 20bd d2c6 913f f3d3 cd3b
00000340: bb21 323d 861e 913e 89d3 d93e a69b 1440
00000350: 9695 163e 3b3a 0ebe 4d84 b5bf 0ab9 d23d
00000360: bbf8 313d e468 d6be 560f 20bf 4c17 023f
00000370: 8d45 f33d 4edf 61bd a471 58bf 6c09 81bf
00000380: a262 843f 23bc 313f 5802 09be 9643 f3bf
00000390: 21ad 093f 6ea3 a53f 002b b63c 7429 9cc0
000003a0: 7407 82c0 a5a0 c33f f107 cd3c fd69 1f3f
000003b0: a64d 803d 8487 643d 4147 bb3e 3127 d03e
000003c0: eca9 b03c ba6b 29bf 3945 3b40 ef72 65c0
000003d0: baf7 303f ddb5 1440 946d 3cbf 3e3f a83f
000003e0: f5f1 883e 61a5 56bf b01c 013e c87a 6a3c
000003f0: f3e3 67bf e72c 3dbd 35b5 a5c0 d19e 213d

B2 f4 [50]
-0.516011 -1.03635 -0.193045 -1.38338 -0.923513 -1.24408 0.743123 -0.641347
-1.58358 -0.761838 -0.204921 -1.2469 -0.497601 -1.14453 1.08507 -0.28887
-2.07702 -0.654246 -1.87901 -1.62325 -0.0298465 -1.9135 -0.631048 -0.00068312
-1.62111 -1.27628 -0.610601 -0.531423 -0.206699 0.508204 -1.01968 -2.28941
0.650378 -1.8273 -1.99829 -1.2789 -2.06318 -0.869352 -2.26323 -0.0320646
-0.352981 -1.20284 -0.513817 -0.679514 0.144723 0.288903 -0.793541 -0.295135
0.6889 -0.305371
00000000: 4c19 04bf 1ea7 84bf 97ad 45be 9912 b1bf
00000010: 596b 6cbf 033e 9fbf 4f3d 3e3f 512f 24bf
00000020: c0b2 cabf d107 43bf d0d6 51be 6b9a 9fbf
00000030: 8fc5 febe f67f 92bf 93e3 8a3f c5e6 93be
00000040: e5ed 04c0 aa7c 27bf 6683 f0bf a8c6 cfbf
00000050: a680 f4bc 91ed f4bf 5d8c 21bf 6813 33ba
00000060: 8880 cfbf 255d a3bf 5950 1cbf 560b 08bf
00000070: e7a8 53be a819 023f e084 82bf b285 12c0
00000080: 2c7f 263f f7e4 e9bf f7c7 ffbf ffb2 a3bf
00000090: 240b 04c0 da8d 5ebf c3d8 10c0 2c56 03bd
000000a0: edb9 b4be a9f6 99bf 8389 03bf a1f4 2dbf
000000b0: 4432 143e 18eb 933e 8125 4bbf ef1b 97be
000000c0: c05b 303f 9659 9cbe

W3 f4 [50, 50]
-3.86526 0.591209 -0.471094 1.99685 -1.14336 -1.52778 -3.32176 1.74559
-0.737497 1.46165 0.0503349 0.682678 -0.268954 0.202651 -2.00025 -4.32471
-0.525107 -1.09118 -0.115516 1.34598 1.15267 -0.868337 0.843639 1.73112
1.74881 -2.18069 0.92038 1.86964 -0.238093 -0.915157 -1.06507 -1.56001
-0.317265 -0.893539 0.0934326 0.689166 0.896887 -0.549009 0.641898 -0.0466067
-0.496247 0.127923 1.6686 -0.233553 4.10779 -0.196114 -0.551737 -0.172386
0.725763 -1.91149 -4.90936 0.0126065 -0.0479159 -0.455835 0.266201 -0.0782986
-2.82853 -3.35374 0.817433 1.01215 0.768686 0.516801 0.148887 1.09339
-2.09847 -1.717 -0.185659 -1.20966 -0.490888 1.79379 -1.08222 1.36612
0.755052 0.886461 0.584895 0.00900207 0.398828 -0.67215 0.752808 -0.59107
-0.273363 -2.17489 0.57254 -1.15064 -0.917075 0.180393 -3.57023 -0.889495
-1.66121 0.0332611 -1.07865 0.938124 0.0208906 0.272557 -1.17003 0.759555
-1.17084 0.501537 -0.232367 -2.0701 -0.53213 0.582716 0.521163 0.0795855
0.365397 -0.210128 -0.269007 -0.118356 -1.13907 -0.563064 -0.077779 0.0314366
0.0184103 0.240644 -0.321339 0.582706 0.544655 -0.394493 -1.46402 0.332932
0.307053 0.142162 0.119316 -0.325728 -0.205961 0.876676 0.0962754 0.204845
-0.355941 -0.066634 0.223587 0.251697 0.233116 -0.366177 0.551727 0.168542
-0.708556 -0.727726 0.31546 -0.00927262 -0.0649855 -0.150861 0.68804 -0.293824
0.985602 0.407384 -0.333732 -0.10042 -0.553074 -0.285109 0.129304 0.319301
0.371349 -0.407564 0.962795 -1.16524 1.13344 -2.06389 -0.455735 -0.104835
0.0548745 -0.148173 0.312995 -1.48563 0.316675 -0.253298 -0.921693 -0.746583
0.699581 -0.796701 -0.0109681 0.587306 -0.304263 -0.462191 -0.590332 0.4883
0.347838 0.287441 0.141177 1.02983 0.605008 -0.907707 -0.818542 -0.15964
-0.373864 1.00216 0.583091 1.23915 -0.245295 0.00561411 0.671271 0.82785
0.239701 0.0807749 -7.13716 -0.0902001 -0.33253 0.623997 -0.0672671 -0.669031
0.827998 0.340426 0.401233 0.0996929 -0.563242 -0.302814 0.0448706 1.70408
-0.0865068 0.0323134 0.441197 0.191399 -0.15006 0.184222 -0.952168 0.53295
-0.230205 -0.314481 -0.370164 -0.0476994 0.085173 0.0445164 0.11692 0.806371
0.228166 0.714978 -0.50267 0.111327 0.106937 0.164593 -0.201154 0.565606
0.0572759 -1.0781 -0.704963 0.473581 -1.28058 -0.630794 -0.121453 0.0205213
-0.119678 -0.134138 -0.35969 -0.33648 -3.18578 0.596089 -0.495324 -0.0277395
-0.782491 0.130779 -0.247738 -0.0724487 -0.850159 0.186543 0.445201 0.677592
00000000: 6b60 77c0 7959 173f 3c33 f1be c898 ff3f
00000010: 9f59 92bf 4c8e c3bf b797 54c0 7e6f df3f
00000020: 9acc 3cbf 5917 bb3f f82b 4e3d fcc3 2e3f
00000030: 57b4 89be be83 4f3e 1904 00c0 0664 8ac0
00000040: 6a6d 06bf c9ab 8bbf a793 ecbd 1349 ac3f
00000050: b18a 933f 554b 5ebf baf8 573f 5795 dd3f
00000060: 02d9 df3f 6d90 0bc0 069e 6b3f 5d50 ef3f
00000070: a7ce 73be bb47 6abf 3754 88bf 68ae c7bf
00000080: 8f70 a2be f9be 64bf 9759 bf3d 2f6d 303f
00000090: 639a 653f db8b 0cbf 6d53 243f abe6 3ebd
000000a0: 1614 febe 3ffe 023e af94 d53f 8528 6fbe
000000b0: 0473 8340 1cd2 48be a33e 0dbf f585 30be
000000c0: 9bcb 393f b4ab f4bf 7a19 9dc0 7e8b 4e3c
000000d0: 7643 44bd 3563 e9be 7f4b 883e 045b a0bd
000000e0: a306 35c0 ada3 56c0 4a43 513f 228e 813f
000000f0: 9bc8 443f 124d 043f d575 183e 34f4 8b3f
00000100: 554d 06c0 a8c6 dbbf 651d 3ebe 24d6 9abf
00000110: ac55 fbbe e99a e53f 2f86 8abf 05dd ae3f
00000120: 164b 413f 1cef 623f aebb 153f 6b7d 133c
00000130: 2f33 cc3e 0612 2cbf 06b8 403f 5d50 17bf
00000140: 3cf6 8bbe 6631 0bc0 fb91 123f 2c48 93bf
00000150: 6dc5 6abf f1b8 383e a67e 64c0 f2b5 63bf
00000160: 87a2 d4bf cb3c 083d 3411 8abf e528 703f
00000170: c322 ab3c 978c 8b3e 8bc3 95bf 3272 423f
00000180: 16de 95bf bb64 003f 9df1 6dbe 857c 04c0
00000190: ac39 08bf e02c 153f f06a 053f b9fd a23d
000001a0: 5115 bb3e cb2b 57be 49bb 89be a164 f2bd
000001b0: 0ccd 91bf f624 10bf 994a 9fbd aac3 003d
000001c0: 33d1 963c 616b 763e 8c86 a4be 382c 153f
000001d0: 836e 0b3f fdfa c9be 0265 bbbf 1076 aa3e
000001e0: 0d36 9d3e ea92 113e f25b f43d d2c5 a6be
000001f0: 71e7 52be d76d 603f 092c c53d e3c2 513e
00000200: e63d b6be 6877 88bd fef3 643e 6ede 803e
00000210: f6b5 6e3e 8d7b bbbe fb3d 0d3f 4696 2c3e
00000220: ed63 35bf 404c 3abf f983 a13e 30ec 17bc
00000230: 1e17 85bd 4e7b 1abe 6423 303f 1970 96be
00000240: 6a50 7c3f a394 d03e ecde aabe 00a9 cdbd
00000250: 4296 0dbf cff9 91be 4568 043e 6c7b a33e
00000260: 7521 be3e 3bac d0be bc79 763f 9626 95bf
00000270: 9014 913f c616 04c0 1956 e9be bcb3 d6bd
00000280: 15c4 603d aaba 17be e140 a03e 2029 bebf
00000290: 3a23 a23e 47b0 81be 13f4 6bbf 1020 3fbf
000002a0: be17 333f 99f4 4bbf 8cb3 33bc b059 163f
000002b0: 5cc8 9bbe 4ca4 ecbe ff1f 17bf 7502 fa3e
000002c0: d317 b23e 772b 933e b490 103e 78d1 833f
000002d0: cee1 1a3f 7c5f 68bf f88b 51bf ab78 23be
000002e0: 1a6b bfbe c746 803f 7445 153f 789c 9e3f
000002f0: 9d2e 7bbe 91f6 b73b 6bd8 2b3f faed 533f
00000300: 2e74 753e 506d a53d 9d63 e4c0 d4ba b8bd
00000310: 5f41 aabe 44be 1f3f 55c3 89bd 9e45 2bbf
00000320: adf7 533f 514c ae3e 696e cd3e cb2b cc3d
00000330: a130 10bf 700a 9bbe 3cca 373d 4b1f da3f
00000340: 7a2a b1bd 0e5b 043d 93e4 e13e 19fe 433e
00000350: 54a9 19be b1a4 3c3e 48c1 73bf 696f 083f
00000360: dcba 6bbe a703 a1be 2386 bdbe 7260 43bd
00000370: 2f6f ae3d d456 363d c173 ef3d 546e 4e3f
00000380: 59a4 693e cc08 373f fbae 00bf 69ff e33d
00000390: c901 db3d 118b 283e 50fb 4dbe 8ecb 103f
000003a0: 229a 6a3d 2eff 89bf 7578 34bf 3579 f23e
000003b0: 0cea a3bf b77b 21bf 5abc f8bd 491c a83c
000003c0: bd19 f5bd 795b 09be 4a29 b8be 1b47 acbe
000003d0: d2e3 4bc0 4a99 183f 1b9b fdbe f33d e3bc
000003e0: 5551 48bf eeea 053e 08af 7dbe fc5f 94bd
000003f0: 05a4 59bf 2105 3f3e 63f1 e33e ab76 2d3f

B3 f4 [50]
-2.02834 -0.911753 -0.73283 -0.789272 -0.158094 0.26966 1.25701 -0.827999
3.14252 2.06411 -0.749485 0.464485 0.526777 -0.594476 0.12039 0.376415
0.540014 1.56147 0.284804 1.98914 -8.20012 1.5405 2.85092 0.224755
0.0382278 -0.120551 -0.0503022 2.07949 -2.65963 2.89448 1.54236 3.62826
-0.00832654 2.36688 -5.91857 1.17787 3.14069 -0.443124 -1.71643 0.702718
2.80561 0.153109 0.213351 0.140483 -3.57065 3.35537 0.985071 2.59541
1.63612 3.28423
00000000: 53d0 01c0 a568 69bf bf9a 3bbf bb0d 4abf
00000010: 65e3 21be e010 8a3e b4e5 a03f bef7 53bf
00000020: 0c1f 4940 611a 0440 40de 3fbf fad0 ed3e
00000030: dcda 063f 942f 18bf 088f f63d 78b9 c03e
00000040: 5c3e 0a3f 40de c73f d4d1 913e 249c fe3f
00000050: b133 03c1 1b2f c53f 7975 3640 2d26 663e
00000060: c194 1c3d 71e3 f6bd ae09 4ebd 5d16 0540
00000070: 6137 2ac0 293f 3940 0d6c c53f 6935 6840
00000080: 0a6c 08bc f67a 1740 ed64 bdc0 72c4 963f
00000090: 1101 4940 26e1 e2be fab3 dbbf 54e5 333f
000000a0: 1d8f 3340 9bc8 1c3e af78 5a3e c7da 0f3e
000000b0: 8885 64c0 62be 5640 9d2d 7c3f 331b 2640
000000c0: 616c d13f d330 5240

W4 f4 [50, 50]
-0.838471 0.0946109 -0.730152 -0.990759 0.0891844 -0.251889 2.03364 -1.08923
0.992807 0.653081 -2.96137 0.297429 -1.47581 -1.76967 -0.160736 1.86231
-0.626389 -0.312211 0.49451 0.862449 -0.0354532 -2.4767 -0.688047 -2.01553
0.268493 -2.94047 0.0671479 -1.29742 0.973456 0.28536 0.17748 0.319349
0.0420425 0.620245 -0.761634 -0.34989 0.0839869 1.41785 -0.12905 0.441916
0.583039 0.537376 0.954047 0.223214 -0.350043 -1.44061 0.66723 -1.27329
0.396956 0.132249 0.060759 -0.202147 0.154718 0.125404 -0.0469011 0.174962
0.0431456 -0.00511121 0.0354558 -1.14346 0.0882644 0.0212034 -0.275779 -0.274538
-0.012032 -0.00851653 -0.222465 0.046949 -0.318074 0.0877811 -0.0826129 -0.127945
-0.13782 -0.845478 0.161358 -0.624925 0.0401436 0.0215295 -0.340639 0.359969
-0.00579308 0.0828088 -0.0237296 -0.0130725 0.233813 0.252745 -0.00762848 -0.0602617
0.200912 0.0151479 0.357256 0.431375 0.0762777 -0.0311439 -0.0466838 0.0382521
-0.764699 0.0607868 0.0924468 0.0185148 0.278462 -0.654968 -0.535637 -2.96104
3.03003 0.421077 -1.00634 0.174259 1.57054 -9.59932 -0.113871 0.328833
1.17772 2.20489 0.730517 1.40189 -0.170878 1.1554 -0.665332 1.44338
-0.393566 0.989523 -1.018 0.892764 -0.308766 -0.0969656 0.0850147 0.806931
0.896176 0.450565 -0.0713867 0.434306 -0.023457 2.99833 1.42076 -0.0146713
-0.405926 0.98479 0.167006 -0.0479448 -0.698068 3.28988 1.22276 -1.0421
-2.46683 1.21918 2.19171 -1.25116 1.66391 2.95208 -1.4995 -1.51632
-7.32447 1.65458 0.246445 -1.70612 1.72088 -1.35644 -0.971128 0.499106
-0.778263 0.396885 -0.57687 1.26104 -4.95946 -0.647515 -0.953834 -2.44343
-0.117626 -3.02469 1.90896 -2.2496 -3.20917 -0.605577 -3.22199 -3.27498
0.00681424 -0.722249 -0.197962 0.33182 -2.80157 -1.45774 0.0277276 -1.9537
-0.190073 -1.96527 -0.216486 0.207947 -1.6736 -5.74405 -3.40111 -1.74605
0.626831 -3.39679 1.21802 -4.83597 -2.31995 -4.24101 -0.856875 -2.89528
-0.108774 0.0761642 1.32087 0.631548 -0.112805 -1.58712 0.0348187 -0.206728
1.27604 -3.11514 0.330027 -0.126921 -0.0795415 -0.422795 -0.411441 0.101571
0.353628 0.152734 0.0746199 0.0245392 -0.433497 0.469459 0.204882 1.51067
-1.92701 -0.36137 0.0305644 -0.638715 0.632159 0.248507 -0.197934 -0.324596
-0.0114648 -1.42089 0.114465 1.03755 -0.0855666 -0.211796 0.173683 0.575614
0.445782 0.349691 0.752393 0.488709 0.369769 0.666252 1.124 0.109893
0.327247 0.201462 -0.524163 -0.200005 -5.54893 1.13377 0.981522 0.0853884
00000000: 09a6 56bf 5cc3 c13d 3eeb 3abf 62a2 7dbf
00000010: 50a6 b63d 98f7 80be 2827 0240 e36b 8bbf
00000020: 9928 7e3f 5130 273f 1687 3dc0 9d48 983e
00000030: 58e7 bcbf 8c84 e2bf fa97 24be 2d60 ee3f
00000040: 085b 20bf 1fda 9fbe 6a30 fd3e 75c9 5c3f
00000050: 6037 11bd 4182 1ec0 d923 30bf 72fe 00c0
00000060: ea77 893e a930 3cc0 d784 893d dc11 a6bf
00000070: 6a34 793f b51a 923e 51bd 353e b681 a33e
00000080: c234 2c3d 60c8 1e3f 72fa 42bf c824 b3be
00000090: 5301 ac3d 1c7c b53f af25 04be d042 e23e
000000a0: 0b42 153f 7991 093f 6d3c 743f 3692 643e
000000b0: d638 b3be e965 b8bf 96cf 2a3f 2bfb a2bf
000000c0: d13d cb3e 486c 073e 6ede 783d a0ff 4ebe
000000d0: 656e 1e3e e869 003e 5e1b 40bd 3d29 333e
000000e0: 71b9 303d f07b a7bb 1a3a 113d e65c 92bf
000000f0: f7c3 b43d c1b2 ad3c e832 8dbe 3f90 8cbe
00000100: de21 45bc ea88 0bbc ddcd 63be 984d 403d
00000110: 98da a2be 94c6 b33d f430 a9bd 0404 03be
00000120: b020 0dbe 3f71 58bf 083b 253e 16fb 1fbf
00000130: 9e6d 243d a25e b03c 3c68 aebe db4d b83e
00000140: e1d3 bdbb a997 a93d 9464 c2bc 0a2e 56bc
00000150: ad6c 6f3e cb67 813e 54f8 f9bb f9d4 76bd
00000160: e0bb 4d3e e62e 783c 42ea b63e 2fdd dc3e
00000170: 7c37 9c3d 7e21 ffbc 8337 3fbd 3cae 1c3d
00000180: 50c3 43bf 94fb 783d bf54 bd3d 5aac 973c
00000190: 9292 8e3e fcab 27bf 821f 09bf ae81 3dc0
000001a0: 03ec 4140 6897 d73e c0cf 80bf f470 323e
000001b0: 7407 c93f d196 19c1 3335 e9bd cd5c a83e
000001c0: 87bf 963f eb1c 0d40 2a03 3b3f 2271 b33f
000001d0: a4fa 2ebe 26e4 933f 3353 2abf adc0 b83f
000001e0: 7c81 c9be 6151 7d3f d34d 82bf 2e8c 643f
000001f0: 9416 9ebe e795 c6bd 301c ae3d 0893 4e3f
00000200: ca6b 653f 75b0 e63e 3133 92bd 5b5d de3e
00000210: e528 c0bc a4e4 3f40 77db b53f e45f 70bc
00000220: 88d5 cfbe 331b 7c3f 9f03 2b3e c461 44bd
00000230: 96b4 32bf 658d 5240 6683 9c3f 8863 85bf
00000240: 8be0 1dc0 170e 9c3f fa44 0c40 0326 a0bf
00000250: 01fb d43f e1ee 3c40 9eef bfbf c616 c2bf
00000260: 0f62 eac0 47c9 d33f 145c 7c3e 2462 dabf
00000270: cc45 dc3f d39f adbf d89b 78bf d28a ff3e
00000280: 3e3c 47bf 8334 cb3e c1ad 13bf c269 a13f
00000290: e5b3 9ec0 8bc3 25bf 772e 74bf 2861 1cc0
000002a0: e6e5 f0bd 8594 41c0 cd58 f43f 72f9 0fc0
000002b0: 0b63 4dc0 1807 1bbf 1635 4ec0 4699 51c0
000002c0: fd49 df3b 4fe5 38bf 8db6 4abe 50e4 a93e
000002d0: ec4c 33c0 3997 babf fe24 e33c d712 fabf
000002e0: 7fa2 42be f88d fbbf 82ae 5dbe 0ff0 543e
000002f0: 8638 d6bf 42cf b7c0 c9ab 59c0 917e dfbf
00000300: ff77 203f 0265 59c0 14e8 9b3f 44c0 9ac0
00000310: 107a 14c0 5bb6 87c0 295c 5bbf 444c 39c0
00000320: e7c4 debd fafb 9b3d 4512 a93f 21ad 213f
00000330: 4f06 e7bd c026 cbbf 0e9e 0e3d 81b0 53be
00000340: 4755 a33f 745e 47c0 4df9 a83e 94f7 01be
00000350: a7e6 a2bd 9678 d8be 65a8 d2be 7504 d03d
00000360: bb0e b53e 4d66 1c3e 51d2 983d 6f06 c93c
00000370: 52f3 ddbe ee5c f03e 96cc 513e a25d c13f
00000380: 44a8 f6bf 7d05 b9be 3162 fa3c d482 23bf
00000390: 2cd5 213f 9e78 7e3e 36af 4abe 7231 a6be
000003a0: dbd6 3bbc b9df b5bf a06c ea3d 70ce 843f
000003b0: 8b3d afbd 0de1 58be f5d9 313e 705b 133f
000003c0: 8a3d e43e b30a b33e d49c 403f 1138 fa3e
000003d0: 5d52 bd3e 7e8f 2a3f 3bdf 8f3f 950f e13d
000003e0: eb8c a73e 0e4c 4e3e 8c2f 06bf 1cce 4cbe
000003f0: d690 b1c0 601f 913f 0745 7b3f 1de0 ae3d

B4 f4 [50]
-1.83174 0.480563 -1.90835 -0.189851 -1.50367 -0.111736 -1.28995 -0.724745
-1.06827 2.18193 0.117064 1.78412 -2.41409 1.23287 -0.387774 -1.33865
-2.83714 -0.945849 1.07482 -0.904918 -0.309447 1.36035 -0.998963 0.498788
2.24646 -2.62411 -0.879404 2.75838 0.333709 2.07085 -1.15392 0.286674
-2.28774 -1.35855 -2.09518 -0.0333324 -1.24663 2.03996 1.32523 -2.01518
-0.965101 -0.429592 2.67757 -2.48442 0.483878 -1.31432 4.99578 -3.32816
-4.19461 -0.814777
00000000: 7576 eabf 5b0c f63e d044 f4bf 4d68 42be
00000010: 4278 c0bf d8d5 e4bd 151d a5bf e388 39bf
00000020: 12bd 88bf bea4 0b40 40bf ef3d 0b5e e43f
00000030: 7380 1ac0 afce 9d3f 508a c6be e258 abbf
00000040: b493 35c0 2923 72bf b493 893f b5a8 67bf
00000050: d66f 9ebe f31f ae3f 0abc 7fbf 2461 ff3e
00000060: 00c6 0f40 6bf1 27c0 9f20 61bf 4c89 3040
00000070: e8db aa3e ce88 0440 a7b3 93bf efc6 923e
00000080: 556a 12c0 f7e4 adbf 6e17 06c0 8e87 08bd
00000090: 9291 9fbf b48e 0240 23a1 a93f b6f8 00c0
000000a0: dc10 77bf 7cf3 dbbe 4f5d 2b40 bd00 1fc0
000000b0: dbbe f73e a33b a8bf 6edd 9f40 9300 55c0
000000c0: 3f3a 86c0 3a95 50bf

W5 f4 [50, 50]
-0.96856 3.73717 -0.677395 -0.602906 2.26303 -0.213568 -1.13891 -0.443826
0.0317565 0.531336 0.953573 -0.963097 -2.08267 0.425289 1.59042 0.42925
2.47608 0.257063 -2.3431 0.228673 1.67151 -0.0788417 1.0222 -0.219663
-0.546396 -1.42021 2.34608 -0.38058 -0.929591 0.879498 0.143084 -0.305378
-1.67746 -0.656458 0.43729 -2.10898 1.6157 -0.28493 2.18728 0.592196
-1.07071 -0.283743 0.610899 0.310701 1.18384 1.1881 -0.132819 0.386058
-2.78299 0.0126349 -0.119023 0.504559 0.073629 0.0443343 0.429803 0.0337145
0.0396825 -0.104379 0.0423962 -0.0605174 0.297545 0.122131 0.28268 0.112613
0.204517 0.211507 0.163999 -0.071592 -0.139512 0.0162506 0.297264 -0.085341
-0.0408659 -0.0756242 0.293419 -0.225105 0.164521 -0.118501 -0.524462 0.13227
0.281288 0.129203 0.18602 0.0452033 0.0158364 0.350327 0.190355 -0.0159215
0.314933 0.0935123 0.202972 0.0376789 -0.133047 -0.116287 0.311186 0.0696408
0.0468436 0.15721 0.201947 -0.0307287 -1.78727 3.47379 0.53202 -1.82653
3.43269 1.26605 -2.12867 -0.857619 -4.75309 -0.793382 2.0394 -1.20335
2.71503 1.05299 1.63001 2.93398 2.82608 -1.11046 -2.49119 -0.194072
1.11124 0.101742 0.402996 -1.63012 1.19785 1.76859 -2.30474 -0.651055
-9.17728 2.55959 0.0547499 2.33836 -3.53897 0.691774 1.31083 1.52698
4.45264 0.488834 1.27918 1.75575 -1.03251 0.378112 0.708769 -0.274977
-4.27924 -0.259962 -0.611732 0.885806 2.52489 -0.0872752 0.907677 0.401852
0.499939 -1.32856 -3.74051 -1.79183 -0.0562797 -0.0976387 -5.44131 -1.1855
1.39475 1.51351 1.78043 0.550379 1.08819 -1.65918 -0.973644 0.706066
-0.990189 0.473379 0.051268 0.213186 -0.00637 0.0172818 -0.941881 0.0233821
0.968024 -0.410941 -1.67264 1.07494 1.99742 0.42415 -4.38745 -5.09574
-3.19607 0.31872 -1.63413 -0.171681 1.45685 -1.06272 1.83182 -3.4971
-0.146392 -2.41624 -6.73823 0.241133 -0.226352 1.08443 -3.62392 0.104114
0.393756 3.70379 0.0273539 0.124579 -1.3408 -0.776416 0.612104 -0.137048
-7.35648 0.14135 0.471253 -3.54498 2.72442 0.519119 -1.04696 -2.09956
-1.62591 -1.18953 2.93033 -1.62504 -3.54794 1.3822 1.44409 -0.346947
-2.93951 -3.55995 2.0302 -0.246973 -6.90572 -0.441473 1.0533 -0.0513468
1.17948 0.0808906 -1.43138 1.48058 3.36231 -0.235268 0.68118 -2.75272
3.61602 2.77021 0.208579 1.17201 0.180241 0.0619576 -2.12682 -1.16501
-0.832829 -0.300861 0.245874 3.8477 0.393327 -1.07883 0.579022 -0.598935
00000000: 8cf3 77bf cb2d 6f40 c269 2dbf 0c58 1abf
00000010: 7cd5 1040 92b1 5abe cec7 91bf 293d e3be
00000020: 1b13 023d a305 083f 5c1d 743f 868d 76bf
00000030: 774a 05c0 7bbf d93e e292 cb3f a8c6 db3e
00000040: 1878 1e40 c39d 833e 5af5 15c0 4129 6a3e
00000050: 0af4 d53f c277 a1bd 73d7 823f 56ef 60be
00000060: 9ce0 0bbf 71c9 b5bf 2d26 1640 62db c2be
00000070: adf9 6dbf c826 613f 9d84 123e 815a 9cbe
00000080: 02b7 d6bf a20d 28bf 7ae4 df3e 87f9 06c0
00000090: 42cf ce3f 58e2 91be 65fc 0b40 289a 173f
000000a0: 060d 89bf c346 91be e063 1c3f 3414 9f3e
000000b0: 1288 973f a913 983f b401 08be 65a9 c53e
000000c0: 821c 32c0 9d02 4f3c 55c2 f3bd c72a 013f
000000d0: cdca 963d e297 353d 240f dc3e 3718 0a3d
000000e0: 1e8a 223d a8c4 d5bd a3a7 2d3d 18e1 77bd
000000f0: d157 983e d11f fa3d 6fbb 903e a5a1 e63d
00000100: e86c 513e 4a95 583e 5bef 273e d49e 92bd
00000110: 3cdc 0ebe fa1f 853c fd32 983e 43c7 aebd
00000120: 0163 27bd dce0 9abd 043b 963e ed81 66be
00000130: 3178 283e a7b0 f2bd 2443 06bf c971 073e
00000140: fb04 903e cb4d 043e 077c 3e3e 1827 393d
00000150: 57bb 813c 0f5e b33e 6cec 423e ce6d 82bc
00000160: e63e a13e 6083 bf3d e4d7 4f3e 3155 1a3d
00000170: 793d 08be e127 eebd c553 9f3e d69f 8e3d
00000180: 13df 3f3d a9fb 203e 32cb 4e3e c1ba fbbc
00000190: 43c5 e4bf 9352 5e40 7632 083f bccb e9bf
000001a0: 31b1 5b40 ed0d a23f 213c 08c0 eb8c 5bbf
000001b0: 5019 98c0 151b 4bbf 8885 0240 5f07 9abf
000001c0: 0dc3 2d40 60c8 863f 2ba4 d03f 54c6 3b40
000001d0: 7fde 3440 8e23 8ebf a86f 1fc0 cfba 46be
000001e0: 1d3d 8e3f 1c5e d03d 7e55 ce3e c6a7 d0bf
000001f0: 2653 993f 2861 e23f dc80 13c0 8aab 26bf
00000200: 24d6 12c1 53d0 2340 6e41 603d b1a7 1540
00000210: 7c7e 62c0 1a18 313f 47c9 a73f 1574 c33f
00000220: 077c 8e40 7348 fa3e 2cbc a33f 6abc e03f
00000230: 4a29 84bf e597 c13e e371 353f c9c9 8cbe
00000240: 89ef 88c0 bd19 85be 789a 1cbf 2fc4 623f
00000250: cc97 2140 57bd b2bd 855d 683f 8cbf cd3e
00000260: 01f8 ff3e 410e aabf 8464 6fc0 af5a e5bf
00000270: 8b85 66bd ccf6 c7bd 361f aec0 77be 97bf
00000280: 2b87 b23f b2ba c13f 21e5 e33f a3e5 0c3f
00000290: cf49 8b3f 0360 d4bf bc40 79bf bec0 343f
000002a0: 077d 7dbf bb5e f23e 65fe 513d 6e4d 5a3e
000002b0: 6fbb d0bb 9092 8d3c 1d1f 71bf d18b bf3c
000002c0: 6cd0 773f dc66 d2be 1119 d6bf a297 893f
000002d0: 75ab ff3f 302a d93e fe65 8cc0 4d10 a3c0
000002e0: 698c 4cc0 452f a33e 2c2b d1bf 25cd 2fbe
000002f0: 107a ba3f 3507 88bf 1479 ea3f 7dd0 5fc0
00000300: c9e7 15be ada3 1ac0 959f d7c0 92eb 763e
00000310: d2c8 67be 9ace 8a3f 4eee 67c0 b939 d53d
00000320: 639a c93e e50a 6d40 4915 e03c 4623 ff3d
00000330: 569f abbf 33c3 46bf d9b2 1c3f 5056 0cbe
00000340: 4968 ebc0 0ebe 103e 1348 f13e f4e0 62c0
00000350: e65c 2e40 fce4 043f c902 86bf 315f 06c0
00000360: d21d d0bf 8542 98bf 878a 3b40 5001 d0bf
00000370: 7311 63c0 eeeb b03f f1d7 b83f 0aa3 b1be
00000380: ef20 3cc0 39d6 63c0 ccee 0140 7de6 7cbe
00000390: a9fb dcc0 c008 e2be 89d2 863f 0651 52bd
000003a0: 33f9 963f f9a9 a53d 7637 b7bf a583 bd3f
000003b0: 1630 5740 18ea 70be d061 2e3f 912c 30c0
000003c0: df6c 6740 1f4b 3140 bc95 553e 6c04 963f
000003d0: 1991 383e 41c7 7d3d d21d 08c0 0c1f 95bf
000003e0: 4834 55bf 740a 9abe 65c6 7b3e b840 7640
000003f0: 2862 c93e 1a17 8abf c93a 143f ce53 19bf

B5 f4 [50]
-4.73084 -1.04135 -9.78409 -10.1277 -9.43678 -7.17503 -8.16013 4.43426
-1.85212 0.68789 1.79808 -0.0859898 -9.49371 0.431412 -2.42273 -0.0302576
0.735915 -2.70569 0.338211 -3.03297 0.898094 -10.4325 0.317664 -2.19105
-0.152142 -7.72936 -7.03833 0.0738344 -1.05914 -0.162279 -0.166456 -1.87722
-0.479436 -2.791 0.370794 -5.66564 -6.69045 0.364896 -2.46226 -1.66561
-1.1173 -9.55356 0.397942 -7.92652 -7.38808 0.0504238 -0.763545 -1.61778
-5.27762 0.530809
00000000: 0b63 97c0 f54a 85bf a28b 1cc1 0f0b 22c1
00000010: 0dfd 16c1 d999 e5c0 e48f 02c1 75e5 8d40
00000020: 4512 edbf 8f19 303f 7c27 e63f 6c1b b0bd
00000030: 3ce6 17c1 09e2 dc3e 020e 1bc0 c9de f7bc
00000040: ed64 3c3f 062a 2dc0 fe29 ad3e 2e1c 42c0
00000050: 7de9 653f 85eb 26c1 dba4 a23e 2a3a 0cc0
00000060: 1dcb 1bbe eb56 f7c0 003a e1c0 7d36 973d
00000070: e691 87bf 772c 26be 7173 2abe bf48 f0bf
00000080: a378 f5be be9f 32c0 b6d8 bd3e ec4c b5c0
00000090: 2b18 d6c0 a6d3 ba3e ab95 1dc0 b532 d5bf
000000a0: b003 8fbf 62db 18c1 0ebf cb3e 0da6 fdc0
000000b0: 276b ecc0 3089 4e3d af77 43bf 6a13 cfbf
000000c0: 43e2 a8c0 19e3 073f

W6 f4 [5, 50]
0.00640323 -0.0500606 0.00438446 0.00508257 0.00402168 0.00508032 0.00430521 -0.00758994
-0.00461709 -0.0049047 0.0191913 0.00610532 0.0024154 -0.00571532 0.0034455 -0.00607967
-0.00673098 -0.00513007 0.00909352 0.0039289 -0.00721358 0.00230842 0.0141973 -0.00469885
-0.00485501 0.00615363 0.0078692 0.00235061 -0.0266306 0.00204541 0.00632189 -0.0101309
-0.0125049 -0.0061632 0.00375232 0.00489524 0.004459 -0.00868435 -0.00479831 0.00675547
-0.0161215 0.00735312 0.0256916 0.00424134 0.0027877 0.000861844 -0.00603379 0.00206052
0.00675669 -0.0192338 -0.000135208 -0.0049849 -0.000215814 0.00221415 0.000100105 0.000277838
0.000575317 0.000349936 -0.000611244 -0.000133891 -0.000293034 0.00191746 0.000264041 -0.00372114
0.00716682 0.000456389 0.000133382 -0.00015465 -0.000865892 0.000836762 -0.000459251 4.898e-06
0.000160119 6.85826e-05 0.00120065 0.00113464 0.000494309 0.00126802 0.000257395 0.0134591
0.00747631 -0.000362382 8.18281e-05 0.000882808 0.01384 0.000887838 0.000619487 -0.000380531
-0.0132214 -0.000118428 0.00243777 3.13646e-05 0.00101507 0.000159459 -0.000238073 -0.00878434
-0.000490917 -0.0059464 0.000584857 0.000845907 -0.000483356 0.0024825 -0.00026639 -0.000162633
-0.000387375 -0.00138019 -0.000345371 0.000713036 -0.000129498 0.000227638 -0.000814389 -0.00131608
-0.00041303 -0.000475999 -0.00204993 9.40712e-05 0.000240588 0.000615785 -0.00132635 0.00951389
0.00256799 1.51753e-05 -0.00149629 0.000128927 0.00229173 -0.000803079 -0.00165664 0.00424032
0.000443082 -0.001532 0.00464104 0.0016547 0.00115822 0.000268038 0.0094046 -0.000663347
-0.000842952 8.41943e-05 0.0150554 3.77498e-05 0.00097521 -0.001509 -0.00038687 -0.000163191
-0.000801397 -0.00327083 7.13806e-05 0.0150852 6.63339e-05 0.000560886 0.000357923 -0.00576368
-0.00015912 0.00257383 6.64937e-06 0.000335929 0.000727798 0.000470475 -0.000483996 -0.000431048
-0.000748687 0.000867122 0.00101163 -0.00521146 0.00638304 -0.000173653 0.000265688 1.11249e-05
7.89807e-05 -0.00193986 0.00034402 8.99139e-06 0.00132821 0.000122712 0.000220563 0.00022056
-0.000234214 0.0017942 -0.000111253 0.0145518 0.007606 -0.00124754 -0.000832156 0.00137027
0.0152532 0.00127265 3.11315e-05 -0.000446799 -0.00611497 -0.000272795 0.000678965 0.000306065
0.00108697 0.000463578 -0.000188302 -0.00970356 -0.000645231 -0.00248273 0.000241104 0.000917042
0.00092464 -0.00199538 -0.000545223 0.000869853 -0.000115543 0.000319023 0.000818661 -0.000492901
0.000185461 0.000182256 -0.000585909 0.00119457 0.000267834 -0.00413813 0.000402279 0.000523376
0.000391578 -0.000216459 -0.000275798 -0.0109232 0.000267952 0.000647964 0.00278687 -0.000208353
0.00171536 2.8074e-05 0.00122944 0.0185121 -0.000564546 0.000267925 0.0103971 0.00038001
0.00110431 0.000693814 0.0153664 0.00131573 0.000572239 1.92179e-05 0.0137803 0.00059096
0.000214459 -0.00019792 0.00103655 0.000812752 0.000871261 -0.00858248 0.000511066 0.00962945
-0.000180637 0.000592645
00000000: 30d2 d13b 580c 4dbd 84ab 8f3b b08b a63b
00000010: 4cc8 833b d078 a63b b812 8d3b 08b5 f8bb
00000020: f54a 97bb 9bb7 a0bb 1337 9d3c 230f c83b
00000030: b04b 1e3b 9447 bbbb e6cd 613b f837 c7bb
00000040: 8d8f dcbb 251a a8bb fdfc 143c 01be 803b
00000050: e55f ecbb dc48 173b cb9b 683c d0f8 99bb
00000060: c716 9fbb 64a4 c93b d1ed 003c b10c 1a3b
00000070: 6b28 dabc 490c 063b db27 cf3b 13fc 25bc
00000080: 5ae1 4cbc abf4 c9bb 7ce9 753b 4068 a03b
00000090: ce1c 923b ce48 0ebc 243b 9dbb fd5c dd3b
000000a0: 3c11 84bc 71f2 f03b 3177 d23c f0fa 8a3b
000000b0: d8b1 363b 5fed 613a 19b7 c5bb ca09 073b
000000c0: 3967 dd3b 3490 9dbc 9fc6 0db9 5f58 a3bb
000000d0: 214c 62b9 461b 113b 76ef d138 c9aa 9139
000000e0: dfd0 163a 9d77 b739 e43b 20ba 1765 0cb9
000000f0: 5ca2 99b9 4853 fb3a fc6e 8a39 5fde 73bb
00000100: a5d7 ea3b 7f47 ef39 75dc 0b39 8b29 22b9
00000110: 07fd 62ba 265a 5b3a a0c7 f0b9 8059 a436
00000120: 9ee5 2739 01d4 8f38 215f 9d3a 33b8 943a
00000130: 8494 013a b133 a63a f9f2 8639 8f83 5c3c
00000140: d5fb f43b 17fe bdb9 209b ab38 3e6c 673a
00000150: 2bc1 623c cdbd 683a 1265 223a 0282 c7b9
00000160: 929e 58bc 8c5c f8b8 fec2 1f3b 7c8d 0338
00000170: 190c 853a 7334 2739 3ca3 79b9 31ec 0fbc
00000180: e2b0 00ba 05da c2bb 1751 193a dcbf 5d3a
00000190: f26a fdb9 70b1 223b 43aa 8bb9 7788 2ab9
000001a0: 9818 cbb9 7ee7 b4ba e912 b5b9 09eb 3a3a
000001b0: dbc9 07b9 1cb2 6e39 b87c 55ba 5180 acba
000001c0: f38b d8b9 818f f9b9 1e58 06bb 1748 c538
000001d0: 5946 7c39 a26c 213a ecd8 adba 26e0 1b3c
000001e0: b94b 283b 6b99 7e37 291f c4ba 9430 0739
000001f0: d930 163b b885 52ba 9d23 d9ba 62f2 8a3b
00000200: 764d e839 64cd c8ba de13 983b 85e2 d83a
00000210: 6acf 973a 7487 8c39 c015 1a3c 77e4 2dba
00000220: 8df9 5cba 7891 b038 edaa 763c 8a55 1e38
00000230: 3ca5 7f3a a3c9 c5ba d0d4 cab9 401e 2bb9
00000240: d814 52ba 6c5b 56bb 2bb2 9538 ea27 773c
00000250: be1c 8b38 6c08 133a 9da7 bb39 41dd bcbb
00000260: 73d9 26b9 b4ad 283b a71d df36 a11f b039
00000270: b2c9 3e3a 16aa f639 d8c0 fdb9 49fe e1b9
00000280: 8943 44ba 934f 633a ac98 843a e5c4 aabb
00000290: d228 d13b 9f16 36b9 0a4c 8b39 15a5 3a37
000002a0: 71a2 a538 e742 feba 955d b439 bad9 1637
000002b0: 5517 ae3a 40ac 0039 ee46 6739 2046 6739
000002c0: 5897 75b9 5d2b eb3a 8050 e9b8 ac6a 6e3c
000002d0: c13b f93b 7f84 a3ba 0b25 5aba a29a b33a
000002e0: 8fe8 793c 0ccf a63a 3293 0238 5940 eab9
000002f0: 1660 c8bb ed05 8fb9 92fc 313a 5977 a039
00000300: a978 8e3a 630c f339 ef72 45b9 aefb 1ebc
00000310: b824 29ba 4cb5 22bb ddd0 7c39 a665 703a
00000320: 8a63 723a ecc4 02bb 4ced 0eba d906 643a
00000330: ad4f f2b8 8b42 a739 699b 563a 0736 01ba
00000340: 4f78 4239 f91b 3f39 b097 19ba 1e93 9c3a
00000350: 126c 8c39 2799 87bb f9e8 d239 2b33 093a
00000360: b64c cd39 45f9 62b9 fb98 90b9 39f7 32bc
00000370: e97b 8c39 21dc 293a eca3 363b 5579 5ab9
00000380: eed5 e03a 7580 eb37 2925 a13a b0a6 973c
00000390: 0afe 13ba 4978 8c39 9958 2a3c 143c c739
000003a0: 7fbe 903a 12e1 353a 5ac3 7b3c 9374 ac3a
000003b0: 4f02 163a 2036 a137 c4c6 613c a7ea 1a3a
000003c0: 66e0 6039 bf88 4fb9 d9dc 873a dd0e 553a
000003d0: 5665 643a 889d 0cbc 0ff9 053a d7c4 1d3c
000003e0: 6069 3db9 bc5b 1b3a

B6 f4 [5]
-0.0179995 0.0204446 -0.0191097 0.0210797 -0.0161878
00000000: b073 93bc 6f7b a73c f28b 9cbc 56af ac3c
00000010: 479c 84bc
