data/acasxu/nets/ACASXU_run2a_3_8_batch_2000.onnx (onnx, 53878 bytes, 14 tensors)

W0 f4 [50, 5]
00000000: c222 f53b 133e 803b 7cdd 58bc 898f 74bc
00000010: b0ab 873b 6360 41bf f629 c7bc ffc7 2e3c
00000020: 03ac babc cf11 19bd 05a2 0a3c 5050 afbb
00000030: 2afe 6fbc 8bc2 913a 6633 07bc 17ba 7a3f
00000040: 9f8f b23d 1968 083d 004c 833d c526 683c
00000050: fdf3 593c e9af 72ba c170 cebd b020 8d3f
00000060: dcba 3bc0 bd89 963d 124d 30bf ee06 513e
00000070: e945 31bf e92a 5dbe e6d5 6f39 7497 24be
00000080: 3da9 b03d 1e8c c83e 8a55 ebbe edb2 043d
00000090: ab94 4a3f 8692 e93e f110 86be 0b25 633e
000000a0: af7a 003e 88b8 193d 72df 3a3e 30d8 853e
000000b0: 7e3a c63e d00e 93bc 2f6e af3f fbcb aebf
000000c0: f431 9f3b 9aef a03e 5bb0 b9bc e78c acbf
000000d0: 0e67 8ebf ba83 083e 94a0 dfbd 1202 e83c
000000e0: dcbd 943e 1a34 443e 3442 993d 08e5 1d3e
000000f0: 6e95 963c b96f 55be 1e6d a83f 97b2 87bd
00000100: 8197 793e 2439 aabc 9d80 f6be 28f3 ffbe
00000110: 54e1 8fbe d6c5 3d3e 7440 aabe 1adb 5b3e
00000120: 06e3 96bc 921f 61be d977 853e 60ae e23a
00000130: c156 09bf 40a6 613f adc2 46be f27d 913e
00000140: 7eff b63d 6762 82be 9563 323e e76d ccbe
00000150: 90f5 24be 4d3d 01bc 0165 b6bb 4eef 11ba
00000160: ed48 f5bb 0f16 e73b d7db 07bb 6e86 a3bf
00000170: aad4 943f 8c14 2a3f 2f4e 18bf fc8c 0b3e
00000180: 8d28 a13f 062b 4ebe 5453 323f 7b4e 5ebf
00000190: e736 013d 1b2e 4ebf 641e 793f 5c38 553d
000001a0: a5bd b9be ccb9 52bb 1587 9a3b d32b 39b9
000001b0: 97ff d23a 44df 3c3b 7ae4 6fbe 910f 12c0
000001c0: 1a86 1540 5a68 073e a9bc 4dbf a34b 893c
000001d0: 0459 333f ab26 34bf b286 46bd 889c de3d
000001e0: 410f f5bd 9487 9d3f 4f1e 9ebf c5c5 76bd
000001f0: c9e7 a5be 5019 0140 9a52 68bd cb58 be3c
00000200: fa2b 3fbc e361 4a3b 2a90 d93c 147b 383f
00000210: aaba 17be 2096 353f 79e8 47bf 22a7 0f3e
00000220: 7ced e1be a227 e5be 2e8f f53e 3e3d 163e
00000230: 4fa5 30bc 7897 af3f 86ac c2bf a511 f3bd
00000240: cd3e 1b3f 9e98 c9bf bc85 c3bb c6ee afba
00000250: 19d8 b63a 8888 93bb b8cc a7bb 69ef 423c
00000260: cfdc 833c 21e5 8a3b 2db9 e5ba 8dcc 883c
00000270: abaf 6e3e 51dd bc3e 11ff 30bf e5b4 233f
00000280: a018 793d 3e5c aabf dcd7 89be aaef 7c3e
00000290: 71cb 57be 6ed5 ca3d 5b94 99bf 12c2 b33f
000002a0: d6b3 7bbd 4f5a e83e 139e d0bd 8d45 d33e
000002b0: 8d97 cabf 020d 9e3e 9c1a a8be d064 dfbd
000002c0: 5d50 dfbf 7c7e f83f 0a15 c7bd 9640 063f
000002d0: 9a2f b53d c9c7 32bf 7b0a 4abc cba2 f8be
000002e0: 19c8 2f3f 649b af3c 6c5b 783f 1ec4 be3f
000002f0: 6d1c d93e 8f54 bfbe 44ba c4bc 49db 14bf
00000300: f44f 80be 385f b23b 13c8 f63c ab4e 583d
00000310: 3142 dcbf d3dd 35bd d2e2 043f 12a4 72bf
00000320: 88ec 683d 269d d23c 8029 bbbe de05 4abe
00000330: 4f3c 473e 645e e2bc ec17 ac3f 952b 5c3e
00000340: 3271 5b3e 4ed3 a7be 66a1 1dbe 84f0 a4bf
00000350: 4f23 893f 3ee8 09be f1b8 283e 6ade 29bf
00000360: fe38 0a3c 5469 153d 04aa 2f3e a52d 6e3e
00000370: 4d1a bebd 1d91 afbd 834a 22bc c893 093d
00000380: 73bd cd3d dba2 71bc 07d1 babe 8e23 0ebf
00000390: 0af2 13bf 431f 1c3f 1973 15c0 5071 1abc
000003a0: 1a62 443b 83b7 51bc ebd5 363c 940c 4a3c
000003b0: 10b1 01be 5c8f 423d 75c9 98be b6f8 dcbf
000003c0: 2696 4a3c dcbd 003f 857c b83f 0c5e 4fbc
000003d0: c983 bebc 27a8 3c3c 9e08 163f 1a6e a03e
000003e0: fd30 b23e 71a9 0abe
0.00748095 0.00391365 -0.0132364 -0.0149268 0.00414034 -0.755377 -0.024312 0.0106678
-0.0227871 -0.0373705 0.00846148 -0.00535015 -0.014648 0.00111206 -0.008252 0.979402
0.087188 0.0333024 0.0641098 0.0141694 0.0133028 -0.000925778 -0.100801 1.10256
-2.93328 0.0735049 -0.688676 0.204128 -0.692473 -0.215984 0.000228725 -0.160734
0.0862603 0.391694 -0.459637 0.0323972 0.791331 0.456196 -0.261848 0.221821
0.125468 0.0375295 0.182493 0.261415 0.387165 -0.0179514 1.37055 -1.3656
0.00485825 0.314328 -0.0226671 -1.34805 -1.11252 0.133315 -0.109193 0.0283213
0.290511 0.191605 0.0748333 0.154194 0.0183818 -0.208434 1.31583 -0.0662586
0.243742 -0.0207792 -0.48145 -0.499902 -0.281016 0.185325 -0.332523 0.214703
-0.0184188 -0.219847 0.26068 0.00172944 -0.53648 0.881443 -0.194102 0.284164
0.0893545 -0.254657 0.174208 -0.399276 -0.161093 -0.00788815 -0.00556624 -0.000556697
-0.0074855 0.00705219 -0.00207304 -1.27754 1.16274 0.664376 -0.594943 0.13628
1.25905 -0.201336 0.696584 -0.868385 0.0315465 -0.805391 0.97312 0.0520557
-0.362775 -0.00321542 0.00471581 -0.000176593 0.00160979 0.00288196 -0.23427 -2.2822
2.33631 0.132234 -0.80366 0.0167597 0.700577 -0.703715 -0.0484683 0.108697
-0.119658 1.2307 -1.2353 -0.0602472 -0.324034 2.01717 -0.0567194 0.0232357
-0.0116682 0.00308811 0.026558 0.720628 -0.148173 0.709322 -0.780891 0.140286
-0.441265 -0.447568 0.479608 0.146718 -0.0107816 1.37181 -1.52089 -0.118686
0.606427 -1.57497 -0.00596687 -0.00134226 0.00139499 -0.00450236 -0.00512084 0.0118979
0.0160965 0.00423874 -0.00175265 0.0166991 0.233092 0.368876 -0.691392 0.639479
0.0608145 -1.33094 -0.269225 0.247008 -0.210737 0.0990399 -1.19984 1.40436
-0.0614508 0.453814 -0.101864 0.41264 -1.58275 0.308693 -0.328328 -0.109079
-1.74464 1.94136 -0.0972081 0.524423 0.0884697 -0.698361 -0.0123316 -0.485617
0.686647 0.0214364 0.970145 1.49036 0.424045 -0.373692 -0.0240146 -0.581471
-0.25061 0.00544348 0.0301247 0.0528094 -1.72077 -0.044401 0.519086 -0.947816
0.0568662 0.0257097 -0.365551 -0.197288 0.194566 -0.0276329 1.34448 0.21501
0.214299 -0.327784 -0.153936 -1.28859 1.07139 -0.134675 0.164768 -0.66355
0.00843644 0.0364774 0.171547 0.232596 -0.0928236 -0.085726 -0.00990546 0.0335882
0.100459 -0.0147483 -0.364876 -0.55523 -0.577912 0.609852 -2.33515 -0.00942643
0.00299657 -0.0128001 0.0111594 0.0123321 -0.126652 0.0475 -0.298412 -1.72634
0.0123649 0.502897 1.4413 -0.0126567 -0.0232562 0.0115147 0.586069 0.31334
0.34803 -0.135412

B0 f4 [50]
00000000: 02f3 d0bc 597d ffbc deb8 bbbc 215c e13d
00000010: 9981 0ebf 997a c23d 1c34 853c 2b8a 073e
00000020: 8a4c 9abd 53ea fabe 3a85 46bd 37b5 bf3b
00000030: 6de4 da3d 4e2b e53d 3ad1 49bd f706 c7be
00000040: f374 3e3e 19f7 b0bc 1adf 67be 38dc 87be
00000050: dcb9 003e 7b82 69bc d785 ffbd 53cb a6be
00000060: ee6b 13bd b186 0f3f c4a0 623d 450e d13d
00000070: b0e4 c2be ff06 7dbe 611d a2bc c95b c9bc
00000080: f69a 5e3d 1aa7 c9be bb77 f9bc 4e60 aabe
00000090: e9d3 1a3e 7880 e7bd ada5 e03d 274d 43be
000000a0: ff7c b63c a4ce d23c ff25 c1be 952b dcbd
000000b0: 1ab6 173d e1ce aabd 3d9d 0fbf 8ca1 3cbf
000000c0: c085 69bb dfbf ae3d
-0.0255065 -0.0311877 -0.0229153 0.110039 -0.556665 0.0949604 0.0162602 0.132363
-0.0753413 -0.490069 -0.0484669 0.00585046 0.106881 0.111899 -0.0492718 -0.388725
0.185993 -0.0216022 -0.226437 -0.265352 0.125709 -0.0142523 -0.124767 -0.32577
-0.0359916 0.560649 0.0553291 0.102078 -0.380651 -0.247097 -0.0197894 -0.0245799
0.054347 -0.393853 -0.0304526 -0.332766 0.151199 -0.113038 0.109691 -0.190724
0.0222764 0.0257333 -0.377243 -0.107505 0.0370389 -0.0834024 -0.560993 -0.73684
-0.00356327 0.0853269

W1 f4 [50, 50]
00000000: 5045 bbbc 5cc7 3cbf af8e ed3c c976 1ebe
00000010: d40f 223f 3599 013e a793 843e 218f 7cbf
00000020: 9888 b73e 7289 93be 1a51 a63f 3b1b 223e
00000030: 32c8 4dbf 9701 63bf 9430 05c0 fa7e 40c0
00000040: d2df 37bf 6c04 c7bc 0da9 0a3f 3ba9 3bbf
00000050: e99a 0d3f 00ab e5bb 4912 443f c6fc a4be
00000060: fda4 96bf 753d 313e a987 a4bf 096d 193f
00000070: 91ed 883f b493 edbf 3455 66bc bd1a 703f
00000080: cea6 c33e 4f58 363f c4d2 20be 520c 083f
00000090: cd06 09c0 e691 6bbf ef3c 01bf b41f bd3f
000000a0: 9bc9 c3bf 412b ccbf 800e b3bf 323b 2b3e
000000b0: 5f7d 20bf d6ff b5c0 a6d1 38bf 80d4 9a3f
000000c0: 4b77 0fbf 7b4e aebf 3c0c 12bd a836 d03e
000000d0: 5e8b 11bd b307 d2bf 3c9f 013e cbe4 4c3b
000000e0: 95f2 d23e 33df b13e 1789 3fbd e965 bcbe
000000f0: 23c0 843d 1fbd 21be 4dba dd3e d40c 993d
00000100: 9c30 e13d 909e 9abe ca88 dbbe a18e dc3b
00000110: ffb3 26bd 0fee b6be c5e7 3ebe fb93 f83c
00000120: fa2a 913e f949 c5bf 39b3 3dbe f146 0e3f
00000130: ba84 d3be babf 4abe 3f01 743e c2c1 0abf
00000140: aef7 b6bc fd83 a83e 569b 4f3e 572f b53d
00000150: 39b4 903e e99b 14be fc56 66bd 91ef 223e
00000160: a20c c5be cf30 85be e946 90be 919d 973e
00000170: 3067 06be c68b e5bd a322 eebd a4a7 58be
00000180: c635 32bf a9f6 d1be 5cab 79bf 4d2c 103e
00000190: 208f aa3c 2d90 25bd 093b bdbb 6e66 19bd
000001a0: d64c 03bd 3d03 14bd 2618 cebc 138c 47ba
000001b0: ff8c 9c3c 8b9a 793c 4b55 5fbd edb5 45bc
000001c0: 7efc 8abc ef9b 113d 3675 1ebd b349 38bb
000001d0: 27d7 f9bc c992 f9bc 7c77 90bc f6be a73c
000001e0: 9368 0fbc f5fa aebc 2672 813c e107 883b
000001f0: 2f85 ecbc 9beb cfbc db97 3dbd 7ee8 5dbd
00000200: 3c99 09bc f3e5 253d 9271 b13c a0c0 603c
00000210: b816 b73c b21b 0cbd aedb 9cbb 8f99 7abc
00000220: f43a de3b d6ce 093c d18e e1ba 9593 9a3c
00000230: 1d53 1cbd 7d86 a63c 063d a5bc f7f5 4f3b
00000240: 379e d9bc 1153 e23c fe67 e83c d30d 393c
00000250: a8ff 4cbd 61af ea3b 0e3e 9ebc e353 84bf
00000260: ea17 563d 9487 41c0 4058 db3b 27a0 49be
00000270: 78f0 833d 3751 4bbc 08e9 f13e 1b12 b7be
00000280: 5936 f3bd 194f 293c 140e 18bd 88f3 20be
00000290: ff78 33bf 429b f73c bca5 06bd c394 8e3b
000002a0: 094f 0cbf 8c9d 98be 30ed 403d 6b0d 253a
000002b0: d8b7 333e a6b8 0ebf 1fba 903e 40fb fd3f
000002c0: 3a05 79bd cff9 c93e c936 753d 8126 36c0
000002d0: b8d0 0fbc 7533 68bd 2a1f 22be 8121 ebbd
000002e0: fb40 123e 6ab5 913d a9be 533e edbc dd3e
000002f0: a8fe e9be 9be3 dc3d b345 d23d f0c1 e3be
00000300: 990c 27bd 807c 8e3d d201 1d3f 0f09 7fbe
00000310: 130a a0c0 bc78 0f3e 459b 73be fef0 533e
00000320: 381f cbbb cafe 253f 3bd0 9a3b 664f 62bf
00000330: a1a3 45be efff 03be 658d 82bf 1360 a03e
00000340: df29 ee3c 2a6f 833f 7502 62bf 12d9 47be
00000350: 15e6 fd3d 1761 a23e ed9b 2bbe abcf f4c0
00000360: 1b2b 31be 3b0a 863c f3c6 253f 91de 05bc
00000370: 62bc 06be 726d 53b9 8944 21be 0a86 173f
00000380: d6ac dbbe 5930 f93e 809e ae3e 6361 58bf
00000390: 897d 1e3f 3d5f 0b3f ceb1 b2bc 603c d3be
000003a0: 5b0c ae3e 5ce4 1a3f 0892 9f3e 5f60 663e
000003b0: e8d8 e6bc 4608 af3e 2409 5e3f a532 55be
000003c0: 1190 cf3d 8775 fe3c 7364 25be 72b9 9b3d
000003d0: aa9e 703f b152 59bf 3c68 16be 0b46 85bf
000003e0: 85ce 0bbe 57af 9abe 0d78 cf3c 215c d13e
000003f0: b374 0a3d 77f6 553e 78be fa3c 0cb2 40bc
-0.0228602 -0.737417 0.0289987 -0.15475 0.633054 0.126561 0.258939 -0.986559
0.358464 -0.288158 1.29935 0.158307 -0.803836 -0.886743 -2.08109 -3.00775
-0.718259 -0.0242941 0.541642 -0.733051 0.553145 -0.00700891 0.765904 -0.322241
-1.17691 0.173086 -1.28539 0.59932 1.06975 -1.85607 -0.0140584 0.937908
0.382132 0.712285 -0.157054 0.531438 -2.14104 -0.920195 -0.504836 1.47753
-1.52959 -1.59507 -1.39888 0.167218 -0.626913 -5.68748 -0.721949 1.20961
-0.560414 -1.36177 -0.0356562 0.406667 -0.0355333 -1.64086 0.126584 0.00312643
0.412007 0.347406 -0.0467616 -0.367965 0.0648196 -0.157948 0.433062 0.0747315
0.109956 -0.301991 -0.428778 0.00673087 -0.040699 -0.357285 -0.186431 0.030344
0.283531 -1.54132 -0.185254 0.55577 -0.413122 -0.197997 0.238286 -0.542019
-0.0223349 0.329132 0.202741 0.0884692 0.282625 -0.145126 -0.0562353 0.159117
-0.384862 -0.260138 -0.281791 0.296124 -0.131253 -0.112083 -0.116277 -0.211577
-0.696133 -0.410085 -0.975271 0.140794 0.0208202 -0.0404207 -0.00577486 -0.0374512
-0.0320557 -0.0361359 -0.025158 -0.000761212 0.0191102 0.0152346 -0.0545247 -0.0120673
-0.0169661 0.0355491 -0.038686 -0.00281201 -0.0304981 -0.0304655 -0.0176351 0.0204768
-0.00875296 -0.0213599 0.0158015 0.00415133 -0.0288721 -0.0253809 -0.0462874 -0.0541768
-0.00839835 0.0405025 0.0216606 0.0137178 0.0223497 -0.0342061 -0.00478693 -0.0152954
0.00678193 0.00841113 -0.00172087 0.0188692 -0.0381652 0.0203278 -0.0201707 0.00317323
-0.0265647 0.0276275 0.0283699 0.0112948 -0.0500485 0.00716202 -0.0193167 -1.03381
0.0522689 -3.0239 0.00669387 -0.1969 0.0644235 -0.0124095 0.472481 -0.35756
-0.118756 0.0103338 -0.0371228 -0.157179 -0.701065 0.0302254 -0.0328729 0.00435123
-0.548081 -0.298077 0.0471012 0.000629625 0.175506 -0.557505 0.28267 1.98423
-0.060796 0.394484 0.0598667 -2.8461 -0.00877779 -0.0566897 -0.158322 -0.11481
0.142826 0.0711468 0.206782 0.433082 -0.457021 0.107856 0.102672 -0.444839
-0.0407835 0.0695734 0.613309 -0.249058 -5.00123 0.140109 -0.237897 0.206974
-0.00619879 0.648419 0.00472453 -0.884024 -0.193007 -0.128906 -1.01994 0.313233
0.0290727 1.02683 -0.88285 -0.195164 0.123974 0.317147 -0.167587 -7.65035
-0.173016 0.0163623 0.647567 -0.00817074 -0.131578 -0.000201633 -0.157488 0.591889
-0.429053 0.486697 0.341053 -0.845236 0.619103 0.544422 -0.0218133 -0.41257
0.339938 0.605047 0.311661 0.224977 -0.0281796 0.34186 0.867327 -0.208201
0.101349 0.0310619 -0.161516 0.0760373 0.939921 -0.848918 -0.146882 -1.0412
-0.13653 -0.302119 0.0253258 0.408906 0.0338027 0.208948 0.0306084 -0.0117612

B1 f4 [50]
00000000: 35f9 9c3d 28f0 8e3e 8d9d 8bbc c3f0 913f
00000010: f5d7 4b3d 96fe 9438 5071 c4be 4ecd 8abc
00000020: f4d7 50bc 6361 08be 5689 88bd 5652 9dbc
00000030: a4a6 7dbf 93e3 863f d7a4 43bf 4e97 99bf
00000040: 50e2 633f 7120 8cbf 0a65 713f e091 67bc
00000050: 595b e7bb 6ae4 093d 9981 f2be c782 1abf
00000060: 4182 e23d cf31 54bf b5a6 81bf dbf7 e8bd
00000070: 3048 0e3f 3f8c 2c3f 0fd4 e9be 7940 9d3f
00000080: 38bd cdbb bf1a 96bc 9410 51bd 2502 253f
00000090: 228e 71bf 2288 173f b1bf 983f 23f7 2c3f
000000a0: d7df 02be fe5c 38bb 7ac2 36bf 07d0 cf3d
000000b0: 56d4 40be ec6e dcbb f9bf 233f 9a07 503e
000000c0: 289e 9b3e f5ec 9ebc
0.0766472 0.279176 -0.0170429 1.14016 0.0497665 7.10461e-05 -0.383677 -0.0169436
-0.0127468 -0.133184 -0.0666682 -0.0192043 -0.990824 1.05382 -0.764234 -1.19993
0.890172 -1.09474 0.942948 -0.0141339 -0.00706045 0.0336651 -0.473645 -0.603558
0.1106 -0.828885 -1.0129 -0.113754 0.555789 0.674015 -0.456696 1.22853
-0.00627866 -0.0183233 -0.0510412 0.644564 -0.943575 0.591921 1.19335 0.675646
-0.127807 -0.00281316 -0.713905 0.101471 -0.18831 -0.00672709 0.639648 0.203154
0.303941 -0.0194001

W2 f4 [50, 50]
00000000: 67b8 d13f 95d2 433e 368b fc3c c30d 303f
00000010: d3a1 23bf f0c4 003f 5377 093f 27d5 23bd
00000020: 79fe bcbb 739d 86be 815e 343f b3a2 3cbd
00000030: 06f4 4abf 8fe4 923e 4451 40be 4ad3 b8be
00000040: a9ce c4bd 04e7 bbc0 7974 633f f356 1d3d
00000050: 6180 0e3d 7f2e 4a3f ddd3 41bf d2e5 613f
00000060: 81d0 f2be dbc4 a93f c68a fa3d 2bfb 9e3f
00000070: f294 e5be bf49 e3be d7c0 923f 9cdc c7bf
00000080: c5d0 403d c84d 23bd c482 36bd b684 f4be
00000090: 4a0b 373d c3b9 66bf 5b07 533f f34e 4fbc
000000a0: fb41 983d 66b0 183d 4be5 353f ed47 3ec0
000000b0: b5a4 173f d261 f4bc 0abb 10bf 3b8d 40bf
000000c0: 581e 703f 0fa6 973c b8ae 683e e449 a23e
000000d0: 7dac 05bd 3a07 53bf 1a50 cf3d 9cbf 99bf
000000e0: 1422 afc0 ca00 2b3c a493 80bc d47d 0840
000000f0: 0664 0b40 1a1b f8bb 09a7 17c0 3524 523f
00000100: bf61 263f b4dd 2e3d 390a 90be aeba 26bf
00000110: d908 c0c0 1c65 f9bb dcd2 8fbc ab95 91c0
00000120: 4ace 09bf 7e57 24c0 38f8 c6bf d1cb 48be
00000130: 232d 993f 0abf b83f f321 14bf cc7f 84bf
00000140: 3561 c33e 4013 50c1 3b1b b23c 2ed2 fabc
00000150: ad73 22bd 56df ef3c 2670 96c0 da55 c8bf
00000160: b16b 5f3f 2638 e5be 36c8 b0bf 3501 10bd
00000170: 9ea4 00c1 35b5 50bf ae0e d83e 24dc ff3c
00000180: 02d9 833e 0b98 26c0 69fc 12bf ac46 05bd
00000190: 16c3 80bd 130f 343f fb12 00bd ce88 623e
000001a0: 0cb8 7d3d 8674 58be 6c09 8d3f ae8f fdbc
000001b0: 4e72 513c 484e 3a3f 6a4e 2a3f 1ddc 47bd
000001c0: 2785 913e 2cd6 30bf 7ba2 83be 397c 623e
000001d0: 4758 e43e 198f 123f bed9 3e3f b370 43bd
000001e0: 60be c6bc a2ef 723f a838 a6be f5d6 94bf
000001f0: 964d bf3d 5a64 4bbf 77d9 5fbe aa44 6d3f
00000200: b325 b33e 3673 38be 61dd 44bf a73b 7fbe
00000210: 8590 38bd deb8 7bbc 2375 f13c 60af 50be
00000220: 0f97 343f 8027 d5be 6268 353e 9203 563e
00000230: c959 a43f a90c 2d3d 23db b93e 8717 243f
00000240: 6347 63be cee0 efbc 6155 0d3e 5089 0f3f
00000250: 8ffc 953f f52c 283d aa60 d43e ac3b 363d
00000260: 3fbb 8d3c 4f2b bb3d 1d8e b6be cc96 60bf
00000270: 4a24 dd3f 37ce 9c3c e4c9 a4bc 0f0a 62bf
00000280: cf12 74be 852f 823b d7c0 563e 452f e3bd
00000290: b41f 093e 8a3f 4a3e 64ac 763d 54c8 293f
000002a0: 8b37 fa3e 7e6c 17bd f4c5 3ebd 1b64 2240
000002b0: a4a5 72bf f1d7 ac3f 34a2 c43e b762 8b3f
000002c0: 2880 c23e 61fd 3f3e b9e1 7f3f 6c5b 1c3f
000002d0: 7ac2 17bd 3d98 f4bd 977a 4cbc 51d4 3e3c
000002e0: 2e1f eabb bc7a d53d da1a 61bf ad6e a13f
000002f0: 91f2 cf3f 1b9b f5be ebad adbf 5cae 1bbc
00000300: 809b bdbe 3df3 a23e 772f 273f a919 4e3b
00000310: 2e39 96be 5f8f d33c 058b 87bf c396 43bd
00000320: 9e7d e53e 0458 fc3e d415 e43b 4e7a 93bf
00000330: 622d 1e3e 2e90 803f 7380 85c0 d95b 0a3d
00000340: 3621 4dbd 9580 743f b1a2 8ebf dbb0 1abc
00000350: 766c e8bf d3bc 0dc0 e735 c6bf e8bc ae3e
00000360: 685b a5be d39f 0140 b309 1cbf 1f66 afbc
00000370: 072b a93c b401 a83e f298 95c0 2506 61bf
00000380: fdc1 903e c059 b23e 9d2f 063f 4694 0ac0
00000390: ce52 ca3e 0951 b6be 670f c0bf 423e e8bd
000003a0: a8c1 593d 20bb 26bd 17ff eb3b 85c4 67bd
000003b0: 6152 f43e edba 673e fc09 bdbd c13b f13e
000003c0: c0e8 d2bd 5bcc 153b 0a82 97be a884 2cbd
000003d0: 64d0 05bc e7d8 57ba 205a d03c fe0a 69bf
000003e0: 0e15 873f e518 1fbd 9bfe 44bf 4aeb 173f
000003f0: f95f 93bc 7497 043d a051 1abe babd 1a40
1.63844 0.191233 0.0308281 0.68771 -0.639188 0.503005 0.536977 -0.0399982
-0.00576764 -0.26292 0.704567 -0.0460536 -0.792786 0.2869 -0.18781 -0.360987
-0.0960973 -5.87195 0.888496 0.038413 0.0347904 0.789772 -0.757139 0.882413
-0.474247 1.32632 0.122335 1.24204 -0.448402 -0.443922 1.14651 -1.56142
0.0470741 -0.0398691 -0.0445583 -0.477575 0.0446885 -0.901272 0.824331 -0.0126531
0.0743446 0.0372776 0.71053 -2.97314 0.592357 -0.0298318 -0.565354 -0.752155
0.937963 0.0185118 0.227229 0.31697 -0.0326352 -0.824329 0.101227 -1.20116
-5.47291 0.0104372 -0.0156954 2.13268 2.17798 -0.00757159 -2.36957 0.820865
0.649929 0.0426919 -0.281328 -0.651286 -6.00108 -0.00761093 -0.0175566 -4.54952
-0.538304 -2.56784 -1.55445 -0.19609 1.19669 1.44333 -0.578643 -1.03515
0.381601 -13.0047 0.0217415 -0.0306178 -0.0396611 0.0292813 -4.70119 -1.56512
0.872737 -0.447694 -1.38111 -0.0351574 -8.04019 -0.815265 0.421987 0.0312329
0.257515 -2.60303 -0.574164 -0.0325381 -0.0628721 0.703355 -0.0312681 0.221225
0.0619431 -0.211382 1.10185 -0.0309523 0.0127836 0.727757 0.665259 -0.0487939
0.284219 -0.690768 -0.257099 0.221177 0.445986 0.572496 0.74551 -0.0477149
-0.0242607 0.948969 -0.324651 -1.16281 0.0934097 -0.7945 -0.218603 0.926829
0.349897 -0.180127 -0.769003 -0.249251 -0.0450597 -0.0153639 0.0294748 -0.203794
0.70543 -0.416317 0.177156 0.208998 1.28399 0.0422484 0.363 0.640984
-0.221952 -0.029282 0.138021 0.560689 1.17177 0.0410585 0.4148 0.0444905
0.0173012 0.0913912 -0.356553 -0.877301 1.72767 0.0191413 -0.0201158 -0.882966
-0.238353 0.00397295 0.20972 -0.11093 0.13391 0.197508 0.060223 0.663213
0.488705 -0.0369687 -0.0465755 2.53736 -0.94784 1.35034 0.38405 1.08895
0.379884 0.18749 0.999538 0.61077 -0.0370507 -0.119431 -0.0124804 0.0116473
-0.00714483 0.104238 -0.879316 1.26119 1.62459 -0.479699 -1.35687 -0.00950202
-0.370327 0.318262 0.653068 0.00314484 -0.293405 0.0258252 -1.05893 -0.0477512
0.448224 0.492859 0.00696061 -1.15217 0.15447 1.0044 -4.17193 0.033779
-0.0500805 0.955087 -1.11434 -0.00944158 -1.81581 -2.21465 -1.54852 0.341285
-0.322963 2.02538 -0.609523 -0.021411 0.0206504 0.328138 -4.67492 -0.879
0.28273 0.348341 0.524164 -2.1653 0.395163 -0.356087 -1.50047 -0.1134
0.0531632 -0.0407058 0.00720204 -0.0565839 0.477191 0.226299 -0.0923042 0.471159
-0.102983 0.00228574 -0.295914 -0.0421187 -0.00816736 -0.000823392 0.0254336 -0.910324
1.05533 -0.0388421 -0.76951 0.593434 -0.0179901 0.032371 -0.150702 2.41783

B2 f4 [50]
00000000: 6bb7 01bf d7dc 21be 1c56 c2bd fce3 91bf
00000010: d1b0 f8be dbfa 493f e6e8 e5bf a96a 24c0
00000020: c45f abbf fa45 19be e8da 17bf 8274 0d3f
00000030: 1b12 b7bf ace1 62bf 8e40 06c0 1d94 8cbf
00000040: 4a2c e7bb 0b99 3fbf a9f6 c1be 4b8c 9abd
00000050: 2cab 7abd 8ae9 7abf 813d 5e3f 3693 37bf
00000060: aaf1 aebf c728 743c 7902 2dbf aa40 10bc
00000070: c2a4 6cbf a3af 14bf 0951 7abf 1d3c abbe
00000080: 60d9 56bd a1b9 cebf aaba 87be 2844 943f
00000090: 016a 36c0 35b5 0cc0 8863 29c0 903e dcbc
000000a0: 9773 bdbf 46ce 1c40 a1f2 a7be fc15 17bd
000000b0: 0075 6fbf 12b2 bdbd fbaf 5fbf fe0e cdbe
000000c0: d316 0fbf b329 2fc0
-0.506705 -0.158069 -0.0948908 -1.13977 -0.485724 0.788984 -1.79617 -2.56901
-1.33886 -0.149681 -0.593184 0.552559 -1.43024 -0.886256 -2.09769 -1.09827
-0.00705484 -0.748429 -0.378835 -0.0754629 -0.0611984 -0.980126 0.868126 -0.71709
-1.36675 0.0149023 -0.675819 -0.00880448 -0.924389 -0.580805 -0.977799 -0.334443
-0.0524534 -1.61504 -0.265096 1.15833 -2.85022 -2.19856 -2.6467 -0.0268853
-1.48009 2.45009 -0.328023 -0.0368862 -0.935379 -0.0926248 -0.873779 -0.400505
-0.558942 -2.73692

W3 f4 [50, 50]
00000000: 48c4 d03f a566 bb3f 4818 563f f33b d5be
00000010: 546f 1540 58c5 a7bf f6d1 893f 8f34 f0be
00000020: 7b4e e23f 1d20 d4bf 1990 81bf b804 603e
00000030: 86cb 0abf 7e6f 473f 7d96 b73f 4431 e1be
00000040: 6ab6 bcbc 4eb4 83bf 7b31 4440 2d5b 3340
00000050: 6edc 463f bb53 8bbc 0058 bd3e 42eb 1fbc
00000060: 9b20 d23f 7c7b f73d 4209 1340 4b17 c7bc
00000070: 7cd1 e6be 3bc2 0340 12bd 6c40 e735 c6bf
00000080: c065 643d 8447 7f3f 6dac 783f 7b66 613f
00000090: 7c9b aabf bf9a 973f 562b 7740 84c3 a03b
000000a0: 8dd1 023f ef54 18bf 72c4 8a3f ecfd a1bc
000000b0: 0725 c43f e162 91bf 17b8 dcbe 276c 1fbe
000000c0: 4eef 0e3f 9f0b 993d 8732 203f 035b 953f
000000d0: 8a06 05bf ff83 feba 4d32 2ebf 3e3d bebe
000000e0: 8d69 ac3d 3acc 19c0 53af b3be 9d89 84bc
000000f0: 8c30 25bf 2f32 91be af79 edbe 1de6 373f
00000100: 3528 3e3f 658b 103f 96e3 3a3c 1d3e 64bd
00000110: 800e a7bf 37fd 013f c973 bdbe 99f1 22bf
00000120: f9a2 fd3d 9a5c 34bf de02 0d3f 3a92 173f
00000130: 82ff cdbf c999 5c3c 9b56 02bf e6de 6dbd
00000140: 6345 7d3e 9816 45be 2851 253d 9e96 27bf
00000150: 7e6f ab3f 0534 e13e 4469 4fbf 1826 1bbf
00000160: 9142 5d3f 5756 ffbc 42de 9cbd 77c4 7c3d
00000170: f9f8 b43e 838c 1b3d f4a3 31bf 8e58 1340
00000180: ae9d 98be 3160 f13e 4431 1dbf 34d8 043f
00000190: e7c3 6b3f 83d9 293c 6ea4 9c3e f06d 5abf
000001a0: 05c0 803f dffc 86be 7a1b 27bf 145c 0240
000001b0: 4c34 6c3f d4b8 8fbe 20d1 2c3f 3f02 87be
000001c0: 3d0a 0f3f 9621 8e3f 38db 8c3f 506d a03e
000001d0: c7e2 adbc 6c40 fcbe 76e0 743f b08f a2bf
000001e0: 7023 05be 959e 153f 09dd 31bf b935 0dbf
000001f0: bf47 b5be afb3 e13d dcba 87bf ec8f 2b3d
00000200: 7bf5 05bf db85 c2bf e9d1 003f 0476 05bf
00000210: f15d 6f3c ccb4 313f 6765 0b3f d509 d43f
00000220: 6d3c 483e 5795 d53f 2384 3140 021d 77bb
00000230: 8fdf 833f 8751 f8be dc81 dabe bf93 e03c
00000240: 342f b73e 0e4a 8340 e7c6 643e 2ff7 4dbf
00000250: 39d4 3f3e 054f 1d3f 630d ff3e 71ac 4bbe
00000260: 205e 133f 1f86 a1bd c827 583f b75d 183e
00000270: bf1d f23c d07e 3c40 f5f2 cbbe 1782 983b
00000280: e5b3 7c3e 965d f83e eb54 09bf b22e 6a3f
00000290: 6ae2 88bd 6e33 453e 5389 bc3c d734 87be
000002a0: baff 1ebd a81b 903e f489 943f dd45 883e
000002b0: db48 9ebd 1a29 253c 070c dabe 0e84 e0bf
000002c0: d17a 533c 9b11 6f3c ec6f 24bd 4b01 4e3d
000002d0: 7b05 333c c2de 94be 9cf6 19bd c2f9 f4bd
000002e0: db33 cbbf 93fd 23be a306 abbf 93e0 39bf
000002f0: 1269 0b3e 93cd b0bc c3ad acbd 9a78 a73e
00000300: b7b8 0a3f 9f88 8f3c 6d90 c13e 2bd9 17c0
00000310: 17a7 12bc 56c5 cabc 890c d7bf 9430 9fbf
00000320: d0d2 d5be 1aa8 ec3d 22c2 1bbf 7574 343f
00000330: dcbb 56bf 7b88 8ebe 4777 983e 5fd4 a6be
00000340: f0fd 4dbf 2b5d 0b3d c4b3 5cbf 9454 c1bc
00000350: 1a4d 32bf 1cee 07bf bcc9 6fbe 817c 293e
00000360: fd4f 993c 6ff4 153f a643 473e 95ba 0c3f
00000370: b680 0c3f 8bc0 28be af05 cdbe 2f19 37be
00000380: 8bc2 42bf fdc1 40bc 1496 fcbf d93d 3ebd
00000390: 302d 6a3f 984e 8b3e ce38 adbe 9d11 793f
000003a0: ecf0 fcbc 3eae 95bf 2254 893e 38f8 dabf
000003b0: 261b e7be 23d7 69bf 9f93 86bf 821c 35bb
000003c0: 2062 273f a0e0 42be aa2b c7be 2e5b c6bc
000003d0: df1a ccbf b953 6ebf 4cfa fb3d 062f 8e3f
000003e0: 3ba2 07bd 272f f2bd 5ddc d23f 3a3b 4940
000003f0: 75bd 7e3d fbe8 843f 2827 5a3f 355e 0c40
1.63099 1.46407 0.836308 -0.416473 2.33492 -1.31071 1.07672 -0.469151
1.76802 -1.65723 -1.01221 0.218768 -0.542168 0.779045 1.43428 -0.439829
-0.0230362 -1.02894 3.06552 2.80244 0.776801 -0.0170077 0.369812 -0.00976068
1.64162 0.120841 2.29744 -0.0243031 -0.450817 2.05873 3.69904 -1.54852
0.0557611 0.997185 0.971381 0.88047 -1.33287 1.18441 3.86202 0.00490612
0.51101 -0.595046 1.08412 -0.0197744 1.53238 -1.13583 -0.431092 -0.155686
0.558339 0.0747292 0.625771 1.16684 -0.519631 -0.0019418 -0.680455 -0.371561
0.0841857 -2.40309 -0.350947 -0.0161789 -0.645272 -0.283586 -0.463819 0.718355
0.742801 0.564627 0.0114068 -0.0557233 -1.30513 0.50777 -0.370024 -0.636499
0.123846 -0.704538 0.550825 0.592075 -1.60936 0.0134644 -0.509134 -0.0580739
0.247335 -0.192469 0.0403606 -0.654642 1.33934 0.43985 -0.8102 -0.60605
0.864297 -0.0311691 -0.0765958 0.0617108 0.353462 0.0379758 -0.693908 2.30228
-0.298078 0.471437 -0.614033 0.518924 0.920958 0.0103668 0.305942 -0.85324
1.00586 -0.263648 -0.652763 2.03687 0.922673 -0.280707 0.675066 -0.263689
0.55875 1.1104 1.10044 0.313334 -0.0212263 -0.492679 0.95655 -1.27001
-0.130018 0.584451 -0.694779 -0.551601 -0.354063 0.110206 -1.06039 0.0418853
-0.523277 -1.51971 0.503203 -0.521332 0.0146098 0.694165 0.544516 1.65655
0.195543 1.66862 2.77369 -0.00377065 1.03026 -0.484997 -0.426772 0.0274142
0.357782 4.10279 0.223415 -0.804553 0.187333 0.614487 0.498149 -0.1989
0.575655 -0.0788691 0.844357 0.148795 0.0295552 2.94524 -0.398338 0.00465418
0.24678 0.485089 -0.536452 0.914775 -0.0668381 0.192579 0.0230147 -0.264075
-0.0388181 0.281461 1.16046 0.266158 -0.0772874 0.0100806 -0.425873 -1.75403
0.0129077 0.0145916 -0.0401458 0.0502942 0.0109266 -0.290762 -0.0375887 -0.119617
-1.58752 -0.160147 -1.33614 -0.726083 0.136143 -0.0215824 -0.0843158 0.327092
0.541881 0.0175212 0.378055 -2.37263 -0.00895097 -0.0247523 -1.68007 -1.24367
-0.417624 0.115555 -0.608431 0.704902 -0.838804 -0.278385 0.297785 -0.325839
-0.804656 0.0340244 -0.862118 -0.0235999 -0.696489 -0.530977 -0.234168 0.165514
0.0187149 0.585761 0.194594 0.549722 0.548839 -0.164797 -0.400434 -0.178807
-0.760781 -0.011765 -1.97333 -0.0464457 0.914752 0.272084 -0.338324 0.972925
-0.0308766 -1.16938 0.26822 -1.7107 -0.451379 -0.913439 -1.05138 -0.00276354
0.653841 -0.19031 -0.389005 -0.0242134 -1.59457 -0.930965 0.123036 1.11081
-0.0331137 -0.118254 1.64735 3.14424 0.0621924 1.03836 0.85216 2.19325

B3 f4 [50]
00000000: 30bb f3bf 08ae 3ebf fb3f 1340 8cb9 23bf
00000010: 47c9 23c0 f8aa b9bf ea8c 54bd 2f51 81c0
00000020: 3659 d3bf 713c 733f 2255 d4be 7e8c 1bc0
00000030: 6074 2dbf 696e 393f 72c2 9cbe 3bc2 71c0
00000040: 71e8 653f d2b6 d03c d6ad aa3f 4bca 293f
00000050: 0e84 a0bf dec9 3b3f 2905 6bc0 8b89 3340
00000060: 4625 9dbf 6fd8 7ac0 d23a febf 2767 283e
00000070: ff04 33bf 6211 23bf 0474 37bf 3fa9 b2bf
00000080: fd68 0c3f a9fb f8bf 9753 123e 0f7c 78bf
00000090: d3d9 adbf 6189 d7bf a5bf 17bf 23f3 a83f
000000a0: ed0d fe3f d602 6b3f 90dd 253f 31cd 18bf
000000b0: 26ff 13bd f2cd 06c0 f129 fcbf c819 543d
000000c0: dc76 6bbc 9929 3dbe
-1.90415 -0.744843 2.30078 -0.63955 -2.55916 -1.45053 -0.0518922 -4.04116
-1.65116 0.950141 -0.414712 -2.43045 -0.677557 0.724341 -0.306171 -3.77748
0.898078 0.0254778 1.33343 0.663243 -1.25403 0.733549 -3.67219 2.80527
-1.2277 -3.91946 -1.98617 0.164456 -0.699295 -0.636984 -0.716614 -1.39579
0.548477 -1.94518 0.142897 -0.970643 -1.35821 -1.68388 -0.592768 1.31992
1.9848 0.918012 0.647912 -0.596881 -0.036132 -2.10632 -1.97003 0.0517824
-0.0143716 -0.184729

W4 f4 [50, 50]
00000000: d6fd 133f 083d 8b3f 86aa 443f f90f ad3f
00000010: f486 ebbe 950d b3be 1fd8 2dbf 2943 b0bd
00000020: 906b 43be 14e8 13bf 9066 7c3e b5a6 b13f
00000030: b502 e03b a706 823e 7827 ef3e 8df1 bc3c
00000040: 0b5f dfbd 699c c73d 16dd 1a3f ef1b 9f3e
00000050: 2714 42be ad15 75bf 7689 6a3e 3542 3fbe
00000060: 3830 89be 3aeb c3be 8cf2 ccbd 0612 afc0
00000070: 7b68 573f 404d ad3e 0915 843e ce4f 41be
00000080: bf0d 25bf 2f50 923e 8a7e 933d 56f5 cabe
00000090: f1f4 96bf 577a dd3e 07b1 77c0 61aa 91be
000000a0: b9fe 053f bc21 59bf 3c4c 3b3f 9fe3 33be
000000b0: c777 b1bb eeed 363e 64cd 20bf a565 493c
000000c0: a923 913b b0e6 e8be 9bec 1bbc 8a56 9e3e
000000d0: c4ea 77bf 601d 073f 38bb ed3e 1316 bb3d
000000e0: 4087 0bc0 afcf 84be 6c25 bcbe 6f8f 8fbd
000000f0: 2e71 0cbf 9ad2 c23e 8197 a13e 7994 3abf
00000100: 8ba7 2e3f 8179 18be b18a 373e 782a 003e
00000110: 9b3d 50be e294 09be cfb0 42bd 5c1c 113f
00000120: b74d b7bd ae62 01bf 7576 d23d 389f 0e3f
00000130: 718e 9a3e 5c58 c7be a358 6abf e4bb 14bd
00000140: 2e60 983d 8d1d 8e3d 698c 863d f75a a0be
00000150: 5777 6c3e ae62 e9be e9b9 c5bd e44b b03e
00000160: 6536 b0bf a791 aebf 2c4a 093f 200c 0cbe
00000170: 24fc c1bc 4d30 30bf 3ca5 23bd 4eff 933d
00000180: be33 923e 113a c03e 5b12 363d 39f4 813d
00000190: 51fa babe 185e 5d3f a419 ffbf 4f23 ddbf
000001a0: 6a4c f8be 3542 1fbe 8d97 cebf b3b1 f2be
000001b0: 4278 9cbf 98fa 85c0 66da 6cc0 5704 01c0
000001c0: e834 a63c 8602 7a3f d5ae 15bf edf7 bf3d
000001d0: 96ea 263f d28b 0abf 800d 3cbf 2653 853f
000001e0: ab04 0bbe e65d 253e 6b60 79c0 bcb3 5abf
000001f0: 9bc6 763e fbc7 973d 639a 493e c572 a73f
00000200: ac53 adbe ed62 62bf 7e52 ed3d cf2e ffbd
00000210: 1f11 b33e fed2 423f 6a32 233e 18ee 103f
00000220: 4f3c 53bf 3a58 2d40 0e67 fabf b96d df3d
00000230: ee27 83be 63b3 3b3f c230 1c3f eb57 0a3f
00000240: 78ad 0ebd 8388 5c3f 07b6 ca3c 4303 d1bd
00000250: 1d82 393d dd78 7fbf 54a7 1b3f 27a2 373f
00000260: bc3e 23be 352a 083f 392a cfbe a4d6 c5bd
00000270: eba9 f53e e2c8 ebbe bc78 6f3f 0d39 cebe
00000280: 1992 d33e cf4c 74bf c85c 993c ac1e d0bd
00000290: 4cc4 4b3e 2d78 413e f9bf 833e aed5 36bf
000002a0: 8610 c6bd 5839 0cbf f60c 21be c85c 493f
000002b0: 8c10 debd a61d 883d 24b9 9cbe 718e b23e
000002c0: efcc 5fbd 9031 dfbe 9258 0ebf 7fa2 023f
000002d0: 2506 a53f 6729 d9bd 3a57 a4bd 1ec4 cabf
000002e0: 9560 9d3f caa6 70bf 4caa 363f 0b0e 0b3f
000002f0: 008d 8abe dc68 a83f cdc9 4bbe ee82 9c3d
00000300: aad4 6c3e b932 9dbd 5f86 35bd f8e2 e3be
00000310: f5bd 963e 7d76 70bf 835e 29bd 1880 a1bd
00000320: c0e7 e7bf cd01 223f d6aa 5d3e 1956 05c0
00000330: 9851 883f 88f2 95be 8599 8dc0 1127 46bd
00000340: c861 1cbf 6248 1ebe 4c06 96bd 0e84 24c0
00000350: 3010 9c3e 917f a6bc 2926 1fbe 1e16 3abe
00000360: 371a 703e be30 2dbf 98db 0dbe a3c8 babe
00000370: 4241 393e 7039 28bb bdc3 4dbe 2c88 acbd
00000380: 6df8 47bd 0f09 ffbd b589 133e 5304 70bf
00000390: 20a2 27bd e068 373e 541d 9ebf 5beb 8bbc
000003a0: d07c e63e af0b 7f3e 0bb7 d4be 795d 6f3e
000003b0: 467e 1d3e 36ea 81bf 7654 bd3e 7cb7 0dbf
000003c0: bebc b03e 6805 36be a60e 32be 0378 15c0
000003d0: 519f 24bd 0edb b6bf bed8 1b3e d619 a7be
000003e0: 9c65 1a3b 43c5 f83d 38db 46c0 a1a1 9fbf
000003f0: 8d63 043f e65c 7a3e e1f0 423e 5d15 6cbf
0.578092 1.0878 0.768227 1.35205 -0.460014 -0.349713 -0.679079 -0.0860656
-0.19084 -0.57776 0.246485 1.3879 0.00683626 0.253957 0.467098 0.0230644
-0.109068 0.0974663 0.604936 0.31076 -0.18953 -0.957362 0.22904 -0.186776
-0.267946 -0.382654 -0.100072 -5.47095 0.841438 0.33848 0.257973 -0.188781
-0.644741 0.285768 0.0720187 -0.396403 -1.17935 0.432574 -3.87018 -0.284503
0.523418 -0.848171 0.731632 -0.175673 -0.00541589 0.178642 -0.628134 0.0122923
0.0044293 -0.454885 -0.00951686 0.309254 -0.968426 0.527792 0.464319 0.0913507
-2.18013 -0.259397 -0.367473 -0.0700978 -0.548602 0.380513 0.315609 -0.728828
0.682244 -0.148901 0.17924 0.125162 -0.20336 -0.134357 -0.0475319 0.566839
-0.0895037 -0.505412 0.102765 0.557117 0.301868 -0.389346 -0.915415 -0.036312
0.0744022 0.0693923 0.0656975 -0.313194 0.230924 -0.455831 -0.096546 0.344329
-1.37666 -1.36382 0.536288 -0.136765 -0.0236798 -0.688237 -0.0399525 0.0722643
0.285551 0.375443 0.0444511 0.0634541 -0.365191 0.864717 -1.99297 -1.72764
-0.484958 -0.155526 -1.614 -0.474012 -1.22242 -4.18684 -3.70083 -2.01589
0.0202889 0.976601 -0.584699 0.0937346 0.652017 -0.541196 -0.734581 1.0416
-0.13576 0.161491 -3.89651 -0.854305 0.240992 0.0741119 0.196878 1.30819
-0.338529 -0.884322 0.11588 -0.124601 0.34974 0.761032 0.159372 0.566133
-0.825139 2.70851 -1.95627 0.109096 -0.256164 0.733206 0.610119 0.540404
-0.0348334 0.861458 0.024745 -0.102057 0.0452901 -0.997938 0.608022 0.717318
-0.159419 0.531894 -0.404619 -0.0966008 0.479812 -0.460517 0.935436 -0.402779
0.413224 -0.954297 0.018721 -0.101621 0.198991 0.188935 0.257324 -0.714198
-0.0967112 -0.54775 -0.157276 0.786572 -0.10843 0.0664628 -0.3061 0.348743
-0.0546388 -0.435925 -0.556039 0.510292 1.28925 -0.106036 -0.0802445 -1.58411
1.22951 -0.940045 0.713536 0.543183 -0.270607 1.3157 -0.199012 0.0764216
0.23128 -0.0767569 -0.0443176 -0.445091 0.294418 -0.939308 -0.0413499 -0.0788576
-1.81176 0.63284 0.216472 -2.08338 1.06499 -0.292866 -4.42499 -0.0483771
-0.610867 -0.154573 -0.0732542 -2.57056 0.304811 -0.0203245 -0.155419 -0.181725
0.234475 -0.676525 -0.138533 -0.364812 0.180913 -0.0025669 -0.200942 -0.0842441
-0.0488209 -0.124529 0.14408 -0.937566 -0.0409261 0.179111 -1.23527 -0.01708
0.450171 0.249068 -0.415459 0.233755 0.153802 -1.01496 0.369785 -0.553581
0.34519 -0.177755 -0.173884 -2.33545 -0.040191 -1.42856 0.152194 -0.326369
0.00235591 0.12147 -3.10713 -1.24712 0.517144 0.244495 0.190372 -0.922201

B4 f4 [50]
00000000: 4c4f 2040 1231 0540 20ef 27c0 0326 ae3b
00000010: 5795 3dbe cff7 43bf 70c1 88bd acca 1e40
00000020: 08c9 8a3f b29d db3f 3fab 143f 62f3 35c0
00000030: a627 1040 7441 05c0 74d2 8b3f 2e90 e4bf
00000040: 1baa 1041 fb5c 27c0 8941 a43f dd24 aabf
00000050: 2f8b b9bf 1afc f53e dba7 21c0 5002 86bd
00000060: db8a 19c0 d734 d0c0 2e73 ea3f 5113 b53e
00000070: ff94 3ebf 71ab 70be 58e7 5240 8d0b bb3f
00000080: e71d 1140 e42f 313f a41c 08bf 5d37 6dbf
00000090: 72fe 623f bb44 45c0 07b3 b9be c040 6cbf
000000a0: 984f 1abf a6ed 29c0 1170 34bf 1539 9c3e
000000b0: 8f37 a93e 9c8b f7be cdcb e9be 0855 3e3f
000000c0: 6d59 72bf 020e 7940
2.50484 2.08112 -2.62397 0.00531459 -0.18514 -0.7655 -0.0667752 2.48112
1.08426 1.71575 0.580738 -2.84298 2.25242 -2.08212 1.09236 -1.78565
9.04153 -2.61505 1.28325 -1.32925 -1.44956 0.480439 -2.52587 -0.0654341
-2.3991 -6.50645 1.83164 0.353663 -0.744461 -0.235029 3.29537 1.46129
2.26745 0.692137 -0.531687 -0.926626 0.886695 -3.08232 -0.362694 -0.922863
-0.602777 -2.65513 -0.704835 0.305123 0.330502 -0.483487 -0.456633 0.743485
-0.946677 3.89148

W5 f4 [50, 50]
00000000: 840d 4bc0 83a3 d4bf 8be0 afbf 0a2e c2c0
00000010: 492b 4ebe c03e 9dc0 28d5 bdc0 51bd a5bf
00000020: 8880 83c0 47e6 e9be cb78 07c1 26f6 f53c
00000030: 19e7 cabd 2592 44c0 e4f7 8cc0 a33b e0bf
00000040: b249 9e3e 0185 6abe 7250 92bf 5c8f 90c0
00000050: f645 0ec0 e2af 96c0 7b66 d9bf 12f7 96c0
00000060: af7c 06c0 083a 5a3e 2dc7 90bc f46c 64c0
00000070: 9b38 89c0 6e8b 24c0 2254 c9bf 8b59 ca3c
00000080: d881 db3e efac fdbf 4f5d b0c0 cc40 5dc0
00000090: e1b4 0fc1 33dc a6c0 5f0c 2dbf 7cf2 14c0
000000a0: 9430 67c0 280a 62c0 71c9 73c0 7dd0 a5c0
000000b0: 0916 efbe bda9 1ec0 446e d2c0 7c61 82be
000000c0: bce8 0fc0 5b94 31bf 1973 b7bf 118c 7fbf
000000d0: 0665 1a3f bc96 81c0 8e75 04c1 1b65 49bf
000000e0: 5305 93bf b056 1dbe 76e0 4cbf 145c cc3e
000000f0: 23bb f23d 78d4 68be 1c99 dfbe 4c71 9d3f
00000100: 3485 d23f ffca 68c0 b9e9 6a3d 7845 c0bf
00000110: f298 253f 9297 01bf 1347 febe 6ec0 e33f
00000120: 40c2 24bf 520f 1d3f bb7c 5fbf 0309 7ac0
00000130: 6076 6f3e d7dd ec3f e414 bdbf 6fa0 903e
00000140: bd6f 8cbf 1fbc 66bf de76 6d40 7aff 8fbe
00000150: 1b4c c33f 3f52 f83f 6297 b2bd 3c2f 613f
00000160: 5055 493f 3ed8 983c 1b2f f9bf 4da1 0740
00000170: 8e40 3cc0 c442 19c0 9cdc 4dc0 b873 613f
00000180: ed0d 1cc0 4b21 d8be 9834 ae3f 239e 1c3e
00000190: f78e aabe 603d c6be c80c c2c0 9031 48c1
000001a0: 8863 15c0 2844 00c0 3546 09c0 0f27 00be
000001b0: 0c50 64bc cf87 27be f9bd 95bf 8783 a9bd
000001c0: 0d17 89be f12b 1ebf 2398 143d d62f 813b
000001d0: 891b 413d c24c a8c0 997f 143d 2bc0 d7bd
000001e0: f3fa 18bd f3ae 5a3e 7908 3e3c e5f2 af3e
000001f0: 2176 2cc0 a60f 4bc0 1ff4 c4bf 2992 ff3e
00000200: 9f94 c1be f31f febf 09dc 5fbd be4d afbf
00000210: 2558 94be 268d d1bc c784 f8bd 0395 33c0
00000220: cc97 bfbf dbc1 08be f8fc ecbf 040f c2bd
00000230: 4bc8 aac0 062a dbbe ae9e d5c0 f888 a0bf
00000240: 9e7b 1fc0 27a5 3ec0 f982 963e a775 5b3e
00000250: e36b 29c0 befa 90be cf4d 5b3e 93e0 a53e
00000260: 7f34 6cbe 9e45 9f3e c1fe 4bbe 9753 e23d
00000270: 9d77 0d3d 2ae3 6fbe 3cc0 f3bd b972 36be
00000280: a7ad 213f 776a 4ebe e1d4 07be 6267 12bf
00000290: 43ad b93d 3030 c6bd 33e2 423d 79e5 0a3e
000002a0: 8602 263e d984 ba3d 20f0 00be e1b5 93be
000002b0: f321 a83e b994 9ebd 83f7 babc 5470 28be
000002c0: b054 bc3d 81b0 f33d 7a50 883e 76a5 05be
000002d0: 90c1 5a3e 0ebc 4abe de03 543f c4e6 08bd
000002e0: a15e 5a3d 4260 953d 8343 b93d 79e5 823e
000002f0: 2d10 98bd 41ef 4dbe 9dba c2bf 8d68 16bd
00000300: 266f 303e c689 3fbe 9816 29bf 62a0 ebbd
00000310: d0a5 8ebd 5026 24bd a1da 50be 50fd a3be
00000320: 60ab 72c0 b6a1 12c0 dac9 60c0 f0a7 00c1
00000330: 6952 f2bf 8481 8bc0 7530 12c1 8178 89c0
00000340: cc7f 36c0 0936 023f ffcf eec0 bd8c 96bf
00000350: cd3e 6f3f 9b03 cec0 6f64 a2c0 3928 9cc0
00000360: b18a 933f 2a52 a1bf 27a0 65c0 3884 b2c0
00000370: c425 b3bf 3ca0 5ac0 3b51 4a3f 30bb 90c0
00000380: 96ec 4ac0 5699 d9be 0113 02c0 a20b f0c0
00000390: 1fba 4ac0 4a29 e8bf 01fb 02c0 a51d 0e3c
000003a0: 15a9 54c0 5d8c 79bf 4345 13c1 e206 8bc0
000003b0: 48c4 fac0 7e3a c0c0 f0a7 4ac0 e718 98bf
000003c0: b75d a8bf 84f0 0c40 2a6f 13c0 5c77 dcc0
000003d0: 7d93 febe dffd 07c0 211f d4c0 c538 71c0
000003e0: 96cf a3c0 681d 9abd 8924 963f 4a7c 123f
000003f0: fa44 e6bf 8923 8fbe 14b3 d6c0 562b 3fc0
-3.1727 -1.66124 -1.37404 -6.06812 -0.201337 -4.91391 -5.93227 -1.29484
-4.10944 -0.456835 -8.46699 0.0300246 -0.0990736 -3.07142 -4.40526 -1.75182
0.309156 -0.229023 -1.14308 -4.5175 -2.22302 -4.70897 -1.69844 -4.71766
-2.10136 0.213112 -0.0176731 -3.56915 -4.28816 -2.57101 -1.57288 0.0247009
0.428725 -1.98184 -5.51139 -3.45708 -8.98166 -5.21438 -0.67597 -2.3273
-3.61234 -3.53187 -3.80917 -5.1817 -0.466965 -2.47911 -6.57596 -0.25465
-2.24858 -0.69367 -1.4332 -0.998231 0.603104 -4.04965 -8.2787 -0.786699
-1.1486 -0.153651 -0.8003 0.39914 0.118521 -0.227373 -0.436715 1.23002
1.64469 -3.63739 0.0573518 -1.50212 0.646865 -0.506219 -0.496636 1.77931
-0.643589 0.613515 -0.872997 -3.9068 0.23385 1.85052 -1.4772 0.282474
-1.09716 -0.901308 3.71038 -0.281246 1.52576 1.94001 -0.0872028 0.879627
0.786458 0.0186578 -1.94675 2.11922 -2.94144 -2.3947 -3.21659 0.880672
-2.43835 -0.422129 1.36098 0.152947 -0.333122 -0.387187 -6.06406 -12.5121
-2.3342 -2.00416 -2.14491 -0.125149 -0.0139351 -0.163604 -1.16986 -0.0827704
-0.267754 -0.617858 0.0362779 0.00394247 0.0471454 -5.25937 0.0362545 -0.105347
-0.0373487 0.213558 0.0115987 0.34365 -2.69471 -3.17283 -1.5387 0.499162
-0.378087 -1.98535 -0.0546532 -1.36956 -0.289735 -0.02558 -0.121347 -2.80597
-1.49682 -0.133552 -1.85147 -0.0947552 -5.33695 -0.428055 -6.67562 -1.25418
-2.49192 -2.97883 0.293968 0.214316 -2.64721 -0.283163 0.214164 0.323979
-0.230669 0.311078 -0.199214 0.110511 0.0345379 -0.234265 -0.119019 -0.178172
0.631556 -0.201578 -0.132648 -0.57189 0.0906625 -0.0967716 0.047579 0.135641
0.162119 0.0910737 -0.125916 -0.288497 0.328384 -0.0774321 -0.0228231 -0.164491
0.0919584 0.118989 0.266239 -0.130514 0.213629 -0.197983 0.828184 -0.0334232
0.0533129 0.0729375 0.0904608 0.255657 -0.0742496 -0.201108 -1.52132 -0.0367208
0.172299 -0.187049 -0.660501 -0.115052 -0.0696522 -0.0400756 -0.203959 -0.320292
-3.79171 -2.29112 -3.51232 -8.041 -1.89314 -4.35956 -9.13683 -4.29596
-2.85155 0.508637 -7.46289 -1.17617 0.934552 -6.43794 -5.07476 -4.87991
1.15267 -1.26032 -3.5879 -5.57864 -1.39959 -3.41603 0.790302 -4.52285
-3.17069 -0.424998 -2.03241 -7.50142 -3.16761 -1.81376 -2.04657 0.00867406
-3.32282 -0.974798 -9.20441 -4.34459 -7.83646 -6.00714 -3.1665 -1.18826
-1.31536 2.20218 -2.30366 -6.88957 -0.497219 -2.12487 -6.6288 -3.76909
-5.11909 -0.0752514 1.17299 0.572209 -1.79898 -0.279568 -6.70936 -2.98702

B5 f4 [50]
00000000: d482 8f3f c538 23c0 5859 abbe 7db8 783a
00000010: aa65 8b3f 1f1d 0dc1 0151 243f 4d7b 0fbd
00000020: 2bbd 66bf 4b05 653e ef20 fa3f 3d27 ecc0
00000030: bb9b 05c1 3560 903e c5ac 63c0 a3e9 90bf
00000040: 40c1 a7c0 952c 2fbf 11fc a7bf 0917 aa3e
00000050: 5628 8a3e 6519 423e 27c2 25c1 cf31 8bc0
00000060: af25 b83f 78b4 b1be 82ca b6c0 d00a 12c1
00000070: 992a fc3f d387 d6c0 9083 cfc0 89d0 00bf
00000080: 5b60 bf3e 4bc8 3140 3f74 dbc0 2a91 243f
00000090: 7b49 afbf 280f 83be e067 ec3e 4eb9 82bf
000000a0: ad87 173f 6ce7 e03c 7e8c e3c0 c5e6 cac0
000000b0: 6938 4d3f 99d8 94c0 772b ab3e ca4f 02c1
000000c0: c74b cf3f 58ff 8bc0
1.12118 -2.55034 -0.334666 0.000948794 1.08904 -8.81961 0.641861 -0.0350297
-0.901324 0.223653 1.95413 -7.37979 -8.35052 0.281984 -3.55742 -1.13213
-5.24234 -0.684274 -1.31238 0.332207 0.269839 0.18955 -10.3599 -4.34983
1.43865 -0.34708 -5.71222 -9.12764 1.97005 -6.70408 -6.48481 -0.503182
0.373782 2.77785 -6.85794 0.64284 -1.36943 -0.255975 0.46173 -1.02128
0.591914 0.0274541 -7.1109 -6.34067 0.801642 -4.65144 0.334316 -8.14448
1.6195 -4.37492

W6 f4 [5, 50]
00000000: 2652 7a3d 555a d23b 9cc4 3d3b 904d 723c
00000010: 6099 8ebb 58c3 ac3b 0e09 29bc 8930 34bc
00000020: 3555 81bc 017f c23c f157 37bc d2bf 873b
00000030: b47a 413b b78f c33b 4831 c03b f093 9bbb
00000040: 8bfd 273b 7a49 2dbc f4d3 0b3c 18fb dc3b
00000050: 6e51 e23a 821c 74bd fcb4 823b 5f5a b73b
00000060: 3da4 73bc 790c 073b 65e8 d43b a47a 043b
00000070: b200 5cbc 7afa a93b 4f58 c13b 49f9 03bc
00000080: 8c5c c3bb 1606 1bbc c54b e03b dc67 953c
00000090: fa56 f73b 9252 9abb ffbd 6b3b a697 983b
000000a0: 5b4a 8e3b f36e b0ba f822 523b 10d0 bb3b
000000b0: 5a3a 55bc 7fd1 af3b f3f1 e03b 49aa 883b
000000c0: 0884 06bc e83c 363b ee7c 3fbc 8cc8 5e38
000000d0: 6765 fb3b 9ff5 8138 8ac0 223a 5dae e8b8
000000e0: c00e e0b8 97ed 7939 993d b2b9 bfa1 1cba
000000f0: f2b6 40b9 8e60 94b9 98d6 0dba 0de2 41bb
00000100: a59b 3a3a 2675 9c37 e127 3d39 8ec1 d4b8
00000110: 4532 0bba d5d1 8e3b 76c1 203c 60ff b5b8
00000120: 2b66 f8b6 c0c4 e0b7 f256 fdb9 1447 7539
00000130: 93f3 7336 7243 0e39 ad09 9239 0d0b d939
00000140: c300 653a 458d 36ba c826 58bb a03c 96b9
00000150: b920 c3b8 895a cd39 43bb 163a 9765 1eb9
00000160: e56f 2138 f9e8 81bb 306a f33b 5d4e aeba
00000170: 185e d7b9 b892 0fb9 f4e3 ab39 7fa3 ba39
00000180: 83ed 713c 9fe5 bb3a a3cc a33a 4bee ea3a
00000190: a6ca a03b e7c2 51b9 fe48 aeba 5cbe 86b9
000001a0: 4f04 d43a 5d5a dfb9 8b7a c339 75cb 423a
000001b0: a75d 6939 1e2c 62ba d58e 8c39 47e0 98b9
000001c0: 25f4 81b9 0474 a13a aa34 80ba 717f 813a
000001d0: d1b6 4aba 7a4f 0b38 f561 a4ba ca0b 4f3a
000001e0: d922 e93b c9b2 3b3b 3c09 fdb8 90ed 04b9
000001f0: 4ec0 483b ca15 0d3a 82ac c839 7196 a938
00000200: eb88 a639 e528 82b9 d0ab e8b9 b1db 03ba
00000210: a361 1bba a784 7039 03b8 18b9 c30f 85b8
00000220: 6c5c 75ba 439b fdb8 583b 8fb9 4ba9 b03c
00000230: 09bd 823b e418 c13b a4ca 10ba ca76 57ba
00000240: e2e6 203a 0bc2 89ba 362a 853b e13f 74ba
00000250: 085e 7f3a 9c92 7039 adb0 4fbc 76b6 a839
00000260: 6849 f83b c14a 9b39 5910 9039 907a e538
00000270: 2045 c3b8 b2e9 e5b9 e995 3fba 6861 6cb9
00000280: c700 313a 5ad9 8838 e4b1 80b9 bcea 3fbb
00000290: 4b5e 013a fdcd 4b3a 49ff ac39 c80f 88b9
000002a0: 3272 9aba ca3f ab3b 220d 383c 858f 5c39
000002b0: 84c6 9db7 0388 00b9 52db 40ba 868e 773a
000002c0: 0e96 8439 5638 59b8 f195 8fb9 6de1 8b39
000002d0: 2264 8b3a e270 8bba 0396 65ba 2218 e6b9
000002e0: 4ac1 6c38 2e53 2a3a 77a1 433a fc0e db39
000002f0: 27bd 8639 11b3 51bb d29a f23b 7188 c0ba
00000300: 7c76 75b8 2952 a6b9 2184 d3b9 cb27 a539
00000310: de4e 6c3c 28a1 623a 40da b938 9d00 833a
00000320: 5690 b0bc f65a ec39 c2bb bfba a786 133a
00000330: 4b67 b339 520d 5737 5622 24ba c05c 95b9
00000340: 7113 fab9 8249 82b9 0dca d639 2a97 1d39
00000350: 210a 8238 14bf d83c 655a 5a3a dd0b 0a3a
00000360: ba03 e938 e51f 0f3a 37d8 49b9 9c0e ae3b
00000370: f7b1 5d3c 83b6 3bba 1e49 8936 fbe3 08b9
00000380: abb0 783b 92ce 1d3c 4b07 aeb9 5956 59b9
00000390: f5bd 863a f070 7eb9 5197 943a 765a 8eba
000003a0: 7364 603a 150e a6b8 3e92 ca38 16a4 0b3a
000003b0: 5fcb 553a ce50 dfb7 a396 7039 7dfd 16bc
000003c0: 2153 043c 9ea2 d93c 92b2 bcb9 7da2 b039
000003d0: 656a 0cba 9be5 9639 bd97 313c cd8d d039
000003e0: ce97 ac39 fc33 c5b9
0.0611135 0.00641946 0.00289563 0.014789 -0.00435178 0.00527231 -0.0103171 -0.0109979
-0.0157877 0.0237422 -0.0111904 0.00414274 0.00295226 0.00596806 0.00586525 -0.00474786
0.00256333 -0.0105766 0.00853442 0.0067438 0.00172667 -0.0595975 0.00398886 0.00559549
-0.0148707 0.00206068 0.00649743 0.00202147 -0.0134279 0.00518733 0.00590042 -0.00805504
-0.00596196 -0.0094619 0.00684497 0.018238 0.00754821 -0.00470955 0.00359714 0.00465675
0.00434236 -0.00134608 0.00320643 0.00573159 -0.0130144 0.00536555 0.00686478 0.00417069
-0.00821019 0.00278073 -0.0116875 5.31157e-05 0.007672 6.19695e-05 0.00062085 -0.000110951
-0.000106839 0.00023835 -0.000339967 -0.000597503 -0.000183787 -0.000283007 -0.00054107 -0.00295842
0.000711853 1.86512e-05 0.000180393 -0.00010145 -0.000530992 0.00435851 0.00981175 -8.67832e-05
-7.40287e-06 -2.67945e-05 -0.000483207 0.000233915 3.63516e-06 0.000135673 0.000278545 0.000413977
0.000873577 -0.00069638 -0.00329821 -0.000286554 -9.30442e-05 0.000391681 0.000574995 -0.000151059
3.84896e-05 -0.00396454 0.00742843 -0.00132985 -0.000410781 -0.000136922 0.000327855 0.000355985
0.0147661 0.00143354 0.00124969 0.00179238 0.00490697 -0.000200044 -0.00132969 -0.000257003
0.00161756 -0.000426012 0.000372846 0.000743083 0.000222555 -0.000862779 0.000268093 -0.000291588
-0.000247867 0.00123179 -0.000978132 0.00098799 -0.000773293 3.32142e-05 -0.00125414 0.000789818
0.00711475 0.00286405 -0.000120657 -0.00012677 0.00306322 0.000538197 0.000382755 8.08657e-05
0.00031764 -0.00024826 -0.000443785 -0.000502999 -0.000592733 0.000229376 -0.000145644 -6.34487e-05
-0.000935978 -0.000120929 -0.000273193 0.0215651 0.00398982 0.00589286 -0.000552336 -0.00082193
0.000613792 -0.00105101 0.00406387 -0.000931738 0.000974149 0.000229428 -0.0126764 0.000321794
0.00757711 0.000296196 0.00027478 0.000109424 -9.3112e-05 -0.000438524 -0.000730841 -0.00022543
0.000675213 6.52547e-05 -0.000245466 -0.00292842 0.000493501 0.000777453 0.000329966 -0.000259517
-0.00117833 0.00522611 0.0112336 0.000210343 -1.88083e-05 -0.000122577 -0.00073569 0.000944354
0.000252888 -5.17893e-05 -0.000273868 0.000266801 0.00106347 -0.00106385 -0.000875801 -0.00043887
5.64468e-05 0.000649738 0.000746272 0.000417821 0.000256994 -0.00319976 0.00740371 -0.00146891
-5.85229e-05 -0.000317232 -0.000403435 0.000315009 0.0144231 0.000864523 8.86214e-05 0.000999469
-0.0215532 0.000450812 -0.00146281 0.000562767 0.000342185 1.28181e-05 -0.000626122 -0.000284886
-0.000476982 -0.000248503 0.000409678 0.00015029 6.20077e-05 0.0264583 0.000832951 0.000526605
0.00011111 0.000545977 -0.000192494 0.0053118 0.0135312 -0.000716068 4.09143e-06 -0.000130549
0.00379471 0.00963177 -0.000331933 -0.000207269 0.001028 -0.000242654 0.00113366 -0.00108607
0.000855989 -7.91812e-05 9.65935e-05 0.000532688 0.000815561 -2.66213e-05 0.000229443 -0.00921571
0.00807646 0.0265668 -0.000359912 0.000336904 -0.000535643 0.000287813 0.0108394 0.000397785
0.000329195 -0.000376135

B6 f4 [5]
00000000: 0d6e abbc 1b67 933c f2ce a1bc 821f 953c
00000010: f1ad 99bc
-0.0209265 0.0179935 -0.019752 0.0182035 -0.0187597
