data/acasxu/nets/ACASXU_run2a_5_9_batch_2000.onnx (onnx, 53878 bytes, 14 tensors)

W0 f4 [50, 5]
000000 6c 8d 12 3d 4d bd 0e be d3 32 76 3f 2c 24 c5 bd
       0.0357794 -0.139394 0.961713 -0.0962604
000010 70 7d f8 3d ba 10 0b 3e 92 79 94 bf 32 38 86 3f
       0.121333 0.135806 -1.15996 1.04859
000020 13 2d d9 3d b3 a3 27 3d 79 ca 0a 3d 65 df 4f c0
       0.106043 0.0409276 0.0338845 -3.24801
000030 f0 a5 10 3e 5d e2 08 bd a5 f8 60 bf 2d 6d 42 3d
       0.141258 -0.033419 -0.878794 0.0474674
000040 db be 0b 3f 30 62 5b bf c0 ce 3d 3e 4d 83 32 be
       0.545881 -0.856967 0.185359 -0.174329
000050 d4 42 ac 3b 5a 40 cf 3b d3 c1 1a be 53 79 bb be
       0.00525699 0.00632481 -0.15113 -0.36616
000060 53 cf ca 3e 41 c9 91 ba 19 b0 01 3b 98 a1 92 bb
       0.396113 -0.00111226 0.00197888 -0.00447483
000070 73 26 71 3b 21 d7 59 bb e9 9a 49 bc b8 94 5f bf
       0.00367966 -0.00332398 -0.012305 -0.873363
000080 b6 2e 55 bf a1 48 af 3e 3f ff 4d be b6 a2 e5 3e
       -0.832744 0.342351 -0.201169 0.448507
000090 ac fe b0 be 2a c5 ee bd 98 5b 90 3c f9 d7 12 be
       -0.345693 -0.116587 0.0176218 -0.143402
0000a0 69 7d 21 3b de cb e5 3e 21 e4 2c 3f b8 e4 d8 bd
       0.00246414 0.448821 0.675356 -0.105905
0000b0 26 04 46 3d d7 51 15 3c 2b a6 2d 3c 5c cc 2a bc
       0.0483438 0.00911375 0.0105987 -0.0104247
0000c0 84 01 5c b9 c5 0c 05 bb 75 78 88 bc 02 32 6f 3d
       -0.000209814 -0.00203018 -0.016659 0.0583973
0000d0 19 aa 62 be ea 95 4a 3f 1b 10 65 bf cb a8 aa 3b
       -0.221352 0.79135 -0.894777 0.00520811
0000e0 cc 27 13 bf 5a 4b 6d bf 27 fa 1c bd bb 09 83 3d
       -0.574826 -0.926931 -0.0383245 0.0639834
0000f0 b7 bf 0a 3b 5b d3 a4 bf ad 17 d7 3f 09 35 73 be
       0.00211714 -1.2877 1.68041 -0.237507
000100 8f c2 11 3f e1 8c 2b 3c 01 fc 93 3c ce 88 92 bc
       0.569375 0.0104706 0.0180645 -0.0178875
000110 00 76 cd bb b9 00 95 36 05 32 1b 3d 6d 1c c9 bf
       -0.00627017 4.44063e-06 0.0378895 -1.57118
000120 b2 9d 9f 3e 5d 6c ca 3e b4 90 08 bf 98 2f cf 3d
       0.31175 0.395358 -0.533458 0.101165
000130 02 9a 84 3f 08 5b 64 bf 0c 58 f2 3d 99 db 18 bc
       1.03595 -0.892014 0.118332 -0.0093297
000140 42 78 94 3e b2 1a 01 3d 2b 26 21 3b 57 cd 56 bb
       0.28998 0.0315196 0.00245894 -0.00327762
000150 a7 f1 91 bd e9 d7 14 3c 55 c0 f5 be c8 09 93 be
       -0.0712617 0.00908468 -0.479983 -0.287184
000160 ce c6 4a 3e 93 d1 37 3b 8e af 25 c0 83 e2 22 3c
       0.198024 0.00280485 -2.58884 0.0099417
000170 0c 07 82 bc 78 0e 65 3c 6a c2 51 3c a9 a4 f2 3f
       -0.0158725 0.0139805 0.0128027 1.89565
000180 07 cc 89 3b 3f 32 42 bb 8c b9 d0 3c df 43 13 3d
       0.00420523 -0.0029632 0.0254791 0.0359534
000190 97 1c 27 3e 90 da 3c 40 a9 de f6 bf 94 11 bf 3e
       0.163195 2.95084 -1.92867 0.373181
0001a0 56 4a ff be 2b 32 8a be b3 98 80 bf 00 c5 74 3f
       -0.498614 -0.269914 -1.00466 0.956131
0001b0 46 fa 23 bd 43 91 86 3e ad 6d ca 3e fc 39 25 be
       -0.0400336 0.262827 0.395368 -0.161354
0001c0 f4 32 9a bd 82 e5 74 bf 6b 58 9d bd 5b e5 2e 3c
       -0.0752925 -0.956627 -0.0768288 0.0106748
0001d0 7e 70 1e bd cb a0 af b9 54 a8 ee bc 1b f5 cc bf
       -0.0386815 -0.000334984 -0.029133 -1.60123
0001e0 44 fa 3d be 39 7f bb 3f 6b 9f ce bf be 68 9f be
       -0.185525 1.46482 -1.61424 -0.311346
0001f0 bc 3e 0b 3f ab ef ba 3a d4 d2 54 3f 75 04 30 3e
       0.543926 0.00142621 0.831342 0.171892
000200 70 95 b7 3e b2 d4 f2 be 28 31 e3 3c ed c3 13 3c
       0.358562 -0.474279 0.0277334 0.00901888
000210 80 72 a5 bc 07 42 32 be ec 51 80 bf 3d 4b 2b 3d
       -0.0201962 -0.17408 -1.0025 0.0418198
000220 5a f4 52 bf 28 04 cc bd ad 32 f3 3d 22 c3 16 bf
       -0.824041 -0.0996173 0.118749 -0.588915
000230 d8 7a 8b bd 6c 78 0e bf 39 45 f7 3e c4 b0 53 3e
       -0.0681054 -0.556525 0.48295 0.206729
000240 46 7e ad be 71 ac 4b bd cd 58 c8 3f 22 fe 81 be
       -0.338854 -0.049725 1.56521 -0.253892
000250 7d e8 92 3e f5 67 d7 be fa 30 d6 bc d9 af 1f bf
       0.28693 -0.420715 -0.0261464 -0.623777
000260 a5 4a 3c bf 23 6a 92 3e 57 79 22 be c1 00 a2 be
       -0.735514 0.285966 -0.158666 -0.316412
000270 41 7e 46 be 57 cf 19 be ca 1a bd be ba 21 8c bd
       -0.193841 -0.150205 -0.369345 -0.0684237
000280 72 34 87 bc fc 8b 54 3f a0 33 7d 3f 4e 25 e3 3e
       -0.0165045 0.830261 0.989069 0.443644
000290 6a 33 4e be c7 ce 25 bc 43 98 36 bc 2d 90 07 bb
       -0.201368 -0.0101201 -0.0111447 -0.00206853
0002a0 12 30 ba 3b d1 d8 0f 3b 41 87 d4 3c ae 2a 5f c0
       0.005682 0.00219493 0.0259434 -3.48698
0002b0 24 01 f4 bc 84 96 9a 3c 8e 8d 65 bc 1a 53 30 3e
       -0.0297857 0.0188706 -0.0140108 0.172192
0002c0 94 4d 8d bf 51 6c 79 3f 24 0a 0d 3e de c9 87 be
       -1.10393 0.974309 0.137734 -0.265212
0002d0 b4 55 ee 3c 89 ec 3b 3f 19 71 39 3f 22 8b ac 3e
       0.0290936 0.734078 0.724382 0.336999
0002e0 33 36 24 be e8 7e b5 bb 72 50 92 bf f1 63 c0 3f
       -0.160363 -0.00553881 -1.14308 1.50305
0002f0 b1 4e f5 bd df 19 c5 3e 65 df 95 bc eb ad 01 be
       -0.119779 0.384963 -0.018295 -0.12664
000300 02 48 45 bf 41 9d 82 be 61 1a 06 3e 80 48 d7 be
       -0.77063 -0.255106 0.13096 -0.420475
000310 4a 46 ba 3f 90 bd c6 bf 26 1c fa 3d db e5 b6 3c
       1.45527 -1.55266 0.122124 0.0223264
000320 60 ca a0 bd 8d b7 51 bf a4 df a6 3f 81 43 48 3d
       -0.078511 -0.819207 1.3037 0.0488925
000330 16 30 71 be 85 4a c2 3d a0 89 28 3f 13 82 30 3c
       -0.235535 0.0948687 0.65835 0.0107732
000340 99 b6 a4 3c 7c 81 b9 be 55 4b da bd 5c 56 a9 3e
       0.0201066 -0.362316 -0.106589 0.330737
000350 e9 9e 8d be 46 4a 8e 3c 51 6c f5 be 59 38 03 3b
       -0.276603 0.0173694 -0.479342 0.00200226
000360 53 5d 14 bf a4 c3 3b 3f d4 aa 97 bd b5 8c 04 3e
       -0.579549 0.733454 -0.0740563 0.129443
000370 ee 27 43 3d 10 b0 62 bf 41 f1 e3 bd 2e 6f b3 3d
       0.0476455 -0.885499 -0.1113 0.0876144
000380 9d 80 86 be 4d 5f 19 bd 7e e0 5a 3f fd 4d a8 bf
       -0.2627 -0.0374444 0.854988 -1.31488
000390 ae 00 55 bd bf 63 68 3e f1 d7 b4 bd 45 a2 2b 3c
       -0.0520026 0.226943 -0.0883025 0.0104757
0003a0 94 9b 8d bc 6f 2d 8b 3e 10 b2 6c 3e df dc ff bd
       -0.0172861 0.271831 0.231148 -0.124933
0003b0 9f ac 14 bf a8 51 44 3f 2d 43 7c 3e 4e 0d 84 be
       -0.580759 0.766871 0.24635 -0.257914
0003c0 9a 27 92 3d 14 81 e2 bb 04 e2 55 3d 81 43 84 bf
       0.0713646 -0.00691236 0.0522175 -1.03331
0003d0 24 b4 05 be e3 62 16 3d 8a 22 54 be a5 32 ad 3e
       -0.13057 0.0367154 -0.207163 0.338277
0003e0 84 9d c2 be f7 94 e4 3e
       -0.380108 0.446449

B0 f4 [50]
000000 e9 f6 51 3a 4e 63 c3 be 2c f0 09 bf 8a 8e 09 3d
       0.000800951 -0.381617 -0.538821 0.0335832
000010 e5 01 f6 3c a4 a2 18 bc 43 72 82 be 44 a7 e7 bd
       0.0300302 -0.00931612 -0.254778 -0.113112
000020 a4 f1 15 3d 0e 79 95 bc 55 f9 1e 3e 78 27 1f 3c
       0.0366074 -0.0182462 0.155248 0.009714
000030 ae 62 d1 be 96 46 e7 bc ba 87 24 be f6 25 ab be
       -0.408956 -0.0282319 -0.160674 -0.334274
000040 04 98 0b bc 27 03 36 3d 5c 91 c0 be c8 cd 08 3f
       -0.00852013 0.0444366 -0.376109 0.53439
000050 b0 c9 06 bf 89 ed 2e be 6f 82 5f be c7 7f 0d bf
       -0.526515 -0.170828 -0.218271 -0.552731
000060 67 2b af be 78 28 ea bd ed 0c fb be bc ca 2a be
       -0.342128 -0.114335 -0.490333 -0.166789
000070 c5 cb 13 3e 9d 9d ec bd af 33 c4 bd 65 ea 94 bd
       0.144332 -0.115535 -0.0958017 -0.0727127
000080 02 b6 88 bd 91 c5 87 bc de 27 fd bc 6d aa 8e be
       -0.0667534 -0.0165737 -0.0309028 -0.278644
000090 a3 3b 38 be 78 0d 0a bf fa db c9 bd 33 a3 3f be
       -0.179915 -0.539268 -0.0985641 -0.187146
0000a0 8f 53 24 be 72 37 08 be af 41 0f be 48 c0 b0 be
       -0.160475 -0.133024 -0.139899 -0.345217
0000b0 87 29 db 3c d8 4a e8 be 5d c4 87 3d 9b e3 dc bc
       0.0267532 -0.453696 0.0662925 -0.026964
0000c0 2b 6b e3 be d4 b8 f7 3c
       -0.444177 0.0302395

W1 f4 [50, 50]
000000 1a a3 79 bf 66 6b 9d 3f 4c a6 ea be 4d 65 61 be
       -0.975145 1.22984 -0.4583 -0.220113
000010 44 51 fc bf 2e 01 36 bb 29 04 1a bf b2 a1 5b be
       -1.97123 -0.00277717 -0.601626 -0.214484
000020 5a 64 87 bf 00 30 28 3d 2a 00 12 3f 21 e5 5b 3f
       -1.05775 0.0410614 0.570315 0.858965
000030 bc 74 83 3f 33 01 9a bc 33 c1 c8 3e 73 d7 0c c0
       1.027 -0.0187994 0.392099 -2.20065
000040 c5 c7 9f be 8b 32 01 40 48 1a 68 bf bd 05 6d bc
       -0.312071 2.01871 -0.906651 -0.0144667
000050 b9 19 86 be 36 c8 e4 3d 9f 72 3c 3e 68 58 48 3f
       -0.261915 0.11171 0.184031 0.782599
000060 4b 20 55 be cd 06 d1 bf 78 27 47 3f 64 af e7 3f
       -0.208131 -1.63302 0.777946 1.81004
000070 85 27 9c 3e 1d c9 15 c0 6a 4d d7 3f 3a c9 56 be
       0.304989 -2.3404 1.68205 -0.209752
000080 f8 71 58 bf 99 ef c5 bc 91 2b 75 be d0 27 d6 3f
       -0.845489 -0.0241621 -0.239424 1.67309
000090 8e 58 87 bf 1e dc 4d 3f b9 de 86 3e ad 2f d2 be
       -1.05739 0.80414 0.263418 -0.41052
0000a0 b4 1d 67 3f 47 8f 3b c0 68 5c 36 c0 46 b6 df 3f
       0.902797 -2.93062 -2.84939 1.74775
0000b0 78 7f 8c 3f 3d 61 31 bf 24 09 42 bf a6 a0 36 3d
       1.09764 -0.69289 -0.757952 0.0445868
0000c0 29 78 1a 3e 65 34 72 be 6d a2 90 bd e1 0d d9 be
       0.150849 -0.236528 -0.0706223 -0.423934
0000d0 7c b5 73 be 1d 08 24 3d 84 0a 93 3d 7f c5 f5 3c
       -0.237997 0.0400468 0.0717974 0.0300014
0000e0 ca 21 18 3d 17 0c 26 bf 80 11 14 bf 47 0d 5c bc
       0.0371416 -0.648622 -0.578392 -0.0134309
0000f0 5c 2a 25 3d b0 e3 4f be 73 52 73 3c a8 2c 34 3d
       0.0403236 -0.203017 0.0148512 0.0439879
000100 d4 81 bc be c6 c4 96 be ef 75 62 3e af b1 8b bd
       -0.368178 -0.29447 0.221153 -0.06821
000110 e3 fc 37 c0 a2 7a 09 40 a7 08 00 3e 64 85 b1 bd
       -2.87481 2.14811 0.125033 -0.0866802
000120 0f 48 32 be ec f9 0a 3e e0 0f 6f be 89 43 46 3e
       -0.174103 0.135719 -0.233459 0.193617
000130 c5 75 4c bf 32 e6 0e 3e 0c 05 94 3e f2 b4 30 bf
       -0.798672 0.13955 0.289101 -0.690261
000140 a6 60 3d be 4e f2 db be e1 9a 9b bd 48 ad 2b bd
       -0.184939 -0.429583 -0.075979 -0.0419133
000150 4b 83 91 bc 1d 73 1e 3e 1b cf bc 3d 34 4c 3d be
       -0.0177628 0.154736 0.0921919 -0.184861
000160 54 e0 9c 3e e3 54 eb 3e dd 79 82 3e 6b c8 29 3d
       0.306399 0.459632 0.254836 0.0414509
000170 3b 52 ed be 9b cb 19 3f 6c da bb bc 13 9a f4 be
       -0.463518 0.600763 -0.0229313 -0.477738
000180 c3 b7 e0 3e 92 f7 e0 bc 34 81 02 3e 1a 8a 1b 3e
       0.438902 -0.0274618 0.127446 0.151894
000190 21 ae 08 3f 71 55 85 bf 54 01 b7 bd 47 38 b5 3e
       0.533907 -1.04167 -0.089358 0.353945
0001a0 28 61 9e 3e fd 47 cb 3c 79 5b f9 3e 24 63 31 3f
       0.309335 0.0248146 0.487026 0.692919
0001b0 26 a8 09 bf 01 2a 66 bc e9 d6 2b be 06 4a 1a be
       -0.537722 -0.0140481 -0.167812 -0.150673
0001c0 64 ea d6 3e ff 42 0a bd 30 68 21 be 02 0e 95 bf
       0.419757 -0.0337553 -0.157624 -1.16449
0001d0 74 24 93 3f 6f 62 78 3e 13 b8 d5 3e b7 25 32 be
       1.14955 0.242563 0.41742 -0.173972
0001e0 c6 fb b1 be f8 52 38 3e 34 4c 11 bf 71 5a 90 be
       -0.347624 0.180004 -0.567569 -0.28194
0001f0 20 7a d2 3c 47 e3 60 3e 55 f6 bd bf 2c de a3 3d
       0.025693 0.219617 -1.48408 0.0800136
000200 d0 ae 8c 3d c5 8c 10 bd 83 33 18 3e fc b3 55 bd
       0.0686928 -0.0352905 0.148634 -0.0521736
000210 df 6f 24 be 2e 81 2a 3d 23 7d ff bc 2d b1 6e bf
       -0.160583 0.0416271 -0.0311876 -0.932391
000220 8b 19 21 be c6 19 07 bf cc 98 22 3e ae 12 9c 3f
       -0.157324 -0.527737 0.158786 1.21932
000230 da 70 10 3f 94 31 ee 3e aa d5 47 be 73 12 f2 3e
       0.564222 0.465222 -0.195151 0.472797
000240 28 64 0f bf 09 89 20 bf 33 8c 7b be ed 81 a2 3f
       -0.560122 -0.627091 -0.245652 1.26959
000250 1f 0f 61 3f 65 72 1a be 32 ac 82 bd ac 06 bc 3c
       0.879137 -0.150827 -0.063805 0.0229524
000260 4e 43 f4 be f9 84 24 3f 93 a6 d1 be d1 48 3a bc
       -0.477076 0.642654 -0.409474 -0.0113699
000270 3d 63 c7 3e c9 ae d4 be f9 9e 09 bf 0e cb 95 3c
       0.389429 -0.415396 -0.537582 0.0182853
000280 df 17 27 be 77 be 9f be b3 ce 58 3e 5e 93 ff 3c
       -0.163177 -0.312 0.211726 0.0311982
000290 67 15 c1 3d 8c ce 23 3d be 84 3a bf d6 aa dd be
       0.0942791 0.0399919 -0.728588 -0.432944
0002a0 1c c2 87 3d a4 6d 0c 3e 4b 3a 9a be 28 0a 04 3e
       0.0662882 0.137137 -0.301226 0.128945
0002b0 49 ab ad ba 4c 95 be bd 0d 17 39 3e 45 f1 16 3f
       -0.00132499 -0.0930582 0.180752 0.589619
0002c0 25 92 08 3f 6c d3 a3 3d 51 d8 35 3e f8 fc 50 be
       0.53348 0.0799931 0.177583 -0.20409
0002d0 0c 64 9c bd ea 42 7c be 7b 4b 39 be eb 6a 37 3d
       -0.0763627 -0.246349 -0.180952 0.0447797
0002e0 7a 00 0b be e5 9a 92 bd f7 06 af 3d 24 d5 27 3e
       -0.135744 -0.0715845 0.0854625 0.163899
0002f0 96 e4 c5 3d c2 ae 8c bd ba a0 4e 3e 05 8b 0f bf
       0.0966274 -0.0686927 0.201785 -0.560715
000300 67 d2 8e 3e c2 69 d9 bf 8c 34 4c 3d d3 be 89 be
       0.278949 -1.69854 0.0498548 -0.269034
000310 85 b9 18 3d 8a 22 a4 bc 4b 6c c6 3b 5b 97 a2 3e
       0.0372863 -0.020036 0.00605539 0.317561
000320 e1 44 08 3f 4f 27 14 bd 28 7e 10 3f 60 59 91 3f
       0.532301 -0.0361703 0.564425 1.13554
000330 d1 c9 0a 3f 70 cc 97 bc 73 2a 01 3f c3 2c 74 bf
       0.542142 -0.0185301 0.504554 -0.953808
000340 1b 47 0a 40 81 80 50 3d f9 9f dc 3e 1d 94 9c bf
       2.16059 0.0509038 0.430908 -1.22327
000350 db dc 48 be 55 cb 2c bd 6f 6d bc bb 9b 5a 95 c0
       -0.196155 -0.0421861 -0.00575035 -4.66731
000360 0f 9c cb 3f 41 d3 16 bf 24 0b d8 3d bf 38 b2 bd
       1.5907 -0.589161 0.10549 -0.0870223
000370 09 d6 21 bc af b0 90 be 66 e8 4e 3d 93 5c 34 3c
       -0.00987769 -0.282598 0.0505146 0.0110084
000380 46 b6 39 c0 f4 37 f1 3e 00 ad 71 3f fe ab 58 3c
       -2.90175 0.47113 0.944046 0.0132246
000390 58 38 09 be d5 3f 58 be 05 a8 b9 bf cc 79 a6 3e
       -0.134004 -0.211181 -1.45044 0.325148
0003a0 fc 17 c0 3e 55 12 1e 3d af 0a 38 3f 0a 67 17 be
       0.375183 0.0385917 0.718913 -0.147854
0003b0 48 dd 86 3e e7 8d 4f bf 6b f1 85 3f 94 f8 5c 3e
       0.263407 -0.810759 1.04643 0.215792
0003c0 66 aa 1a 3b 50 1a 7a bf 6b 9f f2 3f 8a b0 29 c0
       0.00236001 -0.976964 1.89549 -2.6514
0003d0 d2 fc a9 be ab cb 39 be f5 9c b4 bf 31 cd 84 3e
       -0.332007 -0.181441 -1.41104 0.259378
0003e0 a3 58 8e bf ac e1 72 3e 04 76 ed be 45 b7 c6 be
       -1.11208 0.237189 -0.463791 -0.388117
0003f0 a1 bb bc be b6 64 79 3f 68 21 b1 be 10 e3 5a bc
       -0.368619 0.974193 -0.345958 -0.0133598

B1 f4 [50]
000000 99 4a bf be 53 3f bf 3f 23 16 81 be cc 0a c5 3d
       -0.373616 1.49412 -0.252122 0.096212
000010 de e7 7c bf ee 6b 93 3c 65 0b 77 bc ed 29 0d bf
       -0.987913 0.0179958 -0.0150784 -0.551421
000020 72 e1 20 be f4 6b 6b bc ac 74 ff be 8e 68 81 3d
       -0.15711 -0.014369 -0.498937 0.0631877
000030 cb 84 1f 3e ee b5 f8 3e 0b fd dd bc 6b 2b 9e bf
       0.15578 0.485763 -0.0270982 -1.2357
000040 d6 6e 07 3f 51 ef b3 bc 79 01 be be c0 e9 49 3f
       0.529035 -0.0219647 -0.371105 0.788723
000050 86 2f 5d 3d 85 1d 6b bc 8d 5d d2 bf d5 92 33 bd
       0.0540004 -0.0143503 -1.64348 -0.0438412
000060 26 fc a2 3f 38 2f 1e be a1 f7 46 3e 51 dc 71 bc
       1.27332 -0.154477 0.194304 -0.014762
000070 03 22 64 3f b3 72 54 3c 92 3f a0 be df 47 ff 3c
       0.891144 0.0129668 -0.312985 0.0311622
000080 20 61 e0 3e 13 d5 33 3f eb cd 83 bc 5c ad b3 be
       0.438241 0.70247 -0.0160894 -0.350932
000090 a1 4d 1e bf 5d 7d 66 3d 46 7a 29 3f ff 08 e0 bb
       -0.618372 0.0562719 0.662022 -0.00683701
0000a0 3e 95 d3 bd a0 15 8c 3f c6 36 09 3d b2 a0 90 be
       -0.103312 1.09441 0.0334995 -0.282476
0000b0 52 b8 e2 bf 7f 9c 75 bd 7f a3 a5 3e 1e 51 05 3f
       -1.77125 -0.0599637 0.323513 0.520769
0000c0 1a 32 2e 3e 61 dd 78 bc
       0.170113 -0.0151895

W2 f4 [50, 50]
000000 73 9d 06 3e ec 50 09 bc 8c a1 b8 3f 22 fd 72 3f
       0.13146 -0.00838111 1.44243 0.949175
000010 f8 76 96 3d 1d e4 c5 3d 53 34 fa b9 6f d9 39 bf
       0.0734691 0.0966265 -0.000477227 -0.725974
000020 31 b2 54 3e 35 72 a7 bc 58 e7 d4 3f e5 7e e3 3f
       0.207711 -0.0204402 1.66331 1.77731
000030 7d ad 77 3f 11 c5 34 3e a1 2e 10 bc 79 1e 16 c0
       0.967491 0.176533 -0.00880018 -2.34561
000040 dc bb 0e 3f fe a1 14 3d c3 47 94 bf ed 4d 97 bd
       0.557554 0.0362873 -1.15844 -0.0738791
000050 28 7f df be f2 35 95 3c 1d 21 c3 3e ee 5a 02 3f
       -0.436517 0.0182142 0.381112 0.5092
000060 c9 9c 1f 3c d9 06 c6 3e 95 b5 8d be 15 08 11 bd
       0.00974197 0.386771 -0.276776 -0.0354081
000070 d2 c6 f9 be b8 76 32 be 36 1e a4 3e d3 c7 d7 bc
       -0.487845 -0.174281 0.320543 -0.0263404
000080 6f 9e 2a bf ee 24 22 3f 75 a5 0a bd 95 ba 58 3f
       -0.66648 0.633376 -0.0338492 0.846597
000090 1f 2c 13 3e 72 bf d3 3e 97 38 72 3e e4 48 2c 3d
       0.143723 0.41357 0.236544 0.0420617
0000a0 7b 83 67 3f 35 f0 c3 be d2 3f b7 3d bd c1 ac bd
       0.90435 -0.382692 0.0894772 -0.0843539
0000b0 ed 9e b8 3f f0 a4 05 3e da f6 b7 bd f5 a1 8f bf
       1.44235 0.130512 -0.0898263 -1.12213
0000c0 56 0e 81 3f 37 aa 53 3c f5 48 db be 05 cd 9d 3d
       1.00825 0.012919 -0.428291 0.0770512
0000d0 d5 ec f1 bf 9a 05 12 3f 52 af 00 bd ac ca c2 3f
       -1.89004 0.570398 -0.0314172 1.52181
0000e0 b6 7c 09 3d ae bb 71 bf 97 ca 8d c0 d9 61 e7 bc
       0.0335662 -0.94427 -4.43098 -0.0282449
0000f0 3f 56 20 3f c3 f5 c0 3f 17 9b a6 3e d8 11 0b bf
       0.626316 1.5075 0.325402 -0.543241
000100 b7 b4 da bc a9 4b 86 be f0 fb 07 be 22 8c c0 3b
       -0.0266975 -0.262296 -0.132797 0.00587608
000110 05 c0 80 bf 69 ea 30 3d 4e 64 be 3e bc 8b 81 bc
       -1.00586 0.0431923 0.371859 -0.0158137
000120 14 3c 8a 3d 4d be a5 bf d0 44 20 3f c6 db 2e bf
       0.0674974 -1.29487 0.62605 -0.683041
000130 c0 04 e6 be 4c 4d c4 3b 76 37 93 3f 14 05 92 3f
       -0.449255 0.00599066 1.15013 1.14078
000140 9f 72 10 3f 8a ca c6 be c9 91 52 3f 02 28 fe 3e
       0.564249 -0.388264 0.822537 0.496399
000150 0b 5b 75 bb 7b 68 97 be 17 82 b4 bf ee 79 1e 3e
       -0.00374383 -0.295719 -1.41022 0.154762
000160 e2 cd 75 bc 7e c1 d3 3c af 41 c7 3e fa 61 14 3e
       -0.0150027 0.0258491 0.389173 0.144905
000170 92 91 b7 bf af b0 80 bd 13 27 17 3f b7 0d 6b 3f
       -1.43413 -0.062837 0.59044 0.918178
000180 d6 1d 3f 3f be 6b b0 3e 38 49 4b 3f e6 22 3e 3c
       0.746549 0.344572 0.794086 0.011605
000190 1c cc 8b bc 9f e8 1b bc 3e 40 17 bd 1f a7 83 bc
       -0.0170651 -0.00951591 -0.0369265 -0.0160709
0001a0 01 1c 96 bc 3d 97 ce bc 31 1a 03 3d 34 4d 98 3c
       -0.0183239 -0.0252186 0.0320074 0.0185915
0001b0 96 6a 50 bd df aa 06 3d d0 ce 0e 3c d3 17 42 bd
       -0.0508829 0.0328778 0.0087163 -0.047386
0001c0 a7 c9 11 bd 0a 6a f8 bb b5 f4 cd bc 7d 3a 23 3d
       -0.0355927 -0.007581 -0.0251411 0.0398507
0001d0 d1 8a f9 bc 01 6b 55 3c 18 97 4a bd 23 93 c2 3c
       -0.0304617 0.013026 -0.0494605 0.0237518
0001e0 ab 90 b8 3b 5f 18 ba 3c ee 1a 3a 3b c3 e4 37 bd
       0.00563248 0.0227167 0.00283974 -0.0448959
0001f0 d1 0d 68 bd 87 c1 fc bc ba 0a 73 bc 21 d3 30 bd
       -0.0566538 -0.030854 -0.0148341 -0.0431701
000200 fa 69 57 bd 73 08 a4 3b 27 2a 80 bd 58 4d 61 3d
       -0.0525913 0.00500589 -0.0625804 0.0550054
000210 27 a7 30 3b 31 fb 06 3d f7 81 da bc 1e 31 dd ba
       0.00269551 0.0329544 -0.0266733 -0.00168756
000220 e4 32 89 3c a4 e4 30 bd bc 67 d3 3c 1d ff 0a 3d
       0.0167479 -0.0431868 0.0258063 0.0339347
000230 97 d8 c6 3c fc f7 85 3c 81 08 11 bd fd 25 b3 bc
       0.0242732 0.0163536 -0.0354085 -0.0218687
000240 2f 57 3a 3d e0 e1 ac bc 91 7a 54 bd 17 dc 6a 3c
       0.0454933 -0.0211038 -0.0518747 0.0143347
000250 50 73 8d bc 4e ba 88 3b 7a 71 32 3f 0d e1 a0 3e
       -0.0172669 0.0041726 0.697044 0.314217
000260 27 14 d6 3f 05 c0 0c c0 13 b8 15 c0 15 fe 78 bf
       1.67249 -2.19922 -2.33936 -0.972627
000270 38 9e 8f 3c 50 e4 c9 be 20 ca cc 3d 84 d5 bb 3a
       0.0175315 -0.39432 0.0999949 0.00143306
000280 21 c8 63 c0 8d f1 31 3f 1a 86 43 c0 1f be a4 3e
       -3.55909 0.695092 -3.05506 0.321763
000290 7b 6e fc 3c e6 3b 88 3e e8 dc 59 3f a2 ec ed 3c
       0.0308144 0.266082 0.851027 0.0290435
0002a0 d8 81 e3 3e 09 6f 4f bf 7d 75 65 be 25 2a af 3c
       0.44435 -0.810288 -0.224081 0.0213824
0002b0 39 97 ba be e9 2b 38 bf 3b 36 87 c0 3b 89 1c 3f
       -0.364435 -0.71942 -4.22537 0.611469
0002c0 1f 4b 49 c0 b2 a6 2d 3d 0d e0 03 c0 70 99 d7 3f
       -3.14521 0.0423953 -2.06055 1.68437
0002d0 7f bd 62 3f ce 70 23 be 41 68 98 3d 5a 48 f8 be
       0.885704 -0.15961 0.0744176 -0.484927
0002e0 b4 0a d5 3a d1 04 5a 3f 04 ff 07 bf fd 6a 92 3f
       0.00162538 0.851636 -0.531235 1.14389
0002f0 fc f7 65 3d 5d 2a 20 3d 1c 08 ad 3f 5e 63 75 c0
       0.0561447 0.0391029 1.35181 -3.83419
000300 bb 52 65 3d 32 71 db be 06 f2 28 bf 8d 45 9f bf
       0.0559871 -0.428598 -0.659943 -1.24431
000310 9f ad 43 bf f1 ba 91 c0 8f fc f1 bf 92 95 1f 3d
       -0.764368 -4.55407 -1.89052 0.038961
000320 e7 50 96 be 1b 7c 46 3d a9 9f bb 3f df 37 8e 3f
       -0.293586 0.0484582 1.46581 1.11108
000330 f7 93 21 3e 09 37 25 3f b2 3d 04 bd 57 43 96 bf
       0.157791 0.645371 -0.0322854 -1.17393
000340 b6 26 02 bd 67 bc c8 bc 13 b9 f0 be df c3 41 3f
       -0.0317752 -0.0245039 -0.470162 0.756895
000350 9a 25 c1 3f 16 13 27 bf 46 42 db 3c 98 c3 a6 3e
       1.50896 -0.652635 0.026765 0.325711
000360 f3 1f 32 be 52 6e b2 3b d8 bb 7f be 90 52 24 bd
       -0.17395 0.00544528 -0.24974 -0.0401178
000370 49 2e 97 be 6e b3 47 3d ae 63 5c bc 92 af 28 bf
       -0.295275 0.0487551 -0.0134515 -0.658929
000380 11 3a 48 be 1e 8b cd 3d 02 48 f5 3e 58 14 80 3c
       -0.195534 0.100363 0.479065 0.0156347
000390 68 b0 79 be c0 b3 65 bf 31 99 ea bd 42 e6 0f 3d
       -0.243837 -0.897274 -0.11455 0.0351317
0003a0 3e 3d 9e 3e d7 c3 77 be 66 ef 11 3d 43 57 ea 3e
       0.309061 -0.241958 0.0356287 0.457697
0003b0 39 ed f9 be c0 96 37 3e 80 2d e7 be bf 3e df bc
       -0.488138 0.179286 -0.451519 -0.0272516
0003c0 2b 18 91 3f 7a e0 43 be cb 80 53 3e 3f 1f 25 be
       1.13355 -0.191286 0.206546 -0.161252
0003d0 d0 42 22 be 88 1f ad 3c 5d e1 a9 bf 7d e8 aa 3f
       -0.158458 0.0211332 -1.32719 1.33522
0003e0 c5 8c 70 3e 95 08 f9 3b b4 38 73 3e 5f ec 0d be
       0.234912 0.0075999 0.237521 -0.138597
0003f0 03 60 c8 bf c6 6f 02 3f fd 13 06 c0 54 1e 15 bf
       -1.56543 0.509518 -2.09497 -0.582494

B2 f4 [50]
000000 9c 50 b4 bf a8 6d 9b be 41 a6 eb bc 25 06 89 bf
       -1.40871 -0.303571 -0.0287658 -1.0705
000010 7e 1d e8 3e a9 f6 05 3f fe 26 e0 bf 86 a9 6d be
       0.45335 0.523295 -1.75119 -0.232092
000020 5e 85 f4 bf bd ac 59 be e8 20 20 bc 2d e9 28 bc
       -1.91032 -0.212573 -0.00977347 -0.0103095
000030 93 e5 24 3e 6f f5 8c bf ff 09 aa 3f fe 7d fa bf
       0.161032 -1.10124 1.32843 -1.95697
000040 4e ec 05 3f 49 80 34 c0 cb 4a bb bf 9c a6 9f 3e
       0.523137 -2.82033 -1.46322 0.311818
000050 33 f9 2a c0 b2 46 a2 bc 22 36 34 bf d9 e2 e4 bb
       -2.67146 -0.0198091 -0.703951 -0.00698505
000060 5a f5 11 c0 e5 9b 09 3f a1 f8 51 bf 4b e5 33 c0
       -2.2806 0.537535 -0.8202 -2.81087
000070 17 5f d9 bc 94 fb bd bf b0 04 c2 bd 92 cb a3 bf
       -0.0265346 -1.48424 -0.0947355 -1.27965
000080 e0 83 67 3e 21 01 e3 bd 8d 43 71 3f 4b 94 01 bf
       0.226089 -0.110842 0.942437 -0.506169
000090 cb 30 06 3f f0 f9 01 c0 35 0c 8b 3f a0 a4 20 3f
       0.524182 -2.03088 1.08631 0.627512
0000a0 d1 5c 4b c0 b8 ea 56 bf 63 b7 1b 3f 92 03 6a bf
       -3.17754 -0.839519 0.608267 -0.914117
0000b0 ba 87 08 bf 0f b4 00 c0 7b da 85 3f 8a cc 0c bf
       -0.533321 -2.01099 1.04573 -0.549996
0000c0 da e3 19 3f 2d 62 13 3d
       0.601133 0.0359823

W3 f4 [50, 50]
000000 5b 07 53 3f d9 93 b8 be a3 14 fe 3c 89 ed 12 3f
       0.824331 -0.360503 0.0310157 0.573937
000010 0a 66 3c be 4c 8d b0 be 9f 22 ff 3e ce 70 87 bf
       -0.183983 -0.344828 0.498311 -1.05813
000020 66 a0 ba 3f 32 22 d1 3e 65 4d 91 bc 39 97 02 bd
       1.45802 0.408464 -0.0177371 -0.0318825
000030 46 b4 7d 3e 60 1f 9d 3f 4f 79 e4 be 72 dc f1 bf
       0.247758 1.22752 -0.446238 -1.88954
000040 1d 21 13 3e 2f fa fe 3f e8 14 6c bf cc 98 52 3e
       0.143681 1.99201 -0.922194 0.205661
000050 c3 d3 a7 3f 3c eb 24 bd 93 51 d5 3e e6 e1 49 3d
       1.31115 -0.0402634 0.416638 0.0492877
000060 ec f6 91 be 81 ce 74 3f 7f 56 34 3d 02 0e d9 3e
       -0.285087 0.956276 0.0440278 0.423935
000070 1a ec fc 3c 48 16 c8 3e af 5f 04 3f 62 84 dc 3f
       0.0308743 0.390795 0.517085 1.72279
000080 e9 ef 05 be a8 1c 33 3f fc fb 48 bf f3 1e d7 3e
       -0.130798 0.699656 -0.785095 0.420158
000090 31 d1 3c 3f 2f 6a 47 3e ad 86 44 3e 8e 76 40 3f
       0.737567 0.194741 0.19192 0.751809
0000a0 b0 71 2d 3e 60 ca 28 bf 1d 8e ae be 34 bc 39 3f
       0.169379 -0.659338 -0.340928 0.725528
0000b0 5a 02 3a 3d e4 db 3b be 6c cf 3c be ed ef a4 3e
       0.0454124 -0.183456 -0.184385 0.322143
0000c0 69 ab 62 be 7f 4d d2 3f df 89 a1 3f aa ba d7 be
       -0.221357 1.64299 1.26202 -0.421346
0000d0 3a 80 34 3d c5 38 d7 3f 4b b2 a9 3d a7 74 a8 be
       0.0440676 1.68142 0.0828596 -0.329015
0000e0 1e dc 1d 3f 6a a4 01 bf b8 75 67 3e 05 4e 42 3f
       0.61664 -0.506415 0.226035 0.759003
0000f0 32 6b 2e bd 8b 9b 64 bc 1b be 79 3f 5e 65 69 3f
       -0.0425827 -0.0139531 0.975557 0.911703
000100 b6 13 39 3f ea cf 20 40 16 f7 97 be c8 cf 66 3e
       0.722957 2.51269 -0.296807 0.225402
000110 01 a4 ce 3f 8b c6 22 3f c1 c5 f2 be 55 6d 4a ba
       1.61438 0.635842 -0.474165 -0.000772198
000120 8a ab ca 3e e2 94 94 bc 7d 79 89 3f 29 ae ea 3e
       0.39584 -0.0181374 1.07402 0.45836
000130 f7 cc 20 40 54 8c 07 40 f7 e4 06 3d f0 36 33 3f
       2.51251 2.11794 0.0329332 0.700057
000140 18 9f 98 3d ca 15 6a 3f 06 81 25 3e be c1 ab 3f
       0.0745222 0.914395 0.161625 1.34185
000150 17 9d 7c be a6 28 e7 3e 16 87 17 bf cc 7a b5 3f
       -0.246693 0.451482 -0.591905 1.41781
000160 38 49 67 3f 84 0d c7 3f a9 87 e8 3f 3d 0d 64 3f
       0.903461 1.5551 1.81664 0.890827
000170 e4 4b 30 bf 34 d7 89 3f 51 de 33 bf 51 88 a8 3e
       -0.688658 1.07688 -0.702611 0.329165
000180 ed f4 23 bf 7f a2 22 3f 3d 0f f2 3f 66 31 71 bf
       -0.640456 0.635292 1.89109 -0.94216
000190 0c e6 4f bd 2c 66 48 3f 41 cb dd 37 74 d2 8f bf
       -0.0507565 0.782809 2.64399e-05 -1.12361
0001a0 30 f2 52 3f ca a2 72 bb 59 2e 20 bd 2b c2 05 3f
       0.824008 -0.00370233 -0.0391067 0.522494
0001b0 73 80 b0 3f 96 77 05 3e af be 11 bb 7f 3a f9 bc
       1.37892 0.130339 -0.00222389 -0.0304234
0001c0 0e 2d 06 3f 61 88 74 3f 4a dc d9 3c 50 8d af be
       0.524125 0.955206 0.0265943 -0.342875
0001d0 f4 c3 bc bf f0 dc b3 3f 87 bf be bf c4 b0 13 3f
       -1.47473 1.40518 -1.49022 0.576916
0001e0 c8 79 ff be f0 c4 ac bc 36 3b 5a bf d4 16 cd 3c
       -0.498976 -0.02109 -0.852466 0.0250353
0001f0 e2 af b1 bf e1 29 ac be eb 27 94 ba 27 6b 34 c0
       -1.38818 -0.336257 -0.00113034 -2.81904
000200 24 da 69 3c b2 46 1d bf 1c 41 1e bf ae 81 4b c0
       0.0142732 -0.61436 -0.618181 -3.17979
000210 d0 f0 6a 3f 09 c6 25 bf be 4e 92 be 89 29 c9 3f
       0.917737 -0.647553 -0.285757 1.57158
000220 5a f6 6c bf 8f 6e 08 bf c1 a8 84 bf da c9 ec 3f
       -0.925634 -0.532937 -1.0364 1.84991
000230 5f 61 c9 be e2 90 bd be 3e 04 e5 3e 5f 45 ee 3e
       -0.393321 -0.370246 0.447298 0.465373
000240 a9 fb 88 bf 83 c2 e0 bd 19 98 4b 3c 91 47 00 3f
       -1.07018 -0.109746 0.0124264 0.501092
000250 e4 fe 59 bd 9d 4b 17 40 79 23 9b 3e 95 48 72 be
       -0.0532216 2.36399 0.303005 -0.236605
000260 90 30 eb bb 59 f7 b7 3e e9 26 95 3f 1a a5 1b 3e
       -0.00717742 0.359309 1.16525 0.151997
000270 dd 0c 57 bf b7 5d 68 bf 65 53 2e 40 47 aa 07 bf
       -0.84004 -0.90768 2.72384 -0.529942
000280 a5 00 07 bd 07 d5 61 bc 17 46 4a 3e 7f 6a 3a 40
       -0.0329596 -0.0137837 0.197533 2.91275
000290 9a cd fb 3e cc 28 e6 3f bc 79 86 3f 02 9a 38 40
       0.491803 1.79812 1.05059 2.8844
0002a0 66 16 1d 3f 1f 85 8b 3f 84 80 54 3f f4 37 bc 3c
       0.613623 1.09 0.830086 0.0229759
0002b0 c9 7d 21 bd cf 2c ee 3c 85 42 b0 3f 0c 76 8f 3f
       -0.0394266 0.0290741 1.37703 1.12079
0002c0 f8 c4 ba 3e 68 40 49 3f 04 45 02 bd 27 f5 51 3f
       0.364784 0.786139 -0.0318041 0.820147
0002d0 51 f8 4c be 7f 34 6c 3e 25 23 b3 3f 41 7e be be
       -0.200166 0.230669 1.39951 -0.372057
0002e0 f4 32 b2 bf 14 ae 09 40 51 a0 3f 3f 7f db 0b 3f
       -1.39218 2.15125 0.74854 0.546318
0002f0 1d 55 43 40 df 89 ed 3f 83 51 b5 3f 15 e3 d0 3f
       3.05207 1.85577 1.41655 1.63193
000300 a3 34 c5 3d 3d 0a ef bf 33 c2 23 3f 52 7e 50 40
       0.0962918 -1.8675 0.639682 3.25771
000310 aa 29 29 bf 87 8a 61 3e e4 9e 06 3f e7 e1 54 3f
       -0.660792 0.220255 0.525862 0.831572
000320 ea 07 b5 be c9 8e 9d bf ab 74 98 bb 30 f0 34 bf
       -0.353576 -1.23092 -0.00465258 -0.70679
000330 d1 5c ef 3f 93 c6 0c bf e4 4b 00 3f 71 20 dc be
       1.87002 -0.549905 0.501158 -0.429935
000340 f0 34 09 be f8 38 77 3f bd 44 2b bd f3 35 b0 3c
       -0.133991 0.965713 -0.0418136 0.0215101
000350 a7 20 03 3f eb c5 18 c0 e0 da 05 bf 4f 5a d8 3e
       0.512217 -2.38708 -0.522871 0.422564
000360 eb ac 66 bf 98 4c 05 c0 17 65 8e bf 3e b3 c0 bf
       -0.901076 -2.0828 -1.11246 -1.50547
000370 b4 94 3c 3e db 5e 01 3d 8b 54 ec 3f 13 c3 c4 bc
       0.184161 0.0315846 1.84633 -0.0240188
000380 77 82 d5 be 0f 9a f5 be b9 51 64 bf cf 4d 2b bf
       -0.417011 -0.479691 -0.891872 -0.669156
000390 4e 37 da bc b5 70 45 bf a0 a4 30 3e 53 cb f6 bd
       -0.0266377 -0.771251 0.172503 -0.120505
0003a0 0b 5e 88 bf 31 06 be 3e d9 79 6b 3f 77 11 de be
       -1.06537 0.371141 0.919828 -0.433727
0003b0 1f bf 2d 40 3c c1 c6 be cd 23 3a 3d 61 37 c8 bf
       2.71479 -0.388193 0.0454443 -1.56419
0003c0 9f c8 67 c0 0f 0b b5 3f 93 a6 89 3e 0c 94 74 be
       -3.62162 1.4144 0.268849 -0.238846
0003d0 33 a4 c2 3e 4d bb 08 3e 8c d8 13 3f e6 22 9e bf
       0.380159 0.133527 0.577523 -1.23544
0003e0 4e b7 1c be e8 82 00 c0 c1 c5 82 be 71 49 af bd
       -0.153043 -2.00799 -0.255415 -0.0855893
0003f0 47 2b 2d 3c 64 03 f9 3e 37 99 67 3d c4 b2 99 3e
       0.0105694 0.486354 0.0565426 0.300192

B3 f4 [50]
000000 e8 6a 71 40 0e f4 7c 3f 07 b1 eb bf f3 02 b0 3f
       3.77215 0.988099 -1.84134 1.37509
000010 f4 37 13 c0 73 d8 85 3e 70 26 ae 3e 58 ad 82 c0
       -2.30029 0.261417 0.340137 -4.08366
000020 b5 a6 a1 3f e7 89 0c bd c3 d3 a7 3f 0c 76 5d c0
       1.2629 -0.0343112 1.31115 -3.46033
000030 fc 89 8a bc 53 21 76 bf 10 75 c3 3f c2 34 ae 40
       -0.0169115 -0.961446 1.52701 5.44394
000040 5e da 20 3f 3a 6e 42 bc e8 bc a6 bf 96 51 96 bd
       0.628332 -0.0118671 -1.30264 -0.0733978
000050 1c b6 05 40 db 6d 07 3f 58 48 0f bd c0 b3 1d bf
       2.08924 0.52902 -0.0349811 -0.616024
000060 f2 0c 8d 40 8c 67 80 c0 a9 87 b0 3f eb ff e4 3f
       4.40783 -4.01264 1.37914 1.78906
000070 c3 9e 58 c0 23 d6 c7 3d 78 62 b2 3f 9f 93 86 3f
       -3.38469 0.0975764 1.39363 1.05138
000080 bd e0 db be bf 99 3c bf e9 2c 73 bf 24 28 c2 3f
       -0.429449 -0.736721 -0.949904 1.51685
000090 8a e6 69 bf 22 19 2e 3f 33 f9 56 3f c6 6d c0 3f
       -0.913674 0.680071 0.83974 1.50335
0000a0 cc 08 47 bf 27 66 89 bf 87 f9 6a 40 31 b1 9d bf
       -0.777478 -1.07343 3.67148 -1.23197
0000b0 26 e4 53 c0 45 f6 5d 3f 82 3c 5b 3e ef e5 76 bf
       -3.3108 0.867039 0.214098 -0.964446
0000c0 53 e2 df bc 23 15 14 c0
       -0.0273296 -2.31379

W4 f4 [50, 50]
000000 13 0a 01 bf 33 c2 ab be d6 6e cb be 65 e4 08 c1
       -0.50406 -0.335466 -0.39733 -8.55576
000010 25 58 bc 3f f6 28 b8 3f 61 37 a1 40 66 6b 19 c0
       1.47144 1.43875 5.03801 -2.39718
000020 2e 04 c5 3f ba 99 38 3b b7 62 47 c0 15 74 b7 3f
       1.53919 0.00281678 -3.1154 1.43323
000030 65 70 94 bc 41 2b d0 3f 5d a5 03 bf 52 2a 4d bf
       -0.01812 1.62632 -0.514242 -0.801427
000040 64 3b 9f 3f 33 53 fb bb e3 a5 93 3f 4c fd b4 bf
       1.244 -0.00766983 1.1535 -1.41398
000050 e2 06 08 40 cd 06 b5 3f dd 2d e2 3a 2a 90 41 3f
       2.12542 1.41427 0.00172561 0.756106
000060 62 f3 9e c0 6e 69 05 bf ce c7 11 3f 5c 5a 39 3f
       -4.96721 -0.52114 0.569455 0.724035
000070 c5 55 81 3f de 8e 16 40 4c 4f a8 3f b4 cc 42 bd
       1.01043 2.35247 1.31492 -0.0475585
000080 72 8a 28 40 d2 e1 d9 3e 78 b4 49 40 7f d9 9d 40
       2.63345 0.425551 3.15164 4.9328
000090 09 50 eb 3f 18 5b 84 3f 83 34 23 3e 82 a9 72 3f
       1.83838 1.03403 0.15938 0.947899
0000a0 fa 61 38 3f 70 77 1e 40 26 36 97 bf 78 0b 06 c0
       0.720245 2.47604 -1.18134 -2.09445
0000b0 af 3f c1 3e 39 2b 6e bf b8 af 55 40 4d 9e 0a 3f
       0.377439 -0.930347 3.33885 0.541478
0000c0 0d 55 b1 3c 6c ea 4c 3e 4c e0 2a c0 d1 05 6d c0
       0.021647 0.200113 -2.66994 -3.70348
0000d0 fd 87 8d c0 94 a4 d3 be 23 c0 4d bf 95 9a 0d c0
       -4.42285 -0.413365 -0.803713 -2.21256
0000e0 b2 f4 5d c0 c0 cd 02 be 8c 84 20 c0 fe 49 17 bd
       -3.46806 -0.127738 -2.50809 -0.0369358
0000f0 ed 2c 3a 3e d0 97 2a bf e0 0c 23 bd 3b 53 88 bf
       0.181812 -0.666379 -0.0398072 -1.06504
000100 2b f6 df bf 92 74 61 c0 e7 fe aa 3e 16 6d 8e bc
       -1.7497 -3.52274 0.333976 -0.017386
000110 e7 c8 42 bf dd 41 7e c0 e5 0a 9f bf 36 3a 47 3e
       -0.760878 -3.97277 -1.24252 0.194558
000120 a6 f3 fc bc 6b d3 80 3e 9f ab 4f c0 5c 01 ad 3e
       -0.0308779 0.251613 -3.24485 0.337901
000130 02 b7 e7 c0 4e b4 fb bf 11 36 90 bf 46 b4 25 bf
       -7.24109 -1.96644 -1.12665 -0.647282
000140 47 c9 11 c0 e2 74 b2 be a1 67 4f c0 9f b0 98 c0
       -2.27791 -0.348548 -3.2407 -4.77156
000150 fa b3 87 3f d3 da 44 bf c0 ec de bd 15 a9 54 c0
       1.06018 -0.768964 -0.10885 -3.32282
000160 57 b2 87 c0 e2 20 e9 3e 4c e0 0c c1 e2 af 71 40
       -4.24052 0.455329 -8.80476 3.77636
000170 e4 83 b2 bf 01 fb f8 3f 21 59 14 40 10 40 42 3f
       -1.39465 1.94516 2.31794 0.75879
000180 ae 2c 21 3f c2 69 4f c0 9f dc 9d bb b1 e1 55 c0
       0.629588 -3.24083 -0.00481756 -3.3419
000190 3e ec 41 bf 10 3d b9 3d d9 5e b3 3e 22 1a 53 c0
       -0.757511 0.0904485 0.350333 -3.29847
0001a0 a9 69 33 3f a9 fa 85 be 2e 04 c1 bf 58 1d 35 bf
       0.700831 -0.261678 -1.50794 -0.707479
0001b0 ef 57 79 bf 44 8c 12 bd b8 e4 82 c0 32 20 cf c0
       -0.973998 -0.0357783 -4.09042 -6.47268
0001c0 3b 63 a9 3c 7f c1 96 3f 1d 03 20 40 74 b5 e5 bf
       0.0206772 1.17778 2.50019 -1.7946
0001d0 3d ba 19 bf 04 b5 53 bd ba 83 06 40 11 38 82 bd
       -0.600498 -0.0516863 2.10179 -0.0635835
0001e0 24 0b 32 c0 90 83 32 c0 8a b2 32 3d fa b3 c7 c0
       -2.78193 -2.78928 0.0436273 -6.24072
0001f0 7d e8 9e c0 19 e6 0c 3f d2 a9 0d 40 3e cc 3a 3f
       -4.96588 0.550386 2.21349 0.729679
000200 c6 dc b5 3f 9a cd 53 3e d0 ec 7e 3f 6e c0 17 bf
       1.4208 0.206839 0.995801 -0.59278
000210 b2 63 cf bf 2f 51 61 bf 9f 8e 8b 40 7a a5 d8 bf
       -1.62023 -0.880145 4.36116 -1.69255
000220 ae 81 05 40 55 fb c0 bf 04 fe f0 bd 27 4e fa bf
       2.08604 -1.50767 -0.117672 -1.95551
000230 88 9d 91 bf 74 5e 8b bf b7 97 9c bf 8c d6 80 c0
       -1.13762 -1.08882 -1.22338 -4.02619
000240 81 26 20 c1 9f 05 21 be 1b 2f 8c c0 1e dc d5 be
       -10.0094 -0.157248 -4.38075 -0.417695
000250 16 20 00 bd e1 b3 b5 3e ef 02 5d bf ac 39 a8 3f
       -0.0312806 0.354888 -0.863326 1.31426
000260 71 e6 07 bf 44 c0 c1 c0 c0 22 8f 3e 15 c5 a3 3e
       -0.53086 -6.05472 0.279562 0.319863
000270 8f fc 3b 40 f1 82 b8 3e 4f 1e c2 3f f5 90 df 3c
       2.93729 0.360374 1.51655 0.0272908
000280 5a 4b 79 bf a6 d3 f2 be f1 1e 16 3d 2b 6a 20 40
       -0.973806 -0.474271 0.0366506 2.50648
000290 2e ff 19 40 91 27 91 bf 3a ae 06 3f 83 ad 28 bd
       2.4062 -1.13402 0.526096 -0.0411811
0002a0 4a b3 e1 3e ea d0 09 be 01 c2 d7 be 97 39 07 40
       0.440821 -0.134586 -0.421402 2.11289
0002b0 aa 3e df bb f8 16 d6 bd e9 d4 d9 3f df 70 9f be
       -0.00681289 -0.104536 1.70181 -0.311408
0002c0 50 53 e3 3f b8 56 eb 3e 43 e5 a7 3e 00 ab 5b bf
       1.77598 0.459646 0.327921 -0.858078
0002d0 a0 c3 84 bf 02 d9 bf 3f 1d 72 27 c0 13 7e c5 3f
       -1.03722 1.49881 -2.61634 1.54291
0002e0 84 29 9a be 0a a2 ee 3f d9 3d 11 c0 15 a9 c8 bf
       -0.301098 1.86432 -2.2694 -1.56766
0002f0 5f 24 2a c0 53 91 1a 40 33 33 8f 40 f1 9d b8 3f
       -2.65847 2.41512 4.475 1.44232
000300 c2 69 f9 3f 57 5c 7c be e6 21 47 3f 08 c9 a6 3f
       1.94854 -0.246446 0.777861 1.30301
000310 d2 71 25 be d6 39 96 3f 3d 2a 1e 3d c8 23 08 bf
       -0.161567 1.17364 0.0386145 -0.531796
000320 60 20 b0 3e ec f9 6e bf d7 12 d2 be a5 15 7f bf
       0.343997 -0.933501 -0.4103 -0.996424
000330 f4 a9 9b be 81 5a 68 3f 8b 71 8f c0 dd 9a 28 bf
       -0.304031 0.907631 -4.48261 -0.658613
000340 13 7d 0e be fd f9 36 bd 6d 59 4e 3e 36 1d a9 3e
       -0.139149 -0.044672 0.201513 0.330301
000350 ab 46 08 3c 1e fc 08 bf cc 45 84 3e bb 7d 5e 3f
       0.00831763 -0.535097 0.258345 0.869106
000360 42 09 73 bd 94 b1 30 bd 77 be ad c0 e7 c6 c4 bd
       -0.059335 -0.0431381 -5.4295 -0.0960825
000370 7c 45 63 3f ec 16 49 3f ba 3b 41 3d 81 af 08 be
       0.887779 0.785506 0.0471761 -0.133482
000380 bc 5c d0 3f 93 52 50 bd d5 3e 8d bf c1 fd f8 3e
       1.62783 -0.05086 -1.10348 0.486311
000390 53 cb 82 bf 8e 1e ff be 44 85 76 bf 7e 19 8c be
       -1.02183 -0.49828 -0.962971 -0.273632
0003a0 e0 82 9c be 85 b6 d4 bf bf 0b 17 bf 5b eb b3 bf
       -0.305686 -1.66182 -0.590023 -1.40562
0003b0 56 f4 df be 37 c1 c7 3e e9 d6 a3 3e 40 df 6e 3f
       -0.437411 0.390146 0.319999 0.933094
0003c0 6d 1e e7 bd dc 10 17 bf f4 32 22 3f 31 eb 85 3f
       -0.112851 -0.590101 0.63359 1.04624
0003d0 b3 7a 8f be 55 fb 24 bf f1 9b 76 bf db c2 33 be
       -0.280233 -0.64446 -0.963317 -0.175548
0003e0 96 b5 6a 3b c6 e0 45 3f 19 90 25 bf e7 6f c6 bf
       0.00358138 0.772961 -0.64673 -1.55029
0003f0 97 01 57 be 29 40 9c be 1d aa 39 be 64 06 7a be
       -0.209967 -0.305177 -0.181313 -0.244165

B4 f4 [50]
000000 88 f4 90 40 b7 3b 94 ba d6 6e c5 c0 28 d2 3d bf
       4.52985 -0.00113093 -6.16978 -0.741488
000010 cd 58 90 bf 8e 23 6c c0 64 92 0f c0 a9 6c 50 3f
       -1.12771 -3.68967 -2.24331 0.814158
000020 c0 b2 ad c0 0a dc ee bf 28 ef 1b bf f0 33 80 40
       -5.42807 -1.86609 -0.609118 4.00634
000030 ba f7 c0 3e 32 22 d9 3e 06 64 ab 3f f5 10 45 bf
       0.37689 0.424089 1.33899 -0.76979
000040 53 91 64 c0 f3 ab 29 40 57 21 95 c0 83 f9 27 3f
       -3.57137 2.65112 -4.66032 0.656151
000050 f5 67 19 c0 98 c1 58 3f 5d fe db 3f d5 ca 3c 3f
       -2.39697 0.846704 1.7187 0.73747
000060 73 4c 2e bf 4e b5 7e 3f ed 65 3f bf 44 8b 88 bf
       -0.680854 0.994954 -0.747649 -1.06675
000070 91 0f ca 3f 75 00 0c 3f ab 78 ef 3f dd 5e be 3f
       1.5786 0.546882 1.87087 1.48727
000080 43 ca 39 c0 3c 31 31 c0 46 ce 95 c0 89 0c cb 3f
       -2.90297 -2.76863 -4.68143 1.58632
000090 f9 4e 7c 3e 48 16 90 3f ef e1 02 c1 e8 82 24 40
       0.246395 1.12568 -8.18016 2.57049
0000a0 a3 cc e2 3f ce 8d c1 3f b9 c7 aa be 56 6f 63 bd
       1.77187 1.51214 -0.333555 -0.0555261
0000b0 c6 fb f1 bd 5c c8 13 be 7b 83 9f bf 1a 8b eb c0
       -0.118156 -0.144319 -1.2462 -7.36073
0000c0 fb 3f 8c 40 00 a9 b4 c0
       4.38281 -5.64563

W5 f4 [50, 50]
000000 49 02 43 3c 95 4c 29 bd 2b e0 89 bd 9d f4 be 3d
       0.0119024 -0.0413328 -0.0673221 0.09324
000010 bf c0 a7 bd 67 3b f0 bc c8 b1 f5 bc b7 75 bc 3d
       -0.0819106 -0.0293252 -0.029992 0.0920214
000020 42 eb e1 bd 5b b5 88 3b 46 d2 2e be ba b6 7c 3d
       -0.110312 0.00417201 -0.170724 0.0616977
000030 f3 ab b1 be 97 e1 cf be c2 50 a7 be 13 92 86 bd
       -0.347015 -0.406018 -0.326788 -0.0657083
000040 e4 bd 22 bf 36 ad 84 3d c2 13 0a be c4 3f ac be
       -0.63571 0.0647835 -0.134841 -0.336424
000050 ea b2 d0 be a9 da 0e 3e 24 0e 39 3d df ad 87 bb
       -0.407615 0.139506 0.0451795 -0.0041406
000060 31 5d 98 3e 4c a5 03 bf 21 84 86 bd 24 d1 2b be
       0.297586 -0.514241 -0.0656817 -0.16779
000070 62 d1 59 bd e3 4b ac 3b 00 1f 04 bf 3b 37 1d 3e
       -0.0531782 0.00525807 -0.516098 0.153531
000080 ce e3 d0 be 24 c8 6f 3b c8 6c 7f bc 20 12 89 3d
       -0.407988 0.00365878 -0.0155899 0.0669291
000090 d5 26 ee 3d e6 8a 8c bd c6 bf 1f bf 29 3e fe 3d
       0.116285 -0.0686243 -0.62402 0.124142
0000a0 38 a4 c9 3e d0 61 1e be 26 38 41 bf 4e 7b ea be
       0.393831 -0.15467 -0.754763 -0.457972
0000b0 c7 12 f6 bd b7 eb ad 3e 0c ea 07 bf 7b d5 8f bd
       -0.120153 0.339689 -0.530915 -0.0702314
0000c0 a4 6e 47 3d 8c c4 8f bd 4a d2 85 be f7 c1 83 bd
       0.0486895 -0.0701991 -0.26137 -0.0643348
0000d0 1d 55 7d bf 11 fe 65 3e 83 6e bf 3e fd 6a 82 3f
       -0.98958 0.224602 0.37389 1.01889
0000e0 f9 13 55 3f e6 22 e6 3e 44 f7 48 bf 85 b2 88 3e
       0.832336 0.449485 -0.785023 0.266987
0000f0 c1 c6 ad 3e c1 e2 90 bd f0 c4 f0 3f 5e 9d 0d 40
       0.339407 -0.070745 1.88101 2.21273
000100 47 cc 48 bf 1a 4e 09 3f 6d 1c b9 3f 79 59 53 be
       -0.784367 0.536348 1.44618 -0.206396
000110 c4 6c c3 bd bd a7 46 3f 8b c3 89 3f be 9f 82 bf
       -0.0954223 0.775997 1.07628 -1.0205
000120 20 b6 9c be 30 84 5c bd c3 81 00 c0 cb 4a 25 40
       -0.306077 -0.053837 -2.00792 2.58269
000130 00 ae 44 3e 55 fb e8 3f 82 56 b4 3f 75 3e 7c bf
       0.19207 1.82017 1.40889 -0.985328
000140 71 03 95 40 f7 ea 8b 3e c9 76 0c 40 4d a2 32 bf
       4.65667 0.273277 2.19475 -0.697789
000150 28 d7 a4 3e 45 9e 34 bf 68 1f 2b be 56 9e d0 3e
       0.321954 -0.70554 -0.167112 0.407458
000160 af cc 5b bf d1 05 f9 bf ee 25 b9 bf 7a 53 99 3f
       -0.858592 -1.94549 -1.44647 1.19786
000170 1d 8f 09 40 29 cb cc 3f 6e 34 98 3f 32 ac 16 40
       2.14936 1.59995 1.1891 2.35426
000180 f5 f3 0c c0 e7 df 0e be 7c f0 4e bf 4a 96 b3 be
       -2.20239 -0.139526 -0.808357 -0.350756
000190 8a 3d 34 3e 6b ff a9 bd 55 12 5e bd 8d 83 e6 3c
       0.176016 -0.0830067 -0.0542167 0.0281389
0001a0 ce f1 9b bd 44 f9 32 be 72 e0 d5 3d f8 7d a9 3d
       -0.0761448 -0.174779 0.104432 0.0827598
0001b0 f3 28 2b bd f0 96 55 bd 3b a8 04 be 7d 9e 75 3c
       -0.0417871 -0.0521459 -0.129548 0.0149914
0001c0 f9 12 3a be 97 6f bd be 70 ef 1a be 01 51 d0 bd
       -0.181713 -0.369992 -0.151304 -0.101717
0001d0 2a 58 03 be 81 dc 72 3b 59 cf bf bd 85 26 49 bd
       -0.128266 0.00370577 -0.0936572 -0.049109
0001e0 08 58 1b be f0 60 55 bd 82 aa 71 3e c7 2c fb 3d
       -0.151703 -0.0520944 0.236002 0.122644
0001f0 da ab 8f 3e b2 bc 3b 3e a7 39 1e 3d b0 70 b7 3d
       0.280608 0.183337 0.0386292 0.0895704
000200 34 86 59 be f6 8c 10 bc c9 75 e3 be 19 03 eb 3d
       -0.212426 -0.00882267 -0.444258 0.114752
000210 b7 09 07 be 42 5a 68 bd ad 93 49 bd 81 02 14 3d
       -0.131873 -0.0567267 -0.0492131 0.0361352
000220 7f c2 f9 3d ce 37 92 bd e4 2d 87 be 6f 1e 9d 3d
       0.121953 -0.0713955 -0.264022 0.0767182
000230 37 a5 ec 3e 7c 7b f7 bd 3c 4e 11 3e 70 ec 79 be
       0.462198 -0.120841 0.1419 -0.244066
000240 d7 4f ff 3d 55 22 ff 3c 3a 03 ab be 04 d9 5c bd
       0.124664 0.0311443 -0.334009 -0.0539179
000250 ae 86 7e 3b 9e 41 b3 bd bb ed be bf a6 9d 76 3f
       0.00388376 -0.0875275 -1.49163 0.963343
000260 39 0c 36 be e1 99 98 3e 6f 59 bf bd d1 79 8d 3f
       -0.177781 0.298049 -0.0934323 1.10528
000270 03 ce d2 3e 96 09 9b 3f 70 96 d2 be 6c 95 9c bf
       0.411728 1.21123 -0.411304 -1.22331
000280 63 ee 54 c0 fd 13 d0 bf 41 f3 15 bf 63 28 3b c0
       -3.32705 -1.62561 -0.585743 -2.92434
000290 96 b3 0f 3f d9 3d 25 3f 25 92 9c 3f 71 5a 1c 3f
       0.561334 0.645475 1.22321 0.610755
0002a0 93 c5 9d be dd eb 68 bf af cc fb 3e 24 fc 81 bc
       -0.308148 -0.909849 0.491796 -0.0158673
0002b0 d3 28 0e bd 25 92 44 c0 16 a3 e6 3e 1f 2e a5 3f
       -0.0347069 -3.07142 0.450463 1.29047
0002c0 0e 84 f8 3f d6 37 20 bf 78 28 56 40 5f 98 7e 40
       1.94153 -0.625852 3.34622 3.97805
0002d0 28 9b b2 3f c8 eb 45 bf 9d 2e fb 3f a5 4b b7 3e
       1.39536 -0.773129 1.96236 0.357999
0002e0 07 b5 6f 3e 45 d5 3f bf 2c b6 05 bf da ca 7b 3f
       0.234089 -0.749348 -0.522311 0.983564
0002f0 9a 94 8e bf fe 43 da bd 6a 68 6b 3f 0a 4b 48 c0
       -1.11391 -0.106575 0.919562 -3.12958
000300 6f 9e 9a 3f 85 ed ef 3e d0 0a 98 3f 53 cd ec 3d
       1.20796 0.468609 1.18783 0.115626
000310 d2 3a 3c 40 11 52 0f bf d1 05 b1 bf 97 ca bb be
       2.94109 -0.559846 -1.38299 -0.36678
000320 af 9b ad bc 2b 16 ff 3c 69 46 50 3c 9e cf 40 be
       -0.0211924 0.0311385 0.0127121 -0.188292
000330 df df 90 be b8 df 86 bc 95 93 9a 3b b5 dc 1e bd
       -0.282958 -0.0164641 0.0047173 -0.0387847
000340 7e c5 5a bf f7 bc 31 3d 4c 3d 96 bd 9e d2 41 bc
       -0.854576 0.0433931 -0.0733591 -0.01183
000350 fe c5 7d 3c 39 9d 3f bc 70 12 39 bc 0a 46 06 3c
       0.0154891 -0.0116952 -0.0112959 0.00819541
000360 8b 4d 50 bc dd 22 15 bd 6a 3c 87 bc f7 19 3c 3c
       -0.0127138 -0.0364102 -0.0165083 0.0114808
000370 b7 bd 38 bc 6a e8 a5 3d 5c 38 66 c0 5c f3 89 3d
       -0.0112757 0.0810097 -3.59719 0.0673587
000380 a6 86 2c bd 20 6d 12 3c 7e 80 7f 3c 6c 24 89 3c
       -0.0421206 0.00893715 0.0155946 0.016741
000390 2a 2c 82 bc 1f a2 a1 be a6 45 9e 3b 04 48 43 3d
       -0.0158902 -0.31569 0.00483008 0.0476761
0003a0 8f 4b 61 bd cc de 68 bd 79 dc 81 3c 78 62 56 bc
       -0.0550037 -0.0568531 0.0158522 -0.013085
0003b0 42 52 15 3d 1f 9d f2 bf 80 88 e4 3a 5e ed ad bd
       0.0364554 -1.89542 0.00174357 -0.0849254
0003c0 35 81 3d 3d 67 8d 8b 3c 17 7e d0 bd 90 a0 78 bd
       0.0462658 0.0170352 -0.101803 -0.0607
0003d0 40 66 8c bd 4b 62 5f bd 3f a8 eb bd 68 eb a0 bc
       -0.0685544 -0.0545371 -0.115067 -0.0196435
0003e0 1f 24 15 3d e3 66 5d bc db 6d d7 bd cb 48 dd 3e
       0.0364114 -0.0135133 -0.10519 0.432196
0003f0 18 40 78 3e d2 54 03 bf c6 a3 20 3f f2 24 71 bf
       0.242432 -0.513013 0.627499 -0.94197

B5 f4 [50]
000000 c6 33 34 3f bc 57 a8 c0 bf 0e b8 3f 42 09 05 c1
       0.703915 -5.26071 1.43795 -8.31476
000010 6c 76 e4 bd 21 1f b8 c0 d5 09 3a c1 08 55 d2 be
       -0.111554 -5.7538 -11.6274 -0.410805
000020 91 ed 04 c0 8e 40 78 bf ed 70 17 c1 69 35 52 c0
       -2.077 -0.969735 -9.46507 -3.28451
000030 75 1f 08 bf 8e 75 0c c1 33 e0 74 3f 9d 2e 57 3f
       -0.53173 -8.7787 0.956546 0.840555
000040 98 b0 ec 3c a2 62 30 3f 60 77 62 bf c0 3f 29 3f
       0.0288928 0.689005 -0.884634 0.661129
000050 d7 17 79 be 9d 91 00 c1 3a a3 16 c1 77 15 b5 c0
       -0.243255 -8.03555 -9.41485 -5.65887
000060 02 d9 69 c0 2f be b8 be 59 8b 15 c0 6e 5c 14 bb
       -3.65387 -0.360826 -2.33663 -0.00226381
000070 1d c9 24 c1 30 2a e5 bf 8b 6c cf c0 32 3d d5 3f
       -10.2991 -1.79035 -6.482 1.66593
000080 45 b8 25 bf f0 a2 a6 c0 41 9f ac bf 4b 93 82 bf
       -0.647343 -5.20739 -1.34861 -1.02012
000090 c7 63 ee c0 a5 6b 0a c0 43 ca b3 bf 67 64 30 be
       -7.44968 -2.16282 -1.40461 -0.172258
0000a0 09 c4 c3 c0 35 0c 0f c1 67 ed f4 c0 03 27 5b be
       -6.11768 -8.94048 -7.65398 -0.214016
0000b0 c1 a8 94 3f fe 48 81 c0 9d f4 0e 3e 0e 2d 8c c0
       1.1614 -4.04016 0.139605 -4.3805
0000c0 3c 6b 99 c0 e8 82 ca 3d
       -4.79434 0.0988825
